module @program attributes {arc.AIRMappingDecisionIsSpatial = false, arc.kAIRAddnOpt = true, arc.kAIRAdvancedLoadSplitOpt = true, arc.kAIRAnnotateHyperFunctionArguments = false, arc.kAIRBufferBeforeConcatAddn = false, arc.kAIRBufferNonRedundancy = "", arc.kAIRDDRBoundSections = [], arc.kAIRDPTilingOptimization = false, arc.kAIRDisableConcatStoreOpt = false, arc.kAIRDisableLoadTilerOptWithDimOrdering = false, arc.kAIRDisableOptimizeRereadBuffer = false, arc.kAIREnableRemoteRead = false, arc.kAIREnableSkipBufferExtensionOpt = false, arc.kAIREnableStoreTilerOptWithDimOrdering = false, arc.kAIRForceDRAMFirstThenP2P = false, arc.kAIRMappingDecisionGlobalNumBatches = 1 : i64, arc.kAIRMappingDecisionSectionDRAMTransferSize = [743270, 1477894, 3169120], arc.kAIRMappingDecisionSectionDRAMTransferTime = [0.0069222413003444672, 0.01376396045088768, 0.029514729976654053], arc.kAIRMappingDecisionSectionLatencies = [4.192224150756374E-5, 4.8763959057396278E-5, 6.4514730183873326E-5], arc.kAIRMappingDecisionSectionNames = ["$FWD", "$BCKWD", "$OPT"], arc.kAIRMappingDecisionSectionPCUs = [2.300000e+01, 3.900000e+01, 6.000000e+00], arc.kAIRMappingDecisionSectionPMUs = [[24, 4, 10, 12, 7, 8, 6], [43, 4, 43, 17, 12, 21, 6], [0, 4, 0, 36, 0, 0, 0]], arc.kAIRMappingDecisionSectionResourceScales = [1.1000000238418579, 1.2000000476837158, 0.89999997615814208], arc.kAIRMappingDecisionSectionTypes = ["Forward", "Backward", "Optimizer"], arc.kAIRMappingDecisionSectionUniqueNames = ["ptconvlstm__lstm_layer__lstm_as_initial", "ptconvlstm__lstm_layer__lstm_recompute__as_initial", "ptconvlstm__lstm_layer__bias_hh_l0__ptconvlstm__lstm_layer__lstm_bwd_opt_as_initial"], arc.kAIRMetaPipeWithOneIterationRemoval = false, arc.kAIRTransposeMatMulTransformation = false, arc.kAddStreamingBuffers = false, arc.kAppName = "logreg_torch_samba", arc.kArchMajor = 1 : i64, arc.kArchMinor = 0 : i64, arc.kBoxLayoutSize = 2 : i64, arc.kBoxLayoutType = 0 : i64, arc.kConcisePrinting = false, arc.kDataParallelBf16StochasticRounding = false, arc.kDataParallelBf16StochasticRoundingHighStaticBatchSize = false, arc.kDataParallelBf16StochasticRoundingSeedName = "", arc.kDataParallelFactor = 1 : i64, arc.kDataParallelInHostMemory = false, arc.kDataParallelReduceOnlyMode = false, arc.kDebugMode = false, arc.kDisableFuseToTwoHeadBuffers = false, arc.kEliminateBufferTimeout = 100 : i64, arc.kEnableAutoGrouping = true, arc.kEnableBufferBarriers = true, arc.kEnableFuseToLinearTraining = false, arc.kEnablePcuHeartBeat = false, arc.kEnableWrDoneInstrument = false, arc.kExperimentalOptimization = true, arc.kExperimentalRAILCrossEntropy = true, arc.kExperimentalRAILCrossEntropyGrad = true, arc.kGenerateReference = false, arc.kGenerateTensorboard = false, arc.kHasGraphData = false, arc.kHeuristicRuntimeLayouts = true, arc.kHeuristicSliceLayouts = false, arc.kHeuristicTilerLayouts = true, arc.kIsBf16Conversion = true, arc.kIteration = 1 : i64, arc.kLayoutTimeout = 1000 : i64, arc.kLegalizeDataflow = true, arc.kLegalizeSamples = false, arc.kLowered = false, arc.kMacAutogen = true, arc.kMaximumGroupLatencyFactor = 5.000000e-02 : f32, arc.kMoveViews = false, arc.kOptimizationLevel = 3 : i64, arc.kOptimizeDramTransfers = 1 : i64, arc.kOriginalName = "logreg_lstm", arc.kOutputFolder = "/qfs/people/jain432/pacer_saudade/code/ProxyTSPRD/scripts/test/sambanova/logreg_lstm", arc.kOverrideMaxFanout = 0 : i64, arc.kPefMetadataacc_report_json = "None", arc.kPefMetadataacc_test = "False", arc.kPefMetadataamp_level = "4", arc.kPefMetadataarc_debug_mode = "False", arc.kPefMetadatabatch_size = "1", arc.kPefMetadatabench_report_json = "None", arc.kPefMetadatacompiled_stats_json = "None", arc.kPefMetadatacompiler_mode = "", arc.kPefMetadatadata_folder = "mnist_data", arc.kPefMetadatadata_parallel = "False", arc.kPefMetadatadata_parallel_mode = "normal", arc.kPefMetadatadebug = "False", arc.kPefMetadatadefault_device = "DDR", arc.kPefMetadatadense_adam_fast_grad_compute = "False", arc.kPefMetadatadev_mode = "False", arc.kPefMetadatadisable_bf16_conversion = "False", arc.kPefMetadatadisable_mac_tiling = "False", arc.kPefMetadatadisable_retry_lower_visible_resources = "False", arc.kPefMetadatadistlearn_config = "", arc.kPefMetadatadropout_tiling_legalizer_error = "False", arc.kPefMetadatadump_accuracy_debug_info = "False", arc.kPefMetadatadump_compiled_stats_json = "False", arc.kPefMetadatadump_traced_graph = "False", arc.kPefMetadataenable_buffer_trial_compile = "False", arc.kPefMetadataenable_conv2d_conversion = "False", arc.kPefMetadataenable_conv_tiling = "False", arc.kPefMetadataenable_hd_retry_lower_visible_resources = "False", arc.kPefMetadataenable_hypersection = "False", arc.kPefMetadataenable_node_trial_compile = "False", arc.kPefMetadataenable_node_trial_compile_logging = "False", arc.kPefMetadataenable_stochastic_rounding = "False", arc.kPefMetadataforce_node_proximity = "False", arc.kPefMetadatafp32_params = "False", arc.kPefMetadatafuse_fwd_bwd = "False", arc.kPefMetadatagen_tensorboard = "False", arc.kPefMetadatagrad_accumulation_steps = "1", arc.kPefMetadatahas_human_decision = "False", arc.kPefMetadatahost_fifo = "False", arc.kPefMetadatahypersection_arc = "False", arc.kPefMetadatainclude_read_stall_cycles = "False", arc.kPefMetadatainference = "False", arc.kPefMetadatainput_layout = "None", arc.kPefMetadatajson = "None", arc.kPefMetadatajson_counters = "", arc.kPefMetadatalatency_budget_bwd = "None", arc.kPefMetadatalatency_budget_fwd = "None", arc.kPefMetadatalisten_for_input = "False", arc.kPefMetadatalocal_rank = "-1", arc.kPefMetadatalog_dir = "None", arc.kPefMetadatalr = "0.0015", "arc.kPefMetadatamac_conv_tiling_c++" = "False", arc.kPefMetadatamac_only = "False", arc.kPefMetadatamac_print_mapping_ir = "False", arc.kPefMetadatamac_split_cat_as_stage_buf = "False", arc.kPefMetadatamac_templatedb_dir = "", arc.kPefMetadatamac_templatedb_dir_backup_to = "", arc.kPefMetadatamac_templatedb_dir_init_from = "", arc.kPefMetadatamac_v1 = "False", arc.kPefMetadatamapping = "section", arc.kPefMetadatamax_expected_mac_latency = "-1.0", arc.kPefMetadatamax_mac_loop_attempt = "-1", arc.kPefMetadatamax_tiling_depth = "None", arc.kPefMetadatametapipe_disable = "False", arc.kPefMetadatamicrobatch_size = "None", arc.kPefMetadatamin_duration = "0.0", arc.kPefMetadatamlir_file_name = "None", arc.kPefMetadatamock_inference = "False", arc.kPefMetadatamodel = "PTConvLSTM(\0A  (lambda_layer): Lambda()\0A  (lstm_layer): LSTM(136, 64)\0A  (dense_layer): Linear(in_features=64, out_features=4080, bias=True)\0A  (criterion): MSELoss()\0A)", arc.kPefMetadatamodel_parallel = "False", arc.kPefMetadatamodelbox = "False", arc.kPefMetadatamomentum = "0.0", arc.kPefMetadatan_chips = "1", arc.kPefMetadatandtest = "False", arc.kPefMetadatandtest_mp = "False", arc.kPefMetadatanum_classes = "10", arc.kPefMetadatanum_epochs = "1", arc.kPefMetadatanum_features = "784", arc.kPefMetadatanum_iterations = "100", arc.kPefMetadatanum_sections = "None", arc.kPefMetadatanum_spatial_batches = "1", arc.kPefMetadatanum_tiles = "-1", arc.kPefMetadataoptim_level = "o3", arc.kPefMetadataoptimize_concat_split = "False", arc.kPefMetadatapef = "None", arc.kPefMetadataplot = "None", arc.kPefMetadatapp_lamb_optimizer = "False", arc.kPefMetadatarecompute_ratio = "-1.0", arc.kPefMetadatareduce_on_rdu = "False", arc.kPefMetadataresources_scaling_factors = "['-1.0', '-1.0', '-1.0', '-1.0']", arc.kPefMetadatarun_analysis_pass = "False", arc.kPefMetadatarun_graph_only = "False", arc.kPefMetadatasafe_mode = "False", arc.kPefMetadatasamba_plot = "False", arc.kPefMetadatasamba_version = "1.14.3", arc.kPefMetadatasambahd = "False", arc.kPefMetadatasambatune_graph = "False", arc.kPefMetadatasection_cut_beam_search = "[]", arc.kPefMetadatasection_cut_sort_order = "3", arc.kPefMetadatasingle_opt_sec = "False", arc.kPefMetadataskip_instrumentation_on_read0 = "False", arc.kPefMetadataskip_instrumentation_on_read1 = "False", arc.kPefMetadatastage_instrumentation = "none", "arc.kPefMetadatastop_mac_c++" = "False", "arc.kPefMetadatastop_mac_named_dims_c++" = "False", arc.kPefMetadatastrict_auto_cast = "False", arc.kPefMetadatastrict_conversion = "False", arc.kPefMetadatatensor_parallel = "none", arc.kPefMetadatatile_orientation = "auto", arc.kPefMetadatatraced_attributes_folder = "", arc.kPefMetadataunroll_first = "False", arc.kPefMetadatause_correct_tiling_cost_model = "False", arc.kPefMetadatause_integrated_bias = "False", arc.kPefMetadatavalidate_mac_resource_prediction = "False", arc.kPefMetadataverbose = "0", arc.kPefMetadatavisualize = "False", arc.kPefMetadataweight_caching = "False", arc.kPefMetadataweight_decay = "0.0003", arc.kPefMetadataweight_layout = "None", arc.kPefMetadataweight_norm = "False", arc.kPefMetadataworld_size = "1", arc.kPefMetadatayaml_config = "None", arc.kPefName = "logreg_lstm", arc.kPlasmaIncludeReadStallCycles = false, arc.kPlasmaSkipInstrumentationOnRead0 = false, arc.kPlasmaSkipInstrumentationOnRead1 = false, arc.kPlasmaStageInstrumentation = "none", arc.kPrintSrcs = [], arc.kResourceAwareBuffers = false, arc.kSambaTuneGraph = false, arc.kSkipBufferBandwidthWeight = 1 : i64, arc.kSkipBufferMaxDepth = 4096 : i64, arc.kSkipBufferMaxFanin = 8 : i64, arc.kSkipBufferPmuWeight = 1 : i64, arc.kSplitSkipBuffer = true, arc.kStrictNodeNameOrdering = true, arc.kTileSize = 5 : i64, arc.kUniqueIdCounter = 982 : i64, arc.kUseTBufferEverywhere = false, arc.kVerbose = false}  {
  module @preface  {
  }
  module @templates  {
  }
  module @sections  {
    %0 = "tlir.Region"() {DataLayout0 = #tlir.layout<CV,RM,VA>, NumSamples0 = 1 : i64, NumSamples0S = 2 : i64, distribution = 6 : i32, distribution_max = 1.000000e-01 : f64, distribution_min = -1.000000e-01 : f64, kChipID = 0 : i64, kConfigured = true, kFromDeviceTransform = ".reshape([256])", kGroup = 23 : i64, kHasShape = true, kIsDataParallelAccumBuf = false, kIsDynamicLoadTable = false, kIsEmbeddingTable = false, kIsHostFifoInput = false, kIsInputOnly = false, kIsLoaded = true, kIsMask = false, kIsOneShotTransferred = true, kIsPlaceholder = false, kIsRngSeed = false, kIsScatterNdTable = false, kIsScatterTable = false, kIsSliceLoaded = false, kIsSliceStored = false, kIsStored = true, kIsUserFacing = true, kIsWeight = true, kLayoutHeuristics = false, kMacID = "ptconvlstm__lstm_layer__bias_hh_l0__ptconvlstm__lstm_layer__lstm_bwd_opt_result0", kMemoryType = 0 : i64, kName = "ptconvlstm__lstm_layer__bias_hh_l0", kNumPieces = 4 : i64, kToDeviceTransform = ".reshape([4, 64, 1])", kUniqueId = 84 : i64, kUserCreated = true, kZeroFillDram = false} : () -> tensor<4x64x1xbf16>
    %1 = "tlir.Region"() {DataLayout0 = #tlir.layout<CV,RM,VA>, NumSamples0 = 1 : i64, NumSamples0S = 2 : i64, distribution = 6 : i32, distribution_max = 1.000000e-01 : f64, distribution_min = -1.000000e-01 : f64, kChipID = 0 : i64, kConfigured = true, kFromDeviceTransform = ".reshape([256])", kGroup = 24 : i64, kHasShape = true, kIsDataParallelAccumBuf = false, kIsDynamicLoadTable = false, kIsEmbeddingTable = false, kIsHostFifoInput = false, kIsInputOnly = false, kIsLoaded = true, kIsMask = false, kIsOneShotTransferred = true, kIsPlaceholder = false, kIsRngSeed = false, kIsScatterNdTable = false, kIsScatterTable = false, kIsSliceLoaded = false, kIsSliceStored = false, kIsStored = true, kIsUserFacing = true, kIsWeight = true, kLayoutHeuristics = false, kMacID = "ptconvlstm__lstm_layer__bias_ih_l0__ptconvlstm__lstm_layer__lstm_bwd_opt_result0", kMemoryType = 0 : i64, kName = "ptconvlstm__lstm_layer__bias_ih_l0", kNumPieces = 4 : i64, kToDeviceTransform = ".reshape([4, 64, 1])", kUniqueId = 85 : i64, kUserCreated = true, kZeroFillDram = false} : () -> tensor<4x64x1xbf16>
    %2 = "tlir.Region"() {DataLayout0 = #tlir.layout<CV,RM,VA>, NumSamples0 = 1 : i64, NumSamples0S = 2 : i64, distribution = 7 : i32, distribution_gain = 1.000000e+00 : f64, kChipID = 0 : i64, kConfigured = true, kFromDeviceTransform = ".reshape([256, 64])", kGroup = 25 : i64, kHasShape = true, kIsDataParallelAccumBuf = false, kIsDynamicLoadTable = false, kIsEmbeddingTable = false, kIsHostFifoInput = false, kIsInputOnly = false, kIsLoaded = true, kIsMask = false, kIsOneShotTransferred = true, kIsPlaceholder = false, kIsRngSeed = false, kIsScatterNdTable = false, kIsScatterTable = false, kIsSliceLoaded = false, kIsSliceStored = false, kIsStored = true, kIsUserFacing = true, kIsWeight = true, kLayoutHeuristics = false, kLinearGradAInputHint = 13 : i64, kLinearGradBInputHint = 1 : i64, kMacID = "ptconvlstm__lstm_layer__weight_hh_l0__ptconvlstm__lstm_layer__lstm_bwd_opt_result0", kMemoryType = 0 : i64, kName = "ptconvlstm__lstm_layer__weight_hh_l0", kNumPieces = 4 : i64, kToDeviceTransform = ".reshape([4, 64, 64])", kUniqueId = 86 : i64, kUserCreated = true, kZeroFillDram = false} : () -> tensor<4x64x64xbf16>
    %3 = "tlir.Region"() {DataLayout0 = #tlir.layout<CV,RM,VA>, NumSamples0 = 1 : i64, NumSamples0S = 2 : i64, distribution = 7 : i32, distribution_gain = 1.000000e+00 : f64, kChipID = 0 : i64, kConfigured = true, kFromDeviceTransform = ".reshape([256, 136])", kGroup = 26 : i64, kHasShape = true, kIsDataParallelAccumBuf = false, kIsDynamicLoadTable = false, kIsEmbeddingTable = false, kIsHostFifoInput = false, kIsInputOnly = false, kIsLoaded = true, kIsMask = false, kIsOneShotTransferred = true, kIsPlaceholder = false, kIsRngSeed = false, kIsScatterNdTable = false, kIsScatterTable = false, kIsSliceLoaded = false, kIsSliceStored = false, kIsStored = true, kIsUserFacing = true, kIsWeight = true, kLayoutHeuristics = false, kMacID = "ptconvlstm__lstm_layer__weight_ih_l0__ptconvlstm__lstm_layer__lstm_bwd_opt_result0", kMemoryType = 0 : i64, kName = "ptconvlstm__lstm_layer__weight_ih_l0", kNumPieces = 4 : i64, kToDeviceTransform = ".reshape([4, 64, 136])", kUniqueId = 87 : i64, kUserCreated = true, kZeroFillDram = false} : () -> tensor<4x64x136xbf16>
    %4 = "tlir.Region"() {DataLayout0 = #tlir.layout<RV,RM,VA>, NumSamples0 = 1 : i64, NumSamples0S = 2 : i64, distribution = 6 : i32, distribution_max = 1.000000e-01 : f64, distribution_min = -1.000000e-01 : f64, kConfigured = true, kFromDeviceTransform = "", kGroup = 0 : i64, kHasShape = true, kIsDynamicLoadTable = false, kIsEmbeddingTable = false, kIsHostFifoInput = false, kIsInputOnly = true, kIsLoaded = true, kIsMask = false, kIsOneShotTransferred = true, kIsPlaceholder = false, kIsRngSeed = false, kIsScatterNdTable = false, kIsScatterTable = false, kIsSliceLoaded = false, kIsSliceStored = false, kIsStored = false, kIsUserFacing = true, kLayoutHeuristics = false, kMacID = "lstm_operand_1_result0", kMemoryType = 2 : i64, kName = "lstm_operand_1", kToDeviceTransform = "", kUniqueId = 88 : i64, kUserCreated = true, kZeroFillDram = false} : () -> tensor<1x60x64xbf16>
    %5 = "tlir.Region"() {DataLayout0 = #tlir.layout<RV,RM,VA>, NumSamples0 = 1 : i64, NumSamples0S = 2 : i64, distribution = 6 : i32, distribution_max = 1.000000e-01 : f64, distribution_min = -1.000000e-01 : f64, kConfigured = true, kFromDeviceTransform = "", kGroup = 1 : i64, kHasShape = true, kIsDynamicLoadTable = false, kIsEmbeddingTable = false, kIsHostFifoInput = false, kIsInputOnly = true, kIsLoaded = true, kIsMask = false, kIsOneShotTransferred = true, kIsPlaceholder = false, kIsRngSeed = false, kIsScatterNdTable = false, kIsScatterTable = false, kIsSliceLoaded = false, kIsSliceStored = false, kIsStored = false, kIsUserFacing = true, kLayoutHeuristics = false, kMacID = "lstm_operand_0_result0", kMemoryType = 2 : i64, kName = "lstm_operand_0", kToDeviceTransform = "", kUniqueId = 89 : i64, kUserCreated = true, kZeroFillDram = false} : () -> tensor<1x60x64xbf16>
    %6 = "tlir.Region"() {DataLayout0 = #tlir.layout<RV,RM,VA>, NumSamples0 = 1 : i64, NumSamples0S = 2 : i64, distribution = 6 : i32, distribution_max = 1.000000e-01 : f64, distribution_min = -1.000000e-01 : f64, kConfigured = true, kFromDeviceTransform = "", kGroup = 2 : i64, kHasShape = true, kIsDynamicLoadTable = false, kIsEmbeddingTable = false, kIsHostFifoInput = false, kIsInputOnly = true, kIsLoaded = true, kIsMask = false, kIsOneShotTransferred = false, kIsPlaceholder = false, kIsRngSeed = false, kIsScatterNdTable = false, kIsScatterTable = false, kIsSliceLoaded = true, kIsSliceStored = false, kIsStored = false, kIsUserFacing = true, kLinearGradBInputHint = 8 : i64, kMacID = "inp_window_result0", kMemoryType = 0 : i64, kName = "inp_window", kToDeviceTransform = "", kUniqueId = 90 : i64, kUserCreated = true, kZeroFillDram = false} : () -> tensor<1x60x136xbf16>
    %7 = "tlir.Region"() {DataLayout0 = #tlir.layout<RV,RM,UA>, NumSamples0 = 1 : i64, NumSamples0S = 2 : i64, distribution = 6 : i32, distribution_max = 1.000000e-01 : f64, distribution_min = -1.000000e-01 : f64, kConfigured = true, kFromDeviceTransform = ".long()", kGroup = 3 : i64, kHasShape = true, kIsDynamicLoadTable = false, kIsEmbeddingTable = false, kIsHostFifoInput = false, kIsInputOnly = true, kIsLoaded = true, kIsMask = false, kIsOneShotTransferred = true, kIsPlaceholder = false, kIsRngSeed = false, kIsScatterNdTable = false, kIsScatterTable = false, kIsSliceLoaded = false, kIsSliceStored = false, kIsStored = false, kIsUserFacing = true, kLayoutHeuristics = false, kMacID = "ptconvlstm__lstm_layer__lstm__outputs__0_slice_1_result0", kMemoryType = 2 : i64, kName = "ptconvlstm__lstm_layer__lstm__outputs__0_slice_1", kToDeviceTransform = ".int().int()", kUniqueId = 91 : i64, kUserCreated = true, kZeroFillDram = false} : () -> tensor<1xi32>
    %8 = "tlir.Region"() {DataLayout0 = #tlir.layout<CV,RM,VA>, NumSamples0 = 1 : i64, NumSamples0S = 2 : i64, distribution = 6 : i32, distribution_max = 1.000000e-01 : f64, distribution_min = -1.000000e-01 : f64, kChipID = 0 : i64, kConfigured = true, kFromDeviceTransform = ".squeeze(1)", kGroup = 27 : i64, kHasShape = true, kIsDataParallelAccumBuf = false, kIsDynamicLoadTable = false, kIsEmbeddingTable = false, kIsHostFifoInput = false, kIsInputOnly = false, kIsLoaded = true, kIsMask = false, kIsOneShotTransferred = true, kIsPlaceholder = false, kIsRngSeed = false, kIsScatterNdTable = false, kIsScatterTable = false, kIsSliceLoaded = false, kIsSliceStored = false, kIsStored = true, kIsUserFacing = true, kIsWeight = true, kLayoutHeuristics = false, kMacID = "ptconvlstm__dense_layer__bias__ptconvlstm__dense_layer__linear_bwd_weight_opt_result0", kMemoryType = 0 : i64, kName = "ptconvlstm__dense_layer__bias", kToDeviceTransform = ".unsqueeze(1)", kUniqueId = 92 : i64, kUserCreated = true, kZeroFillDram = false} : () -> tensor<4080x1xbf16>
    %9 = "tlir.Region"() {DataLayout0 = #tlir.layout<CV,RM,VA>, NumSamples0 = 1 : i64, NumSamples0S = 2 : i64, distribution = 7 : i32, distribution_gain = 1.000000e+00 : f64, kChipID = 0 : i64, kConfigured = true, kFromDeviceTransform = "", kGroup = 4 : i64, kHasShape = true, kIsDataParallelAccumBuf = false, kIsDynamicLoadTable = false, kIsEmbeddingTable = false, kIsHostFifoInput = false, kIsInputOnly = false, kIsLoaded = true, kIsMask = false, kIsOneShotTransferred = true, kIsPlaceholder = false, kIsRngSeed = false, kIsScatterNdTable = false, kIsScatterTable = false, kIsSliceLoaded = false, kIsSliceStored = false, kIsStored = true, kIsUserFacing = true, kIsWeight = true, kLayoutHeuristics = false, kMacID = "ptconvlstm__dense_layer__weight__ptconvlstm__dense_layer__linear_bwd_weight_opt_result0", kMemoryType = 0 : i64, kName = "ptconvlstm__dense_layer__weight", kToDeviceTransform = "", kUniqueId = 93 : i64, kUserCreated = true, kZeroFillDram = false} : () -> tensor<4080x64xbf16>
    %10 = "tlir.Region"() {DataLayout0 = #tlir.layout<RV,RM,UA>, NumSamples0 = 1 : i64, NumSamples0S = 2 : i64, distribution = 6 : i32, distribution_max = 1.000000e-01 : f64, distribution_min = -1.000000e-01 : f64, kConfigured = true, kFromDeviceTransform = "", kGroup = 5 : i64, kHasShape = true, kIsDynamicLoadTable = false, kIsEmbeddingTable = false, kIsHostFifoInput = false, kIsInputOnly = true, kIsLoaded = true, kIsMask = false, kIsOneShotTransferred = true, kIsPlaceholder = false, kIsRngSeed = false, kIsScatterNdTable = false, kIsScatterTable = false, kIsSliceLoaded = true, kIsSliceStored = false, kIsStored = false, kIsUserFacing = true, kMacID = "out_window_result0", kMemoryType = 0 : i64, kName = "out_window", kToDeviceTransform = "", kUniqueId = 94 : i64, kUserCreated = true, kZeroFillDram = false} : () -> tensor<1x30x136xbf16>
    %11 = "tlir.Region"() {DataLayout0 = #tlir.layout<RV,RM,VA>, NumSamples0 = 1 : i64, NumSamples0S = 2 : i64, distribution = 6 : i32, distribution_max = 1.000000e+00 : f64, distribution_min = 1.000000e+00 : f64, kConfigured = true, kFromDeviceTransform = "", kGroup = -12 : i64, kHasShape = true, kIsDynamicLoadTable = false, kIsEmbeddingTable = false, kIsHostFifoInput = false, kIsInputOnly = false, kIsLoaded = true, kIsMask = false, kIsOneShotTransferred = true, kIsPlaceholder = false, kIsRngSeed = false, kIsScatterNdTable = false, kIsScatterTable = false, kIsSliceLoaded = false, kIsSliceStored = false, kIsStored = false, kIsUserFacing = true, kLayoutHeuristics = false, kMacID = "ptconvlstm__criterion__mseloss__outputs__0__grad_result0", kMemoryType = 0 : i64, kName = "ptconvlstm__criterion__mseloss__outputs__0__grad", kToDeviceTransform = "", kUniqueId = 95 : i64, kUserCreated = true, kZeroFillDram = false} : () -> tensor<1xbf16>
    %12 = "tlir.Region"() {DataLayout0 = #tlir.layout<RV,RM,UA>, NumSamples0 = 1 : i64, NumSamples0S = 2 : i64, distribution = 6 : i32, distribution_max = 1.000000e+00 : f64, distribution_min = 1.000000e+00 : f64, kConfigured = true, kFromDeviceTransform = "", kGroup = 6 : i64, kHasShape = true, kIsDynamicLoadTable = false, kIsEmbeddingTable = false, kIsHostFifoInput = false, kIsInputOnly = false, kIsLoaded = true, kIsMask = false, kIsOneShotTransferred = false, kIsPlaceholder = false, kIsRngSeed = false, kIsScatterNdTable = false, kIsScatterTable = false, kIsSliceLoaded = true, kIsSliceStored = false, kIsStored = false, kIsUserFacing = true, kLinearGradAInputHint = 1 : i64, kMacID = "ptconvlstm__view__outputs__0__grad_result0", kMemoryType = 0 : i64, kName = "ptconvlstm__view__outputs__0__grad", kToDeviceTransform = "", kUniqueId = 96 : i64, kUserCreated = true, kZeroFillDram = false} : () -> tensor<1x30x136xbf16>
    %13 = "tlir.Region"() {DataLayout0 = #tlir.layout<RV,RM,VA>, NumSamples0 = 1 : i64, NumSamples0S = 2 : i64, distribution = 6 : i32, distribution_max = 1.000000e+00 : f64, distribution_min = 1.000000e+00 : f64, kConfigured = true, kFromDeviceTransform = "", kGroup = 7 : i64, kHasShape = true, kIsDynamicLoadTable = false, kIsEmbeddingTable = false, kIsHostFifoInput = false, kIsInputOnly = false, kIsLoaded = true, kIsMask = false, kIsOneShotTransferred = true, kIsPlaceholder = false, kIsRngSeed = false, kIsScatterNdTable = false, kIsScatterTable = false, kIsSliceLoaded = false, kIsSliceStored = false, kIsStored = false, kIsUserFacing = true, kLayoutHeuristics = false, kMacID = "ptconvlstm__lstm_layer__lstm__cell__output__grad_result0", kMemoryType = 0 : i64, kName = "ptconvlstm__lstm_layer__lstm__cell__output__grad", kToDeviceTransform = "", kUniqueId = 97 : i64, kUserCreated = true, kZeroFillDram = false} : () -> tensor<1x60x64xbf16>
    %14 = "tlir.Region"() {DataLayout0 = #tlir.layout<RV,RM,VA>, NumSamples0 = 1 : i64, NumSamples0S = 2 : i64, distribution = 6 : i32, distribution_max = 1.000000e+00 : f64, distribution_min = 1.000000e+00 : f64, kConfigured = true, kFromDeviceTransform = "", kGroup = 8 : i64, kHasShape = true, kIsDynamicLoadTable = false, kIsEmbeddingTable = false, kIsHostFifoInput = false, kIsInputOnly = false, kIsLoaded = true, kIsMask = false, kIsOneShotTransferred = true, kIsPlaceholder = false, kIsRngSeed = false, kIsScatterNdTable = false, kIsScatterTable = false, kIsSliceLoaded = false, kIsSliceStored = false, kIsStored = false, kIsUserFacing = true, kLayoutHeuristics = false, kMacID = "ptconvlstm__lstm_layer__lstm__hidden__output__grad_result0", kMemoryType = 0 : i64, kName = "ptconvlstm__lstm_layer__lstm__hidden__output__grad", kToDeviceTransform = "", kUniqueId = 98 : i64, kUserCreated = true, kZeroFillDram = false} : () -> tensor<1x60x64xbf16>
    %15 = "tlir.Region"() {DataLayout0 = #tlir.layout<CV,RM,VA>, NumSamples0 = 1 : i64, NumSamples0S = 2 : i64, distribution = 7 : i32, distribution_gain = 1.000000e+00 : f64, kChipID = 0 : i64, kConfigured = true, kFromDeviceTransform = "", kGroup = 28 : i64, kHasShape = true, kIsDataParallelAccumBuf = false, kIsDynamicLoadTable = false, kIsEmbeddingTable = false, kIsHostFifoInput = false, kIsInputOnly = false, kIsLoaded = true, kIsMask = false, kIsOneShotTransferred = true, kIsPlaceholder = false, kIsRngSeed = false, kIsScatterNdTable = false, kIsScatterTable = false, kIsSliceLoaded = false, kIsSliceStored = false, kIsStored = true, kIsUserFacing = true, kIsWeight = true, kLayoutHeuristics = false, kMacID = "ptconvlstm__dense_layer__weight__ptconvlstm__dense_layer__linear_bwd_weight_opt_result1", kMemoryType = 0 : i64, kName = "ptconvlstm__dense_layer__weight__sgd0__momentum", kToDeviceTransform = "", kUniqueId = 99 : i64, kUserCreated = true, kZeroFillDram = false} : () -> tensor<4080x64xbf16>
    %16 = "tlir.Region"() {DataLayout0 = #tlir.layout<CV,RM,VA>, NumSamples0 = 1 : i64, NumSamples0S = 2 : i64, distribution = 7 : i32, distribution_gain = 1.000000e+00 : f64, kChipID = 0 : i64, kConfigured = true, kFromDeviceTransform = "", kGroup = 29 : i64, kHasShape = true, kIsDataParallelAccumBuf = false, kIsDynamicLoadTable = false, kIsEmbeddingTable = false, kIsHostFifoInput = false, kIsInputOnly = false, kIsLoaded = true, kIsMask = false, kIsOneShotTransferred = true, kIsPlaceholder = false, kIsRngSeed = false, kIsScatterNdTable = false, kIsScatterTable = false, kIsSliceLoaded = false, kIsSliceStored = false, kIsStored = true, kIsUserFacing = true, kIsWeight = true, kLayoutHeuristics = false, kMacID = "ptconvlstm__dense_layer__bias__ptconvlstm__dense_layer__linear_bwd_weight_opt_result1", kMemoryType = 0 : i64, kName = "ptconvlstm__dense_layer__bias__sgd0__momentum", kToDeviceTransform = "", kUniqueId = 100 : i64, kUserCreated = true, kZeroFillDram = false} : () -> tensor<4080x1xbf16>
    %17 = "tlir.Region"() {DataLayout0 = #tlir.layout<CV,RM,VA>, NumSamples0 = 1 : i64, NumSamples0S = 2 : i64, distribution = 7 : i32, distribution_gain = 1.000000e+00 : f64, kChipID = 0 : i64, kConfigured = true, kFromDeviceTransform = "", kGroup = 29 : i64, kHasShape = true, kIsDataParallelAccumBuf = false, kIsDynamicLoadTable = false, kIsEmbeddingTable = false, kIsHostFifoInput = false, kIsInputOnly = false, kIsLoaded = true, kIsMask = false, kIsOneShotTransferred = true, kIsPlaceholder = false, kIsRngSeed = false, kIsScatterNdTable = false, kIsScatterTable = false, kIsSliceLoaded = false, kIsSliceStored = false, kIsStored = true, kIsUserFacing = true, kIsWeight = true, kLayoutHeuristics = false, kMacID = "ptconvlstm__lstm_layer__weight_ih_l0__ptconvlstm__lstm_layer__lstm_bwd_opt_result1", kMemoryType = 0 : i64, kName = "ptconvlstm__lstm_layer__weight_ih_l0__sgd0__momentum", kToDeviceTransform = "", kUniqueId = 101 : i64, kUserCreated = true, kZeroFillDram = false} : () -> tensor<4x64x136xbf16>
    %18 = "tlir.Region"() {DataLayout0 = #tlir.layout<CV,RM,VA>, NumSamples0 = 1 : i64, NumSamples0S = 2 : i64, distribution = 7 : i32, distribution_gain = 1.000000e+00 : f64, kChipID = 0 : i64, kConfigured = true, kFromDeviceTransform = "", kGroup = 29 : i64, kHasShape = true, kIsDataParallelAccumBuf = false, kIsDynamicLoadTable = false, kIsEmbeddingTable = false, kIsHostFifoInput = false, kIsInputOnly = false, kIsLoaded = true, kIsMask = false, kIsOneShotTransferred = true, kIsPlaceholder = false, kIsRngSeed = false, kIsScatterNdTable = false, kIsScatterTable = false, kIsSliceLoaded = false, kIsSliceStored = false, kIsStored = true, kIsUserFacing = true, kIsWeight = true, kLayoutHeuristics = false, kMacID = "ptconvlstm__lstm_layer__weight_hh_l0__ptconvlstm__lstm_layer__lstm_bwd_opt_result1", kMemoryType = 0 : i64, kName = "ptconvlstm__lstm_layer__weight_hh_l0__sgd0__momentum", kToDeviceTransform = "", kUniqueId = 102 : i64, kUserCreated = true, kZeroFillDram = false} : () -> tensor<4x64x64xbf16>
    %19 = "tlir.Region"() {DataLayout0 = #tlir.layout<CV,RM,VA>, NumSamples0 = 1 : i64, NumSamples0S = 2 : i64, distribution = 7 : i32, distribution_gain = 1.000000e+00 : f64, kChipID = 0 : i64, kConfigured = true, kFromDeviceTransform = "", kGroup = 29 : i64, kHasShape = true, kIsDataParallelAccumBuf = false, kIsDynamicLoadTable = false, kIsEmbeddingTable = false, kIsHostFifoInput = false, kIsInputOnly = false, kIsLoaded = true, kIsMask = false, kIsOneShotTransferred = true, kIsPlaceholder = false, kIsRngSeed = false, kIsScatterNdTable = false, kIsScatterTable = false, kIsSliceLoaded = false, kIsSliceStored = false, kIsStored = true, kIsUserFacing = true, kIsWeight = true, kLayoutHeuristics = false, kMacID = "ptconvlstm__lstm_layer__bias_ih_l0__ptconvlstm__lstm_layer__lstm_bwd_opt_result1", kMemoryType = 0 : i64, kName = "ptconvlstm__lstm_layer__bias_ih_l0__sgd0__momentum", kToDeviceTransform = "", kUniqueId = 103 : i64, kUserCreated = true, kZeroFillDram = false} : () -> tensor<4x64x1xbf16>
    %20 = "tlir.Region"() {DataLayout0 = #tlir.layout<CV,RM,VA>, NumSamples0 = 1 : i64, NumSamples0S = 2 : i64, distribution = 7 : i32, distribution_gain = 1.000000e+00 : f64, kChipID = 0 : i64, kConfigured = true, kFromDeviceTransform = "", kGroup = 29 : i64, kHasShape = true, kIsDataParallelAccumBuf = false, kIsDynamicLoadTable = false, kIsEmbeddingTable = false, kIsHostFifoInput = false, kIsInputOnly = false, kIsLoaded = true, kIsMask = false, kIsOneShotTransferred = true, kIsPlaceholder = false, kIsRngSeed = false, kIsScatterNdTable = false, kIsScatterTable = false, kIsSliceLoaded = false, kIsSliceStored = false, kIsStored = true, kIsUserFacing = true, kIsWeight = true, kLayoutHeuristics = false, kMacID = "ptconvlstm__lstm_layer__bias_hh_l0__ptconvlstm__lstm_layer__lstm_bwd_opt_result1", kMemoryType = 0 : i64, kName = "ptconvlstm__lstm_layer__bias_hh_l0__sgd0__momentum", kToDeviceTransform = "", kUniqueId = 104 : i64, kUserCreated = true, kZeroFillDram = false} : () -> tensor<4x64x1xbf16>
    %21 = "tlir.Region"() {DataLayout0 = #tlir.layout<CV,RM,VA>, NumSamples0 = 1 : i64, NumSamples0S = 2 : i64, kConfigured = true, kGroup = 9 : i64, kHasShape = true, kIsDynamicLoadTable = false, kIsEmbeddingTable = false, kIsLoaded = true, kIsOneShotTransferred = false, kIsPlaceholder = false, kIsScatterNdTable = false, kIsScatterTable = false, kIsSliceLoaded = true, kIsSliceStored = true, kIsStored = true, kLinearGradAInputHint = 3 : i64, kMacID = "ptconvlstm__lstm_layer__lstm_result3", kName = "ptconvlstm__lstm_layer__lstm3_used_by_ptconvlstm__lstm_layer__lstm_bwd", kUniqueId = 105 : i64, kUserCreated = true} : () -> tensor<1x64x60xbf16>
    %22 = "tlir.Region"() {DataLayout0 = #tlir.layout<CV,RM,VA>, NumSamples0 = 1 : i64, NumSamples0S = 2 : i64, kConfigured = true, kGroup = 10 : i64, kHasShape = true, kIsDynamicLoadTable = false, kIsEmbeddingTable = false, kIsLoaded = true, kIsOneShotTransferred = false, kIsPlaceholder = false, kIsScatterNdTable = false, kIsScatterTable = false, kIsSliceLoaded = true, kIsSliceStored = true, kIsStored = true, kLinearGradAInputHint = 6 : i64, kMacID = "ptconvlstm__lstm_layer__lstm_result4", kName = "ptconvlstm__lstm_layer__lstm4_used_by_ptconvlstm__lstm_layer__lstm_bwd", kUniqueId = 106 : i64, kUserCreated = true} : () -> tensor<1x64x60xbf16>
    %23 = "tlir.Region"() {DataLayout0 = #tlir.layout<CV,RM,VA>, NumSamples0 = 1 : i64, NumSamples0S = 2 : i64, kConfigured = true, kGroup = 11 : i64, kHasShape = true, kIsDynamicLoadTable = false, kIsEmbeddingTable = false, kIsLoaded = true, kIsOneShotTransferred = false, kIsPlaceholder = false, kIsScatterNdTable = false, kIsScatterTable = false, kIsSliceLoaded = true, kIsSliceStored = true, kIsStored = true, kLinearGradAInputHint = 9 : i64, kMacID = "ptconvlstm__lstm_layer__lstm_result5", kName = "ptconvlstm__lstm_layer__lstm5_used_by_ptconvlstm__lstm_layer__lstm_bwd", kUniqueId = 107 : i64, kUserCreated = true} : () -> tensor<1x64x60xbf16>
    %24 = "tlir.Region"() {DataLayout0 = #tlir.layout<CV,RM,VA>, NumSamples0 = 1 : i64, NumSamples0S = 2 : i64, kConfigured = true, kGroup = 12 : i64, kHasShape = true, kIsDynamicLoadTable = false, kIsEmbeddingTable = false, kIsLoaded = true, kIsOneShotTransferred = false, kIsPlaceholder = false, kIsScatterNdTable = false, kIsScatterTable = false, kIsSliceLoaded = true, kIsSliceStored = true, kIsStored = true, kLinearGradAInputHint = 12 : i64, kMacID = "ptconvlstm__lstm_layer__lstm_result6", kName = "ptconvlstm__lstm_layer__lstm6_used_by_ptconvlstm__lstm_layer__lstm_bwd", kUniqueId = 108 : i64, kUserCreated = true} : () -> tensor<1x64x60xbf16>
    %25 = "tlir.Region"() {DataLayout0 = #tlir.layout<CV,RM,VA>, NumSamples0 = 1 : i64, NumSamples0S = 2 : i64, kConfigured = true, kGroup = 13 : i64, kHasShape = true, kIsDynamicLoadTable = false, kIsEmbeddingTable = false, kIsLoaded = true, kIsOneShotTransferred = false, kIsPlaceholder = false, kIsScatterNdTable = false, kIsScatterTable = false, kIsSliceLoaded = true, kIsSliceStored = true, kIsStored = true, kMacID = "ptconvlstm__lstm_layer__lstm_result7", kName = "ptconvlstm__lstm_layer__lstm7_used_by_ptconvlstm__lstm_layer__lstm_bwd", kUniqueId = 109 : i64, kUserCreated = true} : () -> tensor<1x64x60xbf16>
    %26 = "tlir.Region"() {DataLayout0 = #tlir.layout<RV,RM,VA>, NumSamples0 = 1 : i64, NumSamples0S = 2 : i64, kConfigured = true, kGroup = 14 : i64, kHasShape = true, kIsDynamicLoadTable = false, kIsEmbeddingTable = false, kIsLoaded = true, kIsOneShotTransferred = false, kIsPlaceholder = false, kIsScatterNdTable = false, kIsScatterTable = false, kIsSliceLoaded = false, kIsSliceStored = false, kIsStored = true, kLinearGradBInputHint = 9 : i64, kMacID = "ptconvlstm__lstm_layer__lstm_result0", kName = "ptconvlstm__lstm_layer__lstm_meta_outputs0_used_by_ptconvlstm__lstm_layer__lstm_shifted_outputs", kUniqueId = 110 : i64, kUserCreated = true} : () -> tensor<2x60x64xbf16>
    %27 = "tlir.Region"() {DataLayout0 = #tlir.layout<RV,RM,VA>, NumSamples0 = 1 : i64, NumSamples0S = 2 : i64, kChipID = 0 : i64, kConfigured = true, kFromDeviceTransform = "", kGroup = 15 : i64, kHasShape = true, kIsDataParallelAccumBuf = false, kIsDynamicLoadTable = false, kIsEmbeddingTable = false, kIsLoaded = false, kIsOneShotTransferred = true, kIsPlaceholder = false, kIsScatterNdTable = false, kIsScatterTable = false, kIsSliceLoaded = false, kIsSliceStored = false, kIsStored = true, kIsUserFacing = true, kLayoutHeuristics = false, kMacID = "ptconvlstm__lstm_layer__lstm_result1", kMemoryType = 2 : i64, kName = "ptconvlstm__lstm_layer__lstm__hidden__output", kToDeviceTransform = "", kUniqueId = 111 : i64, kUserCreated = true} : () -> tensor<1x60x64xbf16>
    %28 = "tlir.Region"() {DataLayout0 = #tlir.layout<RV,RM,VA>, NumSamples0 = 1 : i64, NumSamples0S = 2 : i64, kChipID = 0 : i64, kConfigured = true, kFromDeviceTransform = "", kGroup = 16 : i64, kHasShape = true, kIsDataParallelAccumBuf = false, kIsDynamicLoadTable = false, kIsEmbeddingTable = false, kIsLoaded = false, kIsOneShotTransferred = true, kIsPlaceholder = false, kIsScatterNdTable = false, kIsScatterTable = false, kIsSliceLoaded = false, kIsSliceStored = false, kIsStored = true, kIsUserFacing = true, kLayoutHeuristics = false, kMacID = "ptconvlstm__lstm_layer__lstm_result2", kMemoryType = 2 : i64, kName = "ptconvlstm__lstm_layer__lstm__cell__output", kToDeviceTransform = "", kUniqueId = 112 : i64, kUserCreated = true} : () -> tensor<1x60x64xbf16>
    %29 = "tlir.Region"() {DataLayout0 = #tlir.layout<RV,RM,UA>, NumSamples0 = 1 : i64, NumSamples0S = 2 : i64, kChipID = 0 : i64, kConfigured = true, kFromDeviceTransform = "", kGroup = 17 : i64, kHasShape = true, kIsDataParallelAccumBuf = false, kIsDynamicLoadTable = false, kIsEmbeddingTable = false, kIsLoaded = false, kIsOneShotTransferred = false, kIsPlaceholder = false, kIsScatterNdTable = false, kIsScatterTable = false, kIsSliceLoaded = false, kIsSliceStored = true, kIsStored = true, kIsUserFacing = true, kMacID = "ptconvlstm__view_result0", kMemoryType = 2 : i64, kName = "ptconvlstm__view__outputs__0", kToDeviceTransform = "", kUniqueId = 113 : i64, kUserCreated = true} : () -> tensor<1x30x136xbf16>
    %30 = "tlir.Region"() {DataLayout0 = #tlir.layout<RV,RM,UA>, NumSamples0 = 1 : i64, NumSamples0S = 2 : i64, kChipID = 0 : i64, kConfigured = true, kFromDeviceTransform = "", kGroup = 18 : i64, kHasShape = true, kIsDataParallelAccumBuf = false, kIsDynamicLoadTable = false, kIsEmbeddingTable = false, kIsLoaded = false, kIsOneShotTransferred = true, kIsPlaceholder = false, kIsScatterNdTable = false, kIsScatterTable = false, kIsSliceLoaded = false, kIsSliceStored = false, kIsStored = true, kIsUserFacing = true, kLayoutHeuristics = false, kMacID = "default_77_result0", kMemoryType = 2 : i64, kName = "ptconvlstm__criterion__mseloss__outputs__0", kToDeviceTransform = "", kUniqueId = 114 : i64, kUserCreated = true} : () -> tensor<1xbf16>
    %31 = "tlir.Region"() {DataLayout0 = #tlir.layout<CV,RM,VA>, NumSamples0 = 1 : i64, NumSamples0S = 2 : i64, kChipID = 0 : i64, kConfigured = true, kFromDeviceTransform = "", kGroup = 30 : i64, kHasShape = true, kIsDataParallelAccumBuf = false, kIsDynamicLoadTable = false, kIsEmbeddingTable = false, kIsLoaded = true, kIsOneShotTransferred = true, kIsPlaceholder = false, kIsScatterNdTable = false, kIsScatterTable = false, kIsSliceLoaded = false, kIsSliceStored = false, kIsStored = true, kIsUserFacing = true, kLayoutHeuristics = false, kMacID = "ptconvlstm__dense_layer__linear_bwd_weight_result0", kMemoryType = 0 : i64, kName = "ptconvlstm__dense_layer__weight__grad", kToDeviceTransform = "", kUniqueId = 115 : i64, kUserCreated = true} : () -> tensor<4080x64xbf16>
    %32 = "tlir.Region"() {DataLayout0 = #tlir.layout<CV,RM,VA>, NumSamples0 = 1 : i64, NumSamples0S = 2 : i64, kChipID = 0 : i64, kConfigured = true, kFromDeviceTransform = ".squeeze(1)", kGroup = 31 : i64, kHasShape = true, kIsDataParallelAccumBuf = false, kIsDynamicLoadTable = false, kIsEmbeddingTable = false, kIsLoaded = true, kIsOneShotTransferred = true, kIsPlaceholder = false, kIsScatterNdTable = false, kIsScatterTable = false, kIsSliceLoaded = false, kIsSliceStored = false, kIsStored = true, kIsUserFacing = true, kLayoutHeuristics = false, kMacID = "ptconvlstm__dense_layer__linear_bwd_weight_result1", kMemoryType = 0 : i64, kName = "ptconvlstm__dense_layer__bias__grad", kToDeviceTransform = ".unsqueeze(1)", kUniqueId = 116 : i64, kUserCreated = true} : () -> tensor<4080x1xbf16>
    %33 = "tlir.Region"() {DataLayout0 = #tlir.layout<RV,RM,VA>, NumSamples0 = 1 : i64, NumSamples0S = 2 : i64, kChipID = 0 : i64, kConfigured = true, kFromDeviceTransform = ".reshape([256, 64])", kGroup = 19 : i64, kHasShape = true, kIsDataParallelAccumBuf = false, kIsDynamicLoadTable = false, kIsEmbeddingTable = false, kIsLoaded = true, kIsOneShotTransferred = true, kIsPlaceholder = false, kIsScatterNdTable = false, kIsScatterTable = false, kIsSliceLoaded = false, kIsSliceStored = false, kIsStored = true, kIsUserFacing = true, kLayoutHeuristics = false, kMacID = "ptconvlstm__lstm_layer__lstm_bwd_result3", kMemoryType = 0 : i64, kName = "ptconvlstm__lstm_layer__weight_hh_l0__grad", kToDeviceTransform = ".reshape([4, 64, 64])", kUniqueId = 117 : i64, kUserCreated = true} : () -> tensor<4x64x64xbf16>
    %34 = "tlir.Region"() {DataLayout0 = #tlir.layout<RV,RM,VA>, NumSamples0 = 1 : i64, NumSamples0S = 2 : i64, kChipID = 0 : i64, kConfigured = true, kFromDeviceTransform = ".reshape([256, 136])", kGroup = 20 : i64, kHasShape = true, kIsDataParallelAccumBuf = false, kIsDynamicLoadTable = false, kIsEmbeddingTable = false, kIsLoaded = true, kIsOneShotTransferred = true, kIsPlaceholder = false, kIsScatterNdTable = false, kIsScatterTable = false, kIsSliceLoaded = false, kIsSliceStored = false, kIsStored = true, kIsUserFacing = true, kLayoutHeuristics = false, kMacID = "ptconvlstm__lstm_layer__lstm_bwd_result4", kMemoryType = 0 : i64, kName = "ptconvlstm__lstm_layer__weight_ih_l0__grad", kToDeviceTransform = ".reshape([4, 64, 136])", kUniqueId = 118 : i64, kUserCreated = true} : () -> tensor<4x64x136xbf16>
    %35 = "tlir.Region"() {DataLayout0 = #tlir.layout<RV,RM,VA>, NumSamples0 = 1 : i64, NumSamples0S = 2 : i64, kChipID = 0 : i64, kConfigured = true, kFromDeviceTransform = ".reshape([256])", kGroup = 21 : i64, kHasShape = true, kIsDataParallelAccumBuf = false, kIsDynamicLoadTable = false, kIsEmbeddingTable = false, kIsLoaded = true, kIsOneShotTransferred = true, kIsPlaceholder = false, kIsScatterNdTable = false, kIsScatterTable = false, kIsSliceLoaded = false, kIsSliceStored = false, kIsStored = true, kIsUserFacing = true, kLayoutHeuristics = false, kMacID = "ptconvlstm__lstm_layer__lstm_bwd_result5", kMemoryType = 0 : i64, kName = "ptconvlstm__lstm_layer__bias_hh_l0__grad", kToDeviceTransform = ".reshape([4, 64, 1])", kUniqueId = 119 : i64, kUserCreated = true} : () -> tensor<4x64x1xbf16>
    %36 = "tlir.Region"() {DataLayout0 = #tlir.layout<RV,RM,VA>, NumSamples0 = 1 : i64, NumSamples0S = 2 : i64, kChipID = 0 : i64, kConfigured = true, kFromDeviceTransform = ".reshape([256])", kGroup = 22 : i64, kHasShape = true, kIsDataParallelAccumBuf = false, kIsDynamicLoadTable = false, kIsEmbeddingTable = false, kIsLoaded = true, kIsOneShotTransferred = true, kIsPlaceholder = false, kIsScatterNdTable = false, kIsScatterTable = false, kIsSliceLoaded = false, kIsSliceStored = false, kIsStored = true, kIsUserFacing = true, kLayoutHeuristics = false, kMacID = "ptconvlstm__lstm_layer__lstm_bwd_result6", kMemoryType = 0 : i64, kName = "ptconvlstm__lstm_layer__bias_ih_l0__grad", kToDeviceTransform = ".reshape([4, 64, 1])", kUniqueId = 120 : i64, kUserCreated = true} : () -> tensor<4x64x1xbf16>
    "tlir.Section"() ( {
      "tlir.Chip"() ( {
        %37 = "tlir.Load"(%5) {DataLayout0 = #tlir.layout<RV,RM,VA>, NumSamples0 = 1 : i64, NumSamples0S = 2 : i64, kAddedAlignment = -1 : i64, kChipID = 0 : i64, kConfigured = true, kGroup = 1 : i64, kGroupedDramLayoutName = "lstm_operand_0_0_0_122", kIsGrouped = false, kIterations = 1 : i64, kLayoutHeuristics = false, kMacID = "default_122", kName = "lstm_operand_0_0_0_122", kRequiresWBuf = false, kStageId = 0 : i64, kTemplateName = "load_0_0_122", kUniqueId = 122 : i64, kUseVectorTranspose = false, kUserCreated = true} : (tensor<1x60x64xbf16>) -> tensor<1x60x64xbf16>
        %38:2 = "tlir.Buffer"(%37) {DataLayout0 = #tlir.layout<RV,RM,VA>, DataLayout1 = #tlir.layout<RV,RM,VA>, NumSamples1 = 1 : i64, NumSamples1S = 2 : i64, kBufferType = 1 : i64, kConfigured = true, kDepth = 1 : i64, kHead0CtrlFlowEnable = false, kHead1CtrlFlowEnable = false, kIsStageBuffer = false, kMacID = "default_871", kName = "gbuf1a_0_0_871", kNumHead0RdEn = 0 : i64, kNumHead1RdEn = 0 : i64, kNumPMUs = 1 : i64, kStageId = 0 : i64, kUniqueId = 871 : i64, kUserCreated = false} : (tensor<1x60x64xbf16>) -> (tensor<1x60x64xbf16>, tensor<1x60x64xbf16>)
        %39:2 = "tlir.Buffer"(%38#1) {DataLayout0 = #tlir.layout<RV,CM,VA>, DataLayout1 = #tlir.layout<RV,CM,VA>, NumSamples1 = 1 : i64, NumSamples1S = 2 : i64, kBufHead = 1 : i64, kBufferType = 1 : i64, kConfigured = true, kDepth = 1 : i64, kHead0CtrlFlowEnable = false, kHead1CtrlFlowEnable = false, kIsStageBuffer = false, kMacID = "default_807", kName = "gbuf1a_0_0_807", kNumHead0RdEn = 0 : i64, kNumHead1RdEn = 0 : i64, kNumPMUs = 1 : i64, kStageId = 0 : i64, kUniqueId = 807 : i64, kUserCreated = false, kWriteVT = true} : (tensor<1x60x64xbf16>) -> (tensor<1x60x64xbf16>, tensor<1x60x64xbf16>)
        %40 = "tlir.Reshape"(%39#1) {DataLayout0 = #tlir.layout<RV,CM,VA>, NumSamples0 = 1 : i64, NumSamples0S = 2 : i64, kConfigured = true, kDieID = -1 : i64, kIsCriticalStage = false, kLatency = -1.000000e+00 : f64, kMacID = "ptconvlstm__lstm_layer__lstm", kName = "ptconvlstm__lstm_layer__lstm_hidden_r", kStageId = 0 : i64, kStageLatency = -1.000000e+00 : f64, kTemplateName = "reshape_0_0_504", kUniqueId = 504 : i64, kUserCreated = true} : (tensor<1x60x64xbf16>) -> tensor<60x64xbf16>
        %41 = "tlir.PermuteView"(%40) {DataLayout0 = #tlir.layout<CV,RM,VA>, NumSamples0 = 1 : i64, NumSamples0S = 2 : i64, kConfigured = true, kDieID = -1 : i64, kIsCriticalStage = false, kLatency = -1.000000e+00 : f64, kMacID = "ptconvlstm__lstm_layer__lstm", kName = "ptconvlstm__lstm_layer__lstm_hidden_r_t", kPermutation = [1, 0], kStageId = 0 : i64, kStageLatency = -1.000000e+00 : f64, kTemplateName = "permute_view_0_0_505", kUniqueId = 505 : i64, kUserCreated = true} : (tensor<60x64xbf16>) -> tensor<64x60xbf16>
        %42 = "tlir.Load"(%4) {DataLayout0 = #tlir.layout<RV,CM,VA>, NumSamples0 = 1 : i64, NumSamples0S = 2 : i64, kAddedAlignment = -1 : i64, kChipID = 0 : i64, kConfigured = true, kGroup = 32 : i64, kGroupedDramLayoutName = "lstm_operand_1_0_0_125", kIsGrouped = false, kIterations = 1 : i64, kLayoutHeuristics = false, kMacID = "default_125", kName = "lstm_operand_1_0_0_125", kRequiresWBuf = false, kStageId = 0 : i64, kTemplateName = "load_0_0_125", kUniqueId = 125 : i64, kUseVectorTranspose = true, kUserCreated = true} : (tensor<1x60x64xbf16>) -> tensor<1x60x64xbf16>
        %43:2 = "tlir.Buffer"(%42) {DataLayout0 = #tlir.layout<RV,CM,VA>, DataLayout1 = #tlir.layout<RV,CM,VA>, NumSamples1 = 1 : i64, NumSamples1S = 2 : i64, kBufHead = 1 : i64, kBufferType = 1 : i64, kConfigured = true, kDepth = 1 : i64, kHead0CtrlFlowEnable = false, kHead1CtrlFlowEnable = false, kIsStageBuffer = false, kMacID = "default_809", kName = "gbuf1a_0_0_809", kNumHead0RdEn = 0 : i64, kNumHead1RdEn = 0 : i64, kNumPMUs = 1 : i64, kStageId = 0 : i64, kUniqueId = 809 : i64, kUserCreated = false} : (tensor<1x60x64xbf16>) -> (tensor<1x60x64xbf16>, tensor<1x60x64xbf16>)
        %44 = "tlir.Reshape"(%43#1) {DataLayout0 = #tlir.layout<RV,CM,VA>, NumSamples0 = 1 : i64, NumSamples0S = 2 : i64, kConfigured = true, kDieID = -1 : i64, kIsCriticalStage = false, kLatency = -1.000000e+00 : f64, kMacID = "ptconvlstm__lstm_layer__lstm", kName = "ptconvlstm__lstm_layer__lstm_cell_r", kStageId = 0 : i64, kStageLatency = -1.000000e+00 : f64, kTemplateName = "reshape_0_0_506", kUniqueId = 506 : i64, kUserCreated = true} : (tensor<1x60x64xbf16>) -> tensor<60x64xbf16>
        %45 = "tlir.PermuteView"(%44) {DataLayout0 = #tlir.layout<CV,RM,VA>, NumSamples0 = 1 : i64, NumSamples0S = 2 : i64, kConfigured = true, kDieID = -1 : i64, kIsCriticalStage = false, kLatency = -1.000000e+00 : f64, kMacID = "ptconvlstm__lstm_layer__lstm", kName = "ptconvlstm__lstm_layer__lstm_cell_r_t", kPermutation = [1, 0], kStageId = 0 : i64, kStageLatency = -1.000000e+00 : f64, kTemplateName = "permute_view_0_0_507", kUniqueId = 507 : i64, kUserCreated = true} : (tensor<60x64xbf16>) -> tensor<64x60xbf16>
        %46 = "tlir.Load"(%7) {DataLayout0 = #tlir.layout<RV,RM,UA>, NumSamples0 = 1 : i64, NumSamples0S = 2 : i64, kAddedAlignment = -1 : i64, kChipID = 0 : i64, kConfigured = true, kGroup = 33 : i64, kGroupedDramLayoutName = "ptconvlstm__lstm_layer__lstm__outputs__0_slice_1_0_0_149", kIsGrouped = false, kIterations = 1 : i64, kLayoutHeuristics = false, kMacID = "default_149", kName = "ptconvlstm__lstm_layer__lstm__outputs__0_slice_1_0_0_149", kRequiresWBuf = false, kStageId = 0 : i64, kTemplateName = "load_0_0_149", kUniqueId = 149 : i64, kUseVectorTranspose = false, kUserCreated = true} : (tensor<1xi32>) -> tensor<1xi32>
        %47 = "tlir.Load"(%9) {DataLayout0 = #tlir.layout<CV,RM,VA>, NumSamples0 = 1 : i64, NumSamples0S = 2 : i64, kAddedAlignment = -1 : i64, kChipID = 0 : i64, kConfigured = true, kGroup = 4 : i64, kGroupedDramLayoutName = "group_4", kIsGrouped = false, kIterations = 1 : i64, kLayoutHeuristics = false, kMacID = "default_153", kName = "ptconvlstm__dense_layer__weight_0_0_153", kRequiresWBuf = true, kStageId = 0 : i64, kTemplateName = "load_0_0_153", kUniqueId = 153 : i64, kUseVectorTranspose = false, kUserCreated = true} : (tensor<4080x64xbf16>) -> tensor<4080x64xbf16>
        %48 = "tlir.Load"(%8) {DataLayout0 = #tlir.layout<CV,RM,VA>, NumSamples0 = 1 : i64, NumSamples0S = 2 : i64, kAddedAlignment = -1 : i64, kChipID = 0 : i64, kConfigured = true, kGroup = 27 : i64, kGroupedDramLayoutName = "group_27", kIsGrouped = false, kIterations = 1 : i64, kLayoutHeuristics = false, kMacID = "default_154", kName = "ptconvlstm__dense_layer__bias_0_0_154", kRequiresWBuf = true, kStageId = 0 : i64, kTemplateName = "load_0_0_154", kUniqueId = 154 : i64, kUseVectorTranspose = false, kUserCreated = true} : (tensor<4080x1xbf16>) -> tensor<4080x1xbf16>
        %49 = "tlir.mutable.TemporalConcatBuffer"() {DataLayout0 = #tlir.layout<RV,RM,VA>, NumSamples0 = 1 : i64, NumSamples0S = 2 : i64, kAxis = 0 : i64, kChipID = 0 : i64, kConfigured = true, kKeepDim = true, kMacID = "default_324", kName = "ptconvlstm__dense_layer__linear_t_output0_concat_buffer", kStageId = 0 : i64, kTemplateName = "tconcatbuf_0_0_324", kUniqueId = 324 : i64, kUserCreated = true} : () -> tensor<1x4080xbf16>
        %50:2 = "tlir.Buffer"(%41) {DataLayout0 = #tlir.layout<CV,RM,VA>, DataLayout1 = #tlir.layout<CV,RM,VA>, NumSamples0 = 1 : i64, NumSamples0S = 2 : i64, NumSamples1 = 1 : i64, NumSamples1S = 2 : i64, kBufferType = 3 : i64, kChipID = 0 : i64, kConfigured = true, kDepth = 1 : i64, kHead0CtrlFlowEnable = false, kHead1CtrlFlowEnable = true, kIsStageBuffer = false, kMacID = "ptconvlstm__lstm_layer__lstm", kName = "ptconvlstm__lstm_layer__lstm_hidden_loop_buffer", kNumHead0RdEn = 0 : i64, kNumHead1RdEn = 6 : i64, kNumPMUs = 1 : i64, kStageId = 0 : i64, kUniqueId = 326 : i64, kUseBothHeads = true, kUserCreated = true} : (tensor<64x60xbf16>) -> (tensor<64x60xbf16>, tensor<64x60xbf16>)
        %51:2 = "tlir.Buffer"(%45) {DataLayout0 = #tlir.layout<CV,RM,VA>, DataLayout1 = #tlir.layout<CV,RM,VA>, NumSamples0 = 1 : i64, NumSamples0S = 2 : i64, NumSamples1 = 1 : i64, NumSamples1S = 2 : i64, kBufferType = 3 : i64, kChipID = 0 : i64, kConfigured = true, kDepth = 1 : i64, kHead0CtrlFlowEnable = false, kHead1CtrlFlowEnable = true, kIsStageBuffer = false, kMacID = "ptconvlstm__lstm_layer__lstm", kName = "ptconvlstm__lstm_layer__lstm_cell_loop_buffer", kNumHead0RdEn = 0 : i64, kNumHead1RdEn = 5 : i64, kNumPMUs = 1 : i64, kStageId = 0 : i64, kUniqueId = 327 : i64, kUseBothHeads = true, kUserCreated = true} : (tensor<64x60xbf16>) -> (tensor<64x60xbf16>, tensor<64x60xbf16>)
        "tlir.iter_loop.MetaPipeline"() ( {
          %70 = "tlir.Load"(%6) {DataLayout0 = #tlir.layout<RV,CM,VA>, NumSamples0 = 1 : i64, NumSamples0S = 2 : i64, kAddedAlignment = -1 : i64, kChipID = 0 : i64, kConfigured = true, kGroup = 34 : i64, kGroupedDramLayoutName = "inp_window_0_0_475", kIsGrouped = false, kIterations = 1 : i64, kKeepDim = false, kLoadSlice = true, kLoadTile = false, kMacID = "default_475", kMultiLoadDepth = 2 : i64, kName = "inp_window_0_0_475", kRequiresWBuf = false, kReverseLoops = [false], kSliceAxes = [0], kSliceSize = 1 : i64, kSliceSubtensor = false, kStageId = 0 : i64, kStageMultiplier = 1 : i64, kTemplateName = "load_0_0_475", kUniqueId = 475 : i64, kUseVectorTranspose = true, kUserCreated = true} : (tensor<1x60x136xbf16>) -> tensor<60x136xbf16>
          %71 = "tlir.Load"(%3) {DataLayout0 = #tlir.layout<CV,RM,VA>, NumSamples0 = 1 : i64, NumSamples0S = 2 : i64, kAddedAlignment = -1 : i64, kConfigured = true, kGroup = 26 : i64, kGroupedDramLayoutName = "group_26", kIsGrouped = true, kIterations = 1 : i64, kLayoutHeuristics = false, kMacID = "default_509", kName = "ptconvlstm__lstm_layer__weight_ih_l0_0_0_509", kPieceOrder = 0 : i64, kPieceShape = [64 : index, 136 : index], kRequiresWBuf = true, kStageId = 0 : i64, kStageMultiplier = 1 : i64, kTemplateName = "load_0_0_509", kUniqueId = 509 : i64, kUseVectorTranspose = false, kUserCreated = true} : (tensor<4x64x136xbf16>) -> tensor<64x136xbf16>
          %72 = "tlir.Load"(%3) {DataLayout0 = #tlir.layout<CV,RM,VA>, NumSamples0 = 1 : i64, NumSamples0S = 2 : i64, kAddedAlignment = -1 : i64, kConfigured = true, kGroup = 26 : i64, kGroupedDramLayoutName = "group_26", kIsGrouped = true, kIterations = 1 : i64, kLayoutHeuristics = false, kMacID = "default_510", kName = "ptconvlstm__lstm_layer__weight_ih_l0_0_0_510", kPieceOrder = 1 : i64, kPieceShape = [64 : index, 136 : index], kRequiresWBuf = true, kStageId = 0 : i64, kStageMultiplier = 1 : i64, kTemplateName = "load_0_0_510", kUniqueId = 510 : i64, kUseVectorTranspose = false, kUserCreated = true} : (tensor<4x64x136xbf16>) -> tensor<64x136xbf16>
          %73 = "tlir.Load"(%3) {DataLayout0 = #tlir.layout<CV,RM,VA>, NumSamples0 = 1 : i64, NumSamples0S = 2 : i64, kAddedAlignment = -1 : i64, kConfigured = true, kGroup = 26 : i64, kGroupedDramLayoutName = "group_26", kIsGrouped = true, kIterations = 1 : i64, kLayoutHeuristics = false, kMacID = "default_511", kName = "ptconvlstm__lstm_layer__weight_ih_l0_0_0_511", kPieceOrder = 2 : i64, kPieceShape = [64 : index, 136 : index], kRequiresWBuf = true, kStageId = 0 : i64, kStageMultiplier = 1 : i64, kTemplateName = "load_0_0_511", kUniqueId = 511 : i64, kUseVectorTranspose = false, kUserCreated = true} : (tensor<4x64x136xbf16>) -> tensor<64x136xbf16>
          %74 = "tlir.Load"(%3) {DataLayout0 = #tlir.layout<CV,RM,VA>, NumSamples0 = 1 : i64, NumSamples0S = 2 : i64, kAddedAlignment = -1 : i64, kConfigured = true, kGroup = 26 : i64, kGroupedDramLayoutName = "group_26", kIsGrouped = true, kIterations = 1 : i64, kLayoutHeuristics = false, kMacID = "default_512", kName = "ptconvlstm__lstm_layer__weight_ih_l0_0_0_512", kPieceOrder = 3 : i64, kPieceShape = [64 : index, 136 : index], kRequiresWBuf = true, kStageId = 0 : i64, kStageMultiplier = 1 : i64, kTemplateName = "load_0_0_512", kUniqueId = 512 : i64, kUseVectorTranspose = false, kUserCreated = true} : (tensor<4x64x136xbf16>) -> tensor<64x136xbf16>
          %75 = "tlir.Load"(%2) {DataLayout0 = #tlir.layout<CV,RM,VA>, NumSamples0 = 1 : i64, NumSamples0S = 2 : i64, kAddedAlignment = -1 : i64, kConfigured = true, kGroup = 25 : i64, kGroupedDramLayoutName = "group_25", kIsGrouped = true, kIterations = 1 : i64, kLayoutHeuristics = false, kMacID = "default_513", kName = "ptconvlstm__lstm_layer__weight_hh_l0_0_0_513", kPieceOrder = 0 : i64, kPieceShape = [64 : index, 64 : index], kRequiresWBuf = true, kStageId = 0 : i64, kStageMultiplier = 1 : i64, kTemplateName = "load_0_0_513", kUniqueId = 513 : i64, kUseVectorTranspose = false, kUserCreated = true} : (tensor<4x64x64xbf16>) -> tensor<64x64xbf16>
          %76 = "tlir.Load"(%2) {DataLayout0 = #tlir.layout<CV,RM,VA>, NumSamples0 = 1 : i64, NumSamples0S = 2 : i64, kAddedAlignment = -1 : i64, kConfigured = true, kGroup = 25 : i64, kGroupedDramLayoutName = "group_25", kIsGrouped = true, kIterations = 1 : i64, kLayoutHeuristics = false, kMacID = "default_514", kName = "ptconvlstm__lstm_layer__weight_hh_l0_0_0_514", kPieceOrder = 1 : i64, kPieceShape = [64 : index, 64 : index], kRequiresWBuf = true, kStageId = 0 : i64, kStageMultiplier = 1 : i64, kTemplateName = "load_0_0_514", kUniqueId = 514 : i64, kUseVectorTranspose = false, kUserCreated = true} : (tensor<4x64x64xbf16>) -> tensor<64x64xbf16>
          %77 = "tlir.Load"(%2) {DataLayout0 = #tlir.layout<CV,RM,VA>, NumSamples0 = 1 : i64, NumSamples0S = 2 : i64, kAddedAlignment = -1 : i64, kConfigured = true, kGroup = 25 : i64, kGroupedDramLayoutName = "group_25", kIsGrouped = true, kIterations = 1 : i64, kLayoutHeuristics = false, kMacID = "default_515", kName = "ptconvlstm__lstm_layer__weight_hh_l0_0_0_515", kPieceOrder = 2 : i64, kPieceShape = [64 : index, 64 : index], kRequiresWBuf = true, kStageId = 0 : i64, kStageMultiplier = 1 : i64, kTemplateName = "load_0_0_515", kUniqueId = 515 : i64, kUseVectorTranspose = false, kUserCreated = true} : (tensor<4x64x64xbf16>) -> tensor<64x64xbf16>
          %78 = "tlir.Load"(%2) {DataLayout0 = #tlir.layout<CV,RM,VA>, NumSamples0 = 1 : i64, NumSamples0S = 2 : i64, kAddedAlignment = -1 : i64, kConfigured = true, kGroup = 25 : i64, kGroupedDramLayoutName = "group_25", kIsGrouped = true, kIterations = 1 : i64, kLayoutHeuristics = false, kMacID = "default_516", kName = "ptconvlstm__lstm_layer__weight_hh_l0_0_0_516", kPieceOrder = 3 : i64, kPieceShape = [64 : index, 64 : index], kRequiresWBuf = true, kStageId = 0 : i64, kStageMultiplier = 1 : i64, kTemplateName = "load_0_0_516", kUniqueId = 516 : i64, kUseVectorTranspose = false, kUserCreated = true} : (tensor<4x64x64xbf16>) -> tensor<64x64xbf16>
          %79 = "tlir.Load"(%1) {DataLayout0 = #tlir.layout<CV,RM,VA>, NumSamples0 = 1 : i64, NumSamples0S = 2 : i64, kAddedAlignment = -1 : i64, kConfigured = true, kGroup = 24 : i64, kGroupedDramLayoutName = "group_24", kIsGrouped = true, kIterations = 1 : i64, kLayoutHeuristics = false, kMacID = "default_517", kName = "ptconvlstm__lstm_layer__bias_ih_l0_0_0_517", kPieceOrder = 0 : i64, kPieceShape = [64 : index, 1 : index], kRequiresWBuf = true, kStageId = 0 : i64, kStageMultiplier = 1 : i64, kTemplateName = "load_0_0_517", kUniqueId = 517 : i64, kUseVectorTranspose = false, kUserCreated = true} : (tensor<4x64x1xbf16>) -> tensor<64x1xbf16>
          %80 = "tlir.Load"(%1) {DataLayout0 = #tlir.layout<CV,RM,VA>, NumSamples0 = 1 : i64, NumSamples0S = 2 : i64, kAddedAlignment = -1 : i64, kConfigured = true, kGroup = 24 : i64, kGroupedDramLayoutName = "group_24", kIsGrouped = true, kIterations = 1 : i64, kLayoutHeuristics = false, kMacID = "default_518", kName = "ptconvlstm__lstm_layer__bias_ih_l0_0_0_518", kPieceOrder = 1 : i64, kPieceShape = [64 : index, 1 : index], kRequiresWBuf = true, kStageId = 0 : i64, kStageMultiplier = 1 : i64, kTemplateName = "load_0_0_518", kUniqueId = 518 : i64, kUseVectorTranspose = false, kUserCreated = true} : (tensor<4x64x1xbf16>) -> tensor<64x1xbf16>
          %81 = "tlir.Load"(%1) {DataLayout0 = #tlir.layout<CV,RM,VA>, NumSamples0 = 1 : i64, NumSamples0S = 2 : i64, kAddedAlignment = -1 : i64, kConfigured = true, kGroup = 24 : i64, kGroupedDramLayoutName = "group_24", kIsGrouped = true, kIterations = 1 : i64, kLayoutHeuristics = false, kMacID = "default_519", kName = "ptconvlstm__lstm_layer__bias_ih_l0_0_0_519", kPieceOrder = 2 : i64, kPieceShape = [64 : index, 1 : index], kRequiresWBuf = true, kStageId = 0 : i64, kStageMultiplier = 1 : i64, kTemplateName = "load_0_0_519", kUniqueId = 519 : i64, kUseVectorTranspose = false, kUserCreated = true} : (tensor<4x64x1xbf16>) -> tensor<64x1xbf16>
          %82 = "tlir.Load"(%1) {DataLayout0 = #tlir.layout<CV,RM,VA>, NumSamples0 = 1 : i64, NumSamples0S = 2 : i64, kAddedAlignment = -1 : i64, kConfigured = true, kGroup = 24 : i64, kGroupedDramLayoutName = "group_24", kIsGrouped = true, kIterations = 1 : i64, kLayoutHeuristics = false, kMacID = "default_520", kName = "ptconvlstm__lstm_layer__bias_ih_l0_0_0_520", kPieceOrder = 3 : i64, kPieceShape = [64 : index, 1 : index], kRequiresWBuf = true, kStageId = 0 : i64, kStageMultiplier = 1 : i64, kTemplateName = "load_0_0_520", kUniqueId = 520 : i64, kUseVectorTranspose = false, kUserCreated = true} : (tensor<4x64x1xbf16>) -> tensor<64x1xbf16>
          %83 = "tlir.Load"(%0) {DataLayout0 = #tlir.layout<CV,RM,VA>, NumSamples0 = 1 : i64, NumSamples0S = 2 : i64, kAddedAlignment = -1 : i64, kConfigured = true, kGroup = 23 : i64, kGroupedDramLayoutName = "group_23", kIsGrouped = true, kIterations = 1 : i64, kLayoutHeuristics = false, kMacID = "default_521", kName = "ptconvlstm__lstm_layer__bias_hh_l0_0_0_521", kPieceOrder = 0 : i64, kPieceShape = [64 : index, 1 : index], kRequiresWBuf = true, kStageId = 0 : i64, kStageMultiplier = 1 : i64, kTemplateName = "load_0_0_521", kUniqueId = 521 : i64, kUseVectorTranspose = false, kUserCreated = true} : (tensor<4x64x1xbf16>) -> tensor<64x1xbf16>
          %84 = "tlir.Load"(%0) {DataLayout0 = #tlir.layout<CV,RM,VA>, NumSamples0 = 1 : i64, NumSamples0S = 2 : i64, kAddedAlignment = -1 : i64, kConfigured = true, kGroup = 23 : i64, kGroupedDramLayoutName = "group_23", kIsGrouped = true, kIterations = 1 : i64, kLayoutHeuristics = false, kMacID = "default_522", kName = "ptconvlstm__lstm_layer__bias_hh_l0_0_0_522", kPieceOrder = 1 : i64, kPieceShape = [64 : index, 1 : index], kRequiresWBuf = true, kStageId = 0 : i64, kStageMultiplier = 1 : i64, kTemplateName = "load_0_0_522", kUniqueId = 522 : i64, kUseVectorTranspose = false, kUserCreated = true} : (tensor<4x64x1xbf16>) -> tensor<64x1xbf16>
          %85 = "tlir.Load"(%0) {DataLayout0 = #tlir.layout<CV,RM,VA>, NumSamples0 = 1 : i64, NumSamples0S = 2 : i64, kAddedAlignment = -1 : i64, kConfigured = true, kGroup = 23 : i64, kGroupedDramLayoutName = "group_23", kIsGrouped = true, kIterations = 1 : i64, kLayoutHeuristics = false, kMacID = "default_523", kName = "ptconvlstm__lstm_layer__bias_hh_l0_0_0_523", kPieceOrder = 2 : i64, kPieceShape = [64 : index, 1 : index], kRequiresWBuf = true, kStageId = 0 : i64, kStageMultiplier = 1 : i64, kTemplateName = "load_0_0_523", kUniqueId = 523 : i64, kUseVectorTranspose = false, kUserCreated = true} : (tensor<4x64x1xbf16>) -> tensor<64x1xbf16>
          %86 = "tlir.Load"(%0) {DataLayout0 = #tlir.layout<CV,RM,VA>, NumSamples0 = 1 : i64, NumSamples0S = 2 : i64, kAddedAlignment = -1 : i64, kConfigured = true, kGroup = 23 : i64, kGroupedDramLayoutName = "group_23", kIsGrouped = true, kIterations = 1 : i64, kLayoutHeuristics = false, kMacID = "default_524", kName = "ptconvlstm__lstm_layer__bias_hh_l0_0_0_524", kPieceOrder = 3 : i64, kPieceShape = [64 : index, 1 : index], kRequiresWBuf = true, kStageId = 0 : i64, kStageMultiplier = 1 : i64, kTemplateName = "load_0_0_524", kUniqueId = 524 : i64, kUseVectorTranspose = false, kUserCreated = true} : (tensor<4x64x1xbf16>) -> tensor<64x1xbf16>
          %87:2 = "tlir.Buffer"(%70) {DataLayout0 = #tlir.layout<CV,RM,VA>, DataLayout1 = #tlir.layout<CV,RM,VA>, NumSamples1 = 1 : i64, NumSamples1S = 2 : i64, kBufHead = 1 : i64, kBufferType = 1 : i64, kConfigured = true, kDepth = 2 : i64, kHead0CtrlFlowEnable = false, kHead1CtrlFlowEnable = true, kHead1MultipleSample = false, kIsStageBuffer = true, kLayoutPermutation = [1, 0], kMacID = "default_810", kName = "gbuf2a_0_0_810", kNumHead0RdEn = 0 : i64, kNumHead1RdEn = 6 : i64, kNumPMUs = 1 : i64, kStageId = 0 : i64, kStageMultiplier = 1 : i64, kUniqueId = 810 : i64, kUserCreated = false} : (tensor<60x136xbf16>) -> (tensor<136x60xbf16>, tensor<136x60xbf16>)
          %88 = "tlir.Linear"(%71, %87#1, %79) {DataLayout0 = #tlir.layout<CV,RM,VA>, NumSamples0 = 1 : i64, NumSamples0S = 2 : i64, kBoxLayout = false, kBoxLayoutAnchor = [], kBoxPerPartition = false, kBoxPerWbufSplit = false, kConfigured = true, kDieID = -1 : i64, kDisableWrFrontingPMU = false, kExclusiveRoutes = false, kExclusiveVCA = false, kInputAIsWeight = true, kIsCriticalStage = false, kIsFromConv1x1 = false, kLatency = -1.000000e+00 : f64, kMacID = "ptconvlstm__lstm_layer__lstm", kName = "ptconvlstm__lstm_layer__lstm_linear_w_0", kNumPartitions = 1 : i64, kNumRowComputeUnits = 1 : i64, kReadAHead = 0 : i32, kReadBHead = 1 : i32, kStageId = 0 : i64, kStageLatency = -1.000000e+00 : f64, kStageMultiplier = 1 : i64, kStagingBias = false, kTemplateName = "gemm_0_0_696", kUniqueId = 696 : i64, kUseBigGemm = false, kUserCreated = true, kWbufBlockInterleavedWrite = false, kWbufSplit = false} : (tensor<64x136xbf16>, tensor<136x60xbf16>, tensor<64x1xbf16>) -> tensor<64x60xbf16>
          %89:2 = "tlir.Buffer"(%88) {DataLayout0 = #tlir.layout<CV,RM,VA>, DataLayout1 = #tlir.layout<CV,RM,VA>, NumSamples1 = 1 : i64, NumSamples1S = 2 : i64, kBufferType = 1 : i64, kConfigured = true, kDepth = 1 : i64, kHead0CtrlFlowEnable = false, kHead1CtrlFlowEnable = false, kHead1MultipleSample = false, kIsStageBuffer = false, kMacID = "default_923", kName = "gbuf1a_0_0_923", kNumHead0RdEn = 0 : i64, kNumHead1RdEn = 0 : i64, kNumPMUs = 1 : i64, kStageId = 0 : i64, kStageMultiplier = 1 : i64, kUniqueId = 923 : i64, kUserCreated = false} : (tensor<64x60xbf16>) -> (tensor<64x60xbf16>, tensor<64x60xbf16>)
          %90 = "tlir.Linear"(%75, %50#1, %83) {DataLayout0 = #tlir.layout<CV,RM,VA>, NumSamples0 = 1 : i64, NumSamples0S = 2 : i64, kBoxLayout = false, kBoxLayoutAnchor = [], kBoxPerPartition = false, kBoxPerWbufSplit = false, kConfigured = true, kDieID = -1 : i64, kDisableWrFrontingPMU = false, kExclusiveRoutes = false, kExclusiveVCA = false, kInputAIsWeight = true, kIsCriticalStage = false, kIsFromConv1x1 = false, kLatency = -1.000000e+00 : f64, kMacID = "ptconvlstm__lstm_layer__lstm", kName = "ptconvlstm__lstm_layer__lstm_linear_v_0", kNumPartitions = 1 : i64, kNumRowComputeUnits = 1 : i64, kReadAHead = 0 : i32, kReadBHead = 1 : i32, kStageId = 0 : i64, kStageLatency = -1.000000e+00 : f64, kStageMultiplier = 1 : i64, kStagingBias = false, kTemplateName = "gemm_0_0_697", kUniqueId = 697 : i64, kUseBigGemm = false, kUserCreated = true, kWbufBlockInterleavedWrite = false, kWbufSplit = false} : (tensor<64x64xbf16>, tensor<64x60xbf16>, tensor<64x1xbf16>) -> tensor<64x60xbf16>
          %91:2 = "tlir.Buffer"(%90) {DataLayout0 = #tlir.layout<CV,RM,VA>, DataLayout1 = #tlir.layout<CV,RM,VA>, NumSamples1 = 1 : i64, NumSamples1S = 2 : i64, kBufferType = 1 : i64, kConfigured = true, kDepth = 1 : i64, kHead0CtrlFlowEnable = false, kHead1CtrlFlowEnable = false, kHead1MultipleSample = false, kIsStageBuffer = false, kMacID = "default_922", kName = "gbuf1a_0_0_922", kNumHead0RdEn = 0 : i64, kNumHead1RdEn = 0 : i64, kNumPMUs = 1 : i64, kStageId = 0 : i64, kStageMultiplier = 1 : i64, kUniqueId = 922 : i64, kUserCreated = false} : (tensor<64x60xbf16>) -> (tensor<64x60xbf16>, tensor<64x60xbf16>)
          %92 = "tlir.AddV2"(%91#1, %89#1) {DataLayout0 = #tlir.layout<CV,RM,VA>, NumSamples0 = 1 : i64, NumSamples0S = 2 : i64, kBinaryOp = true, kConfigured = true, kDieID = -1 : i64, kIsCriticalStage = false, kLatency = -1.000000e+00 : f64, kMacID = "ptconvlstm__lstm_layer__lstm", kName = "ptconvlstm__lstm_layer__lstm_add_0", kStageId = 0 : i64, kStageLatency = -1.000000e+00 : f64, kStageMultiplier = 1 : i64, kTemplateName = "add_0_0_698", kUniqueId = 698 : i64, kUserCreated = true} : (tensor<64x60xbf16>, tensor<64x60xbf16>) -> tensor<64x60xbf16>
          %93 = "tlir.Linear"(%72, %87#1, %80) {DataLayout0 = #tlir.layout<CV,RM,VA>, NumSamples0 = 1 : i64, NumSamples0S = 2 : i64, kBoxLayout = false, kBoxLayoutAnchor = [], kBoxPerPartition = false, kBoxPerWbufSplit = false, kConfigured = true, kDieID = -1 : i64, kDisableWrFrontingPMU = false, kExclusiveRoutes = false, kExclusiveVCA = false, kInputAIsWeight = true, kIsCriticalStage = false, kIsFromConv1x1 = false, kLatency = -1.000000e+00 : f64, kMacID = "ptconvlstm__lstm_layer__lstm", kName = "ptconvlstm__lstm_layer__lstm_linear_w_1", kNumPartitions = 1 : i64, kNumRowComputeUnits = 1 : i64, kReadAHead = 0 : i32, kReadBHead = 1 : i32, kStageId = 0 : i64, kStageLatency = -1.000000e+00 : f64, kStageMultiplier = 1 : i64, kStagingBias = false, kTemplateName = "gemm_0_0_699", kUniqueId = 699 : i64, kUseBigGemm = false, kUserCreated = true, kWbufBlockInterleavedWrite = false, kWbufSplit = false} : (tensor<64x136xbf16>, tensor<136x60xbf16>, tensor<64x1xbf16>) -> tensor<64x60xbf16>
          %94:2 = "tlir.Buffer"(%93) {DataLayout0 = #tlir.layout<CV,RM,VA>, DataLayout1 = #tlir.layout<CV,RM,VA>, NumSamples1 = 1 : i64, NumSamples1S = 2 : i64, kBufferType = 1 : i64, kConfigured = true, kDepth = 1 : i64, kHead0CtrlFlowEnable = false, kHead1CtrlFlowEnable = false, kHead1MultipleSample = false, kIsStageBuffer = false, kMacID = "default_925", kName = "gbuf1a_0_0_925", kNumHead0RdEn = 0 : i64, kNumHead1RdEn = 0 : i64, kNumPMUs = 1 : i64, kStageId = 0 : i64, kStageMultiplier = 1 : i64, kUniqueId = 925 : i64, kUserCreated = false} : (tensor<64x60xbf16>) -> (tensor<64x60xbf16>, tensor<64x60xbf16>)
          %95 = "tlir.Linear"(%76, %50#1, %84) {DataLayout0 = #tlir.layout<CV,RM,VA>, NumSamples0 = 1 : i64, NumSamples0S = 2 : i64, kBoxLayout = false, kBoxLayoutAnchor = [], kBoxPerPartition = false, kBoxPerWbufSplit = false, kConfigured = true, kDieID = -1 : i64, kDisableWrFrontingPMU = false, kExclusiveRoutes = false, kExclusiveVCA = false, kInputAIsWeight = true, kIsCriticalStage = false, kIsFromConv1x1 = false, kLatency = -1.000000e+00 : f64, kMacID = "ptconvlstm__lstm_layer__lstm", kName = "ptconvlstm__lstm_layer__lstm_linear_v_1", kNumPartitions = 1 : i64, kNumRowComputeUnits = 1 : i64, kReadAHead = 0 : i32, kReadBHead = 1 : i32, kStageId = 0 : i64, kStageLatency = -1.000000e+00 : f64, kStageMultiplier = 1 : i64, kStagingBias = false, kTemplateName = "gemm_0_0_700", kUniqueId = 700 : i64, kUseBigGemm = false, kUserCreated = true, kWbufBlockInterleavedWrite = false, kWbufSplit = false} : (tensor<64x64xbf16>, tensor<64x60xbf16>, tensor<64x1xbf16>) -> tensor<64x60xbf16>
          %96:2 = "tlir.Buffer"(%95) {DataLayout0 = #tlir.layout<CV,RM,VA>, DataLayout1 = #tlir.layout<CV,RM,VA>, NumSamples1 = 1 : i64, NumSamples1S = 2 : i64, kBufferType = 1 : i64, kConfigured = true, kDepth = 1 : i64, kHead0CtrlFlowEnable = false, kHead1CtrlFlowEnable = false, kHead1MultipleSample = false, kIsStageBuffer = false, kMacID = "default_924", kName = "gbuf1a_0_0_924", kNumHead0RdEn = 0 : i64, kNumHead1RdEn = 0 : i64, kNumPMUs = 1 : i64, kStageId = 0 : i64, kStageMultiplier = 1 : i64, kUniqueId = 924 : i64, kUserCreated = false} : (tensor<64x60xbf16>) -> (tensor<64x60xbf16>, tensor<64x60xbf16>)
          %97 = "tlir.AddV2"(%96#1, %94#1) {DataLayout0 = #tlir.layout<CV,RM,VA>, NumSamples0 = 1 : i64, NumSamples0S = 2 : i64, kBinaryOp = true, kConfigured = true, kDieID = -1 : i64, kIsCriticalStage = false, kLatency = -1.000000e+00 : f64, kMacID = "ptconvlstm__lstm_layer__lstm", kName = "ptconvlstm__lstm_layer__lstm_add_1", kStageId = 0 : i64, kStageLatency = -1.000000e+00 : f64, kStageMultiplier = 1 : i64, kTemplateName = "add_0_0_701", kUniqueId = 701 : i64, kUserCreated = true} : (tensor<64x60xbf16>, tensor<64x60xbf16>) -> tensor<64x60xbf16>
          %98 = "tlir.Linear"(%73, %87#1, %81) {DataLayout0 = #tlir.layout<CV,RM,VA>, NumSamples0 = 1 : i64, NumSamples0S = 2 : i64, kBoxLayout = false, kBoxLayoutAnchor = [], kBoxPerPartition = false, kBoxPerWbufSplit = false, kConfigured = true, kDieID = -1 : i64, kDisableWrFrontingPMU = false, kExclusiveRoutes = false, kExclusiveVCA = false, kInputAIsWeight = true, kIsCriticalStage = false, kIsFromConv1x1 = false, kLatency = -1.000000e+00 : f64, kMacID = "ptconvlstm__lstm_layer__lstm", kName = "ptconvlstm__lstm_layer__lstm_linear_w_2", kNumPartitions = 1 : i64, kNumRowComputeUnits = 1 : i64, kReadAHead = 0 : i32, kReadBHead = 1 : i32, kStageId = 0 : i64, kStageLatency = -1.000000e+00 : f64, kStageMultiplier = 1 : i64, kStagingBias = false, kTemplateName = "gemm_0_0_702", kUniqueId = 702 : i64, kUseBigGemm = false, kUserCreated = true, kWbufBlockInterleavedWrite = false, kWbufSplit = false} : (tensor<64x136xbf16>, tensor<136x60xbf16>, tensor<64x1xbf16>) -> tensor<64x60xbf16>
          %99:2 = "tlir.Buffer"(%98) {DataLayout0 = #tlir.layout<CV,RM,VA>, DataLayout1 = #tlir.layout<CV,RM,VA>, NumSamples1 = 1 : i64, NumSamples1S = 2 : i64, kBufferType = 1 : i64, kConfigured = true, kDepth = 1 : i64, kHead0CtrlFlowEnable = false, kHead1CtrlFlowEnable = false, kHead1MultipleSample = false, kIsStageBuffer = false, kMacID = "default_927", kName = "gbuf1a_0_0_927", kNumHead0RdEn = 0 : i64, kNumHead1RdEn = 0 : i64, kNumPMUs = 1 : i64, kStageId = 0 : i64, kStageMultiplier = 1 : i64, kUniqueId = 927 : i64, kUserCreated = false} : (tensor<64x60xbf16>) -> (tensor<64x60xbf16>, tensor<64x60xbf16>)
          %100 = "tlir.Linear"(%77, %50#1, %85) {DataLayout0 = #tlir.layout<CV,RM,VA>, NumSamples0 = 1 : i64, NumSamples0S = 2 : i64, kBoxLayout = false, kBoxLayoutAnchor = [], kBoxPerPartition = false, kBoxPerWbufSplit = false, kConfigured = true, kDieID = -1 : i64, kDisableWrFrontingPMU = false, kExclusiveRoutes = false, kExclusiveVCA = false, kInputAIsWeight = true, kIsCriticalStage = false, kIsFromConv1x1 = false, kLatency = -1.000000e+00 : f64, kMacID = "ptconvlstm__lstm_layer__lstm", kName = "ptconvlstm__lstm_layer__lstm_linear_v_2", kNumPartitions = 1 : i64, kNumRowComputeUnits = 1 : i64, kReadAHead = 0 : i32, kReadBHead = 1 : i32, kStageId = 0 : i64, kStageLatency = -1.000000e+00 : f64, kStageMultiplier = 1 : i64, kStagingBias = false, kTemplateName = "gemm_0_0_703", kUniqueId = 703 : i64, kUseBigGemm = false, kUserCreated = true, kWbufBlockInterleavedWrite = false, kWbufSplit = false} : (tensor<64x64xbf16>, tensor<64x60xbf16>, tensor<64x1xbf16>) -> tensor<64x60xbf16>
          %101:2 = "tlir.Buffer"(%100) {DataLayout0 = #tlir.layout<CV,RM,VA>, DataLayout1 = #tlir.layout<CV,RM,VA>, NumSamples1 = 1 : i64, NumSamples1S = 2 : i64, kBufferType = 1 : i64, kConfigured = true, kDepth = 1 : i64, kHead0CtrlFlowEnable = false, kHead1CtrlFlowEnable = false, kHead1MultipleSample = false, kIsStageBuffer = false, kMacID = "default_926", kName = "gbuf1a_0_0_926", kNumHead0RdEn = 0 : i64, kNumHead1RdEn = 0 : i64, kNumPMUs = 1 : i64, kStageId = 0 : i64, kStageMultiplier = 1 : i64, kUniqueId = 926 : i64, kUserCreated = false} : (tensor<64x60xbf16>) -> (tensor<64x60xbf16>, tensor<64x60xbf16>)
          %102 = "tlir.AddV2"(%101#1, %99#1) {DataLayout0 = #tlir.layout<CV,RM,VA>, NumSamples0 = 1 : i64, NumSamples0S = 2 : i64, kBinaryOp = true, kConfigured = true, kDieID = -1 : i64, kIsCriticalStage = false, kLatency = -1.000000e+00 : f64, kMacID = "ptconvlstm__lstm_layer__lstm", kName = "ptconvlstm__lstm_layer__lstm_add_2", kStageId = 0 : i64, kStageLatency = -1.000000e+00 : f64, kStageMultiplier = 1 : i64, kTemplateName = "add_0_0_704", kUniqueId = 704 : i64, kUserCreated = true} : (tensor<64x60xbf16>, tensor<64x60xbf16>) -> tensor<64x60xbf16>
          %103 = "tlir.Linear"(%74, %87#1, %82) {DataLayout0 = #tlir.layout<CV,RM,VA>, NumSamples0 = 1 : i64, NumSamples0S = 2 : i64, kBoxLayout = false, kBoxLayoutAnchor = [], kBoxPerPartition = false, kBoxPerWbufSplit = false, kConfigured = true, kDieID = -1 : i64, kDisableWrFrontingPMU = false, kExclusiveRoutes = false, kExclusiveVCA = false, kInputAIsWeight = true, kIsCriticalStage = false, kIsFromConv1x1 = false, kLatency = -1.000000e+00 : f64, kMacID = "ptconvlstm__lstm_layer__lstm", kName = "ptconvlstm__lstm_layer__lstm_linear_w_3", kNumPartitions = 1 : i64, kNumRowComputeUnits = 1 : i64, kReadAHead = 0 : i32, kReadBHead = 1 : i32, kStageId = 0 : i64, kStageLatency = -1.000000e+00 : f64, kStageMultiplier = 1 : i64, kStagingBias = false, kTemplateName = "gemm_0_0_705", kUniqueId = 705 : i64, kUseBigGemm = false, kUserCreated = true, kWbufBlockInterleavedWrite = false, kWbufSplit = false} : (tensor<64x136xbf16>, tensor<136x60xbf16>, tensor<64x1xbf16>) -> tensor<64x60xbf16>
          %104:2 = "tlir.Buffer"(%103) {DataLayout0 = #tlir.layout<CV,RM,VA>, DataLayout1 = #tlir.layout<CV,RM,VA>, NumSamples1 = 1 : i64, NumSamples1S = 2 : i64, kBufferType = 1 : i64, kConfigured = true, kDepth = 1 : i64, kHead0CtrlFlowEnable = false, kHead1CtrlFlowEnable = false, kHead1MultipleSample = false, kIsStageBuffer = false, kMacID = "default_929", kName = "gbuf1a_0_0_929", kNumHead0RdEn = 0 : i64, kNumHead1RdEn = 0 : i64, kNumPMUs = 1 : i64, kStageId = 0 : i64, kStageMultiplier = 1 : i64, kUniqueId = 929 : i64, kUserCreated = false} : (tensor<64x60xbf16>) -> (tensor<64x60xbf16>, tensor<64x60xbf16>)
          %105 = "tlir.Linear"(%78, %50#1, %86) {DataLayout0 = #tlir.layout<CV,RM,VA>, NumSamples0 = 1 : i64, NumSamples0S = 2 : i64, kBoxLayout = false, kBoxLayoutAnchor = [], kBoxPerPartition = false, kBoxPerWbufSplit = false, kConfigured = true, kDieID = -1 : i64, kDisableWrFrontingPMU = false, kExclusiveRoutes = false, kExclusiveVCA = false, kInputAIsWeight = true, kIsCriticalStage = false, kIsFromConv1x1 = false, kLatency = -1.000000e+00 : f64, kMacID = "ptconvlstm__lstm_layer__lstm", kName = "ptconvlstm__lstm_layer__lstm_linear_v_3", kNumPartitions = 1 : i64, kNumRowComputeUnits = 1 : i64, kReadAHead = 0 : i32, kReadBHead = 1 : i32, kStageId = 0 : i64, kStageLatency = -1.000000e+00 : f64, kStageMultiplier = 1 : i64, kStagingBias = false, kTemplateName = "gemm_0_0_706", kUniqueId = 706 : i64, kUseBigGemm = false, kUserCreated = true, kWbufBlockInterleavedWrite = false, kWbufSplit = false} : (tensor<64x64xbf16>, tensor<64x60xbf16>, tensor<64x1xbf16>) -> tensor<64x60xbf16>
          %106:2 = "tlir.Buffer"(%105) {DataLayout0 = #tlir.layout<CV,RM,VA>, DataLayout1 = #tlir.layout<CV,RM,VA>, NumSamples1 = 1 : i64, NumSamples1S = 2 : i64, kBufferType = 1 : i64, kConfigured = true, kDepth = 1 : i64, kHead0CtrlFlowEnable = false, kHead1CtrlFlowEnable = false, kHead1MultipleSample = false, kIsStageBuffer = false, kMacID = "default_928", kName = "gbuf1a_0_0_928", kNumHead0RdEn = 0 : i64, kNumHead1RdEn = 0 : i64, kNumPMUs = 1 : i64, kStageId = 0 : i64, kStageMultiplier = 1 : i64, kUniqueId = 928 : i64, kUserCreated = false} : (tensor<64x60xbf16>) -> (tensor<64x60xbf16>, tensor<64x60xbf16>)
          %107 = "tlir.AddV2"(%106#1, %104#1) {DataLayout0 = #tlir.layout<CV,RM,VA>, NumSamples0 = 1 : i64, NumSamples0S = 2 : i64, kBinaryOp = true, kConfigured = true, kDieID = -1 : i64, kIsCriticalStage = false, kLatency = -1.000000e+00 : f64, kMacID = "ptconvlstm__lstm_layer__lstm", kName = "ptconvlstm__lstm_layer__lstm_add_3", kStageId = 0 : i64, kStageLatency = -1.000000e+00 : f64, kStageMultiplier = 1 : i64, kTemplateName = "add_0_0_707", kUniqueId = 707 : i64, kUserCreated = true} : (tensor<64x60xbf16>, tensor<64x60xbf16>) -> tensor<64x60xbf16>
          %108 = "tlir.Sigmoid"(%92) {DataLayout0 = #tlir.layout<CV,RM,VA>, NumSamples0 = 1 : i64, NumSamples0S = 2 : i64, kConfigured = true, kDieID = -1 : i64, kIsCriticalStage = false, kLatency = -1.000000e+00 : f64, kMacID = "ptconvlstm__lstm_layer__lstm", kName = "ptconvlstm__lstm_layer__lstm_i_t", kStageId = 0 : i64, kStageLatency = -1.000000e+00 : f64, kStageMultiplier = 1 : i64, kTemplateName = "sigmoid_0_0_708", kUniqueId = 708 : i64, kUserCreated = true} : (tensor<64x60xbf16>) -> tensor<64x60xbf16>
          %109:2 = "tlir.Buffer"(%108) {DataLayout0 = #tlir.layout<CV,RM,VA>, DataLayout1 = #tlir.layout<CV,RM,VA>, NumSamples1 = 1 : i64, NumSamples1S = 2 : i64, kBufferType = 1 : i64, kConfigured = true, kDepth = 1 : i64, kHead0CtrlFlowEnable = false, kHead1CtrlFlowEnable = false, kHead1MultipleSample = false, kIsStageBuffer = false, kMacID = "default_931", kName = "gbuf1a_0_0_931", kNumHead0RdEn = 0 : i64, kNumHead1RdEn = 0 : i64, kNumPMUs = 1 : i64, kStageId = 0 : i64, kStageMultiplier = 1 : i64, kUniqueId = 931 : i64, kUserCreated = false} : (tensor<64x60xbf16>) -> (tensor<64x60xbf16>, tensor<64x60xbf16>)
          %110 = "tlir.Sigmoid"(%97) {DataLayout0 = #tlir.layout<CV,RM,VA>, NumSamples0 = 1 : i64, NumSamples0S = 2 : i64, kConfigured = true, kDieID = -1 : i64, kIsCriticalStage = false, kLatency = -1.000000e+00 : f64, kMacID = "ptconvlstm__lstm_layer__lstm", kName = "ptconvlstm__lstm_layer__lstm_f_t", kStageId = 0 : i64, kStageLatency = -1.000000e+00 : f64, kStageMultiplier = 1 : i64, kTemplateName = "sigmoid_0_0_709", kUniqueId = 709 : i64, kUserCreated = true} : (tensor<64x60xbf16>) -> tensor<64x60xbf16>
          %111:2 = "tlir.Buffer"(%110) {DataLayout0 = #tlir.layout<CV,RM,VA>, DataLayout1 = #tlir.layout<CV,RM,VA>, NumSamples1 = 1 : i64, NumSamples1S = 2 : i64, kBufferType = 1 : i64, kConfigured = true, kDepth = 1 : i64, kHead0CtrlFlowEnable = false, kHead1CtrlFlowEnable = false, kHead1MultipleSample = false, kIsStageBuffer = false, kMacID = "default_930", kName = "gbuf1a_0_0_930", kNumHead0RdEn = 0 : i64, kNumHead1RdEn = 0 : i64, kNumPMUs = 1 : i64, kStageId = 0 : i64, kStageMultiplier = 1 : i64, kUniqueId = 930 : i64, kUserCreated = false} : (tensor<64x60xbf16>) -> (tensor<64x60xbf16>, tensor<64x60xbf16>)
          %112 = "tlir.Tanh"(%102) {DataLayout0 = #tlir.layout<CV,RM,VA>, NumSamples0 = 1 : i64, NumSamples0S = 2 : i64, kConfigured = true, kDieID = -1 : i64, kIsCriticalStage = false, kLatency = -1.000000e+00 : f64, kMacID = "ptconvlstm__lstm_layer__lstm", kName = "ptconvlstm__lstm_layer__lstm_g_t", kStageId = 0 : i64, kStageLatency = -1.000000e+00 : f64, kStageMultiplier = 1 : i64, kTemplateName = "tanh_0_0_710", kUniqueId = 710 : i64, kUserCreated = true} : (tensor<64x60xbf16>) -> tensor<64x60xbf16>
          %113:2 = "tlir.Buffer"(%112) {DataLayout0 = #tlir.layout<CV,RM,VA>, DataLayout1 = #tlir.layout<CV,RM,VA>, NumSamples1 = 1 : i64, NumSamples1S = 2 : i64, kBufferType = 1 : i64, kConfigured = true, kDepth = 1 : i64, kHead0CtrlFlowEnable = false, kHead1CtrlFlowEnable = false, kHead1MultipleSample = false, kIsStageBuffer = false, kMacID = "default_932", kName = "gbuf1a_0_0_932", kNumHead0RdEn = 0 : i64, kNumHead1RdEn = 0 : i64, kNumPMUs = 1 : i64, kStageId = 0 : i64, kStageMultiplier = 1 : i64, kUniqueId = 932 : i64, kUserCreated = false} : (tensor<64x60xbf16>) -> (tensor<64x60xbf16>, tensor<64x60xbf16>)
          %114 = "tlir.Sigmoid"(%107) {DataLayout0 = #tlir.layout<CV,RM,VA>, NumSamples0 = 1 : i64, NumSamples0S = 2 : i64, kConfigured = true, kDieID = -1 : i64, kIsCriticalStage = false, kLatency = -1.000000e+00 : f64, kMacID = "ptconvlstm__lstm_layer__lstm", kName = "ptconvlstm__lstm_layer__lstm_o_t", kStageId = 0 : i64, kStageLatency = -1.000000e+00 : f64, kStageMultiplier = 1 : i64, kTemplateName = "sigmoid_0_0_711", kUniqueId = 711 : i64, kUserCreated = true} : (tensor<64x60xbf16>) -> tensor<64x60xbf16>
          %115:2 = "tlir.Buffer"(%114) {DataLayout0 = #tlir.layout<CV,RM,VA>, DataLayout1 = #tlir.layout<CV,RM,VA>, NumSamples1 = 1 : i64, NumSamples1S = 2 : i64, kBufferType = 1 : i64, kConfigured = true, kDepth = 1 : i64, kHead0CtrlFlowEnable = false, kHead1CtrlFlowEnable = false, kHead1MultipleSample = false, kIsStageBuffer = false, kMacID = "default_935", kName = "gbuf1a_0_0_935", kNumHead0RdEn = 0 : i64, kNumHead1RdEn = 0 : i64, kNumPMUs = 1 : i64, kStageId = 0 : i64, kStageMultiplier = 1 : i64, kUniqueId = 935 : i64, kUserCreated = false} : (tensor<64x60xbf16>) -> (tensor<64x60xbf16>, tensor<64x60xbf16>)
          %116:2 = "tlir.Buffer"(%51#1) {DataLayout0 = #tlir.layout<CV,RM,VA>, DataLayout1 = #tlir.layout<CV,RM,VA>, NumSamples1 = 1 : i64, NumSamples1S = 2 : i64, kBufHead = 1 : i64, kBufferType = 1 : i64, kConfigured = true, kDepth = 1 : i64, kHead0CtrlFlowEnable = false, kHead1CtrlFlowEnable = false, kHead1MultipleSample = false, kIsStageBuffer = false, kMacID = "default_811", kName = "gbuf1a_0_0_811", kNumHead0RdEn = 0 : i64, kNumHead1RdEn = 0 : i64, kNumPMUs = 1 : i64, kStageId = 0 : i64, kStageMultiplier = 1 : i64, kTranspose = 0 : i64, kUniqueId = 811 : i64, kUserCreated = false} : (tensor<64x60xbf16>) -> (tensor<64x60xbf16>, tensor<64x60xbf16>)
          %117 = "tlir.Mul"(%111#1, %116#1) {DataLayout0 = #tlir.layout<CV,RM,VA>, NumSamples0 = 1 : i64, NumSamples0S = 2 : i64, kBinaryOp = true, kConfigured = true, kDieID = -1 : i64, kIsCriticalStage = false, kLatency = -1.000000e+00 : f64, kMacID = "ptconvlstm__lstm_layer__lstm", kName = "ptconvlstm__lstm_layer__lstm_mul0", kStageId = 0 : i64, kStageLatency = -1.000000e+00 : f64, kStageMultiplier = 1 : i64, kTemplateName = "mul_0_0_712", kUniqueId = 712 : i64, kUserCreated = true} : (tensor<64x60xbf16>, tensor<64x60xbf16>) -> tensor<64x60xbf16>
          %118:2 = "tlir.Buffer"(%117) {DataLayout0 = #tlir.layout<CV,RM,VA>, DataLayout1 = #tlir.layout<CV,RM,VA>, NumSamples1 = 1 : i64, NumSamples1S = 2 : i64, kBufferType = 1 : i64, kConfigured = true, kDepth = 1 : i64, kHead0CtrlFlowEnable = false, kHead1CtrlFlowEnable = false, kHead1MultipleSample = false, kIsStageBuffer = false, kMacID = "default_933", kName = "gbuf1a_0_0_933", kNumHead0RdEn = 0 : i64, kNumHead1RdEn = 0 : i64, kNumPMUs = 1 : i64, kStageId = 0 : i64, kStageMultiplier = 1 : i64, kUniqueId = 933 : i64, kUserCreated = false} : (tensor<64x60xbf16>) -> (tensor<64x60xbf16>, tensor<64x60xbf16>)
          %119 = "tlir.Mul"(%109#1, %113#1) {DataLayout0 = #tlir.layout<CV,RM,VA>, NumSamples0 = 1 : i64, NumSamples0S = 2 : i64, kBinaryOp = true, kConfigured = true, kDieID = -1 : i64, kIsCriticalStage = false, kLatency = -1.000000e+00 : f64, kMacID = "ptconvlstm__lstm_layer__lstm", kName = "ptconvlstm__lstm_layer__lstm_mul1", kStageId = 0 : i64, kStageLatency = -1.000000e+00 : f64, kStageMultiplier = 1 : i64, kTemplateName = "mul_0_0_713", kUniqueId = 713 : i64, kUserCreated = true} : (tensor<64x60xbf16>, tensor<64x60xbf16>) -> tensor<64x60xbf16>
          %120:2 = "tlir.Buffer"(%119) {DataLayout0 = #tlir.layout<CV,RM,VA>, DataLayout1 = #tlir.layout<CV,RM,VA>, NumSamples1 = 1 : i64, NumSamples1S = 2 : i64, kBufferType = 1 : i64, kConfigured = true, kDepth = 1 : i64, kHead0CtrlFlowEnable = false, kHead1CtrlFlowEnable = false, kHead1MultipleSample = false, kIsStageBuffer = false, kMacID = "default_934", kName = "gbuf1a_0_0_934", kNumHead0RdEn = 0 : i64, kNumHead1RdEn = 0 : i64, kNumPMUs = 1 : i64, kStageId = 0 : i64, kStageMultiplier = 1 : i64, kUniqueId = 934 : i64, kUserCreated = false} : (tensor<64x60xbf16>) -> (tensor<64x60xbf16>, tensor<64x60xbf16>)
          %121 = "tlir.AddV2"(%118#1, %120#1) {DataLayout0 = #tlir.layout<CV,RM,VA>, NumSamples0 = 1 : i64, NumSamples0S = 2 : i64, kBinaryOp = true, kConfigured = true, kDieID = -1 : i64, kIsCriticalStage = false, kLatency = -1.000000e+00 : f64, kMacID = "ptconvlstm__lstm_layer__lstm", kName = "ptconvlstm__lstm_layer__lstm_cell", kStageId = 0 : i64, kStageLatency = -1.000000e+00 : f64, kStageMultiplier = 1 : i64, kTemplateName = "add_0_0_714", kUniqueId = 714 : i64, kUserCreated = true} : (tensor<64x60xbf16>, tensor<64x60xbf16>) -> tensor<64x60xbf16>
          %122 = "tlir.Tanh"(%121) {DataLayout0 = #tlir.layout<CV,RM,VA>, NumSamples0 = 1 : i64, NumSamples0S = 2 : i64, kConfigured = true, kDieID = -1 : i64, kIsCriticalStage = false, kLatency = -1.000000e+00 : f64, kMacID = "ptconvlstm__lstm_layer__lstm", kName = "ptconvlstm__lstm_layer__lstm_tanh_cell", kStageId = 0 : i64, kStageLatency = -1.000000e+00 : f64, kStageMultiplier = 1 : i64, kTemplateName = "tanh_0_0_715", kUniqueId = 715 : i64, kUserCreated = true} : (tensor<64x60xbf16>) -> tensor<64x60xbf16>
          %123:2 = "tlir.Buffer"(%122) {DataLayout0 = #tlir.layout<CV,RM,VA>, DataLayout1 = #tlir.layout<CV,RM,VA>, NumSamples1 = 1 : i64, NumSamples1S = 2 : i64, kBufferType = 1 : i64, kConfigured = true, kDepth = 1 : i64, kHead0CtrlFlowEnable = false, kHead1CtrlFlowEnable = false, kHead1MultipleSample = false, kIsStageBuffer = false, kMacID = "default_936", kName = "gbuf1a_0_0_936", kNumHead0RdEn = 0 : i64, kNumHead1RdEn = 0 : i64, kNumPMUs = 1 : i64, kStageId = 0 : i64, kStageMultiplier = 1 : i64, kUniqueId = 936 : i64, kUserCreated = false} : (tensor<64x60xbf16>) -> (tensor<64x60xbf16>, tensor<64x60xbf16>)
          %124 = "tlir.Mul"(%115#1, %123#1) {DataLayout0 = #tlir.layout<CV,RM,VA>, NumSamples0 = 1 : i64, NumSamples0S = 2 : i64, kBinaryOp = true, kConfigured = true, kDieID = -1 : i64, kIsCriticalStage = false, kLatency = -1.000000e+00 : f64, kMacID = "ptconvlstm__lstm_layer__lstm", kName = "ptconvlstm__lstm_layer__lstm_hidden", kStageId = 0 : i64, kStageLatency = -1.000000e+00 : f64, kStageMultiplier = 1 : i64, kTemplateName = "mul_0_0_716", kUniqueId = 716 : i64, kUserCreated = true} : (tensor<64x60xbf16>, tensor<64x60xbf16>) -> tensor<64x60xbf16>
          %125 = "tlir.VectorTranspose"(%124) {DataLayout0 = #tlir.layout<CV,CM,VA>, NumSamples0 = 1 : i64, NumSamples0S = 2 : i64, kConfigured = true, kMacID = "default_886", kName = "vector_transpose_0_0_886", kStageId = 0 : i64, kStageMultiplier = 1 : i64, kTemplateName = "vector_transpose_0_0_886", kUniqueId = 886 : i64, kUserCreated = false} : (tensor<64x60xbf16>) -> tensor<64x60xbf16>
          %126 = "tlir.PermuteView"(%125) {DataLayout0 = #tlir.layout<RV,RM,VA>, NumSamples0 = 1 : i64, NumSamples0S = 2 : i64, kConfigured = true, kDieID = -1 : i64, kIsCriticalStage = false, kLatency = -1.000000e+00 : f64, kMacID = "ptconvlstm__lstm_layer__lstm", kName = "ptconvlstm__lstm_layer__lstm_output_i_t", kPermutation = [1, 0], kStageId = 0 : i64, kStageLatency = -1.000000e+00 : f64, kStageMultiplier = 1 : i64, kTemplateName = "permute_view_0_0_547", kUniqueId = 547 : i64, kUserCreated = true} : (tensor<64x60xbf16>) -> tensor<60x64xbf16>
          %127:2 = "tlir.Buffer"(%126) {DataLayout0 = #tlir.layout<RV,CM,VA>, DataLayout1 = #tlir.layout<RV,CM,VA>, NumSamples1 = 1 : i64, NumSamples1S = 2 : i64, kBufHead = 1 : i64, kBufferType = 7 : i64, kChipID = 0 : i64, kConfigured = true, kDepth = 2 : i64, kHead0CtrlFlowEnable = false, kHead1CtrlFlowEnable = true, kHead1MultipleSample = false, kIsStageBuffer = true, kMacID = "default_334", kName = "tbuf2u_0_0_334", kNumHead0RdEn = 0 : i64, kNumHead1RdEn = 2 : i64, kNumPMUs = 1 : i64, kStageId = 0 : i64, kStageMultiplier = 1 : i64, kUniqueId = 334 : i64, kUserCreated = true, kWriteVT = true} : (tensor<60x64xbf16>) -> (tensor<60x64xbf16>, tensor<60x64xbf16>)
          %128:2 = "tlir.Buffer"(%46) {DataLayout0 = #tlir.layout<RV,RM,UA>, DataLayout1 = #tlir.layout<RV,RM,UA>, NumSamples1 = 1 : i64, NumSamples1S = 2 : i64, kBufHead = 1 : i64, kBufferType = 7 : i64, kChipID = 0 : i64, kConfigured = true, kDepth = 1 : i64, kHead0CtrlFlowEnable = false, kHead1CtrlFlowEnable = false, kHead1MultipleSample = false, kIsStageBuffer = false, kMacID = "default_335", kName = "tbuf1u_0_0_335", kNumHead0RdEn = 0 : i64, kNumHead1RdEn = 0 : i64, kNumPMUs = 1 : i64, kRereads1 = [1], kStageId = 1 : i64, kStageMultiplier = 1 : i64, kUniqueId = 335 : i64, kUserCreated = true} : (tensor<1xi32>) -> (tensor<1xi32>, tensor<1xi32>)
          %129 = "tlir.Index"(%127#1, %128#1) {DataLayout0 = #tlir.layout<RV,CM,VA>, NumSamples0 = 1 : i64, NumSamples0S = 2 : i64, kConfigured = true, kDieID = -1 : i64, kDim = 0 : i64, kIsCriticalStage = false, kLatency = 2.000000e+00 : f64, kMacID = "ptconvlstm__indexselect", kName = "ptconvlstm__indexselect", kStageId = 1 : i64, kStageLatency = 2.000000e+00 : f64, kStageMultiplier = 1 : i64, kTemplateName = "rail_index_0_0_548", kUniqueId = 548 : i64, kUserCreated = true} : (tensor<60x64xbf16>, tensor<1xi32>) -> tensor<1x64xbf16>
          %130:2 = "tlir.Buffer"(%129) {DataLayout0 = #tlir.layout<CV,RM,VA>, DataLayout1 = #tlir.layout<CV,RM,VA>, NumSamples1 = 1 : i64, NumSamples1S = 2 : i64, kBufHead = 1 : i64, kBufferType = 7 : i64, kChipID = 0 : i64, kConfigured = true, kDepth = 2 : i64, kHead0CtrlFlowEnable = false, kHead1CtrlFlowEnable = true, kHead1MultipleSample = true, kIsStageBuffer = true, kLayoutPermutation = [1, 0], kMacID = "default_342", kName = "tbuf2u_0_0_342", kNumHead0RdEn = 0 : i64, kNumHead1RdEn = 2 : i64, kNumPMUs = 1 : i64, kStageId = 1 : i64, kStageMultiplier = 1 : i64, kUniqueId = 342 : i64, kUserCreated = true} : (tensor<1x64xbf16>) -> (tensor<64x1xbf16>, tensor<64x1xbf16>)
          %131 = "tlir.Linear"(%47, %130#1) {DataLayout0 = #tlir.layout<CV,RM,VA>, NumSamples0 = 1 : i64, NumSamples0S = 2 : i64, kBoxLayout = true, kBoxPerPartition = true, kBoxPerWbufSplit = false, kConfigured = true, kInputAIsWeight = true, kMacID = "default_794", kName = "ptconvlstm__dense_layer__linear_wo_bias", kNumColComputeUnits = 1 : i64, kNumPartitions = 3 : i64, kNumRowComputeUnits = 7 : i64, kReadAHead = 0 : i32, kReadBHead = 1 : i32, kStageId = 1 : i64, kStageLatency = 7.980000e+02 : f64, kStageMultiplier = 1 : i64, kTemplateName = "biggemm_0_0_794", kUniqueId = 794 : i64, kUseBigGemm = true, kUserCreated = false, kWbufBlockInterleavedWrite = false, kWbufSplit = false, kWeightCaching = false} : (tensor<4080x64xbf16>, tensor<64x1xbf16>) -> tensor<4080x1xbf16>
          %132:2 = "tlir.Buffer"(%131) {DataLayout0 = #tlir.layout<CV,RM,VA>, DataLayout1 = #tlir.layout<CV,RM,VA>, NumSamples1 = 1 : i64, NumSamples1S = 2 : i64, kBufHead = 1 : i64, kBufferType = 1 : i64, kConfigured = true, kDepth = 2 : i64, kHead0CtrlFlowEnable = false, kHead1CtrlFlowEnable = true, kHead1MultipleSample = false, kIsStageBuffer = true, kMacID = "default_795", kName = "ptconvlstm__dense_layer__linear_stage_buf", kNumHead0RdEn = 0 : i64, kNumHead1RdEn = 2 : i64, kNumPMUs = 1 : i64, kStageId = 1 : i64, kStageLatency = 7.980000e+02 : f64, kStageMultiplier = 1 : i64, kUniqueId = 795 : i64, kUserCreated = false} : (tensor<4080x1xbf16>) -> (tensor<4080x1xbf16>, tensor<4080x1xbf16>)
          %133 = "tlir.AddBias"(%48, %132#1) {DataLayout0 = #tlir.layout<CV,RM,VA>, NumSamples0 = 1 : i64, NumSamples0S = 2 : i64, kConfigured = true, kMacID = "default_796", kName = "ptconvlstm__dense_layer__linear_add_bias", kStageId = 1 : i64, kStageLatency = 7.980000e+02 : f64, kStageMultiplier = 1 : i64, kTemplateName = "bias_add_0_0_796", kUniqueId = 796 : i64, kUserCreated = false, kWbufSplit = false, kWeightCaching = false} : (tensor<4080x1xbf16>, tensor<4080x1xbf16>) -> tensor<4080x1xbf16>
          %134:2 = "tlir.Buffer"(%133) {DataLayout0 = #tlir.layout<CV,RM,VA>, DataLayout1 = #tlir.layout<CV,RM,VA>, DataLayoutkLayoutCastOutputLayout = #tlir.layout<CV,CM,VA>, DataLayoutkLayoutCastRequiredLayout = #tlir.layout<CV,RM,VA>, NumSamples1 = 1 : i64, NumSamples1S = 2 : i64, kBufHead = 1 : i64, kBufferType = 1 : i64, kChipID = 0 : i64, kConfigured = true, kDepth = 2 : i64, kHead0CtrlFlowEnable = false, kHead1CtrlFlowEnable = true, kHead1MultipleSample = true, kIsStageBuffer = true, kLayoutCastChecked = false, kLayoutCastEmbedded = false, kMacID = "default_344", kName = "gbuf2u_0_0_344", kNumHead0RdEn = 0 : i64, kNumHead1RdEn = 2 : i64, kNumPMUs = 1 : i64, kStageId = 1 : i64, kStageMultiplier = 1 : i64, kUniqueId = 344 : i64, kUserCreated = true} : (tensor<4080x1xbf16>) -> (tensor<4080x1xbf16>, tensor<4080x1xbf16>)
          %135 = "tlir.LayoutCast"(%134#1) {DataLayout0 = #tlir.layout<CV,CM,VA>, DataLayoutkOutputLayout = #tlir.layout<CV,CM,VA>, DataLayoutkRequiredLayout = #tlir.layout<CV,RM,VA>, NumSamples0 = 1 : i64, NumSamples0S = 2 : i64, kChecked = false, kConfigured = true, kMacID = "default_968", kName = "layout_cast_0_0_968", kStageId = 1 : i64, kStageMultiplier = 1 : i64, kTemplateName = "layout_cast_0_0_968", kUniqueId = 968 : i64, kUserCreated = false} : (tensor<4080x1xbf16>) -> tensor<4080x1xbf16>
          %136 = "tlir.PermuteView"(%135) {DataLayout0 = #tlir.layout<RV,RM,VA>, NumSamples0 = 1 : i64, NumSamples0S = 2 : i64, kConfigured = true, kDieID = -1 : i64, kIsCriticalStage = false, kLatency = 0.000000e+00 : f64, kMacID = "ptconvlstm__dense_layer__linear_t_output0", kName = "ptconvlstm__dense_layer__linear_t_output0", kPermutation = [1, 0], kStageId = 1 : i64, kStageLatency = 0.000000e+00 : f64, kStageMultiplier = 1 : i64, kTemplateName = "permute_view_0_0_551", kUniqueId = 551 : i64, kUserCreated = true} : (tensor<4080x1xbf16>) -> tensor<1x4080xbf16>
          %137:2 = "tlir.Buffer"(%136) {DataLayout0 = #tlir.layout<RV,RM,VA>, DataLayout1 = #tlir.layout<RV,RM,VA>, NumSamples0 = 1 : i64, NumSamples0S = 2 : i64, NumSamples1 = 1 : i64, NumSamples1S = 2 : i64, kBufferType = 1 : i64, kConfigured = true, kDepth = 2 : i64, kHead0CtrlFlowEnable = true, kHead0Hydra = 0 : i64, kHead0MultipleSample = true, kHead0ReadParFactor = 0 : i64, kHead1CtrlFlowEnable = true, kHead1Hydra = 0 : i64, kHead1MultipleSample = true, kHead1ReadParFactor = 0 : i64, kIsImageBuffer = false, kIsSplitImageBuffer = false, kIsStageBuffer = true, kMacID = "default_974", kName = "gbuf2a_0_0_974", kNumHead0RdEn = 2 : i64, kNumHead1RdEn = 2 : i64, kNumPMUs = 1 : i64, kReadVT = false, kStageId = 1 : i64, kStageMultiplier = 1 : i64, kTranspose = 0 : i64, kUniqueId = 974 : i64, kUserCreated = false, kWriteVT = false} : (tensor<1x4080xbf16>) -> (tensor<1x4080xbf16>, tensor<1x4080xbf16>)
          %138 = "tlir.Reshape"(%137#0) {DataLayout0 = #tlir.layout<RV,RM,SA>, NumSamples0 = 1 : i64, NumSamples0S = 2 : i64, kConfigured = true, kDieID = -1 : i64, kIsCriticalStage = false, kLatency = 1.300000e+01 : f64, kMacID = "ptconvlstm__view", kName = "ptconvlstm__view", kStageId = 1 : i64, kStageLatency = 1.300000e+01 : f64, kStageMultiplier = 1 : i64, kTemplateName = "reshape_0_0_552", kUniqueId = 552 : i64, kUserCreated = true} : (tensor<1x4080xbf16>) -> tensor<30x136xbf16>
          %139:2 = "tlir.Buffer"(%126) {DataLayout0 = #tlir.layout<RV,RM,VA>, DataLayout1 = #tlir.layout<RV,RM,VA>, NumSamples1 = 1 : i64, NumSamples1S = 2 : i64, kBufHead = 1 : i64, kBufferType = 1 : i64, kConfigured = true, kDepth = 2 : i64, kHead0CtrlFlowEnable = false, kHead1CtrlFlowEnable = false, kIsStageBuffer = true, kMacID = "default_819", kName = "gbuf2a_0_0_819", kNumHead0RdEn = 0 : i64, kNumHead1RdEn = 0 : i64, kNumPMUs = 1 : i64, kStageId = 0 : i64, kStageMultiplier = 1 : i64, kUniqueId = 819 : i64, kUserCreated = false} : (tensor<60x64xbf16>) -> (tensor<60x64xbf16>, tensor<60x64xbf16>)
          "tlir.Store"(%26, %139#1) {kChipID = 0 : i64, kConfigured = true, kEndBorders = [2, 60, 64], kGroup = 35 : i64, kIterations = 1 : i64, kMacID = "default_487", kName = "ptconvlstm__lstm_layer__lstm_meta_outputs0_used_by_ptconvlstm__lstm_layer__lstm_shifted_outputs_0_0_487", kRemovesAlignment = false, kRequiresWBuf = false, kReverseLoops = [false], kStageId = 0 : i64, kStageMultiplier = 1 : i64, kStartBorders = [1, 0, 0], kStoreTile = true, kTemplateName = "store_0_0_487", kUniqueId = 487 : i64, kUseVectorTranspose = false, kUserCreated = true, kZeroFill = false} : (tensor<2x60x64xbf16>, tensor<60x64xbf16>) -> ()
          %140:2 = "tlir.Buffer"(%108) {DataLayout0 = #tlir.layout<CV,RM,VA>, DataLayout1 = #tlir.layout<CV,RM,VA>, NumSamples1 = 1 : i64, NumSamples1S = 2 : i64, kBufHead = 1 : i64, kBufferType = 1 : i64, kConfigured = true, kDepth = 2 : i64, kHead0CtrlFlowEnable = false, kHead1CtrlFlowEnable = false, kIsStageBuffer = true, kMacID = "default_813", kName = "gbuf2a_0_0_813", kNumHead0RdEn = 0 : i64, kNumHead1RdEn = 0 : i64, kNumPMUs = 1 : i64, kStageId = 0 : i64, kStageMultiplier = 1 : i64, kUniqueId = 813 : i64, kUserCreated = false} : (tensor<64x60xbf16>) -> (tensor<64x60xbf16>, tensor<64x60xbf16>)
          "tlir.Store"(%21, %140#1) {kChipID = 0 : i64, kConfigured = true, kGroup = 36 : i64, kIsCheckPoint = false, kIterations = 1 : i64, kMacID = "default_488", kName = "ptconvlstm__lstm_layer__lstm3_used_by_ptconvlstm__lstm_layer__lstm_bwd_0_0_488", kOpRWPattern0 = "kWriteOperand", kRemovesAlignment = false, kRequiresWBuf = false, kReverseLoops = [false], kSliceAxes = [0], kSliceSize = 1 : i64, kSliceSubtensor = false, kStageId = 0 : i64, kStageMultiplier = 1 : i64, kStoreSlice = true, kStoreTile = false, kTemplateName = "store_0_0_488", kUniqueId = 488 : i64, kUseVectorTranspose = false, kUserCreated = true} : (tensor<1x64x60xbf16>, tensor<64x60xbf16>) -> ()
          %141:2 = "tlir.Buffer"(%110) {DataLayout0 = #tlir.layout<CV,RM,VA>, DataLayout1 = #tlir.layout<CV,RM,VA>, NumSamples1 = 1 : i64, NumSamples1S = 2 : i64, kBufHead = 1 : i64, kBufferType = 1 : i64, kConfigured = true, kDepth = 2 : i64, kHead0CtrlFlowEnable = false, kHead1CtrlFlowEnable = false, kIsStageBuffer = true, kMacID = "default_814", kName = "gbuf2a_0_0_814", kNumHead0RdEn = 0 : i64, kNumHead1RdEn = 0 : i64, kNumPMUs = 1 : i64, kStageId = 0 : i64, kStageMultiplier = 1 : i64, kUniqueId = 814 : i64, kUserCreated = false} : (tensor<64x60xbf16>) -> (tensor<64x60xbf16>, tensor<64x60xbf16>)
          "tlir.Store"(%22, %141#1) {kChipID = 0 : i64, kConfigured = true, kGroup = 37 : i64, kIsCheckPoint = false, kIterations = 1 : i64, kMacID = "default_489", kName = "ptconvlstm__lstm_layer__lstm4_used_by_ptconvlstm__lstm_layer__lstm_bwd_0_0_489", kOpRWPattern0 = "kWriteOperand", kRemovesAlignment = false, kRequiresWBuf = false, kReverseLoops = [false], kSliceAxes = [0], kSliceSize = 1 : i64, kSliceSubtensor = false, kStageId = 0 : i64, kStageMultiplier = 1 : i64, kStoreSlice = true, kStoreTile = false, kTemplateName = "store_0_0_489", kUniqueId = 489 : i64, kUseVectorTranspose = false, kUserCreated = true} : (tensor<1x64x60xbf16>, tensor<64x60xbf16>) -> ()
          %142:2 = "tlir.Buffer"(%112) {DataLayout0 = #tlir.layout<CV,RM,VA>, DataLayout1 = #tlir.layout<CV,RM,VA>, NumSamples1 = 1 : i64, NumSamples1S = 2 : i64, kBufHead = 1 : i64, kBufferType = 1 : i64, kConfigured = true, kDepth = 2 : i64, kHead0CtrlFlowEnable = false, kHead1CtrlFlowEnable = false, kIsStageBuffer = true, kMacID = "default_815", kName = "gbuf2a_0_0_815", kNumHead0RdEn = 0 : i64, kNumHead1RdEn = 0 : i64, kNumPMUs = 1 : i64, kStageId = 0 : i64, kStageMultiplier = 1 : i64, kUniqueId = 815 : i64, kUserCreated = false} : (tensor<64x60xbf16>) -> (tensor<64x60xbf16>, tensor<64x60xbf16>)
          "tlir.Store"(%23, %142#1) {kChipID = 0 : i64, kConfigured = true, kGroup = 38 : i64, kIsCheckPoint = false, kIterations = 1 : i64, kMacID = "default_490", kName = "ptconvlstm__lstm_layer__lstm5_used_by_ptconvlstm__lstm_layer__lstm_bwd_0_0_490", kOpRWPattern0 = "kWriteOperand", kRemovesAlignment = false, kRequiresWBuf = false, kReverseLoops = [false], kSliceAxes = [0], kSliceSize = 1 : i64, kSliceSubtensor = false, kStageId = 0 : i64, kStageMultiplier = 1 : i64, kStoreSlice = true, kStoreTile = false, kTemplateName = "store_0_0_490", kUniqueId = 490 : i64, kUseVectorTranspose = false, kUserCreated = true} : (tensor<1x64x60xbf16>, tensor<64x60xbf16>) -> ()
          %143:2 = "tlir.Buffer"(%114) {DataLayout0 = #tlir.layout<CV,RM,VA>, DataLayout1 = #tlir.layout<CV,RM,VA>, NumSamples1 = 1 : i64, NumSamples1S = 2 : i64, kBufHead = 1 : i64, kBufferType = 1 : i64, kConfigured = true, kDepth = 2 : i64, kHead0CtrlFlowEnable = false, kHead1CtrlFlowEnable = false, kIsStageBuffer = true, kMacID = "default_816", kName = "gbuf2a_0_0_816", kNumHead0RdEn = 0 : i64, kNumHead1RdEn = 0 : i64, kNumPMUs = 1 : i64, kStageId = 0 : i64, kStageMultiplier = 1 : i64, kUniqueId = 816 : i64, kUserCreated = false} : (tensor<64x60xbf16>) -> (tensor<64x60xbf16>, tensor<64x60xbf16>)
          "tlir.Store"(%24, %143#1) {kChipID = 0 : i64, kConfigured = true, kGroup = 39 : i64, kIsCheckPoint = false, kIterations = 1 : i64, kMacID = "default_491", kName = "ptconvlstm__lstm_layer__lstm6_used_by_ptconvlstm__lstm_layer__lstm_bwd_0_0_491", kOpRWPattern0 = "kWriteOperand", kRemovesAlignment = false, kRequiresWBuf = false, kReverseLoops = [false], kSliceAxes = [0], kSliceSize = 1 : i64, kSliceSubtensor = false, kStageId = 0 : i64, kStageMultiplier = 1 : i64, kStoreSlice = true, kStoreTile = false, kTemplateName = "store_0_0_491", kUniqueId = 491 : i64, kUseVectorTranspose = false, kUserCreated = true} : (tensor<1x64x60xbf16>, tensor<64x60xbf16>) -> ()
          %144:2 = "tlir.Buffer"(%51#1) {DataLayout0 = #tlir.layout<CV,RM,VA>, DataLayout1 = #tlir.layout<CV,RM,VA>, NumSamples1 = 1 : i64, NumSamples1S = 2 : i64, kBufHead = 1 : i64, kBufferType = 1 : i64, kConfigured = true, kDepth = 2 : i64, kHead0CtrlFlowEnable = false, kHead1CtrlFlowEnable = false, kIsStageBuffer = true, kMacID = "default_812", kName = "gbuf2a_0_0_812", kNumHead0RdEn = 0 : i64, kNumHead1RdEn = 0 : i64, kNumPMUs = 1 : i64, kStageId = 0 : i64, kStageMultiplier = 1 : i64, kTranspose = 0 : i64, kUniqueId = 812 : i64, kUserCreated = false} : (tensor<64x60xbf16>) -> (tensor<64x60xbf16>, tensor<64x60xbf16>)
          "tlir.Store"(%25, %144#1) {kChipID = 0 : i64, kConfigured = true, kGroup = 40 : i64, kIsCheckPoint = false, kIterations = 1 : i64, kMacID = "default_492", kName = "ptconvlstm__lstm_layer__lstm7_used_by_ptconvlstm__lstm_layer__lstm_bwd_0_0_492", kOpRWPattern0 = "kWriteOperand", kRemovesAlignment = false, kRequiresWBuf = false, kReverseLoops = [false], kSliceAxes = [0], kSliceSize = 1 : i64, kSliceSubtensor = false, kStageId = 0 : i64, kStageMultiplier = 1 : i64, kStoreSlice = true, kStoreTile = false, kTemplateName = "store_0_0_492", kUniqueId = 492 : i64, kUseVectorTranspose = false, kUserCreated = true} : (tensor<1x64x60xbf16>, tensor<64x60xbf16>) -> ()
          "tlir.mutate.TemporalConcat"(%49, %137#1) {kAxis = 0 : i64, kChipID = 0 : i64, kConfigured = true, kIsReverse = false, kKeepDim = true, kMacID = "default_355", kName = "temporalconcat355", kOpRWPattern0 = "kWriteOperand", kStageId = 1 : i64, kStageMultiplier = 1 : i64, kTemplateName = "tconcat_0_0_355", kUniqueId = 355 : i64, kUserCreated = true} : (tensor<1x4080xbf16>, tensor<1x4080xbf16>) -> ()
          %145:2 = "tlir.Buffer"(%138) {DataLayout0 = #tlir.layout<RV,RM,SA>, DataLayout1 = #tlir.layout<RV,RM,SA>, NumSamples1 = 1 : i64, NumSamples1S = 2 : i64, kBufHead = 1 : i64, kBufferType = 1 : i64, kConfigured = true, kDepth = 2 : i64, kHead0CtrlFlowEnable = false, kHead1CtrlFlowEnable = false, kIsStageBuffer = true, kMacID = "default_820", kName = "gbuf2a_0_0_820", kNumHead0RdEn = 0 : i64, kNumHead1RdEn = 0 : i64, kNumPMUs = 1 : i64, kStageId = 1 : i64, kStageMultiplier = 1 : i64, kUniqueId = 820 : i64, kUserCreated = false} : (tensor<30x136xbf16>) -> (tensor<30x136xbf16>, tensor<30x136xbf16>)
          "tlir.Store"(%29, %145#1) {kChipID = 0 : i64, kConfigured = true, kGroup = 41 : i64, kIsCheckPoint = false, kIterations = 1 : i64, kMacID = "default_493", kName = "ptconvlstm__view__outputs__0_0_0_493", kOpRWPattern0 = "kWriteOperand", kRemovesAlignment = true, kRequiresWBuf = false, kReverseLoops = [false], kSliceAxes = [0], kSliceSize = 1 : i64, kSliceSubtensor = false, kStageId = 1 : i64, kStageMultiplier = 1 : i64, kStoreSlice = true, kStoreTile = false, kTemplateName = "store_0_0_493", kUniqueId = 493 : i64, kUseVectorTranspose = false, kUserCreated = true} : (tensor<1x30x136xbf16>, tensor<30x136xbf16>) -> ()
          %146:2 = "tlir.Buffer"(%124) {DataLayout0 = #tlir.layout<CV,RM,VA>, DataLayout1 = #tlir.layout<CV,RM,VA>, NumSamples1 = 1 : i64, NumSamples1S = 2 : i64, kBufHead = 1 : i64, kBufferType = 1 : i64, kConfigured = true, kDepth = 2 : i64, kHead0CtrlFlowEnable = false, kHead1CtrlFlowEnable = false, kIsStageBuffer = true, kMacID = "default_818", kName = "gbuf2a_0_0_818", kNumHead0RdEn = 0 : i64, kNumHead1RdEn = 0 : i64, kNumPMUs = 1 : i64, kStageId = 0 : i64, kStageMultiplier = 1 : i64, kUniqueId = 818 : i64, kUserCreated = false} : (tensor<64x60xbf16>) -> (tensor<64x60xbf16>, tensor<64x60xbf16>)
          "tlir.mutate.Assign"(%50#1, %146#1) {kChipID = 0 : i64, kConfigured = true, kMacID = "ptconvlstm__lstm_layer__lstm", kName = "ptconvlstm__lstm_layer__lstm_assign", kOpRWPattern0 = "kWriteOperand", kStageId = 0 : i64, kStageMultiplier = 1 : i64, kUniqueId = 357 : i64, kUserCreated = true} : (tensor<64x60xbf16>, tensor<64x60xbf16>) -> ()
          %147:2 = "tlir.Buffer"(%121) {DataLayout0 = #tlir.layout<CV,RM,VA>, DataLayout1 = #tlir.layout<CV,RM,VA>, NumSamples1 = 1 : i64, NumSamples1S = 2 : i64, kBufHead = 1 : i64, kBufferType = 1 : i64, kConfigured = true, kDepth = 2 : i64, kHead0CtrlFlowEnable = false, kHead1CtrlFlowEnable = false, kIsStageBuffer = true, kMacID = "default_817", kName = "gbuf2a_0_0_817", kNumHead0RdEn = 0 : i64, kNumHead1RdEn = 0 : i64, kNumPMUs = 1 : i64, kStageId = 0 : i64, kStageMultiplier = 1 : i64, kUniqueId = 817 : i64, kUserCreated = false} : (tensor<64x60xbf16>) -> (tensor<64x60xbf16>, tensor<64x60xbf16>)
          "tlir.mutate.Assign"(%51#1, %147#1) {kChipID = 0 : i64, kConfigured = true, kMacID = "ptconvlstm__lstm_layer__lstm", kName = "ptconvlstm__lstm_layer__lstm_assign_1", kOpRWPattern0 = "kWriteOperand", kStageId = 0 : i64, kStageMultiplier = 1 : i64, kUniqueId = 358 : i64, kUserCreated = true} : (tensor<64x60xbf16>, tensor<64x60xbf16>) -> ()
          "tlir.terminator"() {kConfigured = true, kMacID = "default_497", kName = "terminator497", kStageId = 0 : i64, kStageMultiplier = 1 : i64, kUniqueId = 497 : i64, kUserCreated = true} : () -> ()
        }) {kConfigured = true, kMacID = "default_328", kName = "metapipeline496", kNumIterations = 1 : i64, kStageId = 0 : i64, kUniqueId = 496 : i64, kUserCreated = true, type = none} : () -> ()
        %52:2 = "tlir.Buffer"(%49) {DataLayout0 = #tlir.layout<RV,RM,VA>, DataLayout1 = #tlir.layout<RV,RM,VA>, NumSamples1 = 1 : i64, NumSamples1S = 2 : i64, kBufferType = 1 : i64, kCoalesceFactor = 1 : i64, kConfigured = true, kDepth = 2 : i64, kHead0CtrlFlowEnable = false, kHead1CtrlFlowEnable = false, kIsLowerFromTemporalConcat = true, kIsStageBuffer = false, kMacID = "default_921", kName = "gbuf2a_0_0_921", kNumHead0RdEn = 0 : i64, kNumHead1RdEn = 0 : i64, kNumPMUs = 1 : i64, kStageId = 0 : i64, kUniqueId = 921 : i64, kUserCreated = false} : (tensor<1x4080xbf16>) -> (tensor<1x4080xbf16>, tensor<1x4080xbf16>)
        %53 = "tlir.PermuteView"(%50#0) {DataLayout0 = #tlir.layout<RV,CM,VA>, NumSamples0 = 1 : i64, NumSamples0S = 2 : i64, kConfigured = true, kDieID = -1 : i64, kIsCriticalStage = false, kLatency = -1.000000e+00 : f64, kMacID = "ptconvlstm__lstm_layer__lstm", kName = "permute_view_0_0_553", kPermutation = [1, 0], kStageId = 0 : i64, kStageLatency = -1.000000e+00 : f64, kTemplateName = "permute_view_0_0_553", kUniqueId = 553 : i64, kUserCreated = true} : (tensor<64x60xbf16>) -> tensor<60x64xbf16>
        %54 = "tlir.Reshape"(%53) {DataLayout0 = #tlir.layout<RV,CM,VA>, NumSamples0 = 1 : i64, NumSamples0S = 2 : i64, kConfigured = true, kDieID = -1 : i64, kIsCriticalStage = false, kLatency = -1.000000e+00 : f64, kMacID = "ptconvlstm__lstm_layer__lstm", kName = "reshape_0_0_554", kStageId = 0 : i64, kStageLatency = -1.000000e+00 : f64, kTemplateName = "reshape_0_0_554", kUniqueId = 554 : i64, kUserCreated = true} : (tensor<60x64xbf16>) -> tensor<1x60x64xbf16>
        %55 = "tlir.PermuteView"(%51#0) {DataLayout0 = #tlir.layout<RV,CM,VA>, NumSamples0 = 1 : i64, NumSamples0S = 2 : i64, kConfigured = true, kDieID = -1 : i64, kIsCriticalStage = false, kLatency = -1.000000e+00 : f64, kMacID = "ptconvlstm__lstm_layer__lstm", kName = "permute_view_0_0_555", kPermutation = [1, 0], kStageId = 0 : i64, kStageLatency = -1.000000e+00 : f64, kTemplateName = "permute_view_0_0_555", kUniqueId = 555 : i64, kUserCreated = true} : (tensor<64x60xbf16>) -> tensor<60x64xbf16>
        %56 = "tlir.Reshape"(%55) {DataLayout0 = #tlir.layout<RV,CM,VA>, NumSamples0 = 1 : i64, NumSamples0S = 2 : i64, kConfigured = true, kDieID = -1 : i64, kIsCriticalStage = false, kLatency = -1.000000e+00 : f64, kMacID = "ptconvlstm__lstm_layer__lstm", kName = "reshape_0_0_556", kStageId = 0 : i64, kStageLatency = -1.000000e+00 : f64, kTemplateName = "reshape_0_0_556", kUniqueId = 556 : i64, kUserCreated = true} : (tensor<60x64xbf16>) -> tensor<1x60x64xbf16>
        %57:2 = "tlir.Buffer"(%54) {DataLayout0 = #tlir.layout<RV,CM,VA>, DataLayout1 = #tlir.layout<RV,CM,VA>, NumSamples1 = 1 : i64, NumSamples1S = 2 : i64, kBufHead = 1 : i64, kBufferType = 1 : i64, kConfigured = true, kDepth = 1 : i64, kHead0CtrlFlowEnable = false, kHead1CtrlFlowEnable = false, kIsStageBuffer = false, kMacID = "default_821", kName = "gbuf1a_0_0_821", kNumHead0RdEn = 0 : i64, kNumHead1RdEn = 0 : i64, kNumPMUs = 1 : i64, kStageId = 0 : i64, kUniqueId = 821 : i64, kUserCreated = false} : (tensor<1x60x64xbf16>) -> (tensor<1x60x64xbf16>, tensor<1x60x64xbf16>)
        "tlir.Store"(%27, %57#1) {kChipID = 0 : i64, kConfigured = true, kGroup = 42 : i64, kIsCheckPoint = false, kIterations = 1 : i64, kLayoutHeuristics = false, kMacID = "default_138", kName = "ptconvlstm__lstm_layer__lstm_tensor", kOpRWPattern0 = "kWriteOperand", kRemovesAlignment = false, kRequiresWBuf = false, kSliceAxes = [], kStageId = 0 : i64, kStoreSlice = false, kTemplateName = "store_0_0_138", kUniqueId = 138 : i64, kUseVectorTranspose = true, kUserCreated = true} : (tensor<1x60x64xbf16>, tensor<1x60x64xbf16>) -> ()
        %58:2 = "tlir.Buffer"(%56) {DataLayout0 = #tlir.layout<RV,CM,VA>, DataLayout1 = #tlir.layout<RV,CM,VA>, NumSamples1 = 1 : i64, NumSamples1S = 2 : i64, kBufHead = 1 : i64, kBufferType = 1 : i64, kConfigured = true, kDepth = 1 : i64, kHead0CtrlFlowEnable = false, kHead1CtrlFlowEnable = false, kIsStageBuffer = false, kMacID = "default_822", kName = "gbuf1a_0_0_822", kNumHead0RdEn = 0 : i64, kNumHead1RdEn = 0 : i64, kNumPMUs = 1 : i64, kStageId = 0 : i64, kUniqueId = 822 : i64, kUserCreated = false} : (tensor<1x60x64xbf16>) -> (tensor<1x60x64xbf16>, tensor<1x60x64xbf16>)
        "tlir.Store"(%28, %58#1) {kChipID = 0 : i64, kConfigured = true, kGroup = 43 : i64, kIsCheckPoint = false, kIterations = 1 : i64, kLayoutHeuristics = false, kMacID = "default_139", kName = "ptconvlstm__lstm_layer__lstm_tensor1", kOpRWPattern0 = "kWriteOperand", kRemovesAlignment = false, kRequiresWBuf = false, kSliceAxes = [], kStageId = 0 : i64, kStoreSlice = false, kTemplateName = "store_0_0_139", kUniqueId = 139 : i64, kUseVectorTranspose = true, kUserCreated = true} : (tensor<1x60x64xbf16>, tensor<1x60x64xbf16>) -> ()
        %59:2 = "tlir.Buffer"(%38#1) {DataLayout0 = #tlir.layout<RV,RM,VA>, DataLayout1 = #tlir.layout<RV,RM,VA>, NumSamples1 = 1 : i64, NumSamples1S = 2 : i64, kBufHead = 1 : i64, kBufferType = 1 : i64, kConfigured = true, kDepth = 1 : i64, kHead0CtrlFlowEnable = false, kHead1CtrlFlowEnable = false, kIsStageBuffer = false, kMacID = "default_808", kName = "gbuf1a_0_0_808", kNumHead0RdEn = 0 : i64, kNumHead1RdEn = 0 : i64, kNumPMUs = 1 : i64, kStageId = 0 : i64, kUniqueId = 808 : i64, kUserCreated = false} : (tensor<1x60x64xbf16>) -> (tensor<1x60x64xbf16>, tensor<1x60x64xbf16>)
        "tlir.Store"(%26, %59#1) {kChipID = 0 : i64, kConfigured = true, kEndBorders = [1, 60, 64], kGroup = 44 : i64, kIsCheckPoint = false, kIterations = 1 : i64, kMacID = "default_298", kName = "ptconvlstm__lstm_layer__lstm_meta_outputs0_used_by_ptconvlstm__lstm_layer__lstm_shifted_outputs_0_0_298", kOpRWPattern0 = "kWriteOperand", kRemovesAlignment = false, kRequiresWBuf = false, kSliceAxes = [], kStageId = 0 : i64, kStartBorders = [0, 0, 0], kStoreSlice = false, kStoreTile = true, kTemplateName = "store_0_0_298", kUniqueId = 298 : i64, kUseVectorTranspose = false, kUserCreated = true, kZeroFill = false} : (tensor<2x60x64xbf16>, tensor<1x60x64xbf16>) -> ()
        %60 = "tlir.Load"(%10) {DataLayout0 = #tlir.layout<RV,RM,UA>, NumSamples0 = 1 : i64, NumSamples0S = 2 : i64, kAddedAlignment = -1 : i64, kChipID = 0 : i64, kConfigured = true, kGroup = 45 : i64, kGroupedDramLayoutName = "out_window_0_0_147", kIsGrouped = false, kIterations = 1 : i64, kMacID = "default_147", kName = "out_window_0_0_147", kRequiresWBuf = false, kStageId = 0 : i64, kTemplateName = "load_0_0_147", kUniqueId = 147 : i64, kUseVectorTranspose = false, kUserCreated = true} : (tensor<1x30x136xbf16>) -> tensor<1x30x136xbf16>
        %61:2 = "tlir.Buffer"(%60) {DataLayout0 = #tlir.layout<RV,RM,UA>, DataLayout1 = #tlir.layout<RV,RM,UA>, NumSamples1 = 1 : i64, NumSamples1S = 2 : i64, kBufHead = 1 : i64, kBufferType = 1 : i64, kConfigured = true, kDepth = 1 : i64, kHead0CtrlFlowEnable = false, kHead1CtrlFlowEnable = false, kIsStageBuffer = false, kMacID = "default_914", kName = "gbuf1a_0_0_914", kNumHead0RdEn = 0 : i64, kNumHead1RdEn = 0 : i64, kNumPMUs = 1 : i64, kStageId = 0 : i64, kUniqueId = 914 : i64, kUserCreated = false} : (tensor<1x30x136xbf16>) -> (tensor<1x30x136xbf16>, tensor<1x30x136xbf16>)
        %62 = "tlir.Realign"(%61#1) {DataLayout0 = #tlir.layout<RV,RM,SA>, DataLayoutkInputLayout = #tlir.layout<RV,RM,UA>, DataLayoutkOutputLayout = #tlir.layout<RV,RM,SA>, NumSamples0 = 1 : i64, NumSamples0S = 2 : i64, kConfigured = true, kMacID = "default_889", kName = "realign_0_0_889", kStageId = 0 : i64, kTemplateName = "realign_0_0_889", kUniqueId = 889 : i64, kUserCreated = false} : (tensor<1x30x136xbf16>) -> tensor<1x30x136xbf16>
        %63:2 = "tlir.Buffer"(%62) {DataLayout0 = #tlir.layout<RV,RM,SA>, DataLayout1 = #tlir.layout<RV,RM,SA>, NumSamples1 = 1 : i64, NumSamples1S = 2 : i64, kBufHead = 1 : i64, kBufferType = 1 : i64, kConfigured = true, kDepth = 1 : i64, kHead0CtrlFlowEnable = false, kHead1CtrlFlowEnable = false, kIsStageBuffer = false, kMacID = "default_823", kName = "gbuf1a_0_0_823", kNumHead0RdEn = 0 : i64, kNumHead1RdEn = 0 : i64, kNumPMUs = 1 : i64, kStageId = 0 : i64, kUniqueId = 823 : i64, kUserCreated = false} : (tensor<1x30x136xbf16>) -> (tensor<1x30x136xbf16>, tensor<1x30x136xbf16>)
        %64 = "tlir.Reshape"(%63#1) {DataLayout0 = #tlir.layout<RV,RM,VA>, NumSamples0 = 1 : i64, NumSamples0S = 2 : i64, kConfigured = true, kDieID = -1 : i64, kIsCriticalStage = false, kLatency = 1.300000e+01 : f64, kMacID = "ptconvlstm__reshape_2", kName = "ptconvlstm__reshape_2", kStageId = 0 : i64, kStageLatency = 1.300000e+01 : f64, kTemplateName = "reshape_0_0_557", kUniqueId = 557 : i64, kUserCreated = true} : (tensor<1x30x136xbf16>) -> tensor<1x4080xbf16>
        %65 = "tlir.Sub"(%52#1, %64) {DataLayout0 = #tlir.layout<RV,RM,VA>, NumSamples0 = 1 : i64, NumSamples0S = 2 : i64, kBinaryOp = true, kConfigured = true, kDieID = -1 : i64, kIsCriticalStage = false, kLatency = 3.190000e+02 : f64, kMacID = "default_75", kName = "sub_0_0_558", kStageId = 0 : i64, kStageLatency = 3.190000e+02 : f64, kTemplateName = "sub_0_0_558", kUniqueId = 558 : i64, kUserCreated = true} : (tensor<1x4080xbf16>, tensor<1x4080xbf16>) -> tensor<1x4080xbf16>
        %66:2 = "tlir.Buffer"(%65) {DataLayout0 = #tlir.layout<RV,RM,VA>, DataLayout1 = #tlir.layout<RV,RM,VA>, NumSamples0 = 1 : i64, NumSamples0S = 2 : i64, NumSamples1 = 1 : i64, NumSamples1S = 2 : i64, kBufferType = 1 : i64, kConfigured = true, kDepth = 1 : i64, kHead0CtrlFlowEnable = false, kHead0Hydra = 0 : i64, kHead0ReadParFactor = 0 : i64, kHead1CtrlFlowEnable = false, kHead1Hydra = 0 : i64, kHead1ReadParFactor = 0 : i64, kIsImageBuffer = false, kIsSplitImageBuffer = false, kIsStageBuffer = false, kMacID = "default_975", kName = "gbuf1a_0_0_975", kNumHead0RdEn = 0 : i64, kNumHead1RdEn = 0 : i64, kNumPMUs = 1 : i64, kReadVT = false, kStageId = 0 : i64, kTranspose = 0 : i64, kUniqueId = 975 : i64, kUserCreated = false, kWriteVT = false} : (tensor<1x4080xbf16>) -> (tensor<1x4080xbf16>, tensor<1x4080xbf16>)
        %67 = "tlir.Mul"(%66#0, %66#1) {DataLayout0 = #tlir.layout<RV,RM,VA>, NumSamples0 = 1 : i64, NumSamples0S = 2 : i64, kBinaryOp = true, kConfigured = true, kDieID = -1 : i64, kIsCriticalStage = false, kLatency = 3.190000e+02 : f64, kMacID = "default_76", kName = "mul_0_0_559", kStageId = 0 : i64, kStageLatency = 3.190000e+02 : f64, kTemplateName = "mul_0_0_559", kUniqueId = 559 : i64, kUserCreated = true} : (tensor<1x4080xbf16>, tensor<1x4080xbf16>) -> tensor<1x4080xbf16>
        %68 = "tlir.MeanAll"(%67) {DataLayout0 = #tlir.layout<RV,RM,VA>, NumSamples0 = 1 : i64, NumSamples0S = 2 : i64, kConfigured = true, kDieID = -1 : i64, kIsCriticalStage = false, kLatency = 3.190000e+02 : f64, kMacID = "default_77", kName = "mean_unalign_0_0_560", kStageId = 0 : i64, kStageLatency = 3.190000e+02 : f64, kTemplateName = "mean_unalign_0_0_560", kUniqueId = 560 : i64, kUserCreated = true} : (tensor<1x4080xbf16>) -> tensor<1xbf16>
        %69:2 = "tlir.Buffer"(%68) {DataLayout0 = #tlir.layout<RV,RM,VA>, DataLayout1 = #tlir.layout<RV,RM,VA>, NumSamples1 = 1 : i64, NumSamples1S = 2 : i64, kBufHead = 1 : i64, kBufferType = 1 : i64, kConfigured = true, kDepth = 1 : i64, kHead0CtrlFlowEnable = false, kHead1CtrlFlowEnable = false, kIsStageBuffer = false, kMacID = "default_824", kName = "gbuf1a_0_0_824", kNumHead0RdEn = 0 : i64, kNumHead1RdEn = 0 : i64, kNumPMUs = 1 : i64, kStageId = 0 : i64, kUniqueId = 824 : i64, kUserCreated = false} : (tensor<1xbf16>) -> (tensor<1xbf16>, tensor<1xbf16>)
        "tlir.Store"(%30, %69#1) {kChipID = 0 : i64, kConfigured = true, kGroup = 46 : i64, kIsCheckPoint = false, kIterations = 1 : i64, kLayoutHeuristics = false, kMacID = "default_162", kName = "_tensor", kOpRWPattern0 = "kWriteOperand", kRemovesAlignment = true, kRequiresWBuf = false, kSliceAxes = [], kStageId = 0 : i64, kStoreSlice = false, kTemplateName = "store_0_0_162", kUniqueId = 162 : i64, kUseVectorTranspose = false, kUserCreated = true} : (tensor<1xbf16>, tensor<1xbf16>) -> ()
        "tlir.terminator"() {kConfigured = true, kMacID = "default_495", kName = "terminator495", kStageId = 0 : i64, kUniqueId = 495 : i64, kUserCreated = true} : () -> ()
      }) {kConfigured = true, kMacID = "default_494", kName = "chip0_0", kPartitionId = 0 : i64, kStageId = 0 : i64, kUniqueId = 494 : i64, kUserCreated = true, type = none} : () -> ()
      "tlir.terminator"() {kConfigured = true, kMacID = "default_163", kName = "terminator163", kStageId = 0 : i64, kUniqueId = 163 : i64, kUserCreated = true} : () -> ()
    }) {kConfigured = true, kGlobalId = 0 : i64, kIsHostSection = false, kMacID = "default_121", kName = "section0", kPartitionId = 0 : i64, kSectionLatency = 4.192224150756374E-5 : f64, kSectionName = "$FWD", kSectionUniqueName = "ptconvlstm__lstm_layer__lstm_as_initial", kStageId = 0 : i64, kUniqueId = 121 : i64, kUserCreated = true, type = none} : () -> ()
    "tlir.Section"() ( {
      "tlir.Chip"() ( {
        %37 = "tlir.Load"(%5) {DataLayout0 = #tlir.layout<RV,CM,VA>, NumSamples0 = 1 : i64, NumSamples0S = 2 : i64, kAddedAlignment = -1 : i64, kChipID = 0 : i64, kConfigured = true, kGroup = 47 : i64, kGroupedDramLayoutName = "lstm_operand_0_1_0_167", kIsGrouped = false, kIterations = 1 : i64, kLayoutHeuristics = false, kMacID = "default_167", kName = "lstm_operand_0_1_0_167", kRequiresWBuf = false, kStageId = 0 : i64, kTemplateName = "load_1_0_167", kUniqueId = 167 : i64, kUseVectorTranspose = true, kUserCreated = true} : (tensor<1x60x64xbf16>) -> tensor<1x60x64xbf16>
        %38:2 = "tlir.Buffer"(%37) {DataLayout0 = #tlir.layout<RV,CM,VA>, DataLayout1 = #tlir.layout<RV,CM,VA>, NumSamples1 = 1 : i64, NumSamples1S = 2 : i64, kBufHead = 1 : i64, kBufferType = 1 : i64, kConfigured = true, kDepth = 1 : i64, kHead0CtrlFlowEnable = false, kHead1CtrlFlowEnable = false, kIsStageBuffer = false, kMacID = "default_825", kName = "gbuf1a_1_0_825", kNumHead0RdEn = 0 : i64, kNumHead1RdEn = 0 : i64, kNumPMUs = 1 : i64, kStageId = 0 : i64, kUniqueId = 825 : i64, kUserCreated = false} : (tensor<1x60x64xbf16>) -> (tensor<1x60x64xbf16>, tensor<1x60x64xbf16>)
        %39 = "tlir.Reshape"(%38#1) {DataLayout0 = #tlir.layout<RV,CM,VA>, NumSamples0 = 1 : i64, NumSamples0S = 2 : i64, kConfigured = true, kDieID = -1 : i64, kIsCriticalStage = false, kLatency = -1.000000e+00 : f64, kMacID = "ptconvlstm__lstm_layer__lstm_recompute_", kName = "ptconvlstm__lstm_layer__lstm_recompute__hidden_r", kStageId = 0 : i64, kStageLatency = -1.000000e+00 : f64, kTemplateName = "reshape_1_0_561", kUniqueId = 561 : i64, kUserCreated = true} : (tensor<1x60x64xbf16>) -> tensor<60x64xbf16>
        %40 = "tlir.PermuteView"(%39) {DataLayout0 = #tlir.layout<CV,RM,VA>, NumSamples0 = 1 : i64, NumSamples0S = 2 : i64, kConfigured = true, kDieID = -1 : i64, kIsCriticalStage = false, kLatency = -1.000000e+00 : f64, kMacID = "ptconvlstm__lstm_layer__lstm_recompute_", kName = "ptconvlstm__lstm_layer__lstm_recompute__hidden_r_t", kPermutation = [1, 0], kStageId = 0 : i64, kStageLatency = -1.000000e+00 : f64, kTemplateName = "permute_view_1_0_562", kUniqueId = 562 : i64, kUserCreated = true} : (tensor<60x64xbf16>) -> tensor<64x60xbf16>
        %41 = "tlir.Load"(%4) {DataLayout0 = #tlir.layout<RV,CM,VA>, NumSamples0 = 1 : i64, NumSamples0S = 2 : i64, kAddedAlignment = -1 : i64, kChipID = 0 : i64, kConfigured = true, kGroup = 48 : i64, kGroupedDramLayoutName = "lstm_operand_1_1_0_170", kIsGrouped = false, kIterations = 1 : i64, kLayoutHeuristics = false, kMacID = "default_170", kName = "lstm_operand_1_1_0_170", kRequiresWBuf = false, kStageId = 0 : i64, kTemplateName = "load_1_0_170", kUniqueId = 170 : i64, kUseVectorTranspose = true, kUserCreated = true} : (tensor<1x60x64xbf16>) -> tensor<1x60x64xbf16>
        %42:2 = "tlir.Buffer"(%41) {DataLayout0 = #tlir.layout<RV,CM,VA>, DataLayout1 = #tlir.layout<RV,CM,VA>, NumSamples1 = 1 : i64, NumSamples1S = 2 : i64, kBufHead = 1 : i64, kBufferType = 1 : i64, kConfigured = true, kDepth = 1 : i64, kHead0CtrlFlowEnable = false, kHead1CtrlFlowEnable = false, kIsStageBuffer = false, kMacID = "default_826", kName = "gbuf1a_1_0_826", kNumHead0RdEn = 0 : i64, kNumHead1RdEn = 0 : i64, kNumPMUs = 1 : i64, kStageId = 0 : i64, kUniqueId = 826 : i64, kUserCreated = false} : (tensor<1x60x64xbf16>) -> (tensor<1x60x64xbf16>, tensor<1x60x64xbf16>)
        %43 = "tlir.Reshape"(%42#1) {DataLayout0 = #tlir.layout<RV,CM,VA>, NumSamples0 = 1 : i64, NumSamples0S = 2 : i64, kConfigured = true, kDieID = -1 : i64, kIsCriticalStage = false, kLatency = -1.000000e+00 : f64, kMacID = "ptconvlstm__lstm_layer__lstm_recompute_", kName = "ptconvlstm__lstm_layer__lstm_recompute__cell_r", kStageId = 0 : i64, kStageLatency = -1.000000e+00 : f64, kTemplateName = "reshape_1_0_563", kUniqueId = 563 : i64, kUserCreated = true} : (tensor<1x60x64xbf16>) -> tensor<60x64xbf16>
        %44 = "tlir.PermuteView"(%43) {DataLayout0 = #tlir.layout<CV,RM,VA>, NumSamples0 = 1 : i64, NumSamples0S = 2 : i64, kConfigured = true, kDieID = -1 : i64, kIsCriticalStage = false, kLatency = -1.000000e+00 : f64, kMacID = "ptconvlstm__lstm_layer__lstm_recompute_", kName = "ptconvlstm__lstm_layer__lstm_recompute__cell_r_t", kPermutation = [1, 0], kStageId = 0 : i64, kStageLatency = -1.000000e+00 : f64, kTemplateName = "permute_view_1_0_564", kUniqueId = 564 : i64, kUserCreated = true} : (tensor<60x64xbf16>) -> tensor<64x60xbf16>
        %45 = "tlir.Load"(%7) {DataLayout0 = #tlir.layout<RV,RM,UA>, NumSamples0 = 1 : i64, NumSamples0S = 2 : i64, kAddedAlignment = -1 : i64, kChipID = 0 : i64, kConfigured = true, kGroup = 49 : i64, kGroupedDramLayoutName = "ptconvlstm__lstm_layer__lstm__outputs__0_slice_1_1_0_185", kIsGrouped = false, kIterations = 1 : i64, kLayoutHeuristics = false, kMacID = "default_185", kName = "ptconvlstm__lstm_layer__lstm__outputs__0_slice_1_1_0_185", kRequiresWBuf = false, kStageId = 0 : i64, kTemplateName = "load_1_0_185", kUniqueId = 185 : i64, kUseVectorTranspose = false, kUserCreated = true} : (tensor<1xi32>) -> tensor<1xi32>
        %46:2 = "tlir.Buffer"(%45) {DataLayout0 = #tlir.layout<RV,RM,UA>, DataLayout1 = #tlir.layout<RV,RM,UA>, NumSamples1 = 1 : i64, NumSamples1S = 2 : i64, kBufferType = 1 : i64, kConfigured = true, kDepth = 1 : i64, kHead0CtrlFlowEnable = false, kHead1CtrlFlowEnable = false, kIsStageBuffer = false, kMacID = "default_872", kName = "gbuf1a_1_0_872", kNumHead0RdEn = 0 : i64, kNumHead1RdEn = 0 : i64, kNumPMUs = 1 : i64, kStageId = 0 : i64, kUniqueId = 872 : i64, kUserCreated = false} : (tensor<1xi32>) -> (tensor<1xi32>, tensor<1xi32>)
        %47 = "tlir.Load"(%9) {DataLayout0 = #tlir.layout<CV,RM,VA>, NumSamples0 = 1 : i64, NumSamples0S = 2 : i64, kAddedAlignment = -1 : i64, kChipID = 0 : i64, kConfigured = true, kGroup = 4 : i64, kGroupedDramLayoutName = "group_4", kIsGrouped = false, kIterations = 1 : i64, kLayoutHeuristics = false, kMacID = "default_189", kName = "ptconvlstm__dense_layer__weight_1_0_189", kRequiresWBuf = true, kStageId = 0 : i64, kTemplateName = "load_1_0_189", kUniqueId = 189 : i64, kUseVectorTranspose = false, kUserCreated = true} : (tensor<4080x64xbf16>) -> tensor<4080x64xbf16>
        %48 = "tlir.Load"(%8) {DataLayout0 = #tlir.layout<CV,RM,VA>, NumSamples0 = 1 : i64, NumSamples0S = 2 : i64, kAddedAlignment = -1 : i64, kChipID = 0 : i64, kConfigured = true, kGroup = 27 : i64, kGroupedDramLayoutName = "group_27", kIsGrouped = false, kIterations = 1 : i64, kLayoutHeuristics = false, kMacID = "default_190", kName = "ptconvlstm__dense_layer__bias_1_0_190", kRequiresWBuf = true, kStageId = 0 : i64, kTemplateName = "load_1_0_190", kUniqueId = 190 : i64, kUseVectorTranspose = false, kUserCreated = true} : (tensor<4080x1xbf16>) -> tensor<4080x1xbf16>
        %49 = "tlir.Load"(%11) {DataLayout0 = #tlir.layout<RV,RM,VA>, NumSamples0 = 1 : i64, NumSamples0S = 2 : i64, kAddedAlignment = -1 : i64, kChipID = 0 : i64, kConfigured = true, kGroup = -38 : i64, kGroupedDramLayoutName = "ptconvlstm__criterion__mseloss__outputs__0__grad_1_0_195", kIsGrouped = false, kIterations = 1 : i64, kLayoutHeuristics = false, kMacID = "default_195", kName = "ptconvlstm__criterion__mseloss__outputs__0__grad_1_0_195", kRequiresWBuf = false, kStageId = 0 : i64, kTemplateName = "load_1_0_195", kUniqueId = 195 : i64, kUseVectorTranspose = false, kUserCreated = true} : (tensor<1xbf16>) -> tensor<1xbf16>
        %50 = "tlir.Load"(%14) {DataLayout0 = #tlir.layout<RV,CM,VA>, NumSamples0 = 1 : i64, NumSamples0S = 2 : i64, kAddedAlignment = -1 : i64, kChipID = 0 : i64, kConfigured = true, kGroup = 50 : i64, kGroupedDramLayoutName = "ptconvlstm__lstm_layer__lstm__hidden__output__grad_1_0_217", kIsGrouped = false, kIterations = 1 : i64, kLayoutHeuristics = false, kMacID = "default_217", kName = "ptconvlstm__lstm_layer__lstm__hidden__output__grad_1_0_217", kRequiresWBuf = false, kStageId = 0 : i64, kTemplateName = "load_1_0_217", kUniqueId = 217 : i64, kUseVectorTranspose = true, kUserCreated = true} : (tensor<1x60x64xbf16>) -> tensor<1x60x64xbf16>
        %51:2 = "tlir.Buffer"(%50) {DataLayout0 = #tlir.layout<RV,CM,VA>, DataLayout1 = #tlir.layout<RV,CM,VA>, NumSamples1 = 1 : i64, NumSamples1S = 2 : i64, kBufHead = 1 : i64, kBufferType = 1 : i64, kConfigured = true, kDepth = 1 : i64, kHead0CtrlFlowEnable = false, kHead1CtrlFlowEnable = false, kIsStageBuffer = false, kMacID = "default_827", kName = "gbuf1a_1_0_827", kNumHead0RdEn = 0 : i64, kNumHead1RdEn = 0 : i64, kNumPMUs = 1 : i64, kStageId = 0 : i64, kUniqueId = 827 : i64, kUserCreated = false} : (tensor<1x60x64xbf16>) -> (tensor<1x60x64xbf16>, tensor<1x60x64xbf16>)
        %52 = "tlir.Reshape"(%51#1) {DataLayout0 = #tlir.layout<RV,CM,VA>, NumSamples0 = 1 : i64, NumSamples0S = 2 : i64, kConfigured = true, kDieID = -1 : i64, kIsCriticalStage = false, kLatency = -1.000000e+00 : f64, kMacID = "ptconvlstm__lstm_layer__lstm_bwd", kName = "ptconvlstm__lstm_layer__lstm_bwd_hidden_n_g_r", kStageId = 0 : i64, kStageLatency = -1.000000e+00 : f64, kTemplateName = "reshape_1_0_571", kUniqueId = 571 : i64, kUserCreated = true} : (tensor<1x60x64xbf16>) -> tensor<60x64xbf16>
        %53 = "tlir.PermuteView"(%52) {DataLayout0 = #tlir.layout<CV,RM,VA>, NumSamples0 = 1 : i64, NumSamples0S = 2 : i64, kConfigured = true, kDieID = -1 : i64, kIsCriticalStage = false, kLatency = -1.000000e+00 : f64, kMacID = "ptconvlstm__lstm_layer__lstm_bwd", kName = "ptconvlstm__lstm_layer__lstm_bwd_hidden_n_g_t", kPermutation = [1, 0], kStageId = 0 : i64, kStageLatency = -1.000000e+00 : f64, kTemplateName = "permute_view_1_0_572", kUniqueId = 572 : i64, kUserCreated = true} : (tensor<60x64xbf16>) -> tensor<64x60xbf16>
        %54 = "tlir.Load"(%13) {DataLayout0 = #tlir.layout<RV,CM,VA>, NumSamples0 = 1 : i64, NumSamples0S = 2 : i64, kAddedAlignment = -1 : i64, kChipID = 0 : i64, kConfigured = true, kGroup = 51 : i64, kGroupedDramLayoutName = "ptconvlstm__lstm_layer__lstm__cell__output__grad_1_0_220", kIsGrouped = false, kIterations = 1 : i64, kLayoutHeuristics = false, kMacID = "default_220", kName = "ptconvlstm__lstm_layer__lstm__cell__output__grad_1_0_220", kRequiresWBuf = false, kStageId = 0 : i64, kTemplateName = "load_1_0_220", kUniqueId = 220 : i64, kUseVectorTranspose = true, kUserCreated = true} : (tensor<1x60x64xbf16>) -> tensor<1x60x64xbf16>
        %55:2 = "tlir.Buffer"(%54) {DataLayout0 = #tlir.layout<RV,CM,VA>, DataLayout1 = #tlir.layout<RV,CM,VA>, NumSamples1 = 1 : i64, NumSamples1S = 2 : i64, kBufHead = 1 : i64, kBufferType = 1 : i64, kConfigured = true, kDepth = 1 : i64, kHead0CtrlFlowEnable = false, kHead1CtrlFlowEnable = false, kIsStageBuffer = false, kMacID = "default_828", kName = "gbuf1a_1_0_828", kNumHead0RdEn = 0 : i64, kNumHead1RdEn = 0 : i64, kNumPMUs = 1 : i64, kStageId = 0 : i64, kUniqueId = 828 : i64, kUserCreated = false} : (tensor<1x60x64xbf16>) -> (tensor<1x60x64xbf16>, tensor<1x60x64xbf16>)
        %56 = "tlir.Reshape"(%55#1) {DataLayout0 = #tlir.layout<RV,CM,VA>, NumSamples0 = 1 : i64, NumSamples0S = 2 : i64, kConfigured = true, kDieID = -1 : i64, kIsCriticalStage = false, kLatency = -1.000000e+00 : f64, kMacID = "ptconvlstm__lstm_layer__lstm_bwd", kName = "ptconvlstm__lstm_layer__lstm_bwd_cell_n_g_r", kStageId = 0 : i64, kStageLatency = -1.000000e+00 : f64, kTemplateName = "reshape_1_0_573", kUniqueId = 573 : i64, kUserCreated = true} : (tensor<1x60x64xbf16>) -> tensor<60x64xbf16>
        %57 = "tlir.PermuteView"(%56) {DataLayout0 = #tlir.layout<CV,RM,VA>, NumSamples0 = 1 : i64, NumSamples0S = 2 : i64, kConfigured = true, kDieID = -1 : i64, kIsCriticalStage = false, kLatency = -1.000000e+00 : f64, kMacID = "ptconvlstm__lstm_layer__lstm_bwd", kName = "ptconvlstm__lstm_layer__lstm_bwd_cell_n_g_t", kPermutation = [1, 0], kStageId = 0 : i64, kStageLatency = -1.000000e+00 : f64, kTemplateName = "permute_view_1_0_574", kUniqueId = 574 : i64, kUserCreated = true} : (tensor<60x64xbf16>) -> tensor<64x60xbf16>
        %58 = "tlir.mutable.AccumBuffer"() {DataLayout0 = #tlir.layout<CV,RM,VA>, NumSamples0 = 1 : i64, NumSamples0S = 2 : i64, kChipID = 0 : i64, kConfigured = true, kMacID = "default_360", kName = "ptconvlstm__dense_layer__linear_bwd_weight_accum_buffer", kStageId = 0 : i64, kTemplateName = "accum_buffer_1_0_360", kUniqueId = 360 : i64, kUserCreated = true} : () -> tensor<4080x64xbf16>
        %59 = "tlir.mutable.AccumBuffer"() {DataLayout0 = #tlir.layout<CV,RM,VA>, NumSamples0 = 1 : i64, NumSamples0S = 2 : i64, kChipID = 0 : i64, kConfigured = true, kMacID = "default_361", kName = "ptconvlstm__dense_layer__linear_bwd_weight_accum_buffer_1", kStageId = 0 : i64, kTemplateName = "accum_buffer_1_0_361", kUniqueId = 361 : i64, kUserCreated = true} : () -> tensor<4080x1xbf16>
        %60 = "tlir.mutable.AccumBuffer"() {DataLayout0 = #tlir.layout<CV,RM,VA>, NumSamples0 = 1 : i64, NumSamples0S = 2 : i64, kChipID = 0 : i64, kConfigured = true, kMacID = "default_362", kName = "ptconvlstm__lstm_layer__lstm_bwd_accum_buffer", kStageId = 0 : i64, kTemplateName = "accum_buffer_1_0_362", kUniqueId = 362 : i64, kUserCreated = true} : () -> tensor<64x64xbf16>
        %61 = "tlir.mutable.AccumBuffer"() {DataLayout0 = #tlir.layout<CV,RM,VA>, NumSamples0 = 1 : i64, NumSamples0S = 2 : i64, kChipID = 0 : i64, kConfigured = true, kMacID = "default_363", kName = "ptconvlstm__lstm_layer__lstm_bwd_accum_buffer_1", kStageId = 0 : i64, kTemplateName = "accum_buffer_1_0_363", kUniqueId = 363 : i64, kUserCreated = true} : () -> tensor<64x64xbf16>
        %62 = "tlir.mutable.AccumBuffer"() {DataLayout0 = #tlir.layout<CV,RM,VA>, NumSamples0 = 1 : i64, NumSamples0S = 2 : i64, kChipID = 0 : i64, kConfigured = true, kMacID = "default_364", kName = "ptconvlstm__lstm_layer__lstm_bwd_accum_buffer_2", kStageId = 0 : i64, kTemplateName = "accum_buffer_1_0_364", kUniqueId = 364 : i64, kUserCreated = true} : () -> tensor<64x64xbf16>
        %63 = "tlir.mutable.AccumBuffer"() {DataLayout0 = #tlir.layout<CV,RM,VA>, NumSamples0 = 1 : i64, NumSamples0S = 2 : i64, kChipID = 0 : i64, kConfigured = true, kMacID = "default_365", kName = "ptconvlstm__lstm_layer__lstm_bwd_accum_buffer_3", kStageId = 0 : i64, kTemplateName = "accum_buffer_1_0_365", kUniqueId = 365 : i64, kUserCreated = true} : () -> tensor<64x64xbf16>
        %64 = "tlir.mutable.AccumBuffer"() {DataLayout0 = #tlir.layout<CV,RM,VA>, NumSamples0 = 1 : i64, NumSamples0S = 2 : i64, kChipID = 0 : i64, kConfigured = true, kMacID = "default_366", kName = "ptconvlstm__lstm_layer__lstm_bwd_accum_buffer_4", kStageId = 0 : i64, kTemplateName = "accum_buffer_1_0_366", kUniqueId = 366 : i64, kUserCreated = true} : () -> tensor<64x136xbf16>
        %65 = "tlir.mutable.AccumBuffer"() {DataLayout0 = #tlir.layout<CV,RM,VA>, NumSamples0 = 1 : i64, NumSamples0S = 2 : i64, kChipID = 0 : i64, kConfigured = true, kMacID = "default_367", kName = "ptconvlstm__lstm_layer__lstm_bwd_accum_buffer_5", kStageId = 0 : i64, kTemplateName = "accum_buffer_1_0_367", kUniqueId = 367 : i64, kUserCreated = true} : () -> tensor<64x136xbf16>
        %66 = "tlir.mutable.AccumBuffer"() {DataLayout0 = #tlir.layout<CV,RM,VA>, NumSamples0 = 1 : i64, NumSamples0S = 2 : i64, kChipID = 0 : i64, kConfigured = true, kMacID = "default_368", kName = "ptconvlstm__lstm_layer__lstm_bwd_accum_buffer_6", kStageId = 0 : i64, kTemplateName = "accum_buffer_1_0_368", kUniqueId = 368 : i64, kUserCreated = true} : () -> tensor<64x136xbf16>
        %67 = "tlir.mutable.AccumBuffer"() {DataLayout0 = #tlir.layout<CV,RM,VA>, NumSamples0 = 1 : i64, NumSamples0S = 2 : i64, kChipID = 0 : i64, kConfigured = true, kMacID = "default_369", kName = "ptconvlstm__lstm_layer__lstm_bwd_accum_buffer_7", kStageId = 0 : i64, kTemplateName = "accum_buffer_1_0_369", kUniqueId = 369 : i64, kUserCreated = true} : () -> tensor<64x136xbf16>
        %68 = "tlir.mutable.AccumBuffer"() {DataLayout0 = #tlir.layout<CV,RM,VA>, NumSamples0 = 1 : i64, NumSamples0S = 2 : i64, kChipID = 0 : i64, kConfigured = true, kMacID = "default_370", kName = "ptconvlstm__lstm_layer__lstm_bwd_accum_buffer_8", kStageId = 0 : i64, kTemplateName = "accum_buffer_1_0_370", kUniqueId = 370 : i64, kUserCreated = true} : () -> tensor<64x1xbf16>
        %69 = "tlir.mutable.AccumBuffer"() {DataLayout0 = #tlir.layout<CV,RM,VA>, NumSamples0 = 1 : i64, NumSamples0S = 2 : i64, kChipID = 0 : i64, kConfigured = true, kMacID = "default_371", kName = "ptconvlstm__lstm_layer__lstm_bwd_accum_buffer_9", kStageId = 0 : i64, kTemplateName = "accum_buffer_1_0_371", kUniqueId = 371 : i64, kUserCreated = true} : () -> tensor<64x1xbf16>
        %70 = "tlir.mutable.AccumBuffer"() {DataLayout0 = #tlir.layout<CV,RM,VA>, NumSamples0 = 1 : i64, NumSamples0S = 2 : i64, kChipID = 0 : i64, kConfigured = true, kMacID = "default_372", kName = "ptconvlstm__lstm_layer__lstm_bwd_accum_buffer_10", kStageId = 0 : i64, kTemplateName = "accum_buffer_1_0_372", kUniqueId = 372 : i64, kUserCreated = true} : () -> tensor<64x1xbf16>
        %71 = "tlir.mutable.AccumBuffer"() {DataLayout0 = #tlir.layout<CV,RM,VA>, NumSamples0 = 1 : i64, NumSamples0S = 2 : i64, kChipID = 0 : i64, kConfigured = true, kMacID = "default_373", kName = "ptconvlstm__lstm_layer__lstm_bwd_accum_buffer_11", kStageId = 0 : i64, kTemplateName = "accum_buffer_1_0_373", kUniqueId = 373 : i64, kUserCreated = true} : () -> tensor<64x1xbf16>
        %72 = "tlir.mutable.AccumBuffer"() {DataLayout0 = #tlir.layout<CV,RM,VA>, NumSamples0 = 1 : i64, NumSamples0S = 2 : i64, kChipID = 0 : i64, kConfigured = true, kMacID = "default_374", kName = "ptconvlstm__lstm_layer__lstm_bwd_accum_buffer_12", kStageId = 0 : i64, kTemplateName = "accum_buffer_1_0_374", kUniqueId = 374 : i64, kUserCreated = true} : () -> tensor<64x1xbf16>
        %73 = "tlir.mutable.AccumBuffer"() {DataLayout0 = #tlir.layout<CV,RM,VA>, NumSamples0 = 1 : i64, NumSamples0S = 2 : i64, kChipID = 0 : i64, kConfigured = true, kMacID = "default_375", kName = "ptconvlstm__lstm_layer__lstm_bwd_accum_buffer_13", kStageId = 0 : i64, kTemplateName = "accum_buffer_1_0_375", kUniqueId = 375 : i64, kUserCreated = true} : () -> tensor<64x1xbf16>
        %74 = "tlir.mutable.AccumBuffer"() {DataLayout0 = #tlir.layout<CV,RM,VA>, NumSamples0 = 1 : i64, NumSamples0S = 2 : i64, kChipID = 0 : i64, kConfigured = true, kMacID = "default_376", kName = "ptconvlstm__lstm_layer__lstm_bwd_accum_buffer_14", kStageId = 0 : i64, kTemplateName = "accum_buffer_1_0_376", kUniqueId = 376 : i64, kUserCreated = true} : () -> tensor<64x1xbf16>
        %75 = "tlir.mutable.AccumBuffer"() {DataLayout0 = #tlir.layout<CV,RM,VA>, NumSamples0 = 1 : i64, NumSamples0S = 2 : i64, kChipID = 0 : i64, kConfigured = true, kMacID = "default_377", kName = "ptconvlstm__lstm_layer__lstm_bwd_accum_buffer_15", kStageId = 0 : i64, kTemplateName = "accum_buffer_1_0_377", kUniqueId = 377 : i64, kUserCreated = true} : () -> tensor<64x1xbf16>
        %76:2 = "tlir.Buffer"(%40) {DataLayout0 = #tlir.layout<CV,RM,VA>, DataLayout1 = #tlir.layout<CV,RM,VA>, NumSamples1 = 1 : i64, NumSamples1S = 2 : i64, kBufferType = 3 : i64, kChipID = 0 : i64, kConfigured = true, kDepth = 1 : i64, kHead0CtrlFlowEnable = false, kHead1CtrlFlowEnable = true, kIsStageBuffer = false, kMacID = "ptconvlstm__lstm_layer__lstm_recompute_", kName = "ptconvlstm__lstm_layer__lstm_recompute__hidden_loop_buffer", kNumHead0RdEn = 0 : i64, kNumHead1RdEn = 6 : i64, kNumPMUs = 1 : i64, kStageId = 0 : i64, kUniqueId = 378 : i64, kUseBothHeads = true, kUserCreated = true} : (tensor<64x60xbf16>) -> (tensor<64x60xbf16>, tensor<64x60xbf16>)
        %77:2 = "tlir.Buffer"(%44) {DataLayout0 = #tlir.layout<CV,RM,VA>, DataLayout1 = #tlir.layout<CV,RM,VA>, NumSamples1 = 1 : i64, NumSamples1S = 2 : i64, kBufferType = 3 : i64, kChipID = 0 : i64, kConfigured = true, kDepth = 1 : i64, kHead0CtrlFlowEnable = false, kHead1CtrlFlowEnable = true, kIsStageBuffer = false, kMacID = "ptconvlstm__lstm_layer__lstm_recompute_", kName = "ptconvlstm__lstm_layer__lstm_recompute__cell_loop_buffer", kNumHead0RdEn = 0 : i64, kNumHead1RdEn = 6 : i64, kNumPMUs = 1 : i64, kStageId = 0 : i64, kUniqueId = 379 : i64, kUseBothHeads = true, kUserCreated = true} : (tensor<64x60xbf16>) -> (tensor<64x60xbf16>, tensor<64x60xbf16>)
        %78:2 = "tlir.Buffer"(%53) {DataLayout0 = #tlir.layout<CV,RM,VA>, DataLayout1 = #tlir.layout<CV,RM,VA>, NumSamples1 = 1 : i64, NumSamples1S = 2 : i64, kBufferType = 3 : i64, kChipID = 0 : i64, kConfigured = true, kDepth = 1 : i64, kHead0CtrlFlowEnable = false, kHead1CtrlFlowEnable = true, kIsStageBuffer = false, kMacID = "ptconvlstm__lstm_layer__lstm_bwd", kName = "ptconvlstm__lstm_layer__lstm_bwd_hidden_i_g", kNumHead0RdEn = 0 : i64, kNumHead1RdEn = 6 : i64, kNumPMUs = 1 : i64, kStageId = 0 : i64, kUniqueId = 380 : i64, kUseBothHeads = true, kUserCreated = true} : (tensor<64x60xbf16>) -> (tensor<64x60xbf16>, tensor<64x60xbf16>)
        %79:2 = "tlir.Buffer"(%57) {DataLayout0 = #tlir.layout<CV,RM,VA>, DataLayout1 = #tlir.layout<CV,RM,VA>, NumSamples1 = 1 : i64, NumSamples1S = 2 : i64, kBufferType = 3 : i64, kChipID = 0 : i64, kConfigured = true, kDepth = 1 : i64, kHead0CtrlFlowEnable = false, kHead1CtrlFlowEnable = true, kIsStageBuffer = false, kMacID = "ptconvlstm__lstm_layer__lstm_bwd", kName = "ptconvlstm__lstm_layer__lstm_bwd_cell_i_g", kNumHead0RdEn = 0 : i64, kNumHead1RdEn = 6 : i64, kNumPMUs = 1 : i64, kStageId = 0 : i64, kUniqueId = 381 : i64, kUseBothHeads = true, kUserCreated = true} : (tensor<64x60xbf16>) -> (tensor<64x60xbf16>, tensor<64x60xbf16>)
        "tlir.iter_loop.MetaPipeline"() ( {
          %128 = "tlir.Load"(%12) {DataLayout0 = #tlir.layout<RV,RM,SA>, NumSamples0 = 1 : i64, NumSamples0S = 2 : i64, kAddedAlignment = 4 : i64, kChipID = 0 : i64, kConfigured = true, kGroup = 52 : i64, kGroupedDramLayoutName = "ptconvlstm__view__outputs__0__grad_1_0_476", kIsGrouped = false, kIterations = 1 : i64, kKeepDim = false, kLinearGradAInputHint = 1 : i64, kLoadSlice = true, kLoadTile = false, kMacID = "default_476", kMultiLoadDepth = 2 : i64, kName = "ptconvlstm__view__outputs__0__grad_1_0_476", kRequiresWBuf = false, kReverseLoops = [false], kSliceAxes = [0], kSliceSize = 1 : i64, kSliceSubtensor = false, kStageId = 0 : i64, kStageMultiplier = 1 : i64, kTemplateName = "load_1_0_476", kUniqueId = 476 : i64, kUseVectorTranspose = false, kUserCreated = true} : (tensor<1x30x136xbf16>) -> tensor<30x136xbf16>
          %129 = "tlir.Load"(%6) {DataLayout0 = #tlir.layout<RV,CM,VA>, NumSamples0 = 1 : i64, NumSamples0S = 2 : i64, kAddedAlignment = -1 : i64, kChipID = 0 : i64, kConfigured = true, kGroup = 53 : i64, kGroupedDramLayoutName = "inp_window_1_0_477", kIsGrouped = false, kIterations = 1 : i64, kKeepDim = false, kLoadSlice = true, kLoadTile = false, kMacID = "default_477", kMultiLoadDepth = 2 : i64, kName = "inp_window_1_0_477", kRequiresWBuf = false, kReverseLoops = [false], kSliceAxes = [0], kSliceSize = 1 : i64, kSliceSubtensor = false, kStageId = 0 : i64, kStageMultiplier = 1 : i64, kTemplateName = "load_1_0_477", kUniqueId = 477 : i64, kUseVectorTranspose = true, kUserCreated = true} : (tensor<1x60x136xbf16>) -> tensor<60x136xbf16>
          %130 = "tlir.Load"(%3) {DataLayout0 = #tlir.layout<CV,RM,VA>, NumSamples0 = 1 : i64, NumSamples0S = 2 : i64, kAddedAlignment = -1 : i64, kConfigured = true, kGroup = 26 : i64, kGroupedDramLayoutName = "group_26", kIsGrouped = true, kIterations = 1 : i64, kLayoutHeuristics = false, kMacID = "default_576", kName = "ptconvlstm__lstm_layer__weight_ih_l0_1_0_576", kPieceOrder = 0 : i64, kPieceShape = [64 : index, 136 : index], kRequiresWBuf = true, kStageId = 0 : i64, kStageMultiplier = 1 : i64, kTemplateName = "load_1_0_576", kUniqueId = 576 : i64, kUseVectorTranspose = false, kUserCreated = true} : (tensor<4x64x136xbf16>) -> tensor<64x136xbf16>
          %131 = "tlir.Load"(%3) {DataLayout0 = #tlir.layout<CV,RM,VA>, NumSamples0 = 1 : i64, NumSamples0S = 2 : i64, kAddedAlignment = -1 : i64, kConfigured = true, kGroup = 26 : i64, kGroupedDramLayoutName = "group_26", kIsGrouped = true, kIterations = 1 : i64, kLayoutHeuristics = false, kMacID = "default_577", kName = "ptconvlstm__lstm_layer__weight_ih_l0_1_0_577", kPieceOrder = 1 : i64, kPieceShape = [64 : index, 136 : index], kRequiresWBuf = true, kStageId = 0 : i64, kStageMultiplier = 1 : i64, kTemplateName = "load_1_0_577", kUniqueId = 577 : i64, kUseVectorTranspose = false, kUserCreated = true} : (tensor<4x64x136xbf16>) -> tensor<64x136xbf16>
          %132 = "tlir.Load"(%3) {DataLayout0 = #tlir.layout<CV,RM,VA>, NumSamples0 = 1 : i64, NumSamples0S = 2 : i64, kAddedAlignment = -1 : i64, kConfigured = true, kGroup = 26 : i64, kGroupedDramLayoutName = "group_26", kIsGrouped = true, kIterations = 1 : i64, kLayoutHeuristics = false, kMacID = "default_578", kName = "ptconvlstm__lstm_layer__weight_ih_l0_1_0_578", kPieceOrder = 2 : i64, kPieceShape = [64 : index, 136 : index], kRequiresWBuf = true, kStageId = 0 : i64, kStageMultiplier = 1 : i64, kTemplateName = "load_1_0_578", kUniqueId = 578 : i64, kUseVectorTranspose = false, kUserCreated = true} : (tensor<4x64x136xbf16>) -> tensor<64x136xbf16>
          %133 = "tlir.Load"(%3) {DataLayout0 = #tlir.layout<CV,RM,VA>, NumSamples0 = 1 : i64, NumSamples0S = 2 : i64, kAddedAlignment = -1 : i64, kConfigured = true, kGroup = 26 : i64, kGroupedDramLayoutName = "group_26", kIsGrouped = true, kIterations = 1 : i64, kLayoutHeuristics = false, kMacID = "default_579", kName = "ptconvlstm__lstm_layer__weight_ih_l0_1_0_579", kPieceOrder = 3 : i64, kPieceShape = [64 : index, 136 : index], kRequiresWBuf = true, kStageId = 0 : i64, kStageMultiplier = 1 : i64, kTemplateName = "load_1_0_579", kUniqueId = 579 : i64, kUseVectorTranspose = false, kUserCreated = true} : (tensor<4x64x136xbf16>) -> tensor<64x136xbf16>
          %134 = "tlir.Load"(%2) {DataLayout0 = #tlir.layout<CV,RM,VA>, NumSamples0 = 1 : i64, NumSamples0S = 2 : i64, kAddedAlignment = -1 : i64, kConfigured = true, kGroup = 25 : i64, kGroupedDramLayoutName = "group_25", kIsGrouped = true, kIterations = 1 : i64, kLayoutHeuristics = false, kMacID = "default_580", kName = "ptconvlstm__lstm_layer__weight_hh_l0_1_0_580", kPieceOrder = 0 : i64, kPieceShape = [64 : index, 64 : index], kRequiresWBuf = true, kStageId = 0 : i64, kStageMultiplier = 1 : i64, kTemplateName = "load_1_0_580", kUniqueId = 580 : i64, kUseVectorTranspose = false, kUserCreated = true} : (tensor<4x64x64xbf16>) -> tensor<64x64xbf16>
          %135 = "tlir.Load"(%2) {DataLayout0 = #tlir.layout<CV,RM,VA>, NumSamples0 = 1 : i64, NumSamples0S = 2 : i64, kAddedAlignment = -1 : i64, kConfigured = true, kGroup = 25 : i64, kGroupedDramLayoutName = "group_25", kIsGrouped = true, kIterations = 1 : i64, kLayoutHeuristics = false, kMacID = "default_581", kName = "ptconvlstm__lstm_layer__weight_hh_l0_1_0_581", kPieceOrder = 1 : i64, kPieceShape = [64 : index, 64 : index], kRequiresWBuf = true, kStageId = 0 : i64, kStageMultiplier = 1 : i64, kTemplateName = "load_1_0_581", kUniqueId = 581 : i64, kUseVectorTranspose = false, kUserCreated = true} : (tensor<4x64x64xbf16>) -> tensor<64x64xbf16>
          %136 = "tlir.Load"(%2) {DataLayout0 = #tlir.layout<CV,RM,VA>, NumSamples0 = 1 : i64, NumSamples0S = 2 : i64, kAddedAlignment = -1 : i64, kConfigured = true, kGroup = 25 : i64, kGroupedDramLayoutName = "group_25", kIsGrouped = true, kIterations = 1 : i64, kLayoutHeuristics = false, kMacID = "default_582", kName = "ptconvlstm__lstm_layer__weight_hh_l0_1_0_582", kPieceOrder = 2 : i64, kPieceShape = [64 : index, 64 : index], kRequiresWBuf = true, kStageId = 0 : i64, kStageMultiplier = 1 : i64, kTemplateName = "load_1_0_582", kUniqueId = 582 : i64, kUseVectorTranspose = false, kUserCreated = true} : (tensor<4x64x64xbf16>) -> tensor<64x64xbf16>
          %137 = "tlir.Load"(%2) {DataLayout0 = #tlir.layout<CV,RM,VA>, NumSamples0 = 1 : i64, NumSamples0S = 2 : i64, kAddedAlignment = -1 : i64, kConfigured = true, kGroup = 25 : i64, kGroupedDramLayoutName = "group_25", kIsGrouped = true, kIterations = 1 : i64, kLayoutHeuristics = false, kLinearGradBInputHint = 1 : i64, kMacID = "default_583", kName = "ptconvlstm__lstm_layer__weight_hh_l0_1_0_583", kPieceOrder = 3 : i64, kPieceShape = [64 : index, 64 : index], kRequiresWBuf = true, kStageId = 0 : i64, kStageMultiplier = 1 : i64, kTemplateName = "load_1_0_583", kUniqueId = 583 : i64, kUseVectorTranspose = false, kUserCreated = true} : (tensor<4x64x64xbf16>) -> tensor<64x64xbf16>
          %138 = "tlir.Load"(%1) {DataLayout0 = #tlir.layout<CV,RM,VA>, NumSamples0 = 1 : i64, NumSamples0S = 2 : i64, kAddedAlignment = -1 : i64, kConfigured = true, kGroup = 24 : i64, kGroupedDramLayoutName = "group_24", kIsGrouped = true, kIterations = 1 : i64, kLayoutHeuristics = false, kMacID = "default_584", kName = "ptconvlstm__lstm_layer__bias_ih_l0_1_0_584", kPieceOrder = 0 : i64, kPieceShape = [64 : index, 1 : index], kRequiresWBuf = true, kStageId = 0 : i64, kStageMultiplier = 1 : i64, kTemplateName = "load_1_0_584", kUniqueId = 584 : i64, kUseVectorTranspose = false, kUserCreated = true} : (tensor<4x64x1xbf16>) -> tensor<64x1xbf16>
          %139 = "tlir.Load"(%1) {DataLayout0 = #tlir.layout<CV,RM,VA>, NumSamples0 = 1 : i64, NumSamples0S = 2 : i64, kAddedAlignment = -1 : i64, kConfigured = true, kGroup = 24 : i64, kGroupedDramLayoutName = "group_24", kIsGrouped = true, kIterations = 1 : i64, kLayoutHeuristics = false, kMacID = "default_585", kName = "ptconvlstm__lstm_layer__bias_ih_l0_1_0_585", kPieceOrd…
true, kUsesRegionView = true} : (tensor<4x64x136xbf16>, tensor<1x64x136xbf16>) -> ()
        %101:2 = "tlir.Buffer"(%95) {DataLayout0 = #tlir.layout<RV,CM,VA>, DataLayout1 = #tlir.layout<RV,CM,VA>, NumSamples1 = 1 : i64, NumSamples1S = 2 : i64, kBufHead = 1 : i64, kBufferType = 1 : i64, kConfigured = true, kDepth = 1 : i64, kHead0CtrlFlowEnable = false, kHead1CtrlFlowEnable = false, kIsStageBuffer = false, kMacID = "default_860", kName = "gbuf1a_1_0_860", kNumHead0RdEn = 0 : i64, kNumHead1RdEn = 0 : i64, kNumPMUs = 1 : i64, kStageId = 0 : i64, kUniqueId = 860 : i64, kUserCreated = false} : (tensor<1x64x136xbf16>) -> (tensor<1x64x136xbf16>, tensor<1x64x136xbf16>)
        "tlir.Store"(%34, %101#1) {kChipID = 0 : i64, kConfigured = true, kConstOffset = 10240 : i64, kGroup = 70 : i64, kIsCheckPoint = false, kIterations = 1 : i64, kLayoutHeuristics = false, kMacID = "default_305", kName = "ptconvlstm__lstm_layer__weight_ih_l0__grad_1_0_305", kOpRWPattern0 = "kWriteOperand", kRegionViewGroupIndex = 1 : i64, kRegionViewGroupKey = "ptconvlstm__lstm_layer__lstm_bwd_tensor1_1", kRegionViewGroupShapes = [[1, 64, 136], [1, 64, 136], [1, 64, 136], [1, 64, 136]], kRegionViewedShape = [1, 64, 136], kRemovesAlignment = false, kRequiresWBuf = false, kSliceAxes = [], kStageId = 0 : i64, kStoreSlice = false, kTemplateName = "store_1_0_305", kUniqueId = 305 : i64, kUseVectorTranspose = true, kUserCreated = true, kUsesRegionView = true} : (tensor<4x64x136xbf16>, tensor<1x64x136xbf16>) -> ()
        %102:2 = "tlir.Buffer"(%97) {DataLayout0 = #tlir.layout<RV,CM,VA>, DataLayout1 = #tlir.layout<RV,CM,VA>, NumSamples1 = 1 : i64, NumSamples1S = 2 : i64, kBufHead = 1 : i64, kBufferType = 1 : i64, kConfigured = true, kDepth = 1 : i64, kHead0CtrlFlowEnable = false, kHead1CtrlFlowEnable = false, kIsStageBuffer = false, kMacID = "default_861", kName = "gbuf1a_1_0_861", kNumHead0RdEn = 0 : i64, kNumHead1RdEn = 0 : i64, kNumPMUs = 1 : i64, kStageId = 0 : i64, kUniqueId = 861 : i64, kUserCreated = false} : (tensor<1x64x136xbf16>) -> (tensor<1x64x136xbf16>, tensor<1x64x136xbf16>)
        "tlir.Store"(%34, %102#1) {kChipID = 0 : i64, kConfigured = true, kConstOffset = 20480 : i64, kGroup = 71 : i64, kIsCheckPoint = false, kIterations = 1 : i64, kLayoutHeuristics = false, kMacID = "default_306", kName = "ptconvlstm__lstm_layer__weight_ih_l0__grad_1_0_306", kOpRWPattern0 = "kWriteOperand", kRegionViewGroupIndex = 2 : i64, kRegionViewGroupKey = "ptconvlstm__lstm_layer__lstm_bwd_tensor1_1", kRegionViewGroupShapes = [[1, 64, 136], [1, 64, 136], [1, 64, 136], [1, 64, 136]], kRegionViewedShape = [1, 64, 136], kRemovesAlignment = false, kRequiresWBuf = false, kSliceAxes = [], kStageId = 0 : i64, kStoreSlice = false, kTemplateName = "store_1_0_306", kUniqueId = 306 : i64, kUseVectorTranspose = true, kUserCreated = true, kUsesRegionView = true} : (tensor<4x64x136xbf16>, tensor<1x64x136xbf16>) -> ()
        %103:2 = "tlir.Buffer"(%99) {DataLayout0 = #tlir.layout<RV,CM,VA>, DataLayout1 = #tlir.layout<RV,CM,VA>, NumSamples1 = 1 : i64, NumSamples1S = 2 : i64, kBufHead = 1 : i64, kBufferType = 1 : i64, kConfigured = true, kDepth = 1 : i64, kHead0CtrlFlowEnable = false, kHead1CtrlFlowEnable = false, kIsStageBuffer = false, kMacID = "default_862", kName = "gbuf1a_1_0_862", kNumHead0RdEn = 0 : i64, kNumHead1RdEn = 0 : i64, kNumPMUs = 1 : i64, kStageId = 0 : i64, kUniqueId = 862 : i64, kUserCreated = false} : (tensor<1x64x136xbf16>) -> (tensor<1x64x136xbf16>, tensor<1x64x136xbf16>)
        "tlir.Store"(%34, %103#1) {kChipID = 0 : i64, kConfigured = true, kConstOffset = 30720 : i64, kGroup = 72 : i64, kIsCheckPoint = false, kIterations = 1 : i64, kLayoutHeuristics = false, kMacID = "default_307", kName = "ptconvlstm__lstm_layer__weight_ih_l0__grad_1_0_307", kOpRWPattern0 = "kWriteOperand", kRegionViewGroupIndex = 3 : i64, kRegionViewGroupKey = "ptconvlstm__lstm_layer__lstm_bwd_tensor1_1", kRegionViewGroupShapes = [[1, 64, 136], [1, 64, 136], [1, 64, 136], [1, 64, 136]], kRegionViewedShape = [1, 64, 136], kRemovesAlignment = false, kRequiresWBuf = false, kSliceAxes = [], kStageId = 0 : i64, kStoreSlice = false, kTemplateName = "store_1_0_307", kUniqueId = 307 : i64, kUseVectorTranspose = true, kUserCreated = true, kUsesRegionView = true} : (tensor<4x64x136xbf16>, tensor<1x64x136xbf16>) -> ()
        %104 = "tlir.Transpose"(%72) {DataLayout0 = #tlir.layout<RV,CM,VA>, NumSamples0 = 1 : i64, NumSamples0S = 2 : i64, kConfigured = true, kMacID = "default_902", kName = "transpose_1_0_902", kNoExperimentalHD = false, kStageId = 0 : i64, kTemplateName = "transpose_1_0_902", kTransposeType = 1 : i64, kUniqueId = 902 : i64, kUserCreated = false} : (tensor<64x1xbf16>) -> tensor<64x1xbf16>
        %105 = "tlir.Reshape"(%104) {DataLayout0 = #tlir.layout<RV,CM,VA>, NumSamples0 = 1 : i64, NumSamples0S = 2 : i64, kConfigured = true, kDieID = -1 : i64, kIsCriticalStage = false, kLatency = 1.759000e+03 : f64, kMacID = "ptconvlstm__lstm_layer__lstm_bwd", kName = "reshape_1_0_688", kStageId = 0 : i64, kStageLatency = 1.759000e+03 : f64, kTemplateName = "reshape_1_0_688", kUniqueId = 688 : i64, kUserCreated = true} : (tensor<64x1xbf16>) -> tensor<1x64x1xbf16>
        %106 = "tlir.Transpose"(%73) {DataLayout0 = #tlir.layout<RV,CM,VA>, NumSamples0 = 1 : i64, NumSamples0S = 2 : i64, kConfigured = true, kMacID = "default_903", kName = "transpose_1_0_903", kNoExperimentalHD = false, kStageId = 0 : i64, kTemplateName = "transpose_1_0_903", kTransposeType = 1 : i64, kUniqueId = 903 : i64, kUserCreated = false} : (tensor<64x1xbf16>) -> tensor<64x1xbf16>
        %107 = "tlir.Reshape"(%106) {DataLayout0 = #tlir.layout<RV,CM,VA>, NumSamples0 = 1 : i64, NumSamples0S = 2 : i64, kConfigured = true, kDieID = -1 : i64, kIsCriticalStage = false, kLatency = 1.759000e+03 : f64, kMacID = "ptconvlstm__lstm_layer__lstm_bwd", kName = "reshape_1_0_689", kStageId = 0 : i64, kStageLatency = 1.759000e+03 : f64, kTemplateName = "reshape_1_0_689", kUniqueId = 689 : i64, kUserCreated = true} : (tensor<64x1xbf16>) -> tensor<1x64x1xbf16>
        %108 = "tlir.Transpose"(%74) {DataLayout0 = #tlir.layout<RV,CM,VA>, NumSamples0 = 1 : i64, NumSamples0S = 2 : i64, kConfigured = true, kMacID = "default_904", kName = "transpose_1_0_904", kNoExperimentalHD = false, kStageId = 0 : i64, kTemplateName = "transpose_1_0_904", kTransposeType = 1 : i64, kUniqueId = 904 : i64, kUserCreated = false} : (tensor<64x1xbf16>) -> tensor<64x1xbf16>
        %109 = "tlir.Reshape"(%108) {DataLayout0 = #tlir.layout<RV,CM,VA>, NumSamples0 = 1 : i64, NumSamples0S = 2 : i64, kConfigured = true, kDieID = -1 : i64, kIsCriticalStage = false, kLatency = 1.759000e+03 : f64, kMacID = "ptconvlstm__lstm_layer__lstm_bwd", kName = "reshape_1_0_690", kStageId = 0 : i64, kStageLatency = 1.759000e+03 : f64, kTemplateName = "reshape_1_0_690", kUniqueId = 690 : i64, kUserCreated = true} : (tensor<64x1xbf16>) -> tensor<1x64x1xbf16>
        %110 = "tlir.Transpose"(%75) {DataLayout0 = #tlir.layout<RV,CM,VA>, NumSamples0 = 1 : i64, NumSamples0S = 2 : i64, kConfigured = true, kMacID = "default_905", kName = "transpose_1_0_905", kNoExperimentalHD = false, kStageId = 0 : i64, kTemplateName = "transpose_1_0_905", kTransposeType = 1 : i64, kUniqueId = 905 : i64, kUserCreated = false} : (tensor<64x1xbf16>) -> tensor<64x1xbf16>
        %111 = "tlir.Reshape"(%110) {DataLayout0 = #tlir.layout<RV,CM,VA>, NumSamples0 = 1 : i64, NumSamples0S = 2 : i64, kConfigured = true, kDieID = -1 : i64, kIsCriticalStage = false, kLatency = 1.759000e+03 : f64, kMacID = "ptconvlstm__lstm_layer__lstm_bwd", kName = "reshape_1_0_691", kStageId = 0 : i64, kStageLatency = 1.759000e+03 : f64, kTemplateName = "reshape_1_0_691", kUniqueId = 691 : i64, kUserCreated = true} : (tensor<64x1xbf16>) -> tensor<1x64x1xbf16>
        %112:2 = "tlir.Buffer"(%105) {DataLayout0 = #tlir.layout<RV,CM,VA>, DataLayout1 = #tlir.layout<RV,CM,VA>, NumSamples1 = 1 : i64, NumSamples1S = 2 : i64, kBufHead = 1 : i64, kBufferType = 1 : i64, kConfigured = true, kDepth = 1 : i64, kHead0CtrlFlowEnable = false, kHead1CtrlFlowEnable = false, kIsStageBuffer = false, kMacID = "default_863", kName = "gbuf1a_1_0_863", kNumHead0RdEn = 0 : i64, kNumHead1RdEn = 0 : i64, kNumPMUs = 1 : i64, kStageId = 0 : i64, kUniqueId = 863 : i64, kUserCreated = false} : (tensor<1x64x1xbf16>) -> (tensor<1x64x1xbf16>, tensor<1x64x1xbf16>)
        "tlir.Store"(%36, %112#1) {kChipID = 0 : i64, kConfigured = true, kConstOffset = 0 : i64, kGroup = 73 : i64, kIsCheckPoint = false, kIterations = 1 : i64, kLayoutHeuristics = false, kMacID = "default_308", kName = "ptconvlstm__lstm_layer__bias_ih_l0__grad_1_0_308", kOpRWPattern0 = "kWriteOperand", kRegionViewGroupIndex = 0 : i64, kRegionViewGroupKey = "ptconvlstm__lstm_layer__lstm_bwd_tensor2_2", kRegionViewGroupShapes = [[1, 64, 1], [1, 64, 1], [1, 64, 1], [1, 64, 1]], kRegionViewedShape = [1, 64, 1], kRemovesAlignment = false, kRequiresWBuf = false, kSliceAxes = [], kStageId = 0 : i64, kStoreSlice = false, kTemplateName = "store_1_0_308", kUniqueId = 308 : i64, kUseVectorTranspose = true, kUserCreated = true, kUsesRegionView = true} : (tensor<4x64x1xbf16>, tensor<1x64x1xbf16>) -> ()
        %113:2 = "tlir.Buffer"(%107) {DataLayout0 = #tlir.layout<RV,CM,VA>, DataLayout1 = #tlir.layout<RV,CM,VA>, NumSamples1 = 1 : i64, NumSamples1S = 2 : i64, kBufHead = 1 : i64, kBufferType = 1 : i64, kConfigured = true, kDepth = 1 : i64, kHead0CtrlFlowEnable = false, kHead1CtrlFlowEnable = false, kIsStageBuffer = false, kMacID = "default_864", kName = "gbuf1a_1_0_864", kNumHead0RdEn = 0 : i64, kNumHead1RdEn = 0 : i64, kNumPMUs = 1 : i64, kStageId = 0 : i64, kUniqueId = 864 : i64, kUserCreated = false} : (tensor<1x64x1xbf16>) -> (tensor<1x64x1xbf16>, tensor<1x64x1xbf16>)
        "tlir.Store"(%36, %113#1) {kChipID = 0 : i64, kConfigured = true, kConstOffset = 2048 : i64, kGroup = 74 : i64, kIsCheckPoint = false, kIterations = 1 : i64, kLayoutHeuristics = false, kMacID = "default_309", kName = "ptconvlstm__lstm_layer__bias_ih_l0__grad_1_0_309", kOpRWPattern0 = "kWriteOperand", kRegionViewGroupIndex = 1 : i64, kRegionViewGroupKey = "ptconvlstm__lstm_layer__lstm_bwd_tensor2_2", kRegionViewGroupShapes = [[1, 64, 1], [1, 64, 1], [1, 64, 1], [1, 64, 1]], kRegionViewedShape = [1, 64, 1], kRemovesAlignment = false, kRequiresWBuf = false, kSliceAxes = [], kStageId = 0 : i64, kStoreSlice = false, kTemplateName = "store_1_0_309", kUniqueId = 309 : i64, kUseVectorTranspose = true, kUserCreated = true, kUsesRegionView = true} : (tensor<4x64x1xbf16>, tensor<1x64x1xbf16>) -> ()
        %114:2 = "tlir.Buffer"(%109) {DataLayout0 = #tlir.layout<RV,CM,VA>, DataLayout1 = #tlir.layout<RV,CM,VA>, NumSamples1 = 1 : i64, NumSamples1S = 2 : i64, kBufHead = 1 : i64, kBufferType = 1 : i64, kConfigured = true, kDepth = 1 : i64, kHead0CtrlFlowEnable = false, kHead1CtrlFlowEnable = false, kIsStageBuffer = false, kMacID = "default_865", kName = "gbuf1a_1_0_865", kNumHead0RdEn = 0 : i64, kNumHead1RdEn = 0 : i64, kNumPMUs = 1 : i64, kStageId = 0 : i64, kUniqueId = 865 : i64, kUserCreated = false} : (tensor<1x64x1xbf16>) -> (tensor<1x64x1xbf16>, tensor<1x64x1xbf16>)
        "tlir.Store"(%36, %114#1) {kChipID = 0 : i64, kConfigured = true, kConstOffset = 4096 : i64, kGroup = 75 : i64, kIsCheckPoint = false, kIterations = 1 : i64, kLayoutHeuristics = false, kMacID = "default_310", kName = "ptconvlstm__lstm_layer__bias_ih_l0__grad_1_0_310", kOpRWPattern0 = "kWriteOperand", kRegionViewGroupIndex = 2 : i64, kRegionViewGroupKey = "ptconvlstm__lstm_layer__lstm_bwd_tensor2_2", kRegionViewGroupShapes = [[1, 64, 1], [1, 64, 1], [1, 64, 1], [1, 64, 1]], kRegionViewedShape = [1, 64, 1], kRemovesAlignment = false, kRequiresWBuf = false, kSliceAxes = [], kStageId = 0 : i64, kStoreSlice = false, kTemplateName = "store_1_0_310", kUniqueId = 310 : i64, kUseVectorTranspose = true, kUserCreated = true, kUsesRegionView = true} : (tensor<4x64x1xbf16>, tensor<1x64x1xbf16>) -> ()
        %115:2 = "tlir.Buffer"(%111) {DataLayout0 = #tlir.layout<RV,CM,VA>, DataLayout1 = #tlir.layout<RV,CM,VA>, NumSamples1 = 1 : i64, NumSamples1S = 2 : i64, kBufHead = 1 : i64, kBufferType = 1 : i64, kConfigured = true, kDepth = 1 : i64, kHead0CtrlFlowEnable = false, kHead1CtrlFlowEnable = false, kIsStageBuffer = false, kMacID = "default_866", kName = "gbuf1a_1_0_866", kNumHead0RdEn = 0 : i64, kNumHead1RdEn = 0 : i64, kNumPMUs = 1 : i64, kStageId = 0 : i64, kUniqueId = 866 : i64, kUserCreated = false} : (tensor<1x64x1xbf16>) -> (tensor<1x64x1xbf16>, tensor<1x64x1xbf16>)
        "tlir.Store"(%36, %115#1) {kChipID = 0 : i64, kConfigured = true, kConstOffset = 6144 : i64, kGroup = 76 : i64, kIsCheckPoint = false, kIterations = 1 : i64, kLayoutHeuristics = false, kMacID = "default_311", kName = "ptconvlstm__lstm_layer__bias_ih_l0__grad_1_0_311", kOpRWPattern0 = "kWriteOperand", kRegionViewGroupIndex = 3 : i64, kRegionViewGroupKey = "ptconvlstm__lstm_layer__lstm_bwd_tensor2_2", kRegionViewGroupShapes = [[1, 64, 1], [1, 64, 1], [1, 64, 1], [1, 64, 1]], kRegionViewedShape = [1, 64, 1], kRemovesAlignment = false, kRequiresWBuf = false, kSliceAxes = [], kStageId = 0 : i64, kStoreSlice = false, kTemplateName = "store_1_0_311", kUniqueId = 311 : i64, kUseVectorTranspose = true, kUserCreated = true, kUsesRegionView = true} : (tensor<4x64x1xbf16>, tensor<1x64x1xbf16>) -> ()
        %116 = "tlir.Transpose"(%68) {DataLayout0 = #tlir.layout<RV,CM,VA>, NumSamples0 = 1 : i64, NumSamples0S = 2 : i64, kConfigured = true, kMacID = "default_898", kName = "transpose_1_0_898", kNoExperimentalHD = false, kStageId = 0 : i64, kTemplateName = "transpose_1_0_898", kTransposeType = 1 : i64, kUniqueId = 898 : i64, kUserCreated = false} : (tensor<64x1xbf16>) -> tensor<64x1xbf16>
        %117 = "tlir.Reshape"(%116) {DataLayout0 = #tlir.layout<RV,CM,VA>, NumSamples0 = 1 : i64, NumSamples0S = 2 : i64, kConfigured = true, kDieID = -1 : i64, kIsCriticalStage = false, kLatency = 1.759000e+03 : f64, kMacID = "ptconvlstm__lstm_layer__lstm_bwd", kName = "reshape_1_0_692", kStageId = 0 : i64, kStageLatency = 1.759000e+03 : f64, kTemplateName = "reshape_1_0_692", kUniqueId = 692 : i64, kUserCreated = true} : (tensor<64x1xbf16>) -> tensor<1x64x1xbf16>
        %118 = "tlir.Transpose"(%69) {DataLayout0 = #tlir.layout<RV,CM,VA>, NumSamples0 = 1 : i64, NumSamples0S = 2 : i64, kConfigured = true, kMacID = "default_899", kName = "transpose_1_0_899", kNoExperimentalHD = false, kStageId = 0 : i64, kTemplateName = "transpose_1_0_899", kTransposeType = 1 : i64, kUniqueId = 899 : i64, kUserCreated = false} : (tensor<64x1xbf16>) -> tensor<64x1xbf16>
        %119 = "tlir.Reshape"(%118) {DataLayout0 = #tlir.layout<RV,CM,VA>, NumSamples0 = 1 : i64, NumSamples0S = 2 : i64, kConfigured = true, kDieID = -1 : i64, kIsCriticalStage = false, kLatency = 1.759000e+03 : f64, kMacID = "ptconvlstm__lstm_layer__lstm_bwd", kName = "reshape_1_0_693", kStageId = 0 : i64, kStageLatency = 1.759000e+03 : f64, kTemplateName = "reshape_1_0_693", kUniqueId = 693 : i64, kUserCreated = true} : (tensor<64x1xbf16>) -> tensor<1x64x1xbf16>
        %120 = "tlir.Transpose"(%70) {DataLayout0 = #tlir.layout<RV,CM,VA>, NumSamples0 = 1 : i64, NumSamples0S = 2 : i64, kConfigured = true, kMacID = "default_900", kName = "transpose_1_0_900", kNoExperimentalHD = false, kStageId = 0 : i64, kTemplateName = "transpose_1_0_900", kTransposeType = 1 : i64, kUniqueId = 900 : i64, kUserCreated = false} : (tensor<64x1xbf16>) -> tensor<64x1xbf16>
        %121 = "tlir.Reshape"(%120) {DataLayout0 = #tlir.layout<RV,CM,VA>, NumSamples0 = 1 : i64, NumSamples0S = 2 : i64, kConfigured = true, kDieID = -1 : i64, kIsCriticalStage = false, kLatency = 1.759000e+03 : f64, kMacID = "ptconvlstm__lstm_layer__lstm_bwd", kName = "reshape_1_0_694", kStageId = 0 : i64, kStageLatency = 1.759000e+03 : f64, kTemplateName = "reshape_1_0_694", kUniqueId = 694 : i64, kUserCreated = true} : (tensor<64x1xbf16>) -> tensor<1x64x1xbf16>
        %122 = "tlir.Transpose"(%71) {DataLayout0 = #tlir.layout<RV,CM,VA>, NumSamples0 = 1 : i64, NumSamples0S = 2 : i64, kConfigured = true, kMacID = "default_901", kName = "transpose_1_0_901", kNoExperimentalHD = false, kStageId = 0 : i64, kTemplateName = "transpose_1_0_901", kTransposeType = 1 : i64, kUniqueId = 901 : i64, kUserCreated = false} : (tensor<64x1xbf16>) -> tensor<64x1xbf16>
        %123 = "tlir.Reshape"(%122) {DataLayout0 = #tlir.layout<RV,CM,VA>, NumSamples0 = 1 : i64, NumSamples0S = 2 : i64, kConfigured = true, kDieID = -1 : i64, kIsCriticalStage = false, kLatency = 1.759000e+03 : f64, kMacID = "ptconvlstm__lstm_layer__lstm_bwd", kName = "reshape_1_0_695", kStageId = 0 : i64, kStageLatency = 1.759000e+03 : f64, kTemplateName = "reshape_1_0_695", kUniqueId = 695 : i64, kUserCreated = true} : (tensor<64x1xbf16>) -> tensor<1x64x1xbf16>
        %124:2 = "tlir.Buffer"(%117) {DataLayout0 = #tlir.layout<RV,CM,VA>, DataLayout1 = #tlir.layout<RV,CM,VA>, NumSamples1 = 1 : i64, NumSamples1S = 2 : i64, kBufHead = 1 : i64, kBufferType = 1 : i64, kConfigured = true, kDepth = 1 : i64, kHead0CtrlFlowEnable = false, kHead1CtrlFlowEnable = false, kIsStageBuffer = false, kMacID = "default_867", kName = "gbuf1a_1_0_867", kNumHead0RdEn = 0 : i64, kNumHead1RdEn = 0 : i64, kNumPMUs = 1 : i64, kStageId = 0 : i64, kUniqueId = 867 : i64, kUserCreated = false} : (tensor<1x64x1xbf16>) -> (tensor<1x64x1xbf16>, tensor<1x64x1xbf16>)
        "tlir.Store"(%35, %124#1) {kChipID = 0 : i64, kConfigured = true, kConstOffset = 0 : i64, kGroup = 77 : i64, kIsCheckPoint = false, kIterations = 1 : i64, kLayoutHeuristics = false, kMacID = "default_312", kName = "ptconvlstm__lstm_layer__bias_hh_l0__grad_1_0_312", kOpRWPattern0 = "kWriteOperand", kRegionViewGroupIndex = 0 : i64, kRegionViewGroupKey = "ptconvlstm__lstm_layer__lstm_bwd_tensor3_3", kRegionViewGroupShapes = [[1, 64, 1], [1, 64, 1], [1, 64, 1], [1, 64, 1]], kRegionViewedShape = [1, 64, 1], kRemovesAlignment = false, kRequiresWBuf = false, kSliceAxes = [], kStageId = 0 : i64, kStoreSlice = false, kTemplateName = "store_1_0_312", kUniqueId = 312 : i64, kUseVectorTranspose = true, kUserCreated = true, kUsesRegionView = true} : (tensor<4x64x1xbf16>, tensor<1x64x1xbf16>) -> ()
        %125:2 = "tlir.Buffer"(%119) {DataLayout0 = #tlir.layout<RV,CM,VA>, DataLayout1 = #tlir.layout<RV,CM,VA>, NumSamples1 = 1 : i64, NumSamples1S = 2 : i64, kBufHead = 1 : i64, kBufferType = 1 : i64, kConfigured = true, kDepth = 1 : i64, kHead0CtrlFlowEnable = false, kHead1CtrlFlowEnable = false, kIsStageBuffer = false, kMacID = "default_868", kName = "gbuf1a_1_0_868", kNumHead0RdEn = 0 : i64, kNumHead1RdEn = 0 : i64, kNumPMUs = 1 : i64, kStageId = 0 : i64, kUniqueId = 868 : i64, kUserCreated = false} : (tensor<1x64x1xbf16>) -> (tensor<1x64x1xbf16>, tensor<1x64x1xbf16>)
        "tlir.Store"(%35, %125#1) {kChipID = 0 : i64, kConfigured = true, kConstOffset = 2048 : i64, kGroup = 78 : i64, kIsCheckPoint = false, kIterations = 1 : i64, kLayoutHeuristics = false, kMacID = "default_313", kName = "ptconvlstm__lstm_layer__bias_hh_l0__grad_1_0_313", kOpRWPattern0 = "kWriteOperand", kRegionViewGroupIndex = 1 : i64, kRegionViewGroupKey = "ptconvlstm__lstm_layer__lstm_bwd_tensor3_3", kRegionViewGroupShapes = [[1, 64, 1], [1, 64, 1], [1, 64, 1], [1, 64, 1]], kRegionViewedShape = [1, 64, 1], kRemovesAlignment = false, kRequiresWBuf = false, kSliceAxes = [], kStageId = 0 : i64, kStoreSlice = false, kTemplateName = "store_1_0_313", kUniqueId = 313 : i64, kUseVectorTranspose = true, kUserCreated = true, kUsesRegionView = true} : (tensor<4x64x1xbf16>, tensor<1x64x1xbf16>) -> ()
        %126:2 = "tlir.Buffer"(%121) {DataLayout0 = #tlir.layout<RV,CM,VA>, DataLayout1 = #tlir.layout<RV,CM,VA>, NumSamples1 = 1 : i64, NumSamples1S = 2 : i64, kBufHead = 1 : i64, kBufferType = 1 : i64, kConfigured = true, kDepth = 1 : i64, kHead0CtrlFlowEnable = false, kHead1CtrlFlowEnable = false, kIsStageBuffer = false, kMacID = "default_869", kName = "gbuf1a_1_0_869", kNumHead0RdEn = 0 : i64, kNumHead1RdEn = 0 : i64, kNumPMUs = 1 : i64, kStageId = 0 : i64, kUniqueId = 869 : i64, kUserCreated = false} : (tensor<1x64x1xbf16>) -> (tensor<1x64x1xbf16>, tensor<1x64x1xbf16>)
        "tlir.Store"(%35, %126#1) {kChipID = 0 : i64, kConfigured = true, kConstOffset = 4096 : i64, kGroup = 79 : i64, kIsCheckPoint = false, kIterations = 1 : i64, kLayoutHeuristics = false, kMacID = "default_314", kName = "ptconvlstm__lstm_layer__bias_hh_l0__grad_1_0_314", kOpRWPattern0 = "kWriteOperand", kRegionViewGroupIndex = 2 : i64, kRegionViewGroupKey = "ptconvlstm__lstm_layer__lstm_bwd_tensor3_3", kRegionViewGroupShapes = [[1, 64, 1], [1, 64, 1], [1, 64, 1], [1, 64, 1]], kRegionViewedShape = [1, 64, 1], kRemovesAlignment = false, kRequiresWBuf = false, kSliceAxes = [], kStageId = 0 : i64, kStoreSlice = false, kTemplateName = "store_1_0_314", kUniqueId = 314 : i64, kUseVectorTranspose = true, kUserCreated = true, kUsesRegionView = true} : (tensor<4x64x1xbf16>, tensor<1x64x1xbf16>) -> ()
        %127:2 = "tlir.Buffer"(%123) {DataLayout0 = #tlir.layout<RV,CM,VA>, DataLayout1 = #tlir.layout<RV,CM,VA>, NumSamples1 = 1 : i64, NumSamples1S = 2 : i64, kBufHead = 1 : i64, kBufferType = 1 : i64, kConfigured = true, kDepth = 1 : i64, kHead0CtrlFlowEnable = false, kHead1CtrlFlowEnable = false, kIsStageBuffer = false, kMacID = "default_870", kName = "gbuf1a_1_0_870", kNumHead0RdEn = 0 : i64, kNumHead1RdEn = 0 : i64, kNumPMUs = 1 : i64, kStageId = 0 : i64, kUniqueId = 870 : i64, kUserCreated = false} : (tensor<1x64x1xbf16>) -> (tensor<1x64x1xbf16>, tensor<1x64x1xbf16>)
        "tlir.Store"(%35, %127#1) {kChipID = 0 : i64, kConfigured = true, kConstOffset = 6144 : i64, kGroup = 80 : i64, kIsCheckPoint = false, kIterations = 1 : i64, kLayoutHeuristics = false, kMacID = "default_315", kName = "ptconvlstm__lstm_layer__bias_hh_l0__grad_1_0_315", kOpRWPattern0 = "kWriteOperand", kRegionViewGroupIndex = 3 : i64, kRegionViewGroupKey = "ptconvlstm__lstm_layer__lstm_bwd_tensor3_3", kRegionViewGroupShapes = [[1, 64, 1], [1, 64, 1], [1, 64, 1], [1, 64, 1]], kRegionViewedShape = [1, 64, 1], kRemovesAlignment = false, kRequiresWBuf = false, kSliceAxes = [], kStageId = 0 : i64, kStoreSlice = false, kTemplateName = "store_1_0_315", kUniqueId = 315 : i64, kUseVectorTranspose = true, kUserCreated = true, kUsesRegionView = true} : (tensor<4x64x1xbf16>, tensor<1x64x1xbf16>) -> ()
        "tlir.terminator"() {kConfigured = true, kMacID = "default_499", kName = "terminator499", kStageId = 0 : i64, kUniqueId = 499 : i64, kUserCreated = true} : () -> ()
      }) {kConfigured = true, kMacID = "default_498", kName = "chip1_0", kPartitionId = 0 : i64, kStageId = 0 : i64, kUniqueId = 498 : i64, kUserCreated = true, type = none} : () -> ()
      "tlir.terminator"() {kConfigured = true, kMacID = "default_259", kName = "terminator259", kStageId = 0 : i64, kUniqueId = 259 : i64, kUserCreated = true} : () -> ()
    }) {kConfigured = true, kGlobalId = 1 : i64, kIsHostSection = false, kMacID = "default_164", kName = "section1", kPartitionId = 1 : i64, kSectionLatency = 4.8763959057396278E-5 : f64, kSectionName = "$BCKWD", kSectionUniqueName = "ptconvlstm__lstm_layer__lstm_recompute__as_initial", kStageId = 0 : i64, kUniqueId = 164 : i64, kUserCreated = true, type = none} : () -> ()
    "tlir.Section"() ( {
      "tlir.Chip"() ( {
        %37 = "tlir.Load"(%9) {DataLayout0 = #tlir.layout<CV,RM,VA>, NumSamples0 = 1 : i64, NumSamples0S = 2 : i64, kAddedAlignment = -1 : i64, kChipID = 0 : i64, kConfigured = true, kGroup = 4 : i64, kGroupedDramLayoutName = "group_4", kIsGrouped = false, kIterations = 1 : i64, kLayoutHeuristics = false, kMacID = "default_261", kName = "ptconvlstm__dense_layer__weight_2_0_261", kRequiresWBuf = true, kStageId = 0 : i64, kTemplateName = "load_2_0_261", kUniqueId = 261 : i64, kUseVectorTranspose = false, kUserCreated = true} : (tensor<4080x64xbf16>) -> tensor<4080x64xbf16>
        %38 = "tlir.Load"(%31) {DataLayout0 = #tlir.layout<CV,RM,VA>, NumSamples0 = 1 : i64, NumSamples0S = 2 : i64, kAddedAlignment = -1 : i64, kChipID = 0 : i64, kConfigured = true, kGroup = 30 : i64, kGroupedDramLayoutName = "group_30", kIsGrouped = false, kIterations = 1 : i64, kLayoutHeuristics = false, kMacID = "default_262", kName = "ptconvlstm__dense_layer__weight__grad_2_0_262", kRequiresWBuf = true, kStageId = 0 : i64, kTemplateName = "load_2_0_262", kUniqueId = 262 : i64, kUseVectorTranspose = false, kUserCreated = true} : (tensor<4080x64xbf16>) -> tensor<4080x64xbf16>
        %39 = "tlir.Load"(%15) {DataLayout0 = #tlir.layout<CV,RM,VA>, NumSamples0 = 1 : i64, NumSamples0S = 2 : i64, kAddedAlignment = -1 : i64, kChipID = 0 : i64, kConfigured = true, kGroup = 28 : i64, kGroupedDramLayoutName = "group_28", kIsGrouped = false, kIterations = 1 : i64, kLayoutHeuristics = false, kMacID = "default_263", kName = "ptconvlstm__dense_layer__weight__sgd0__momentum_2_0_263", kRequiresWBuf = true, kStageId = 0 : i64, kTemplateName = "load_2_0_263", kUniqueId = 263 : i64, kUseVectorTranspose = false, kUserCreated = true} : (tensor<4080x64xbf16>) -> tensor<4080x64xbf16>
        %40:2 = "tlir.SGD"(%37, %39, %38) {DataLayout0 = #tlir.layout<CV,RM,VA>, DataLayout1 = #tlir.layout<CV,RM,VA>, NumSamples0 = 1 : i64, NumSamples0S = 2 : i64, NumSamples1 = 1 : i64, NumSamples1S = 2 : i64, kChipID = 0 : i64, kConfigured = true, kDecayArgInName = "weight_decay", kDecayRate = 3.0000001424923539E-4 : f64, kLrArgInName = "lr", kLrRate = 0.001500000013038516 : f64, kMacID = "ptconvlstm__dense_layer__weight__ptconvlstm__dense_layer__linear_bwd_weight_opt", kMixP = true, kMomentumArgInName = "momentum", kMomentumRate = 0.000000e+00 : f64, kName = "ptconvlstm__dense_layer__weight__ptconvlstm__dense_layer__linear_bwd_weight_opt", kStageId = 0 : i64, kStrndSeed = 43690 : i64, kStrndSeedArgInName = "strnd_seed", kTemplateName = "optimizer_sgd_2_0_264", kUniqueId = 264 : i64, kUserCreated = true} : (tensor<4080x64xbf16>, tensor<4080x64xbf16>, tensor<4080x64xbf16>) -> (tensor<4080x64xbf16>, tensor<4080x64xbf16>)
        "tlir.Store"(%9, %40#0) {kChipID = 0 : i64, kConfigured = true, kGroup = 4 : i64, kIsCheckPoint = false, kIterations = 1 : i64, kLayoutHeuristics = false, kMacID = "default_265", kName = "ptconvlstm__dense_layer__weight__ptconvlstm__dense_layer__linear_bwd_weight_opt_tensor", kOpRWPattern0 = "kWriteOperand", kRemovesAlignment = false, kRequiresWBuf = true, kSliceAxes = [], kStageId = 0 : i64, kStoreSlice = false, kTemplateName = "store_2_0_265", kUniqueId = 265 : i64, kUseVectorTranspose = false, kUserCreated = true} : (tensor<4080x64xbf16>, tensor<4080x64xbf16>) -> ()
        "tlir.Store"(%15, %40#1) {kChipID = 0 : i64, kConfigured = true, kGroup = 28 : i64, kIsCheckPoint = false, kIterations = 1 : i64, kLayoutHeuristics = false, kMacID = "default_266", kName = "ptconvlstm__dense_layer__weight__ptconvlstm__dense_layer__linear_bwd_weight_opt_tensor1", kOpRWPattern0 = "kWriteOperand", kRemovesAlignment = false, kRequiresWBuf = true, kSliceAxes = [], kStageId = 0 : i64, kStoreSlice = false, kTemplateName = "store_2_0_266", kUniqueId = 266 : i64, kUseVectorTranspose = false, kUserCreated = true} : (tensor<4080x64xbf16>, tensor<4080x64xbf16>) -> ()
        %41 = "tlir.Load"(%8) {DataLayout0 = #tlir.layout<CV,RM,VA>, NumSamples0 = 1 : i64, NumSamples0S = 2 : i64, kAddedAlignment = -1 : i64, kChipID = 0 : i64, kConfigured = true, kGroup = 27 : i64, kGroupedDramLayoutName = "group_27", kIsGrouped = false, kIterations = 1 : i64, kLayoutHeuristics = false, kMacID = "default_267", kName = "ptconvlstm__dense_layer__bias_2_0_267", kRequiresWBuf = true, kStageId = 0 : i64, kTemplateName = "load_2_0_267", kUniqueId = 267 : i64, kUseVectorTranspose = false, kUserCreated = true} : (tensor<4080x1xbf16>) -> tensor<4080x1xbf16>
        %42 = "tlir.Load"(%32) {DataLayout0 = #tlir.layout<CV,RM,VA>, NumSamples0 = 1 : i64, NumSamples0S = 2 : i64, kAddedAlignment = -1 : i64, kChipID = 0 : i64, kConfigured = true, kGroup = 31 : i64, kGroupedDramLayoutName = "group_31", kIsGrouped = false, kIterations = 1 : i64, kLayoutHeuristics = false, kMacID = "default_268", kName = "ptconvlstm__dense_layer__bias__grad_2_0_268", kRequiresWBuf = true, kStageId = 0 : i64, kTemplateName = "load_2_0_268", kUniqueId = 268 : i64, kUseVectorTranspose = false, kUserCreated = true} : (tensor<4080x1xbf16>) -> tensor<4080x1xbf16>
        %43 = "tlir.Load"(%16) {DataLayout0 = #tlir.layout<CV,RM,VA>, NumSamples0 = 1 : i64, NumSamples0S = 2 : i64, kAddedAlignment = -1 : i64, kChipID = 0 : i64, kConfigured = true, kGroup = 29 : i64, kGroupedDramLayoutName = "group_29", kIsGrouped = true, kIterations = 1 : i64, kLayoutHeuristics = false, kMacID = "default_269", kName = "ptconvlstm__dense_layer__bias__sgd0__momentum_2_0_269", kRequiresWBuf = true, kStageId = 0 : i64, kTemplateName = "load_2_0_269", kUniqueId = 269 : i64, kUseVectorTranspose = false, kUserCreated = true} : (tensor<4080x1xbf16>) -> tensor<4080x1xbf16>
        %44:2 = "tlir.SGD"(%41, %43, %42) {DataLayout0 = #tlir.layout<CV,RM,VA>, DataLayout1 = #tlir.layout<CV,RM,VA>, NumSamples0 = 1 : i64, NumSamples0S = 2 : i64, NumSamples1 = 1 : i64, NumSamples1S = 2 : i64, kChipID = 0 : i64, kConfigured = true, kDecayArgInName = "weight_decay", kDecayRate = 3.0000001424923539E-4 : f64, kLrArgInName = "lr", kLrRate = 0.001500000013038516 : f64, kMacID = "ptconvlstm__dense_layer__bias__ptconvlstm__dense_layer__linear_bwd_weight_opt", kMixP = true, kMomentumArgInName = "momentum", kMomentumRate = 0.000000e+00 : f64, kName = "ptconvlstm__dense_layer__bias__ptconvlstm__dense_layer__linear_bwd_weight_opt", kStageId = 0 : i64, kStrndSeed = 43690 : i64, kStrndSeedArgInName = "strnd_seed", kTemplateName = "optimizer_sgd_2_0_270", kUniqueId = 270 : i64, kUserCreated = true} : (tensor<4080x1xbf16>, tensor<4080x1xbf16>, tensor<4080x1xbf16>) -> (tensor<4080x1xbf16>, tensor<4080x1xbf16>)
        "tlir.Store"(%8, %44#0) {kChipID = 0 : i64, kConfigured = true, kGroup = 27 : i64, kIsCheckPoint = false, kIterations = 1 : i64, kLayoutHeuristics = false, kMacID = "default_271", kName = "ptconvlstm__dense_layer__bias__ptconvlstm__dense_layer__linear_bwd_weight_opt_tensor", kOpRWPattern0 = "kWriteOperand", kRemovesAlignment = false, kRequiresWBuf = true, kSliceAxes = [], kStageId = 0 : i64, kStoreSlice = false, kTemplateName = "store_2_0_271", kUniqueId = 271 : i64, kUseVectorTranspose = false, kUserCreated = true} : (tensor<4080x1xbf16>, tensor<4080x1xbf16>) -> ()
        "tlir.Store"(%16, %44#1) {kChipID = 0 : i64, kConfigured = true, kGroup = 29 : i64, kIsCheckPoint = false, kIterations = 1 : i64, kLayoutHeuristics = false, kMacID = "default_272", kName = "ptconvlstm__dense_layer__bias__ptconvlstm__dense_layer__linear_bwd_weight_opt_tensor1", kOpRWPattern0 = "kWriteOperand", kRemovesAlignment = false, kRequiresWBuf = true, kSliceAxes = [], kStageId = 0 : i64, kStoreSlice = false, kTemplateName = "store_2_0_272", kUniqueId = 272 : i64, kUseVectorTranspose = false, kUserCreated = true} : (tensor<4080x1xbf16>, tensor<4080x1xbf16>) -> ()
        %45 = "tlir.Load"(%3) {DataLayout0 = #tlir.layout<CV,RM,VA>, NumSamples0 = 1 : i64, NumSamples0S = 2 : i64, kAddedAlignment = -1 : i64, kChipID = 0 : i64, kConfigured = true, kGroup = 26 : i64, kGroupedDramLayoutName = "group_26", kIsGrouped = false, kIterations = 1 : i64, kLayoutHeuristics = false, kMacID = "default_273", kName = "ptconvlstm__lstm_layer__weight_ih_l0_2_0_273", kRequiresWBuf = true, kStageId = 0 : i64, kTemplateName = "load_2_0_273", kUniqueId = 273 : i64, kUseVectorTranspose = false, kUserCreated = true} : (tensor<4x64x136xbf16>) -> tensor<4x64x136xbf16>
        %46 = "tlir.Load"(%34) {DataLayout0 = #tlir.layout<RV,CM,VA>, NumSamples0 = 1 : i64, NumSamples0S = 2 : i64, kAddedAlignment = -1 : i64, kChipID = 0 : i64, kConfigured = true, kGroup = 81 : i64, kGroupedDramLayoutName = "ptconvlstm__lstm_layer__weight_ih_l0__grad_2_0_274", kIsGrouped = false, kIterations = 1 : i64, kLayoutHeuristics = false, kMacID = "default_274", kName = "ptconvlstm__lstm_layer__weight_ih_l0__grad_2_0_274", kRequiresWBuf = false, kStageId = 0 : i64, kTemplateName = "load_2_0_274", kUniqueId = 274 : i64, kUseVectorTranspose = true, kUserCreated = true} : (tensor<4x64x136xbf16>) -> tensor<4x64x136xbf16>
        %47 = "tlir.Load"(%17) {DataLayout0 = #tlir.layout<CV,RM,VA>, NumSamples0 = 1 : i64, NumSamples0S = 2 : i64, kAddedAlignment = -1 : i64, kChipID = 0 : i64, kConfigured = true, kGroup = 29 : i64, kGroupedDramLayoutName = "group_29", kIsGrouped = true, kIterations = 1 : i64, kLayoutHeuristics = false, kMacID = "default_275", kName = "ptconvlstm__lstm_layer__weight_ih_l0__sgd0__momentum_2_0_275", kRequiresWBuf = true, kStageId = 0 : i64, kTemplateName = "load_2_0_275", kUniqueId = 275 : i64, kUseVectorTranspose = false, kUserCreated = true} : (tensor<4x64x136xbf16>) -> tensor<4x64x136xbf16>
        %48:2 = "tlir.Buffer"(%46) {DataLayout0 = #tlir.layout<RV,CM,VA>, DataLayout1 = #tlir.layout<CV,RM,VA>, NumSamples1 = 1 : i64, NumSamples1S = 2 : i64, kBufHead = 1 : i64, kBufferType = 1 : i64, kConfigured = true, kDepth = 1 : i64, kHead0CtrlFlowEnable = false, kHead1CtrlFlowEnable = false, kIsStageBuffer = false, kMacID = "default_917", kName = "gbuf1a_2_0_917", kNumHead0RdEn = 0 : i64, kNumHead1RdEn = 0 : i64, kNumPMUs = 1 : i64, kStageId = 0 : i64, kTranspose = 1 : i64, kUniqueId = 917 : i64, kUserCreated = false} : (tensor<4x64x136xbf16>) -> (tensor<4x64x136xbf16>, tensor<4x64x136xbf16>)
        %49:2 = "tlir.SGD"(%45, %47, %48#1) {DataLayout0 = #tlir.layout<CV,RM,VA>, DataLayout1 = #tlir.layout<CV,RM,VA>, NumSamples0 = 1 : i64, NumSamples0S = 2 : i64, NumSamples1 = 1 : i64, NumSamples1S = 2 : i64, kChipID = 0 : i64, kConfigured = true, kDecayArgInName = "weight_decay", kDecayRate = 3.0000001424923539E-4 : f64, kLrArgInName = "lr", kLrRate = 0.001500000013038516 : f64, kMacID = "ptconvlstm__lstm_layer__weight_ih_l0__ptconvlstm__lstm_layer__lstm_bwd_opt", kMixP = true, kMomentumArgInName = "momentum", kMomentumRate = 0.000000e+00 : f64, kName = "ptconvlstm__lstm_layer__weight_ih_l0__ptconvlstm__lstm_layer__lstm_bwd_opt", kStageId = 0 : i64, kStrndSeed = 43690 : i64, kStrndSeedArgInName = "strnd_seed", kTemplateName = "optimizer_sgd_2_0_276", kUniqueId = 276 : i64, kUserCreated = true} : (tensor<4x64x136xbf16>, tensor<4x64x136xbf16>, tensor<4x64x136xbf16>) -> (tensor<4x64x136xbf16>, tensor<4x64x136xbf16>)
        "tlir.Store"(%3, %49#0) {kChipID = 0 : i64, kConfigured = true, kGroup = 26 : i64, kIsCheckPoint = false, kIterations = 1 : i64, kLayoutHeuristics = false, kMacID = "default_277", kName = "ptconvlstm__lstm_layer__weight_ih_l0__ptconvlstm__lstm_layer__lstm_bwd_opt_tensor", kOpRWPattern0 = "kWriteOperand", kRemovesAlignment = false, kRequiresWBuf = true, kSliceAxes = [], kStageId = 0 : i64, kStoreSlice = false, kTemplateName = "store_2_0_277", kUniqueId = 277 : i64, kUseVectorTranspose = false, kUserCreated = true} : (tensor<4x64x136xbf16>, tensor<4x64x136xbf16>) -> ()
        "tlir.Store"(%17, %49#1) {kChipID = 0 : i64, kConfigured = true, kGroup = 29 : i64, kIsCheckPoint = false, kIterations = 1 : i64, kLayoutHeuristics = false, kMacID = "default_278", kName = "ptconvlstm__lstm_layer__weight_ih_l0__ptconvlstm__lstm_layer__lstm_bwd_opt_tensor1", kOpRWPattern0 = "kWriteOperand", kRemovesAlignment = false, kRequiresWBuf = true, kSliceAxes = [], kStageId = 0 : i64, kStoreSlice = false, kTemplateName = "store_2_0_278", kUniqueId = 278 : i64, kUseVectorTranspose = false, kUserCreated = true} : (tensor<4x64x136xbf16>, tensor<4x64x136xbf16>) -> ()
        %50 = "tlir.Load"(%2) {DataLayout0 = #tlir.layout<CV,RM,VA>, NumSamples0 = 1 : i64, NumSamples0S = 2 : i64, kAddedAlignment = -1 : i64, kChipID = 0 : i64, kConfigured = true, kGroup = 25 : i64, kGroupedDramLayoutName = "group_25", kIsGrouped = false, kIterations = 1 : i64, kLayoutHeuristics = false, kMacID = "default_279", kName = "ptconvlstm__lstm_layer__weight_hh_l0_2_0_279", kRequiresWBuf = true, kStageId = 0 : i64, kTemplateName = "load_2_0_279", kUniqueId = 279 : i64, kUseVectorTranspose = false, kUserCreated = true} : (tensor<4x64x64xbf16>) -> tensor<4x64x64xbf16>
        %51 = "tlir.Load"(%33) {DataLayout0 = #tlir.layout<RV,CM,VA>, NumSamples0 = 1 : i64, NumSamples0S = 2 : i64, kAddedAlignment = -1 : i64, kChipID = 0 : i64, kConfigured = true, kGroup = 82 : i64, kGroupedDramLayoutName = "ptconvlstm__lstm_layer__weight_hh_l0__grad_2_0_280", kIsGrouped = false, kIterations = 1 : i64, kLayoutHeuristics = false, kMacID = "default_280", kName = "ptconvlstm__lstm_layer__weight_hh_l0__grad_2_0_280", kRequiresWBuf = false, kStageId = 0 : i64, kTemplateName = "load_2_0_280", kUniqueId = 280 : i64, kUseVectorTranspose = true, kUserCreated = true} : (tensor<4x64x64xbf16>) -> tensor<4x64x64xbf16>
        %52 = "tlir.Load"(%18) {DataLayout0 = #tlir.layout<CV,RM,VA>, NumSamples0 = 1 : i64, NumSamples0S = 2 : i64, kAddedAlignment = -1 : i64, kChipID = 0 : i64, kConfigured = true, kGroup = 29 : i64, kGroupedDramLayoutName = "group_29", kIsGrouped = true, kIterations = 1 : i64, kLayoutHeuristics = false, kMacID = "default_281", kName = "ptconvlstm__lstm_layer__weight_hh_l0__sgd0__momentum_2_0_281", kRequiresWBuf = true, kStageId = 0 : i64, kTemplateName = "load_2_0_281", kUniqueId = 281 : i64, kUseVectorTranspose = false, kUserCreated = true} : (tensor<4x64x64xbf16>) -> tensor<4x64x64xbf16>
        %53:2 = "tlir.Buffer"(%51) {DataLayout0 = #tlir.layout<RV,CM,VA>, DataLayout1 = #tlir.layout<CV,RM,VA>, NumSamples1 = 1 : i64, NumSamples1S = 2 : i64, kBufHead = 1 : i64, kBufferType = 1 : i64, kConfigured = true, kDepth = 1 : i64, kHead0CtrlFlowEnable = false, kHead1CtrlFlowEnable = false, kIsStageBuffer = false, kMacID = "default_918", kName = "gbuf1a_2_0_918", kNumHead0RdEn = 0 : i64, kNumHead1RdEn = 0 : i64, kNumPMUs = 1 : i64, kStageId = 0 : i64, kTranspose = 1 : i64, kUniqueId = 918 : i64, kUserCreated = false} : (tensor<4x64x64xbf16>) -> (tensor<4x64x64xbf16>, tensor<4x64x64xbf16>)
        %54:2 = "tlir.SGD"(%50, %52, %53#1) {DataLayout0 = #tlir.layout<CV,RM,VA>, DataLayout1 = #tlir.layout<CV,RM,VA>, NumSamples0 = 1 : i64, NumSamples0S = 2 : i64, NumSamples1 = 1 : i64, NumSamples1S = 2 : i64, kChipID = 0 : i64, kConfigured = true, kDecayArgInName = "weight_decay", kDecayRate = 3.0000001424923539E-4 : f64, kLrArgInName = "lr", kLrRate = 0.001500000013038516 : f64, kMacID = "ptconvlstm__lstm_layer__weight_hh_l0__ptconvlstm__lstm_layer__lstm_bwd_opt", kMixP = true, kMomentumArgInName = "momentum", kMomentumRate = 0.000000e+00 : f64, kName = "ptconvlstm__lstm_layer__weight_hh_l0__ptconvlstm__lstm_layer__lstm_bwd_opt", kStageId = 0 : i64, kStrndSeed = 43690 : i64, kStrndSeedArgInName = "strnd_seed", kTemplateName = "optimizer_sgd_2_0_282", kUniqueId = 282 : i64, kUserCreated = true} : (tensor<4x64x64xbf16>, tensor<4x64x64xbf16>, tensor<4x64x64xbf16>) -> (tensor<4x64x64xbf16>, tensor<4x64x64xbf16>)
        "tlir.Store"(%2, %54#0) {kChipID = 0 : i64, kConfigured = true, kGroup = 25 : i64, kIsCheckPoint = false, kIterations = 1 : i64, kLayoutHeuristics = false, kMacID = "default_283", kName = "ptconvlstm__lstm_layer__weight_hh_l0__ptconvlstm__lstm_layer__lstm_bwd_opt_tensor", kOpRWPattern0 = "kWriteOperand", kRemovesAlignment = false, kRequiresWBuf = true, kSliceAxes = [], kStageId = 0 : i64, kStoreSlice = false, kTemplateName = "store_2_0_283", kUniqueId = 283 : i64, kUseVectorTranspose = false, kUserCreated = true} : (tensor<4x64x64xbf16>, tensor<4x64x64xbf16>) -> ()
        "tlir.Store"(%18, %54#1) {kChipID = 0 : i64, kConfigured = true, kGroup = 29 : i64, kIsCheckPoint = false, kIterations = 1 : i64, kLayoutHeuristics = false, kMacID = "default_284", kName = "ptconvlstm__lstm_layer__weight_hh_l0__ptconvlstm__lstm_layer__lstm_bwd_opt_tensor1", kOpRWPattern0 = "kWriteOperand", kRemovesAlignment = false, kRequiresWBuf = true, kSliceAxes = [], kStageId = 0 : i64, kStoreSlice = false, kTemplateName = "store_2_0_284", kUniqueId = 284 : i64, kUseVectorTranspose = false, kUserCreated = true} : (tensor<4x64x64xbf16>, tensor<4x64x64xbf16>) -> ()
        %55 = "tlir.Load"(%1) {DataLayout0 = #tlir.layout<CV,RM,VA>, NumSamples0 = 1 : i64, NumSamples0S = 2 : i64, kAddedAlignment = -1 : i64, kChipID = 0 : i64, kConfigured = true, kGroup = 24 : i64, kGroupedDramLayoutName = "group_24", kIsGrouped = false, kIterations = 1 : i64, kLayoutHeuristics = false, kMacID = "default_285", kName = "ptconvlstm__lstm_layer__bias_ih_l0_2_0_285", kRequiresWBuf = true, kStageId = 0 : i64, kTemplateName = "load_2_0_285", kUniqueId = 285 : i64, kUseVectorTranspose = false, kUserCreated = true} : (tensor<4x64x1xbf16>) -> tensor<4x64x1xbf16>
        %56 = "tlir.Load"(%36) {DataLayout0 = #tlir.layout<RV,CM,VA>, NumSamples0 = 1 : i64, NumSamples0S = 2 : i64, kAddedAlignment = -1 : i64, kChipID = 0 : i64, kConfigured = true, kGroup = 83 : i64, kGroupedDramLayoutName = "ptconvlstm__lstm_layer__bias_ih_l0__grad_2_0_286", kIsGrouped = false, kIterations = 1 : i64, kLayoutHeuristics = false, kMacID = "default_286", kName = "ptconvlstm__lstm_layer__bias_ih_l0__grad_2_0_286", kRequiresWBuf = false, kStageId = 0 : i64, kTemplateName = "load_2_0_286", kUniqueId = 286 : i64, kUseVectorTranspose = true, kUserCreated = true} : (tensor<4x64x1xbf16>) -> tensor<4x64x1xbf16>
        %57 = "tlir.Load"(%19) {DataLayout0 = #tlir.layout<CV,RM,VA>, NumSamples0 = 1 : i64, NumSamples0S = 2 : i64, kAddedAlignment = -1 : i64, kChipID = 0 : i64, kConfigured = true, kGroup = 29 : i64, kGroupedDramLayoutName = "group_29", kIsGrouped = true, kIterations = 1 : i64, kLayoutHeuristics = false, kMacID = "default_287", kName = "ptconvlstm__lstm_layer__bias_ih_l0__sgd0__momentum_2_0_287", kRequiresWBuf = true, kStageId = 0 : i64, kTemplateName = "load_2_0_287", kUniqueId = 287 : i64, kUseVectorTranspose = false, kUserCreated = true} : (tensor<4x64x1xbf16>) -> tensor<4x64x1xbf16>
        %58:2 = "tlir.Buffer"(%56) {DataLayout0 = #tlir.layout<RV,CM,VA>, DataLayout1 = #tlir.layout<CV,RM,VA>, NumSamples1 = 1 : i64, NumSamples1S = 2 : i64, kBufHead = 1 : i64, kBufferType = 1 : i64, kConfigured = true, kDepth = 1 : i64, kHead0CtrlFlowEnable = false, kHead1CtrlFlowEnable = false, kIsStageBuffer = false, kMacID = "default_919", kName = "gbuf1a_2_0_919", kNumHead0RdEn = 0 : i64, kNumHead1RdEn = 0 : i64, kNumPMUs = 1 : i64, kStageId = 0 : i64, kTranspose = 1 : i64, kUniqueId = 919 : i64, kUserCreated = false} : (tensor<4x64x1xbf16>) -> (tensor<4x64x1xbf16>, tensor<4x64x1xbf16>)
        %59:2 = "tlir.SGD"(%55, %57, %58#1) {DataLayout0 = #tlir.layout<CV,RM,VA>, DataLayout1 = #tlir.layout<CV,RM,VA>, NumSamples0 = 1 : i64, NumSamples0S = 2 : i64, NumSamples1 = 1 : i64, NumSamples1S = 2 : i64, kChipID = 0 : i64, kConfigured = true, kDecayArgInName = "weight_decay", kDecayRate = 3.0000001424923539E-4 : f64, kLrArgInName = "lr", kLrRate = 0.001500000013038516 : f64, kMacID = "ptconvlstm__lstm_layer__bias_ih_l0__ptconvlstm__lstm_layer__lstm_bwd_opt", kMixP = true, kMomentumArgInName = "momentum", kMomentumRate = 0.000000e+00 : f64, kName = "ptconvlstm__lstm_layer__bias_ih_l0__ptconvlstm__lstm_layer__lstm_bwd_opt", kStageId = 0 : i64, kStrndSeed = 43690 : i64, kStrndSeedArgInName = "strnd_seed", kTemplateName = "optimizer_sgd_2_0_288", kUniqueId = 288 : i64, kUserCreated = true} : (tensor<4x64x1xbf16>, tensor<4x64x1xbf16>, tensor<4x64x1xbf16>) -> (tensor<4x64x1xbf16>, tensor<4x64x1xbf16>)
        "tlir.Store"(%1, %59#0) {kChipID = 0 : i64, kConfigured = true, kGroup = 24 : i64, kIsCheckPoint = false, kIterations = 1 : i64, kLayoutHeuristics = false, kMacID = "default_289", kName = "ptconvlstm__lstm_layer__bias_ih_l0__ptconvlstm__lstm_layer__lstm_bwd_opt_tensor", kOpRWPattern0 = "kWriteOperand", kRemovesAlignment = false, kRequiresWBuf = true, kSliceAxes = [], kStageId = 0 : i64, kStoreSlice = false, kTemplateName = "store_2_0_289", kUniqueId = 289 : i64, kUseVectorTranspose = false, kUserCreated = true} : (tensor<4x64x1xbf16>, tensor<4x64x1xbf16>) -> ()
        "tlir.Store"(%19, %59#1) {kChipID = 0 : i64, kConfigured = true, kGroup = 29 : i64, kIsCheckPoint = false, kIterations = 1 : i64, kLayoutHeuristics = false, kMacID = "default_290", kName = "ptconvlstm__lstm_layer__bias_ih_l0__ptconvlstm__lstm_layer__lstm_bwd_opt_tensor1", kOpRWPattern0 = "kWriteOperand", kRemovesAlignment = false, kRequiresWBuf = true, kSliceAxes = [], kStageId = 0 : i64, kStoreSlice = false, kTemplateName = "store_2_0_290", kUniqueId = 290 : i64, kUseVectorTranspose = false, kUserCreated = true} : (tensor<4x64x1xbf16>, tensor<4x64x1xbf16>) -> ()
        %60 = "tlir.Load"(%0) {DataLayout0 = #tlir.layout<CV,RM,VA>, NumSamples0 = 1 : i64, NumSamples0S = 2 : i64, kAddedAlignment = -1 : i64, kChipID = 0 : i64, kConfigured = true, kGroup = 23 : i64, kGroupedDramLayoutName = "group_23", kIsGrouped = false, kIterations = 1 : i64, kLayoutHeuristics = false, kMacID = "default_291", kName = "ptconvlstm__lstm_layer__bias_hh_l0_2_0_291", kRequiresWBuf = true, kStageId = 0 : i64, kTemplateName = "load_2_0_291", kUniqueId = 291 : i64, kUseVectorTranspose = false, kUserCreated = true} : (tensor<4x64x1xbf16>) -> tensor<4x64x1xbf16>
        %61 = "tlir.Load"(%35) {DataLayout0 = #tlir.layout<RV,CM,VA>, NumSamples0 = 1 : i64, NumSamples0S = 2 : i64, kAddedAlignment = -1 : i64, kChipID = 0 : i64, kConfigured = true, kGroup = 84 : i64, kGroupedDramLayoutName = "ptconvlstm__lstm_layer__bias_hh_l0__grad_2_0_292", kIsGrouped = false, kIterations = 1 : i64, kLayoutHeuristics = false, kMacID = "default_292", kName = "ptconvlstm__lstm_layer__bias_hh_l0__grad_2_0_292", kRequiresWBuf = false, kStageId = 0 : i64, kTemplateName = "load_2_0_292", kUniqueId = 292 : i64, kUseVectorTranspose = true, kUserCreated = true} : (tensor<4x64x1xbf16>) -> tensor<4x64x1xbf16>
        %62 = "tlir.Load"(%20) {DataLayout0 = #tlir.layout<CV,RM,VA>, NumSamples0 = 1 : i64, NumSamples0S = 2 : i64, kAddedAlignment = -1 : i64, kChipID = 0 : i64, kConfigured = true, kGroup = 29 : i64, kGroupedDramLayoutName = "group_29", kIsGrouped = true, kIterations = 1 : i64, kLayoutHeuristics = false, kMacID = "default_293", kName = "ptconvlstm__lstm_layer__bias_hh_l0__sgd0__momentum_2_0_293", kRequiresWBuf = true, kStageId = 0 : i64, kTemplateName = "load_2_0_293", kUniqueId = 293 : i64, kUseVectorTranspose = false, kUserCreated = true} : (tensor<4x64x1xbf16>) -> tensor<4x64x1xbf16>
        %63:2 = "tlir.Buffer"(%61) {DataLayout0 = #tlir.layout<RV,CM,VA>, DataLayout1 = #tlir.layout<CV,RM,VA>, NumSamples1 = 1 : i64, NumSamples1S = 2 : i64, kBufHead = 1 : i64, kBufferType = 1 : i64, kConfigured = true, kDepth = 1 : i64, kHead0CtrlFlowEnable = false, kHead1CtrlFlowEnable = false, kIsStageBuffer = false, kMacID = "default_920", kName = "gbuf1a_2_0_920", kNumHead0RdEn = 0 : i64, kNumHead1RdEn = 0 : i64, kNumPMUs = 1 : i64, kStageId = 0 : i64, kTranspose = 1 : i64, kUniqueId = 920 : i64, kUserCreated = false} : (tensor<4x64x1xbf16>) -> (tensor<4x64x1xbf16>, tensor<4x64x1xbf16>)
        %64:2 = "tlir.SGD"(%60, %62, %63#1) {DataLayout0 = #tlir.layout<CV,RM,VA>, DataLayout1 = #tlir.layout<CV,RM,VA>, NumSamples0 = 1 : i64, NumSamples0S = 2 : i64, NumSamples1 = 1 : i64, NumSamples1S = 2 : i64, kChipID = 0 : i64, kConfigured = true, kDecayArgInName = "weight_decay", kDecayRate = 3.0000001424923539E-4 : f64, kLrArgInName = "lr", kLrRate = 0.001500000013038516 : f64, kMacID = "ptconvlstm__lstm_layer__bias_hh_l0__ptconvlstm__lstm_layer__lstm_bwd_opt", kMixP = true, kMomentumArgInName = "momentum", kMomentumRate = 0.000000e+00 : f64, kName = "ptconvlstm__lstm_layer__bias_hh_l0__ptconvlstm__lstm_layer__lstm_bwd_opt", kStageId = 0 : i64, kStrndSeed = 43690 : i64, kStrndSeedArgInName = "strnd_seed", kTemplateName = "optimizer_sgd_2_0_294", kUniqueId = 294 : i64, kUserCreated = true} : (tensor<4x64x1xbf16>, tensor<4x64x1xbf16>, tensor<4x64x1xbf16>) -> (tensor<4x64x1xbf16>, tensor<4x64x1xbf16>)
        "tlir.Store"(%0, %64#0) {kChipID = 0 : i64, kConfigured = true, kGroup = 23 : i64, kIsCheckPoint = false, kIterations = 1 : i64, kLayoutHeuristics = false, kMacID = "default_295", kName = "ptconvlstm__lstm_layer__bias_hh_l0__ptconvlstm__lstm_layer__lstm_bwd_opt_tensor", kOpRWPattern0 = "kWriteOperand", kRemovesAlignment = false, kRequiresWBuf = true, kSliceAxes = [], kStageId = 0 : i64, kStoreSlice = false, kTemplateName = "store_2_0_295", kUniqueId = 295 : i64, kUseVectorTranspose = false, kUserCreated = true} : (tensor<4x64x1xbf16>, tensor<4x64x1xbf16>) -> ()
        "tlir.Store"(%20, %64#1) {kChipID = 0 : i64, kConfigured = true, kGroup = 29 : i64, kIsCheckPoint = false, kIterations = 1 : i64, kLayoutHeuristics = false, kMacID = "default_296", kName = "ptconvlstm__lstm_layer__bias_hh_l0__ptconvlstm__lstm_layer__lstm_bwd_opt_tensor1", kOpRWPattern0 = "kWriteOperand", kRemovesAlignment = false, kRequiresWBuf = true, kSliceAxes = [], kStageId = 0 : i64, kStoreSlice = false, kTemplateName = "store_2_0_296", kUniqueId = 296 : i64, kUseVectorTranspose = false, kUserCreated = true} : (tensor<4x64x1xbf16>, tensor<4x64x1xbf16>) -> ()
        "tlir.terminator"() {kConfigured = true, kMacID = "default_503", kName = "terminator503", kStageId = 0 : i64, kUniqueId = 503 : i64, kUserCreated = true} : () -> ()
      }) {kConfigured = true, kMacID = "default_502", kName = "chip2_0", kPartitionId = 0 : i64, kStageId = 0 : i64, kUniqueId = 502 : i64, kUserCreated = true, type = none} : () -> ()
      "tlir.terminator"() {kConfigured = true, kMacID = "default_297", kName = "terminator297", kStageId = 0 : i64, kUniqueId = 297 : i64, kUserCreated = true} : () -> ()
    }) {kConfigured = true, kGlobalId = 2 : i64, kIsHostSection = false, kMacID = "default_260", kName = "section2", kPartitionId = 2 : i64, kSectionLatency = 6.4514730183873326E-5 : f64, kSectionName = "$OPT", kSectionUniqueName = "ptconvlstm__lstm_layer__bias_hh_l0__ptconvlstm__lstm_layer__lstm_bwd_opt_as_initial", kStageId = 0 : i64, kUniqueId = 260 : i64, kUserCreated = true, type = none} : () -> ()
  }
  module @schedule  {
  }
  module @rnn_function  {
  }
}
