module @program attributes {arc.AIRMappingDecisionIsSpatial = false, arc.kAIRAddnOpt = true, arc.kAIRBufferBeforeConcatAddn = false, arc.kAIRBufferNonRedundancy = false, arc.kAIRDDRBoundSections = [], arc.kAIRDPTilingOptimization = false, arc.kAIRDisableConcatStoreOpt = false, arc.kAIRDisableOptimizeRereadBuffer = false, arc.kAIRMappingDecisionGlobalNumBatches = 1 : i64, arc.kAIRMappingDecisionSectionDRAMTransferSize = [17272, 17272, 62720], arc.kAIRMappingDecisionSectionDRAMTransferTime = [1.6085803508758545E-4, 1.6085803508758545E-4, 5.8412551879882813E-4], arc.kAIRMappingDecisionSectionLatencies = [3.5682500310940668E-5, 3.5993667552247643E-5, 3.5584125726018101E-5], arc.kAIRMappingDecisionSectionNames = ["$FWD", "$BCKWD", "$OPT"], arc.kAIRMappingDecisionSectionPCUs = [3.000000e+00, 7.000000e+00, 1.000000e+00], arc.kAIRMappingDecisionSectionPMUs = [[3, 4, 4, 2, 2, 2, 1], [3, 4, 8, 1, 1, 2, 0], [0, 4, 0, 6, 0, 0, 0]], arc.kAIRMappingDecisionSectionResourceScales = [1.1000000238418579, 1.2000000476837158, 0.89999997615814208], arc.kAIRMappingDecisionSectionTypes = ["Forward", "Backward", "Optimizer"], arc.kAIRMappingDecisionSectionUniqueNames = ["logreg__lin_layer__linear_as_initial", "logreg__criterion__crossentropyloss_bwd_loss_as_initial", "logreg__lin_layer__weight__logreg__lin_layer__linear_bwd_weight_opt_as_initial"], arc.kAIRMetaPipeWithOneIterationRemoval = false, arc.kAIRTransposeMatMulTransformation = false, arc.kAddStreamingBuffers = false, arc.kAppName = "logreg_torch_samba", arc.kArchMajor = 1 : i64, arc.kArchMinor = 0 : i64, arc.kConcisePrinting = false, arc.kDataParallelFactor = 1 : i64, arc.kDataParallelInHostMemory = false, arc.kDataParallelReduceOnlyMode = false, arc.kDebugMode = false, arc.kDisableFuseToTwoHeadBuffers = false, arc.kEliminateBufferTimeout = 100 : i64, arc.kEnableAutoGrouping = true, arc.kEnableBufferBarriers = true, arc.kEnableFuseToLinearTraining = false, arc.kEnablePcuHeartBeat = false, arc.kEnableWrDoneInstrument = false, arc.kExperimentalBufferDepth = false, arc.kExperimentalOptimization = true, arc.kExperimentalRAILCrossEntropy = false, arc.kExperimentalRAILCrossEntropyGrad = false, arc.kGenerateReference = false, arc.kGenerateTensorboard = false, arc.kHasGraphData = false, arc.kLayoutTimeout = 1000 : i64, arc.kLegalizeDataflow = true, arc.kLegalizeSamples = false, arc.kLowered = true, arc.kMacAutogen = true, arc.kMaximumGroupLatencyFactor = 5.000000e-02 : f32, arc.kMoveViews = false, arc.kOutputFolder = "/qfs/people/jain432/pacer_saudade/code/sample_scripts/out", arc.kOverrideMaxFanout = 0 : i64, arc.kPefMetadataacc_test = "False", arc.kPefMetadataarc_debug_mode = "False", arc.kPefMetadatabatch_size = "1", arc.kPefMetadatacompiled_stats_json = "None", arc.kPefMetadatacompiler_configs_file = "", arc.kPefMetadatadata_folder = "mnist_data", arc.kPefMetadatadata_parallel = "False", arc.kPefMetadatadata_parallel_mode = "normal", arc.kPefMetadatadebug = "False", arc.kPefMetadatadev_mode = "False", arc.kPefMetadatadisable_mac_tiling = "False", arc.kPefMetadatadisable_retry_lower_visible_resources = "False", arc.kPefMetadatadistlearn_config = "", arc.kPefMetadatadump_accuracy_debug_info = "False", arc.kPefMetadataenable_conv2d_conversion = "False", arc.kPefMetadataenable_conv_tiling = "False", arc.kPefMetadataenable_hd_retry_lower_visible_resources = "False", arc.kPefMetadataforce_node_proximity = "False", arc.kPefMetadatafp32_params = "False", arc.kPefMetadatafuse_fwd_bwd = "False", arc.kPefMetadatagen_tensorboard = "False", arc.kPefMetadatagrad_accumulation_steps = "1", arc.kPefMetadatahost_fifo = "False", arc.kPefMetadatahypersection_arc = "False", arc.kPefMetadatainclude_read_stall_cycles = "False", arc.kPefMetadatainference = "False", arc.kPefMetadatajson = "None", arc.kPefMetadatalatency_budget_bwd = "None", arc.kPefMetadatalatency_budget_fwd = "None", arc.kPefMetadatalisten_for_input = "False", arc.kPefMetadatalocal_rank = "-1", arc.kPefMetadatalog_dir = "None", arc.kPefMetadatalog_level = "warning", arc.kPefMetadatalr = "0.0015", arc.kPefMetadatamac_human_decision = "None", arc.kPefMetadatamac_only = "False", arc.kPefMetadatamac_v1 = "False", arc.kPefMetadatamapping = "section", arc.kPefMetadatamax_expected_mac_latency = "-1.0", arc.kPefMetadatamax_mac_loop_attempt = "35", arc.kPefMetadatametapipe_disable = "False", arc.kPefMetadatamicrobatch_size = "None", arc.kPefMetadatamin_duration = "0.0", arc.kPefMetadatamlir_file_name = "None", arc.kPefMetadatamock_inference = "False", arc.kPefMetadatamodel = "LogReg(\0A  (lin_layer): Linear(in_features=784, out_features=10, bias=False)\0A  (criterion): CrossEntropyLoss()\0A)", arc.kPefMetadatamodel_parallel = "False", arc.kPefMetadatamomentum = "0.0", arc.kPefMetadatan_chips = "1", arc.kPefMetadatandtest = "False", arc.kPefMetadatandtest_mp = "False", arc.kPefMetadatanum_classes = "10", arc.kPefMetadatanum_epochs = "1", arc.kPefMetadatanum_features = "784", arc.kPefMetadatanum_iterations = "100", arc.kPefMetadatanum_sections = "None", arc.kPefMetadatanum_spatial_batches = "1", arc.kPefMetadatanum_tiles = "4", arc.kPefMetadatapef = "None", arc.kPefMetadataplot = "None", arc.kPefMetadatarecompute_ratio = "-1.0", arc.kPefMetadatareduce_on_rdu = "False", arc.kPefMetadataresources_scaling_factors = "['-1.0', '-1.0', '-1.0', '-1.0']", arc.kPefMetadatarun_analysis_pass = "False", arc.kPefMetadatarun_graph_only = "False", arc.kPefMetadatasamba_plot = "False", arc.kPefMetadatasamba_version = "1.11.2", arc.kPefMetadatasection_cut_beam_search = "['2', '2']", arc.kPefMetadatasection_cut_sort_order = "3", arc.kPefMetadatasingle_opt_sec = "False", arc.kPefMetadataskip_instrumentation_on_read0 = "False", arc.kPefMetadataskip_instrumentation_on_read1 = "False", arc.kPefMetadatastage_instrumentation = "none", "arc.kPefMetadatastop_mac_c++" = "False", arc.kPefMetadatatensor_parallel = "none", arc.kPefMetadatatile_orientation = "auto", arc.kPefMetadatavalidate_mac_resource_prediction = "False", arc.kPefMetadataverbose = "0", arc.kPefMetadatavisualize = "False", arc.kPefMetadataweight_decay = "0.0003", arc.kPefMetadataweight_norm = "False", arc.kPefMetadataworld_size = "1", arc.kPefMetadatayaml_config = "None", arc.kPefName = "logreg_09_03_28", arc.kPlasmaAStarConnect = true, arc.kPlasmaIncludeReadStallCycles = false, arc.kPlasmaSkipInstrumentationOnRead0 = false, arc.kPlasmaSkipInstrumentationOnRead1 = false, arc.kPlasmaStageInstrumentation = "none", arc.kPrintSrcs = [], arc.kResourceAwareBuffers = false, arc.kSkipBufferBandwidthWeight = 1 : i64, arc.kSkipBufferMaxDepth = 4096 : i64, arc.kSkipBufferMaxFanin = 8 : i64, arc.kSkipBufferPmuWeight = 1 : i64, arc.kSplitSkipBuffer = true, arc.kTileSize = 5 : i64, arc.kUniqueIdCounter = 70 : i64, arc.kVerbose = false, mac.kMacConvTiling = false, mac.kMacDisableAutoSpatialSplit = true, mac.kMacDisableRetryLowerScalingFactor = false, mac.kMacEnableHDRetryLowerVisibleResources = false, mac.kMacEnableHyperSection = 0 : i64, mac.kMacExpectedMaxLatency = -1.000000e+00 : f64, mac.kMacForceNodeProximity = false, mac.kMacFuseFwdBwd = false, mac.kMacInference = false, mac.kMacIsIterativeMapping = false, mac.kMacModelParallel = false, mac.kMacNumChips = 1 : i64, mac.kMacNumTiles = 4 : i64, mac.kMacOnlyCompileMac = false, mac.kMacPlot = false, mac.kMacResourceSetupTraceScaleBwd = 1.200000e+00 : f64, mac.kMacResourceSetupTraceScaleFwd = 1.100000e+00 : f64, mac.kMacResourceSetupTraceScaleGradnorm = 9.000000e-01 : f64, mac.kMacResourceSetupTraceScaleOpt = 9.000000e-01 : f64, mac.kMacSectionCutBeamSearch = [2, 2], mac.kMacSectionCutSortOrder = 3 : i64, mac.kMacSingleOptSec = false, mac.kMacUseHostFIFO = false}  {
  module @templates  {
    module_terminator {kSourceContext = "Unknown File:"}
  }
  module @sections  {
    %0 = "tlir.Region"() {distribution = 7 : i32, distribution_gain = 1.000000e+00 : f64, kFromDeviceTransform = "", kHasShape = true, kIsHostFifoInput = false, kIsMask = false, kIsPlaceholder = false, kIsRngSeed = false, kIsUserFacing = true, kIsWeight = true, kMemoryType = 0 : i64, kName = "logreg__lin_layer__weight", kSourceContext = "software/compiler/mac/src/pybind/py_air.cpp:1503:0", kToDeviceTransform = "", kUniqueId = 15 : i64, kUserCreated = true, kZeroFillDram = false} : () -> tensor<10x784xbf16>
    %1 = "tlir.Region"() {distribution = 6 : i32, distribution_max = 1.000000e-01 : f64, distribution_min = -1.000000e-01 : f64, kFromDeviceTransform = ".transpose(-1,-2)", kHasShape = true, kIsHostFifoInput = false, kIsInputOnly = true, kIsMask = false, kIsPlaceholder = false, kIsRngSeed = false, kIsUserFacing = true, kMemoryType = 0 : i64, kName = "image", kSourceContext = "UnknownFileName:0:0", kToDeviceTransform = ".transpose(-1,-2)", kUniqueId = 16 : i64, kUserCreated = true, kZeroFillDram = false} : () -> tensor<784x1xbf16>
    %2 = "tlir.Region"() {distribution = 6 : i32, distribution_max = 1.000000e+00 : f64, distribution_min = 1.000000e+00 : f64, kFromDeviceTransform = ".mean()", kHasShape = true, kIsHostFifoInput = false, kIsInputOnly = true, kIsMask = false, kIsPlaceholder = false, kIsRngSeed = false, kIsUserFacing = true, kMemoryType = 0 : i64, kName = "logreg__criterion__crossentropyloss__outputs__0__grad", kSourceContext = "UnknownFileName:0:0", kToDeviceTransform = "", kUniqueId = 17 : i64, kUserCreated = true, kZeroFillDram = false} : () -> tensor<1xbf16>
    %3 = "tlir.Region"() {distribution = 6 : i32, distribution_max = 1.000000e-01 : f64, distribution_min = -1.000000e-01 : f64, kFromDeviceTransform = "", kHasShape = true, kIsHostFifoInput = false, kIsInputOnly = true, kIsMask = false, kIsPlaceholder = false, kIsRngSeed = false, kIsUserFacing = true, kMemoryType = 0 : i64, kName = "label", kSourceContext = "UnknownFileName:0:0", kToDeviceTransform = ".short()", kUniqueId = 18 : i64, kUserCreated = true, kZeroFillDram = false} : () -> tensor<1xi16>
    %4 = "tlir.Region"() {distribution = 7 : i32, distribution_gain = 1.000000e+00 : f64, kFromDeviceTransform = "", kHasShape = true, kIsHostFifoInput = false, kIsMask = false, kIsPlaceholder = false, kIsRngSeed = false, kIsUserFacing = true, kIsWeight = true, kMemoryType = 0 : i64, kName = "logreg__lin_layer__weight__sgd0__momentum", kSourceContext = "software/compiler/mac/src/pybind/py_air.cpp:1503:0", kToDeviceTransform = "", kUniqueId = 19 : i64, kUserCreated = true, kZeroFillDram = false} : () -> tensor<10x784xbf16>
    %5 = "tlir.Region"() {kChipID = 0 : i64, kFromDeviceTransform = "", kHasShape = true, kIsDataParallelAccumBuf = false, kIsHostFifoOutput = false, kIsPlaceholder = false, kIsUserFacing = true, kMemoryType = 2 : i64, kName = "logreg__lin_layer__linear__outputs__0", kSourceContext = "software/compiler/mac/src/pybind/py_air.cpp:1677:0", kToDeviceTransform = "", kUniqueId = 20 : i64, kUserCreated = true, kZeroFillDram = false} : () -> tensor<1x10xbf16>
    %6 = "tlir.Region"() {kChipID = 0 : i64, kFromDeviceTransform = ".mean()", kHasShape = true, kIsDataParallelAccumBuf = false, kIsHostFifoOutput = false, kIsPlaceholder = false, kIsUserFacing = true, kMemoryType = 2 : i64, kName = "logreg__criterion__crossentropyloss__outputs__0", kSourceContext = "software/compiler/mac/src/pybind/py_air.cpp:1677:0", kToDeviceTransform = "", kUniqueId = 21 : i64, kUserCreated = true, kZeroFillDram = false} : () -> tensor<1xbf16>
    %7 = "tlir.Region"() {kChipID = 0 : i64, kFromDeviceTransform = "", kHasShape = true, kIsDataParallelAccumBuf = false, kIsHostFifoOutput = false, kIsPlaceholder = false, kIsUserFacing = true, kMemoryType = 0 : i64, kName = "logreg__lin_layer__weight__grad", kSourceContext = "software/compiler/mac/src/pybind/py_air.cpp:1677:0", kToDeviceTransform = "", kUniqueId = 22 : i64, kUserCreated = true, kZeroFillDram = false} : () -> tensor<10x784xbf16>
    "tlir.Section"() ( {
      "tlir.Chip"() ( {
        %8 = "tlir.Load"(%0) {kChipID = 0 : i64, kSourceContext = "software/compiler/mac/src/pybind/py_air.cpp:1503:0", kUniqueId = 24 : i64, kUserCreated = true} : (tensor<10x784xbf16>) -> tensor<10x784xbf16>
        %9 = "tlir.Load"(%1) {kChipID = 0 : i64, kSourceContext = "UnknownFileName:0:0", kStageId = -2 : i64, kUniqueId = 25 : i64, kUserCreated = true} : (tensor<784x1xbf16>) -> tensor<784x1xbf16>
        %10 = "tlir.Linear"(%8, %9) {kBoxLayout = false, kBoxLayoutAnchor = [], kBoxPerPartition = true, kBoxPerWbufSplit = false, kExclusiveRoutes = false, kExclusiveVCA = false, kInputAIsWeight = true, kIsCriticalStage = false, kIsFromConv1x1 = false, kLatency = 8.620000e+02 : f64, kMacID = "logreg__lin_layer__linear", kName = "logreg__lin_layer__linear", kNumPartitions = 1 : i64, kNumRowComputeUnits = 1 : i64, kReadAHead = 0 : i32, kReadBHead = 1 : i32, kSourceContext = "/usr/local/lib/python3.7/site-packages/torch/overrides.py:1202:0", kStageId = -1 : i64, kStageLatency = 8.620000e+02 : f64, kStagingBias = false, kUniqueId = 57 : i64, kUseBigGemm = false, kUserCreated = true, kWbufSplit = false} : (tensor<10x784xbf16>, tensor<784x1xbf16>) -> tensor<10x1xbf16>
        %11 = "tlir.PermuteView"(%10) {kIsCriticalStage = false, kLatency = 0.000000e+00 : f64, kMacID = "logreg__lin_layer__linear_t_output0", kName = "logreg__lin_layer__linear_t_output0", kPermutation = [1, 0], kSourceContext = "/usr/local/lib/python3.7/site-packages/torch/overrides.py:1202:0", kStageId = -1 : i64, kStageLatency = 0.000000e+00 : f64, kUniqueId = 58 : i64, kUserCreated = true} : (tensor<10x1xbf16>) -> tensor<1x10xbf16>
        "tlir.Store"(%5, %11) {kChipID = 0 : i64, kIsCheckPoint = false, kName = "logreg__lin_layer__linear_t_output0_tensor", kOpRWPattern0 = "kWriteOperand", kSliceAxes = [], kSourceContext = "/usr/local/lib/python3.7/site-packages/torch/overrides.py:1202:0", kStoreSlice = false, kUniqueId = 28 : i64, kUserCreated = true} : (tensor<1x10xbf16>, tensor<1x10xbf16>) -> ()
        %12 = "tlir.Load"(%3) {kChipID = 0 : i64, kSourceContext = "UnknownFileName:0:0", kStageId = -2 : i64, kUniqueId = 29 : i64, kUserCreated = true} : (tensor<1xi16>) -> tensor<1xi16>
        %13 = "tlir.PermuteView"(%11) {kIsCriticalStage = false, kLatency = -1.000000e+00 : f64, kMacID = "", kName = "", kPermutation = [1, 0], kSourceContext = "/usr/local/lib/python3.7/site-packages/torch/overrides.py:1202:0", kStageId = -1 : i64, kStageLatency = -1.000000e+00 : f64, kUniqueId = 67 : i64, kUserCreated = true} : (tensor<1x10xbf16>) -> tensor<10x1xbf16>
        %14 = "tlir.CrossEntropy"(%13, %12) {kEnableBoxLayout = true, kIgnoreClass = -1 : i64, kIsCriticalStage = false, kIsRAILCrossEntropy = true, kLatency = 4.820000e+02 : f64, kMacID = "logreg__criterion__crossentropyloss", kName = "logreg__criterion__crossentropyloss", kNoTBufTmp = false, kParFactor = 1 : i64, kReductionMode = 1 : i64, kSourceContext = "/usr/local/lib/python3.7/site-packages/torch/overrides.py:1202:0", kStageId = -1 : i64, kStageLatency = 4.820000e+02 : f64, kUniqueId = 60 : i64, kUseExtraPCU = false, kUserCreated = true, kYFilterOutput = false, kYFilterTCompute = true} : (tensor<10x1xbf16>, tensor<1xi16>) -> tensor<1xbf16>
        "tlir.Store"(%6, %14) {kChipID = 0 : i64, kIsCheckPoint = false, kName = "logreg__criterion__crossentropyloss_tensor", kOpRWPattern0 = "kWriteOperand", kSliceAxes = [], kSourceContext = "/usr/local/lib/python3.7/site-packages/torch/overrides.py:1202:0", kStoreSlice = false, kUniqueId = 31 : i64, kUserCreated = true} : (tensor<1xbf16>, tensor<1xbf16>) -> ()
        "tlir.terminator"() {kSourceContext = "software/arc/src/lib/pass/transform/AIRToTLIRLoweringSections.cpp:89:0", kUniqueId = 52 : i64} : () -> ()
      }) {kPartitionId = 0 : i64, kSourceContext = "software/arc/src/lib/pass/transform/AIRToTLIRLoweringSections.cpp:89:0", kUniqueId = 51 : i64, type = none} : () -> ()
      "tlir.terminator"() {kSourceContext = "software/arc/src/lib/pass/transform/AIRToTLIRLoweringSections.cpp:89:0", kUniqueId = 32 : i64} : () -> ()
    }) {kGlobalId = 0 : i64, kPartitionId = 0 : i64, kSectionLatency = 3.5682500310940668E-5 : f64, kSectionName = "$FWD", kSectionUniqueName = "logreg__lin_layer__linear_as_initial", kSourceContext = "software/arc/src/lib/pass/transform/AIRToTLIRLoweringSections.cpp:89:0", kUniqueId = 23 : i64, type = none} : () -> ()
    "tlir.Section"() ( {
      "tlir.Chip"() ( {
        %8 = "tlir.Load"(%5) {kChipID = 0 : i64, kSourceContext = "/usr/local/lib/python3.7/site-packages/torch/overrides.py:1202:0", kStageId = -2 : i64, kUniqueId = 34 : i64, kUserCreated = true} : (tensor<1x10xbf16>) -> tensor<1x10xbf16>
        %9 = "tlir.Load"(%3) {kChipID = 0 : i64, kSourceContext = "UnknownFileName:0:0", kStageId = -2 : i64, kUniqueId = 35 : i64, kUserCreated = true} : (tensor<1xi16>) -> tensor<1xi16>
        %10 = "tlir.Load"(%2) {kChipID = 0 : i64, kSourceContext = "UnknownFileName:0:0", kStageId = -2 : i64, kUniqueId = 36 : i64, kUserCreated = true} : (tensor<1xbf16>) -> tensor<1xbf16>
        %11 = "tlir.PermuteView"(%8) {kIsCriticalStage = false, kLatency = -1.000000e+00 : f64, kMacID = "", kName = "", kPermutation = [1, 0], kSourceContext = "/usr/local/lib/python3.7/site-packages/torch/overrides.py:1202:0", kStageId = -1 : i64, kStageLatency = -1.000000e+00 : f64, kUniqueId = 68 : i64, kUserCreated = true} : (tensor<1x10xbf16>) -> tensor<10x1xbf16>
        %12 = "tlir.CrossEntropyGrad"(%11, %9, %10) {kEnableBoxLayout = true, kHasLoss = true, kIgnoreClass = -1 : i64, kIsCriticalStage = false, kIsRAILCrossEntropyGrad = true, kLatency = 1.140000e+02 : f64, kMacID = "logreg__criterion__crossentropyloss_bwd_loss", kName = "logreg__criterion__crossentropyloss_bwd_loss", kNumParallelPCUs = 1 : i64, kSourceContext = "/usr/local/lib/python3.7/site-packages/torch/overrides.py:1202:0", kStageId = -1 : i64, kStageLatency = 1.140000e+02 : f64, kUniqueId = 62 : i64, kUserCreated = true} : (tensor<10x1xbf16>, tensor<1xi16>, tensor<1xbf16>) -> tensor<10x1xbf16>
        %13 = "tlir.PermuteView"(%12) {kIsCriticalStage = false, kLatency = -1.000000e+00 : f64, kMacID = "", kName = "", kPermutation = [1, 0], kSourceContext = "/usr/local/lib/python3.7/site-packages/torch/overrides.py:1202:0", kStageId = -1 : i64, kStageLatency = -1.000000e+00 : f64, kUniqueId = 69 : i64, kUserCreated = true} : (tensor<10x1xbf16>) -> tensor<1x10xbf16>
        %14 = "tlir.PermuteView"(%13) {kIsCriticalStage = false, kLatency = 0.000000e+00 : f64, kMacID = "logreg__lin_layer__linear_t_output0_bwd", kName = "logreg__lin_layer__linear_t_output0_bwd", kPermutation = [1, 0], kSourceContext = "/usr/local/lib/python3.7/site-packages/torch/overrides.py:1202:0", kStageId = -1 : i64, kStageLatency = 0.000000e+00 : f64, kUniqueId = 64 : i64, kUserCreated = true} : (tensor<1x10xbf16>) -> tensor<10x1xbf16>
        %15 = "tlir.Load"(%1) {kChipID = 0 : i64, kSourceContext = "UnknownFileName:0:0", kStageId = -2 : i64, kUniqueId = 39 : i64, kUserCreated = true} : (tensor<784x1xbf16>) -> tensor<784x1xbf16>
        %16 = "tlir.Transpose"(%15) {kMacID = "logreg__lin_layer__linear_bwd_weight", kSourceContext = "/usr/local/lib/python3.7/site-packages/torch/overrides.py:1202:0", kTransposeType = 2 : i64, kUniqueId = 65 : i64, kUserCreated = true} : (tensor<784x1xbf16>) -> tensor<1x784xbf16>
        %17 = "tlir.Linear"(%14, %16) {kBoxLayout = true, kBoxPerPartition = false, kHasWeight = false, kInputAIsWeight = false, kIsCriticalStage = false, kMacID = "logreg__lin_layer__linear_bwd_weight", kName = "logreg__lin_layer__linear_bwd_weight_grad_a", kNumColComputeUnits = 4 : i64, kNumPartitions = 1 : i64, kNumRowComputeUnits = 1 : i64, kReadAHead = 0 : i32, kReadBHead = 1 : i32, kSourceContext = "/usr/local/lib/python3.7/site-packages/torch/overrides.py:1202:0", kStageId = -1 : i64, kStageLatency = 1.255000e+03 : f64, kUniqueId = 66 : i64, kUseBigGemm = true, kUserCreated = true} : (tensor<10x1xbf16>, tensor<1x784xbf16>) -> tensor<10x784xbf16>
        "tlir.Store"(%7, %17) {kChipID = 0 : i64, kIsCheckPoint = false, kName = "logreg__lin_layer__linear_bwd_weight_tensor", kOpRWPattern0 = "kWriteOperand", kSliceAxes = [], kSourceContext = "/usr/local/lib/python3.7/site-packages/torch/overrides.py:1202:0", kStoreSlice = false, kUniqueId = 41 : i64, kUserCreated = true} : (tensor<10x784xbf16>, tensor<10x784xbf16>) -> ()
        "tlir.terminator"() {kSourceContext = "software/arc/src/lib/pass/transform/AIRToTLIRLoweringSections.cpp:89:0", kUniqueId = 54 : i64} : () -> ()
      }) {kPartitionId = 0 : i64, kSourceContext = "software/arc/src/lib/pass/transform/AIRToTLIRLoweringSections.cpp:89:0", kUniqueId = 53 : i64, type = none} : () -> ()
      "tlir.terminator"() {kSourceContext = "software/arc/src/lib/pass/transform/AIRToTLIRLoweringSections.cpp:89:0", kUniqueId = 42 : i64} : () -> ()
    }) {kGlobalId = 1 : i64, kPartitionId = 1 : i64, kSectionLatency = 3.5993667552247643E-5 : f64, kSectionName = "$BCKWD", kSectionUniqueName = "logreg__criterion__crossentropyloss_bwd_loss_as_initial", kSourceContext = "software/arc/src/lib/pass/transform/AIRToTLIRLoweringSections.cpp:89:0", kUniqueId = 33 : i64, type = none} : () -> ()
    "tlir.Section"() ( {
      "tlir.Chip"() ( {
        %8 = "tlir.Load"(%0) {kChipID = 0 : i64, kSourceContext = "software/compiler/mac/src/pybind/py_air.cpp:1503:0", kUniqueId = 44 : i64, kUserCreated = true} : (tensor<10x784xbf16>) -> tensor<10x784xbf16>
        %9 = "tlir.Load"(%7) {kChipID = 0 : i64, kSourceContext = "/usr/local/lib/python3.7/site-packages/torch/overrides.py:1202:0", kStageId = -2 : i64, kUniqueId = 45 : i64, kUserCreated = true} : (tensor<10x784xbf16>) -> tensor<10x784xbf16>
        %10 = "tlir.Load"(%4) {kChipID = 0 : i64, kSourceContext = "software/compiler/mac/src/pybind/py_air.cpp:1503:0", kUniqueId = 46 : i64, kUserCreated = true} : (tensor<10x784xbf16>) -> tensor<10x784xbf16>
        %11:2 = "tlir.SGD"(%8, %10, %9) {kChipID = 0 : i64, kDecayArgInName = "weight_decay", kDecayRate = 3.0000001424923539E-4 : f64, kLrArgInName = "lr", kLrRate = 0.001500000013038516 : f64, kMacID = "logreg__lin_layer__weight__logreg__lin_layer__linear_bwd_weight_opt", kMixP = false, kMomentumArgInName = "momentum", kMomentumRate = 0.000000e+00 : f64, kName = "logreg__lin_layer__weight__logreg__lin_layer__linear_bwd_weight_opt", kSourceContext = "logreg__lin_layer__weight:0:0", kStrndSeed = 43690 : i64, kStrndSeedArgInName = "strnd_seed", kUniqueId = 47 : i64, kUserCreated = true} : (tensor<10x784xbf16>, tensor<10x784xbf16>, tensor<10x784xbf16>) -> (tensor<10x784xbf16>, tensor<10x784xbf16>)
        "tlir.Store"(%0, %11#0) {kChipID = 0 : i64, kIsCheckPoint = false, kOpRWPattern0 = "kWriteOperand", kSliceAxes = [], kSourceContext = "logreg__lin_layer__weight:0:0", kStoreSlice = false, kUniqueId = 48 : i64, kUserCreated = true} : (tensor<10x784xbf16>, tensor<10x784xbf16>) -> ()
        "tlir.Store"(%4, %11#1) {kChipID = 0 : i64, kIsCheckPoint = false, kOpRWPattern0 = "kWriteOperand", kSliceAxes = [], kSourceContext = "logreg__lin_layer__weight:0:0", kStoreSlice = false, kUniqueId = 49 : i64, kUserCreated = true} : (tensor<10x784xbf16>, tensor<10x784xbf16>) -> ()
        "tlir.terminator"() {kSourceContext = "software/arc/src/lib/pass/transform/AIRToTLIRLoweringSections.cpp:89:0", kUniqueId = 56 : i64} : () -> ()
      }) {kPartitionId = 0 : i64, kSourceContext = "software/arc/src/lib/pass/transform/AIRToTLIRLoweringSections.cpp:89:0", kUniqueId = 55 : i64, type = none} : () -> ()
      "tlir.terminator"() {kSourceContext = "software/arc/src/lib/pass/transform/AIRToTLIRLoweringSections.cpp:89:0", kUniqueId = 50 : i64} : () -> ()
    }) {kGlobalId = 2 : i64, kPartitionId = 2 : i64, kSectionLatency = 3.5584125726018101E-5 : f64, kSectionName = "$OPT", kSectionUniqueName = "logreg__lin_layer__weight__logreg__lin_layer__linear_bwd_weight_opt_as_initial", kSourceContext = "software/arc/src/lib/pass/transform/AIRToTLIRLoweringSections.cpp:89:0", kUniqueId = 43 : i64, type = none} : () -> ()
    module_terminator {kSourceContext = "Unknown File:"}
  }
  module @schedule  {
    module_terminator {kSourceContext = "Unknown File:"}
  }
  module @rnn_function  {
    module_terminator {kSourceContext = "Unknown File:"}
  }
  module_terminator {kSourceContext = "Unknown File:"}
}

