#loc0 = loc(unknown)
#loc1 = loc(fused<[{ArcID = 69 : i64, BaseName = "ptconvlstm__conv_layer__weight", Layer = 0 : i64, Location = loc("software/compiler/mac/src/pybind/py_air.cpp":1531:0), MacID = "ptconvlstm__conv_layer__weight_result0"}, {ArcID = 0 : i64, BaseName = "ptconvlstm__conv_layer__weight", Layer = 0 : i64, Location = loc("software/compiler/mac/src/pybind/py_air.cpp":1531:0), MacID = "ptconvlstm__conv_layer__weight"}]>["MLIRWorkaround":32:0, "FakeLocation":64:0])
#loc2 = loc(fused<[{ArcID = 70 : i64, BaseName = "inp_window_slice_1", Layer = 0 : i64, Location = loc("UnknownFileName":0:0), MacID = "inp_window_slice_1_result0"}, {ArcID = 1 : i64, BaseName = "inp_window_slice_1", Layer = 0 : i64, Location = loc("UnknownFileName":0:0), MacID = "inp_window_slice_1"}]>["MLIRWorkaround":32:0, "FakeLocation":64:0])
#loc3 = loc(fused<[{ArcID = 71 : i64, BaseName = "inp_window", Layer = 0 : i64, Location = loc("UnknownFileName":0:0), MacID = "inp_window_result0"}, {ArcID = 2 : i64, BaseName = "inp_window", Layer = 0 : i64, Location = loc("UnknownFileName":0:0), MacID = "inp_window"}]>["MLIRWorkaround":32:0, "FakeLocation":64:0])
#loc4 = loc(fused<[{ArcID = 72 : i64, BaseName = "ptconvlstm__conv_layer__bias", Layer = 0 : i64, Location = loc("software/compiler/mac/src/pybind/py_air.cpp":1531:0), MacID = "ptconvlstm__conv_layer__bias_result0"}, {ArcID = 3 : i64, BaseName = "ptconvlstm__conv_layer__bias", Layer = 0 : i64, Location = loc("software/compiler/mac/src/pybind/py_air.cpp":1531:0), MacID = "ptconvlstm__conv_layer__bias"}]>["MLIRWorkaround":32:0, "FakeLocation":64:0])
#loc5 = loc(fused<[{ArcID = 73 : i64, BaseName = "ptconvlstm__dense_layer__bias", Layer = 0 : i64, Location = loc("software/compiler/mac/src/pybind/py_air.cpp":1531:0), MacID = "ptconvlstm__dense_layer__bias_result0"}, {ArcID = 4 : i64, BaseName = "ptconvlstm__dense_layer__bias", Layer = 0 : i64, Location = loc("software/compiler/mac/src/pybind/py_air.cpp":1531:0), MacID = "ptconvlstm__dense_layer__bias"}]>["MLIRWorkaround":32:0, "FakeLocation":64:0])
#loc6 = loc(fused<[{ArcID = 74 : i64, BaseName = "ptconvlstm__dense_layer__weight", Layer = 0 : i64, Location = loc("software/compiler/mac/src/pybind/py_air.cpp":1531:0), MacID = "ptconvlstm__dense_layer__weight_result0"}, {ArcID = 5 : i64, BaseName = "ptconvlstm__dense_layer__weight", Layer = 0 : i64, Location = loc("software/compiler/mac/src/pybind/py_air.cpp":1531:0), MacID = "ptconvlstm__dense_layer__weight"}]>["MLIRWorkaround":32:0, "FakeLocation":64:0])
#loc7 = loc(fused<[{ArcID = 75 : i64, BaseName = "out_window", Layer = 0 : i64, Location = loc("UnknownFileName":0:0), MacID = "out_window_result0"}, {ArcID = 6 : i64, BaseName = "out_window", Layer = 0 : i64, Location = loc("UnknownFileName":0:0), MacID = "out_window"}]>["MLIRWorkaround":32:0, "FakeLocation":64:0])
#loc8 = loc(fused<[{ArcID = 76 : i64, BaseName = "ptconvlstm__criterion__mseloss__outputs__0__grad", Layer = 0 : i64, Location = loc("UnknownFileName":0:0), MacID = "ptconvlstm__criterion__mseloss__outputs__0__grad_result0"}, {ArcID = 7 : i64, BaseName = "ptconvlstm__criterion__mseloss__outputs__0__grad", Layer = 0 : i64, Location = loc("UnknownFileName":0:0), MacID = "ptconvlstm__criterion__mseloss__outputs__0__grad"}]>["MLIRWorkaround":32:0, "FakeLocation":64:0])
#loc9 = loc(fused<[{ArcID = 77 : i64, BaseName = "ptconvlstm__view__outputs__0__grad", Layer = 0 : i64, Location = loc("UnknownFileName":0:0), MacID = "ptconvlstm__view__outputs__0__grad_result0"}, {ArcID = 8 : i64, BaseName = "ptconvlstm__view__outputs__0__grad", Layer = 0 : i64, Location = loc("UnknownFileName":0:0), MacID = "ptconvlstm__view__outputs__0__grad"}]>["MLIRWorkaround":32:0, "FakeLocation":64:0])
#loc10 = loc(fused<[{ArcID = 78 : i64, BaseName = "ptconvlstm__dense_layer__weight__sgd0__momentum", Layer = 0 : i64, Location = loc("software/compiler/mac/src/pybind/py_air.cpp":1531:0), MacID = "ptconvlstm__dense_layer__weight__sgd0__momentum_result0"}, {ArcID = 9 : i64, BaseName = "ptconvlstm__dense_layer__weight__sgd0__momentum", Layer = 0 : i64, Location = loc("software/compiler/mac/src/pybind/py_air.cpp":1531:0), MacID = "ptconvlstm__dense_layer__weight__sgd0__momentum"}]>["MLIRWorkaround":32:0, "FakeLocation":64:0])
#loc11 = loc(fused<[{ArcID = 79 : i64, BaseName = "ptconvlstm__dense_layer__bias__sgd0__momentum", Layer = 0 : i64, Location = loc("software/compiler/mac/src/pybind/py_air.cpp":1531:0), MacID = "ptconvlstm__dense_layer__bias__sgd0__momentum_result0"}, {ArcID = 10 : i64, BaseName = "ptconvlstm__dense_layer__bias__sgd0__momentum", Layer = 0 : i64, Location = loc("software/compiler/mac/src/pybind/py_air.cpp":1531:0), MacID = "ptconvlstm__dense_layer__bias__sgd0__momentum"}]>["MLIRWorkaround":32:0, "FakeLocation":64:0])
#loc12 = loc(fused<[{ArcID = 80 : i64, BaseName = "ptconvlstm__conv_layer__bias__sgd0__momentum", Layer = 0 : i64, Location = loc("software/compiler/mac/src/pybind/py_air.cpp":1531:0), MacID = "ptconvlstm__conv_layer__bias__sgd0__momentum_result0"}, {ArcID = 11 : i64, BaseName = "ptconvlstm__conv_layer__bias__sgd0__momentum", Layer = 0 : i64, Location = loc("software/compiler/mac/src/pybind/py_air.cpp":1531:0), MacID = "ptconvlstm__conv_layer__bias__sgd0__momentum"}]>["MLIRWorkaround":32:0, "FakeLocation":64:0])
#loc13 = loc(fused<[{ArcID = 81 : i64, BaseName = "ptconvlstm__conv_layer__weight__sgd0__momentum", Layer = 0 : i64, Location = loc("software/compiler/mac/src/pybind/py_air.cpp":1531:0), MacID = "ptconvlstm__conv_layer__weight__sgd0__momentum_result0"}, {ArcID = 12 : i64, BaseName = "ptconvlstm__conv_layer__weight__sgd0__momentum", Layer = 0 : i64, Location = loc("software/compiler/mac/src/pybind/py_air.cpp":1531:0), MacID = "ptconvlstm__conv_layer__weight__sgd0__momentum"}]>["MLIRWorkaround":32:0, "FakeLocation":64:0])
#loc14 = loc(fused<[{ArcID = 82 : i64, BaseName = "ptconvlstm__conv_layer__reshape_20_used_by_ptconvlstm__dense_layer__linear_bwd_weight", Layer = 0 : i64, Location = loc("/usr/local/lib/python3.7/site-packages/torch/nn/modules/conv.py":298:0), MacID = "ptconvlstm__conv_layer__reshape_2_result0"}, {ArcID = 22 : i64, BaseName = "ptconvlstm__conv_layer__reshape_2", Layer = 0 : i64, Location = loc("/usr/local/lib/python3.7/site-packages/torch/nn/modules/conv.py":298:0), MacID = "ptconvlstm__conv_layer__reshape_2"}]>["MLIRWorkaround":32:0, "FakeLocation":64:0])
#loc15 = loc(fused<[{ArcID = 83 : i64, BaseName = "ptconvlstm__reshape0_used_by_ptconvlstm__criterion__mseloss_bwd_sub", Layer = 0 : i64, Location = loc("logreg_ts.py":222:0), MacID = "ptconvlstm__reshape_result0"}, {ArcID = 27 : i64, BaseName = "ptconvlstm__reshape", Layer = 0 : i64, Location = loc("logreg_ts.py":222:0), MacID = "ptconvlstm__reshape"}]>["MLIRWorkaround":32:0, "FakeLocation":64:0])
#loc16 = loc(fused<[{ArcID = 84 : i64, BaseName = "ptconvlstm__view__outputs__0", Layer = 0 : i64, Location = loc("software/compiler/mac/src/pybind/py_air.cpp":1704:0), MacID = "ptconvlstm__view_result0"}, {ArcID = 32 : i64, BaseName = "ptconvlstm__view__outputs__0", Layer = 0 : i64, Location = loc("software/compiler/mac/src/pybind/py_air.cpp":1704:0), MacID = "ptconvlstm__view__outputs__0"}]>["MLIRWorkaround":32:0, "FakeLocation":64:0])
#loc17 = loc(fused<[{ArcID = 85 : i64, BaseName = "ptconvlstm__criterion__mseloss__outputs__0", Layer = 0 : i64, Location = loc("software/compiler/mac/src/pybind/py_air.cpp":1704:0), MacID = "default_64_result0"}, {ArcID = 33 : i64, BaseName = "ptconvlstm__criterion__mseloss__outputs__0", Layer = 0 : i64, Location = loc("software/compiler/mac/src/pybind/py_air.cpp":1704:0), MacID = "ptconvlstm__criterion__mseloss__outputs__0"}]>["MLIRWorkaround":32:0, "FakeLocation":64:0])
#loc18 = loc(fused<[{ArcID = 86 : i64, BaseName = "ptconvlstm__dense_layer__weight__grad", Layer = 0 : i64, Location = loc("software/compiler/mac/src/pybind/py_air.cpp":1704:0), MacID = "ptconvlstm__dense_layer__linear_bwd_weight_result0"}, {ArcID = 40 : i64, BaseName = "ptconvlstm__dense_layer__weight__grad", Layer = 0 : i64, Location = loc("software/compiler/mac/src/pybind/py_air.cpp":1704:0), MacID = "ptconvlstm__dense_layer__weight__grad__output"}]>["MLIRWorkaround":32:0, "FakeLocation":64:0])
#loc19 = loc(fused<[{ArcID = 87 : i64, BaseName = "ptconvlstm__dense_layer__bias__grad", Layer = 0 : i64, Location = loc("software/compiler/mac/src/pybind/py_air.cpp":1704:0), MacID = "ptconvlstm__dense_layer__linear_bwd_weight_result1"}, {ArcID = 42 : i64, BaseName = "ptconvlstm__dense_layer__bias__grad", Layer = 0 : i64, Location = loc("software/compiler/mac/src/pybind/py_air.cpp":1704:0), MacID = "ptconvlstm__dense_layer__bias__grad__output"}]>["MLIRWorkaround":32:0, "FakeLocation":64:0])
#loc20 = loc(fused<[{ArcID = 88 : i64, BaseName = "ptconvlstm__conv_layer__bias__grad", Layer = 0 : i64, Location = loc("software/compiler/mac/src/pybind/py_air.cpp":1704:0), MacID = "ptconvlstm__conv_layer__conv2d_bwd_result2"}, {ArcID = 54 : i64, BaseName = "ptconvlstm__conv_layer__bias__grad", Layer = 0 : i64, Location = loc("software/compiler/mac/src/pybind/py_air.cpp":1704:0), MacID = "ptconvlstm__conv_layer__bias__grad__output"}]>["MLIRWorkaround":32:0, "FakeLocation":64:0])
#loc21 = loc(fused<[{ArcID = 89 : i64, BaseName = "ptconvlstm__conv_layer__weight__grad", Layer = 0 : i64, Location = loc("software/compiler/mac/src/pybind/py_air.cpp":1704:0), MacID = "ptconvlstm__conv_layer__reshape_1_bwd_result0"}, {ArcID = 58 : i64, BaseName = "ptconvlstm__conv_layer__weight__grad", Layer = 0 : i64, Location = loc("software/compiler/mac/src/pybind/py_air.cpp":1704:0), MacID = "ptconvlstm__conv_layer__weight__grad__output"}]>["MLIRWorkaround":32:0, "FakeLocation":64:0])
#loc22 = loc(fused<[{ArcID = 91 : i64, Layer = 0 : i64, Location = loc("software/compiler/mac/src/pybind/py_air.cpp":1531:0), MacID = "default_91"}, {ArcID = 0 : i64, BaseName = "ptconvlstm__conv_layer__weight", Layer = 0 : i64, Location = loc("software/compiler/mac/src/pybind/py_air.cpp":1531:0), MacID = "ptconvlstm__conv_layer__weight"}]>["MLIRWorkaround":32:0, "FakeLocation":64:0])
#loc23 = loc(fused<[{ArcID = 279 : i64, BaseName = "ptconvlstm__conv_layer__reshape_1", Layer = 0 : i64, Location = loc("/usr/local/lib/python3.7/site-packages/torch/nn/modules/conv.py":298:0), MacID = "ptconvlstm__conv_layer__reshape_1"}, {ArcID = 92 : i64, BaseName = "ptconvlstm__conv_layer__reshape_1", Layer = 0 : i64, Location = loc("/usr/local/lib/python3.7/site-packages/torch/nn/modules/conv.py":298:0), MacID = "ptconvlstm__conv_layer__reshape_1"}, {ArcID = 13 : i64, BaseName = "ptconvlstm__conv_layer__reshape_1", Layer = 0 : i64, Location = loc("/usr/local/lib/python3.7/site-packages/torch/nn/modules/conv.py":298:0), MacID = "ptconvlstm__conv_layer__reshape_1"}]>["MLIRWorkaround":32:0, "FakeLocation":64:0])
#loc24 = loc(fused<[{ArcID = 94 : i64, Layer = 0 : i64, Location = loc("UnknownFileName":0:0), MacID = "default_94"}, {ArcID = 1 : i64, BaseName = "inp_window_slice_1", Layer = 0 : i64, Location = loc("UnknownFileName":0:0), MacID = "inp_window_slice_1"}]>["MLIRWorkaround":32:0, "FakeLocation":64:0])
#loc25 = loc(fused<[{ArcID = 280 : i64, BaseName = "ptconvlstm__conv_layer__conv2d_weight_permute", Layer = 0 : i64, Location = loc("ptconvlstm__conv_layer__conv2d_weight_permute":0:0), MacID = "ptconvlstm__conv_layer__conv2d_weight_permute"}, {ArcID = 98 : i64, BaseName = "ptconvlstm__conv_layer__conv2d_weight_permute", Layer = 0 : i64, Location = loc("ptconvlstm__conv_layer__conv2d_weight_permute":0:0), MacID = "ptconvlstm__conv_layer__conv2d_weight_permute"}, {ArcID = 17 : i64, BaseName = "ptconvlstm__conv_layer__conv2d_weight_permute", Layer = 0 : i64, Location = loc("ptconvlstm__conv_layer__conv2d_weight_permute":0:0), MacID = "ptconvlstm__conv_layer__conv2d_weight_permute"}]>["MLIRWorkaround":32:0, "FakeLocation":64:0])
#loc26 = loc(fused<[{ArcID = 281 : i64, BaseName = "ptconvlstm__conv_layer__conv2d_weight_reshape", Layer = 0 : i64, Location = loc("ptconvlstm__conv_layer__conv2d_weight_reshape":0:0), MacID = "ptconvlstm__conv_layer__conv2d_weight_reshape"}, {ArcID = 100 : i64, BaseName = "ptconvlstm__conv_layer__conv2d_weight_reshape", Layer = 0 : i64, Location = loc("ptconvlstm__conv_layer__conv2d_weight_reshape":0:0), MacID = "ptconvlstm__conv_layer__conv2d_weight_reshape"}, {ArcID = 19 : i64, BaseName = "ptconvlstm__conv_layer__conv2d_weight_reshape", Layer = 0 : i64, Location = loc("ptconvlstm__conv_layer__conv2d_weight_reshape":0:0), MacID = "ptconvlstm__conv_layer__conv2d_weight_reshape"}]>["MLIRWorkaround":32:0, "FakeLocation":64:0])
#loc27 = loc(fused<[{ArcID = 102 : i64, Layer = 0 : i64, Location = loc("software/compiler/mac/src/pybind/py_air.cpp":1531:0), MacID = "default_102"}, {ArcID = 3 : i64, BaseName = "ptconvlstm__conv_layer__bias", Layer = 0 : i64, Location = loc("software/compiler/mac/src/pybind/py_air.cpp":1531:0), MacID = "ptconvlstm__conv_layer__bias"}]>["MLIRWorkaround":32:0, "FakeLocation":64:0])
#loc28 = loc(fused<[{ArcID = 106 : i64, Layer = 0 : i64, Location = loc("software/compiler/mac/src/pybind/py_air.cpp":1531:0), MacID = "default_106"}, {ArcID = 5 : i64, BaseName = "ptconvlstm__dense_layer__weight", Layer = 0 : i64, Location = loc("software/compiler/mac/src/pybind/py_air.cpp":1531:0), MacID = "ptconvlstm__dense_layer__weight"}]>["MLIRWorkaround":32:0, "FakeLocation":64:0])
#loc29 = loc(fused<[{ArcID = 107 : i64, Layer = 0 : i64, Location = loc("software/compiler/mac/src/pybind/py_air.cpp":1531:0), MacID = "default_107"}, {ArcID = 4 : i64, BaseName = "ptconvlstm__dense_layer__bias", Layer = 0 : i64, Location = loc("software/compiler/mac/src/pybind/py_air.cpp":1531:0), MacID = "ptconvlstm__dense_layer__bias"}]>["MLIRWorkaround":32:0, "FakeLocation":64:0])
#loc30 = loc(fused<[{ArcID = 185 : i64, BaseName = "ptconvlstm__reshape_concat_buffer", Layer = 0 : i64, Location = loc("logreg_ts.py":222:0), MacID = "default_185"}, {ArcID = 110 : i64, BaseName = "ptconvlstm__reshape", Layer = 0 : i64, Location = loc("logreg_ts.py":222:0), MacID = "ptconvlstm__reshape"}, {ArcID = 27 : i64, BaseName = "ptconvlstm__reshape", Layer = 0 : i64, Location = loc("logreg_ts.py":222:0), MacID = "ptconvlstm__reshape"}]>["MLIRWorkaround":32:0, "FakeLocation":64:0])
#loc31 = loc(fused<[{ArcID = 260 : i64, Layer = 0 : i64, Location = loc("logreg_ts.py":194:0), MacID = "default_260"}, {ArcID = 188 : i64, Layer = 0 : i64, Location = loc("logreg_ts.py":194:0), MacID = "default_188"}, {ArcID = 95 : i64, BaseName = "ptconvlstm__lambda_layer__indexselect", Layer = 0 : i64, Location = loc("logreg_ts.py":194:0), MacID = "ptconvlstm__lambda_layer__indexselect"}, {ArcID = 14 : i64, BaseName = "ptconvlstm__lambda_layer__indexselect", Layer = 0 : i64, Location = loc("logreg_ts.py":194:0), MacID = "ptconvlstm__lambda_layer__indexselect"}]>["MLIRWorkaround":32:0, "FakeLocation":64:0])
#loc32 = loc(fused<[{ArcID = 189 : i64, Layer = 0 : i64, Location = loc("logreg_ts.py":194:0), MacID = "default_189"}, {ArcID = 95 : i64, BaseName = "ptconvlstm__lambda_layer__indexselect", Layer = 0 : i64, Location = loc("logreg_ts.py":194:0), MacID = "ptconvlstm__lambda_layer__indexselect"}, {ArcID = 14 : i64, BaseName = "ptconvlstm__lambda_layer__indexselect", Layer = 0 : i64, Location = loc("logreg_ts.py":194:0), MacID = "ptconvlstm__lambda_layer__indexselect"}]>["MLIRWorkaround":32:0, "FakeLocation":64:0])
#loc33 = loc(fused<[{ArcID = 190 : i64, Layer = 0 : i64, Location = loc("logreg_ts.py":194:0), MacID = "default_190"}, {ArcID = 95 : i64, BaseName = "ptconvlstm__lambda_layer__indexselect", Layer = 0 : i64, Location = loc("logreg_ts.py":194:0), MacID = "ptconvlstm__lambda_layer__indexselect"}, {ArcID = 14 : i64, BaseName = "ptconvlstm__lambda_layer__indexselect", Layer = 0 : i64, Location = loc("logreg_ts.py":194:0), MacID = "ptconvlstm__lambda_layer__indexselect"}]>["MLIRWorkaround":32:0, "FakeLocation":64:0])
#loc34 = loc(fused<[{ArcID = 282 : i64, BaseName = "ptconvlstm__lambda_layer__indexselect", Layer = 0 : i64, Location = loc("logreg_ts.py":194:0), MacID = "ptconvlstm__lambda_layer__indexselect"}, {ArcID = 191 : i64, BaseName = "ptconvlstm__lambda_layer__indexselect", Layer = 0 : i64, Location = loc("logreg_ts.py":194:0), MacID = "ptconvlstm__lambda_layer__indexselect"}, {ArcID = 95 : i64, BaseName = "ptconvlstm__lambda_layer__indexselect", Layer = 0 : i64, Location = loc("logreg_ts.py":194:0), MacID = "ptconvlstm__lambda_layer__indexselect"}, {ArcID = 14 : i64, BaseName = "ptconvlstm__lambda_layer__indexselect", Layer = 0 : i64, Location = loc("logreg_ts.py":194:0), MacID = "ptconvlstm__lambda_layer__indexselect"}]>["MLIRWorkaround":32:0, "FakeLocation":64:0])
#loc35 = loc(fused<[{ArcID = 192 : i64, Layer = 0 : i64, Location = loc("logreg_ts.py":215:0), MacID = "default_192"}, {ArcID = 99 : i64, BaseName = "ptconvlstm__permute", Layer = 0 : i64, Location = loc("logreg_ts.py":215:0), MacID = "ptconvlstm__permute"}, {ArcID = 18 : i64, BaseName = "ptconvlstm__permute", Layer = 0 : i64, Location = loc("logreg_ts.py":215:0), MacID = "ptconvlstm__permute"}]>["MLIRWorkaround":32:0, "FakeLocation":64:0])
#loc36 = loc(fused<[{ArcID = 376 : i64, BaseName = "ptconvlstm__permute", Layer = 0 : i64, Location = loc("logreg_ts.py":215:0), MacID = "ptconvlstm__permute"}, {ArcID = 283 : i64, BaseName = "ptconvlstm__permute", Layer = 0 : i64, Location = loc("logreg_ts.py":215:0), MacID = "ptconvlstm__permute"}, {ArcID = 193 : i64, BaseName = "ptconvlstm__permute", Layer = 0 : i64, Location = loc("logreg_ts.py":215:0), MacID = "ptconvlstm__permute"}, {ArcID = 99 : i64, BaseName = "ptconvlstm__permute", Layer = 0 : i64, Location = loc("logreg_ts.py":215:0), MacID = "ptconvlstm__permute"}, {ArcID = 18 : i64, BaseName = "ptconvlstm__permute", Layer = 0 : i64, Location = loc("logreg_ts.py":215:0), MacID = "ptconvlstm__permute"}]>["MLIRWorkaround":32:0, "FakeLocation":64:0])
#loc37 = loc(fused<[{ArcID = 194 : i64, Layer = 0 : i64, Location = loc("/usr/local/lib/python3.7/site-packages/torch/nn/modules/conv.py":298:0), MacID = "default_194"}, {ArcID = 101 : i64, BaseName = "ptconvlstm__conv_layer__reshape", Layer = 0 : i64, Location = loc("/usr/local/lib/python3.7/site-packages/torch/nn/modules/conv.py":298:0), MacID = "ptconvlstm__conv_layer__reshape"}, {ArcID = 20 : i64, BaseName = "ptconvlstm__conv_layer__reshape", Layer = 0 : i64, Location = loc("/usr/local/lib/python3.7/site-packages/torch/nn/modules/conv.py":298:0), MacID = "ptconvlstm__conv_layer__reshape"}]>["MLIRWorkaround":32:0, "FakeLocation":64:0])
#loc38 = loc(fused<[{ArcID = 284 : i64, BaseName = "ptconvlstm__conv_layer__reshape", Layer = 0 : i64, Location = loc("/usr/local/lib/python3.7/site-packages/torch/nn/modules/conv.py":298:0), MacID = "ptconvlstm__conv_layer__reshape"}, {ArcID = 195 : i64, BaseName = "ptconvlstm__conv_layer__reshape", Layer = 0 : i64, Location = loc("/usr/local/lib/python3.7/site-packages/torch/nn/modules/conv.py":298:0), MacID = "ptconvlstm__conv_layer__reshape"}, {ArcID = 101 : i64, BaseName = "ptconvlstm__conv_layer__reshape", Layer = 0 : i64, Location = loc("/usr/local/lib/python3.7/site-packages/torch/nn/modules/conv.py":298:0), MacID = "ptconvlstm__conv_layer__reshape"}, {ArcID = 20 : i64, BaseName = "ptconvlstm__conv_layer__reshape", Layer = 0 : i64, Location = loc("/usr/local/lib/python3.7/site-packages/torch/nn/modules/conv.py":298:0), MacID = "ptconvlstm__conv_layer__reshape"}]>["MLIRWorkaround":32:0, "FakeLocation":64:0])
#loc39 = loc(fused<[{ArcID = 196 : i64, Layer = 0 : i64, Location = loc("/usr/local/lib/python3.7/site-packages/torch/nn/modules/conv.py":298:0), MacID = "default_196"}, {ArcID = 103 : i64, BaseName = "ptconvlstm__conv_layer__conv2d", Layer = 0 : i64, Location = loc("/usr/local/lib/python3.7/site-packages/torch/nn/modules/conv.py":298:0), MacID = "ptconvlstm__conv_layer__conv2d"}, {ArcID = 21 : i64, BaseName = "ptconvlstm__conv_layer__conv2d", Layer = 0 : i64, Location = loc("/usr/local/lib/python3.7/site-packages/torch/nn/modules/conv.py":298:0), MacID = "ptconvlstm__conv_layer__conv2d"}]>["MLIRWorkaround":32:0, "FakeLocation":64:0])
#loc40 = loc(fused<[{ArcID = 285 : i64, BaseName = "ptconvlstm__conv_layer__conv2d_conv_fwd_stream0__gather_list", Layer = 0 : i64, Location = loc("software/arc/src/lib/templates/ConvIm2Col.cpp":201:0), MacID = "ptconvlstm__conv_layer__conv2d"}, {ArcID = 197 : i64, BaseName = "ptconvlstm__conv_layer__conv2d", Layer = 0 : i64, Location = loc("/usr/local/lib/python3.7/site-packages/torch/nn/modules/conv.py":298:0), MacID = "ptconvlstm__conv_layer__conv2d"}, {ArcID = 103 : i64, BaseName = "ptconvlstm__conv_layer__conv2d", Layer = 0 : i64, Location = loc("/usr/local/lib/python3.7/site-packages/torch/nn/modules/conv.py":298:0), MacID = "ptconvlstm__conv_layer__conv2d"}, {ArcID = 21 : i64, BaseName = "ptconvlstm__conv_layer__conv2d", Layer = 0 : i64, Location = loc("/usr/local/lib/python3.7/site-packages/torch/nn/modules/conv.py":298:0), MacID = "ptconvlstm__conv_layer__conv2d"}]>["MLIRWorkaround":32:0, "FakeLocation":64:0])
#loc41 = loc(fused<[{ArcID = 286 : i64, Layer = 0 : i64, Location = loc("software/arc/src/lib/templates/ConvIm2Col.cpp":201:0), MacID = "ptconvlstm__conv_layer__conv2d"}, {ArcID = 197 : i64, BaseName = "ptconvlstm__conv_layer__conv2d", Layer = 0 : i64, Location = loc("/usr/local/lib/python3.7/site-packages/torch/nn/modules/conv.py":298:0), MacID = "ptconvlstm__conv_layer__conv2d"}, {ArcID = 103 : i64, BaseName = "ptconvlstm__conv_layer__conv2d", Layer = 0 : i64, Location = loc("/usr/local/lib/python3.7/site-packages/torch/nn/modules/conv.py":298:0), MacID = "ptconvlstm__conv_layer__conv2d"}, {ArcID = 21 : i64, BaseName = "ptconvlstm__conv_layer__conv2d", Layer = 0 : i64, Location = loc("/usr/local/lib/python3.7/site-packages/torch/nn/modules/conv.py":298:0), MacID = "ptconvlstm__conv_layer__conv2d"}]>["MLIRWorkaround":32:0, "FakeLocation":64:0])
#loc42 = loc(fused<[{ArcID = 287 : i64, Layer = 0 : i64, Location = loc("software/arc/src/lib/templates/ConvIm2Col.cpp":206:0), MacID = "ptconvlstm__conv_layer__conv2d"}, {ArcID = 197 : i64, BaseName = "ptconvlstm__conv_layer__conv2d", Layer = 0 : i64, Location = loc("/usr/local/lib/python3.7/site-packages/torch/nn/modules/conv.py":298:0), MacID = "ptconvlstm__conv_layer__conv2d"}, {ArcID = 103 : i64, BaseName = "ptconvlstm__conv_layer__conv2d", Layer = 0 : i64, Location = loc("/usr/local/lib/python3.7/site-packages/torch/nn/modules/conv.py":298:0), MacID = "ptconvlstm__conv_layer__conv2d"}, {ArcID = 21 : i64, BaseName = "ptconvlstm__conv_layer__conv2d", Layer = 0 : i64, Location = loc("/usr/local/lib/python3.7/site-packages/torch/nn/modules/conv.py":298:0), MacID = "ptconvlstm__conv_layer__conv2d"}]>["MLIRWorkaround":32:0, "FakeLocation":64:0])
#loc43 = loc(fused<[{ArcID = 288 : i64, Layer = 0 : i64, Location = loc("software/arc/src/lib/templates/BigLinearExternalColPar.cpp":40:0), MacID = "ptconvlstm__conv_layer__conv2d"}, {ArcID = 197 : i64, BaseName = "ptconvlstm__conv_layer__conv2d", Layer = 0 : i64, Location = loc("/usr/local/lib/python3.7/site-packages/torch/nn/modules/conv.py":298:0), MacID = "ptconvlstm__conv_layer__conv2d"}, {ArcID = 103 : i64, BaseName = "ptconvlstm__conv_layer__conv2d", Layer = 0 : i64, Location = loc("/usr/local/lib/python3.7/site-packages/torch/nn/modules/conv.py":298:0), MacID = "ptconvlstm__conv_layer__conv2d"}, {ArcID = 21 : i64, BaseName = "ptconvlstm__conv_layer__conv2d", Layer = 0 : i64, Location = loc("/usr/local/lib/python3.7/site-packages/torch/nn/modules/conv.py":298:0), MacID = "ptconvlstm__conv_layer__conv2d"}]>["MLIRWorkaround":32:0, "FakeLocation":64:0])
#loc44 = loc(fused<[{ArcID = 289 : i64, Layer = 0 : i64, Location = loc("software/arc/src/lib/templates/BigLinearExternalColPar.cpp":80:0), MacID = "ptconvlstm__conv_layer__conv2d"}, {ArcID = 197 : i64, BaseName = "ptconvlstm__conv_layer__conv2d", Layer = 0 : i64, Location = loc("/usr/local/lib/python3.7/site-packages/torch/nn/modules/conv.py":298:0), MacID = "ptconvlstm__conv_layer__conv2d"}, {ArcID = 103 : i64, BaseName = "ptconvlstm__conv_layer__conv2d", Layer = 0 : i64, Location = loc("/usr/local/lib/python3.7/site-packages/torch/nn/modules/conv.py":298:0), MacID = "ptconvlstm__conv_layer__conv2d"}, {ArcID = 21 : i64, BaseName = "ptconvlstm__conv_layer__conv2d", Layer = 0 : i64, Location = loc("/usr/local/lib/python3.7/site-packages/torch/nn/modules/conv.py":298:0), MacID = "ptconvlstm__conv_layer__conv2d"}]>["MLIRWorkaround":32:0, "FakeLocation":64:0])
#loc45 = loc(fused<[{ArcID = 290 : i64, Layer = 0 : i64, Location = loc("software/arc/src/lib/templates/BigLinearExternalColPar.cpp":80:0), MacID = "ptconvlstm__conv_layer__conv2d"}, {ArcID = 197 : i64, BaseName = "ptconvlstm__conv_layer__conv2d", Layer = 0 : i64, Location = loc("/usr/local/lib/python3.7/site-packages/torch/nn/modules/conv.py":298:0), MacID = "ptconvlstm__conv_layer__conv2d"}, {ArcID = 103 : i64, BaseName = "ptconvlstm__conv_layer__conv2d", Layer = 0 : i64, Location = loc("/usr/local/lib/python3.7/site-packages/torch/nn/modules/conv.py":298:0), MacID = "ptconvlstm__conv_layer__conv2d"}, {ArcID = 21 : i64, BaseName = "ptconvlstm__conv_layer__conv2d", Layer = 0 : i64, Location = loc("/usr/local/lib/python3.7/site-packages/torch/nn/modules/conv.py":298:0), MacID = "ptconvlstm__conv_layer__conv2d"}]>["MLIRWorkaround":32:0, "FakeLocation":64:0])
#loc46 = loc(fused<[{ArcID = 291 : i64, Layer = 0 : i64, Location = loc("software/arc/src/lib/templates/BigLinearExternalColPar.cpp":80:0), MacID = "ptconvlstm__conv_layer__conv2d"}, {ArcID = 197 : i64, BaseName = "ptconvlstm__conv_layer__conv2d", Layer = 0 : i64, Location = loc("/usr/local/lib/python3.7/site-packages/torch/nn/modules/conv.py":298:0), MacID = "ptconvlstm__conv_layer__conv2d"}, {ArcID = 103 : i64, BaseName = "ptconvlstm__conv_layer__conv2d", Layer = 0 : i64, Location = loc("/usr/local/lib/python3.7/site-packages/torch/nn/modules/conv.py":298:0), MacID = "ptconvlstm__conv_layer__conv2d"}, {ArcID = 21 : i64, BaseName = "ptconvlstm__conv_layer__conv2d", Layer = 0 : i64, Location = loc("/usr/local/lib/python3.7/site-packages/torch/nn/modules/conv.py":298:0), MacID = "ptconvlstm__conv_layer__conv2d"}]>["MLIRWorkaround":32:0, "FakeLocation":64:0])
#loc47 = loc(fused<[{ArcID = 292 : i64, Layer = 0 : i64, Location = loc("software/arc/src/lib/templates/BigLinearExternalColPar.cpp":80:0), MacID = "ptconvlstm__conv_layer__conv2d"}, {ArcID = 197 : i64, BaseName = "ptconvlstm__conv_layer__conv2d", Layer = 0 : i64, Location = loc("/usr/local/lib/python3.7/site-packages/torch/nn/modules/conv.py":298:0), MacID = "ptconvlstm__conv_layer__conv2d"}, {ArcID = 103 : i64, BaseName = "ptconvlstm__conv_layer__conv2d", Layer = 0 : i64, Location = loc("/usr/local/lib/python3.7/site-packages/torch/nn/modules/conv.py":298:0), MacID = "ptconvlstm__conv_layer__conv2d"}, {ArcID = 21 : i64, BaseName = "ptconvlstm__conv_layer__conv2d", Layer = 0 : i64, Location = loc("/usr/local/lib/python3.7/site-packages/torch/nn/modules/conv.py":298:0), MacID = "ptconvlstm__conv_layer__conv2d"}]>["MLIRWorkaround":32:0, "FakeLocation":64:0])
#loc48 = loc(fused<[{ArcID = 293 : i64, Layer = 0 : i64, Location = loc("software/arc/src/lib/templates/BigLinearExternalColPar.cpp":80:0), MacID = "ptconvlstm__conv_layer__conv2d"}, {ArcID = 197 : i64, BaseName = "ptconvlstm__conv_layer__conv2d", Layer = 0 : i64, Location = loc("/usr/local/lib/python3.7/site-packages/torch/nn/modules/conv.py":298:0), MacID = "ptconvlstm__conv_layer__conv2d"}, {ArcID = 103 : i64, BaseName = "ptconvlstm__conv_layer__conv2d", Layer = 0 : i64, Location = loc("/usr/local/lib/python3.7/site-packages/torch/nn/modules/conv.py":298:0), MacID = "ptconvlstm__conv_layer__conv2d"}, {ArcID = 21 : i64, BaseName = "ptconvlstm__conv_layer__conv2d", Layer = 0 : i64, Location = loc("/usr/local/lib/python3.7/site-packages/torch/nn/modules/conv.py":298:0), MacID = "ptconvlstm__conv_layer__conv2d"}]>["MLIRWorkaround":32:0, "FakeLocation":64:0])
#loc49 = loc(fused<[{ArcID = 294 : i64, Layer = 0 : i64, Location = loc("software/arc/src/lib/templates/BigLinearExternalColPar.cpp":80:0), MacID = "ptconvlstm__conv_layer__conv2d"}, {ArcID = 197 : i64, BaseName = "ptconvlstm__conv_layer__conv2d", Layer = 0 : i64, Location = loc("/usr/local/lib/python3.7/site-packages/torch/nn/modules/conv.py":298:0), MacID = "ptconvlstm__conv_layer__conv2d"}, {ArcID = 103 : i64, BaseName = "ptconvlstm__conv_layer__conv2d", Layer = 0 : i64, Location = loc("/usr/local/lib/python3.7/site-packages/torch/nn/modules/conv.py":298:0), MacID = "ptconvlstm__conv_layer__conv2d"}, {ArcID = 21 : i64, BaseName = "ptconvlstm__conv_layer__conv2d", Layer = 0 : i64, Location = loc("/usr/local/lib/python3.7/site-packages/torch/nn/modules/conv.py":298:0), MacID = "ptconvlstm__conv_layer__conv2d"}]>["MLIRWorkaround":32:0, "FakeLocation":64:0])
#loc50 = loc(fused<[{ArcID = 295 : i64, Layer = 0 : i64, Location = loc("software/arc/src/lib/templates/BigLinearExternalColPar.cpp":80:0), MacID = "ptconvlstm__conv_layer__conv2d"}, {ArcID = 197 : i64, BaseName = "ptconvlstm__conv_layer__conv2d", Layer = 0 : i64, Location = loc("/usr/local/lib/python3.7/site-packages/torch/nn/modules/conv.py":298:0), MacID = "ptconvlstm__conv_layer__conv2d"}, {ArcID = 103 : i64, BaseName = "ptconvlstm__conv_layer__conv2d", Layer = 0 : i64, Location = loc("/usr/local/lib/python3.7/site-packages/torch/nn/modules/conv.py":298:0), MacID = "ptconvlstm__conv_layer__conv2d"}, {ArcID = 21 : i64, BaseName = "ptconvlstm__conv_layer__conv2d", Layer = 0 : i64, Location = loc("/usr/local/lib/python3.7/site-packages/torch/nn/modules/conv.py":298:0), MacID = "ptconvlstm__conv_layer__conv2d"}]>["MLIRWorkaround":32:0, "FakeLocation":64:0])
#loc51 = loc(fused<[{ArcID = 296 : i64, Layer = 0 : i64, Location = loc("software/arc/src/lib/templates/BigLinearExternalColPar.cpp":80:0), MacID = "ptconvlstm__conv_layer__conv2d"}, {ArcID = 197 : i64, BaseName = "ptconvlstm__conv_layer__conv2d", Layer = 0 : i64, Location = loc("/usr/local/lib/python3.7/site-packages/torch/nn/modules/conv.py":298:0), MacID = "ptconvlstm__conv_layer__conv2d"}, {ArcID = 103 : i64, BaseName = "ptconvlstm__conv_layer__conv2d", Layer = 0 : i64, Location = loc("/usr/local/lib/python3.7/site-packages/torch/nn/modules/conv.py":298:0), MacID = "ptconvlstm__conv_layer__conv2d"}, {ArcID = 21 : i64, BaseName = "ptconvlstm__conv_layer__conv2d", Layer = 0 : i64, Location = loc("/usr/local/lib/python3.7/site-packages/torch/nn/modules/conv.py":298:0), MacID = "ptconvlstm__conv_layer__conv2d"}]>["MLIRWorkaround":32:0, "FakeLocation":64:0])
#loc52 = loc(fused<[{ArcID = 297 : i64, Layer = 0 : i64, Location = loc("software/arc/src/lib/templates/BigLinearExternalColPar.cpp":80:0), MacID = "ptconvlstm__conv_layer__conv2d"}, {ArcID = 197 : i64, BaseName = "ptconvlstm__conv_layer__conv2d", Layer = 0 : i64, Location = loc("/usr/local/lib/python3.7/site-packages/torch/nn/modules/conv.py":298:0), MacID = "ptconvlstm__conv_layer__conv2d"}, {ArcID = 103 : i64, BaseName = "ptconvlstm__conv_layer__conv2d", Layer = 0 : i64, Location = loc("/usr/local/lib/python3.7/site-packages/torch/nn/modules/conv.py":298:0), MacID = "ptconvlstm__conv_layer__conv2d"}, {ArcID = 21 : i64, BaseName = "ptconvlstm__conv_layer__conv2d", Layer = 0 : i64, Location = loc("/usr/local/lib/python3.7/site-packages/torch/nn/modules/conv.py":298:0), MacID = "ptconvlstm__conv_layer__conv2d"}]>["MLIRWorkaround":32:0, "FakeLocation":64:0])
#loc53 = loc(fused<[{ArcID = 298 : i64, Layer = 0 : i64, Location = loc("software/arc/src/lib/templates/BigLinearExternalColPar.cpp":80:0), MacID = "ptconvlstm__conv_layer__conv2d"}, {ArcID = 197 : i64, BaseName = "ptconvlstm__conv_layer__conv2d", Layer = 0 : i64, Location = loc("/usr/local/lib/python3.7/site-packages/torch/nn/modules/conv.py":298:0), MacID = "ptconvlstm__conv_layer__conv2d"}, {ArcID = 103 : i64, BaseName = "ptconvlstm__conv_layer__conv2d", Layer = 0 : i64, Location = loc("/usr/local/lib/python3.7/site-packages/torch/nn/modules/conv.py":298:0), MacID = "ptconvlstm__conv_layer__conv2d"}, {ArcID = 21 : i64, BaseName = "ptconvlstm__conv_layer__conv2d", Layer = 0 : i64, Location = loc("/usr/local/lib/python3.7/site-packages/torch/nn/modules/conv.py":298:0), MacID = "ptconvlstm__conv_layer__conv2d"}]>["MLIRWorkaround":32:0, "FakeLocation":64:0])
#loc54 = loc(fused<[{ArcID = 299 : i64, Layer = 0 : i64, Location = loc("software/arc/src/lib/templates/BigLinearExternalColPar.cpp":80:0), MacID = "ptconvlstm__conv_layer__conv2d"}, {ArcID = 197 : i64, BaseName = "ptconvlstm__conv_layer__conv2d", Layer = 0 : i64, Location = loc("/usr/local/lib/python3.7/site-packages/torch/nn/modules/conv.py":298:0), MacID = "ptconvlstm__conv_layer__conv2d"}, {ArcID = 103 : i64, BaseName = "ptconvlstm__conv_layer__conv2d", Layer = 0 : i64, Location = loc("/usr/local/lib/python3.7/site-packages/torch/nn/modules/conv.py":298:0), MacID = "ptconvlstm__conv_layer__conv2d"}, {ArcID = 21 : i64, BaseName = "ptconvlstm__conv_layer__conv2d", Layer = 0 : i64, Location = loc("/usr/local/lib/python3.7/site-packages/torch/nn/modules/conv.py":298:0), MacID = "ptconvlstm__conv_layer__conv2d"}]>["MLIRWorkaround":32:0, "FakeLocation":64:0])
#loc55 = loc(fused<[{ArcID = 300 : i64, Layer = 0 : i64, Location = loc("software/arc/src/lib/templates/BigLinearExternalColPar.cpp":80:0), MacID = "ptconvlstm__conv_layer__conv2d"}, {ArcID = 197 : i64, BaseName = "ptconvlstm__conv_layer__conv2d", Layer = 0 : i64, Location = loc("/usr/local/lib/python3.7/site-packages/torch/nn/modules/conv.py":298:0), MacID = "ptconvlstm__conv_layer__conv2d"}, {ArcID = 103 : i64, BaseName = "ptconvlstm__conv_layer__conv2d", Layer = 0 : i64, Location = loc("/usr/local/lib/python3.7/site-packages/torch/nn/modules/conv.py":298:0), MacID = "ptconvlstm__conv_layer__conv2d"}, {ArcID = 21 : i64, BaseName = "ptconvlstm__conv_layer__conv2d", Layer = 0 : i64, Location = loc("/usr/local/lib/python3.7/site-packages/torch/nn/modules/conv.py":298:0), MacID = "ptconvlstm__conv_layer__conv2d"}]>["MLIRWorkaround":32:0, "FakeLocation":64:0])
#loc56 = loc(fused<[{ArcID = 301 : i64, Layer = 0 : i64, Location = loc("software/arc/src/lib/templates/BigLinearExternalColPar.cpp":80:0), MacID = "ptconvlstm__conv_layer__conv2d"}, {ArcID = 197 : i64, BaseName = "ptconvlstm__conv_layer__conv2d", Layer = 0 : i64, Location = loc("/usr/local/lib/python3.7/site-packages/torch/nn/modules/conv.py":298:0), MacID = "ptconvlstm__conv_layer__conv2d"}, {ArcID = 103 : i64, BaseName = "ptconvlstm__conv_layer__conv2d", Layer = 0 : i64, Location = loc("/usr/local/lib/python3.7/site-packages/torch/nn/modules/conv.py":298:0), MacID = "ptconvlstm__conv_layer__conv2d"}, {ArcID = 21 : i64, BaseName = "ptconvlstm__conv_layer__conv2d", Layer = 0 : i64, Location = loc("/usr/local/lib/python3.7/site-packages/torch/nn/modules/conv.py":298:0), MacID = "ptconvlstm__conv_layer__conv2d"}]>["MLIRWorkaround":32:0, "FakeLocation":64:0])
#loc57 = loc(fused<[{ArcID = 302 : i64, Layer = 0 : i64, Location = loc("software/arc/src/lib/templates/BigLinearExternalColPar.cpp":80:0), MacID = "ptconvlstm__conv_layer__conv2d"}, {ArcID = 197 : i64, BaseName = "ptconvlstm__conv_layer__conv2d", Layer = 0 : i64, Location = loc("/usr/local/lib/python3.7/site-packages/torch/nn/modules/conv.py":298:0), MacID = "ptconvlstm__conv_layer__conv2d"}, {ArcID = 103 : i64, BaseName = "ptconvlstm__conv_layer__conv2d", Layer = 0 : i64, Location = loc("/usr/local/lib/python3.7/site-packages/torch/nn/modules/conv.py":298:0), MacID = "ptconvlstm__conv_layer__conv2d"}, {ArcID = 21 : i64, BaseName = "ptconvlstm__conv_layer__conv2d", Layer = 0 : i64, Location = loc("/usr/local/lib/python3.7/site-packages/torch/nn/modules/conv.py":298:0), MacID = "ptconvlstm__conv_layer__conv2d"}]>["MLIRWorkaround":32:0, "FakeLocation":64:0])
#loc58 = loc(fused<[{ArcID = 303 : i64, Layer = 0 : i64, Location = loc("software/arc/src/lib/templates/BigLinearExternalColPar.cpp":80:0), MacID = "ptconvlstm__conv_layer__conv2d"}, {ArcID = 197 : i64, BaseName = "ptconvlstm__conv_layer__conv2d", Layer = 0 : i64, Location = loc("/usr/local/lib/python3.7/site-packages/torch/nn/modules/conv.py":298:0), MacID = "ptconvlstm__conv_layer__conv2d"}, {ArcID = 103 : i64, BaseName = "ptconvlstm__conv_layer__conv2d", Layer = 0 : i64, Location = loc("/usr/local/lib/python3.7/site-packages/torch/nn/modules/conv.py":298:0), MacID = "ptconvlstm__conv_layer__conv2d"}, {ArcID = 21 : i64, BaseName = "ptconvlstm__conv_layer__conv2d", Layer = 0 : i64, Location = loc("/usr/local/lib/python3.7/site-packages/torch/nn/modules/conv.py":298:0), MacID = "ptconvlstm__conv_layer__conv2d"}]>["MLIRWorkaround":32:0, "FakeLocation":64:0])
#loc59 = loc(fused<[{ArcID = 304 : i64, Layer = 0 : i64, Location = loc("software/arc/src/lib/templates/BigLinearExternalColPar.cpp":80:0), MacID = "ptconvlstm__conv_layer__conv2d"}, {ArcID = 197 : i64, BaseName = "ptconvlstm__conv_layer__conv2d", Layer = 0 : i64, Location = loc("/usr/local/lib/python3.7/site-packages/torch/nn/modules/conv.py":298:0), MacID = "ptconvlstm__conv_layer__conv2d"}, {ArcID = 103 : i64, BaseName = "ptconvlstm__conv_layer__conv2d", Layer = 0 : i64, Location = loc("/usr/local/lib/python3.7/site-packages/torch/nn/modules/conv.py":298:0), MacID = "ptconvlstm__conv_layer__conv2d"}, {ArcID = 21 : i64, BaseName = "ptconvlstm__conv_layer__conv2d", Layer = 0 : i64, Location = loc("/usr/local/lib/python3.7/site-packages/torch/nn/modules/conv.py":298:0), MacID = "ptconvlstm__conv_layer__conv2d"}]>["MLIRWorkaround":32:0, "FakeLocation":64:0])
#loc60 = loc(fused<[{ArcID = 305 : i64, Layer = 0 : i64, Location = loc("software/arc/src/lib/templates/BigLinearExternalColPar.cpp":80:0), MacID = "ptconvlstm__conv_layer__conv2d"}, {ArcID = 197 : i64, BaseName = "ptconvlstm__conv_layer__conv2d", Layer = 0 : i64, Location = loc("/usr/local/lib/python3.7/site-packages/torch/nn/modules/conv.py":298:0), MacID = "ptconvlstm__conv_layer__conv2d"}, {ArcID = 103 : i64, BaseName = "ptconvlstm__conv_layer__conv2d", Layer = 0 : i64, Location = loc("/usr/local/lib/python3.7/site-packages/torch/nn/modules/conv.py":298:0), MacID = "ptconvlstm__conv_layer__conv2d"}, {ArcID = 21 : i64, BaseName = "ptconvlstm__conv_layer__conv2d", Layer = 0 : i64, Location = loc("/usr/local/lib/python3.7/site-packages/torch/nn/modules/conv.py":298:0), MacID = "ptconvlstm__conv_layer__conv2d"}]>["MLIRWorkaround":32:0, "FakeLocation":64:0])
#loc61 = loc(fused<[{ArcID = 306 : i64, Layer = 0 : i64, Location = loc("software/arc/src/lib/templates/BigLinearExternalColPar.cpp":80:0), MacID = "ptconvlstm__conv_layer__conv2d"}, {ArcID = 197 : i64, BaseName = "ptconvlstm__conv_layer__conv2d", Layer = 0 : i64, Location = loc("/usr/local/lib/python3.7/site-packages/torch/nn/modules/conv.py":298:0), MacID = "ptconvlstm__conv_layer__conv2d"}, {ArcID = 103 : i64, BaseName = "ptconvlstm__conv_layer__conv2d", Layer = 0 : i64, Location = loc("/usr/local/lib/python3.7/site-packages/torch/nn/modules/conv.py":298:0), MacID = "ptconvlstm__conv_layer__conv2d"}, {ArcID = 21 : i64, BaseName = "ptconvlstm__conv_layer__conv2d", Layer = 0 : i64, Location = loc("/usr/local/lib/python3.7/site-packages/torch/nn/modules/conv.py":298:0), MacID = "ptconvlstm__conv_layer__conv2d"}]>["MLIRWorkaround":32:0, "FakeLocation":64:0])
#loc62 = loc(fused<[{ArcID = 307 : i64, Layer = 0 : i64, Location = loc("software/arc/src/lib/templates/BigLinearExternalColPar.cpp":80:0), MacID = "ptconvlstm__conv_layer__conv2d"}, {ArcID = 197 : i64, BaseName = "ptconvlstm__conv_layer__conv2d", Layer = 0 : i64, Location = loc("/usr/local/lib/python3.7/site-packages/torch/nn/modules/conv.py":298:0), MacID = "ptconvlstm__conv_layer__conv2d"}, {ArcID = 103 : i64, BaseName = "ptconvlstm__conv_layer__conv2d", Layer = 0 : i64, Location = loc("/usr/local/lib/python3.7/site-packages/torch/nn/modules/conv.py":298:0), MacID = "ptconvlstm__conv_layer__conv2d"}, {ArcID = 21 : i64, BaseName = "ptconvlstm__conv_layer__conv2d", Layer = 0 : i64, Location = loc("/usr/local/lib/python3.7/site-packages/torch/nn/modules/conv.py":298:0), MacID = "ptconvlstm__conv_layer__conv2d"}]>["MLIRWorkaround":32:0, "FakeLocation":64:0])
#loc63 = loc(fused<[{ArcID = 308 : i64, Layer = 0 : i64, Location = loc("software/arc/src/lib/templates/BigLinearExternalColPar.cpp":80:0), MacID = "ptconvlstm__conv_layer__conv2d"}, {ArcID = 197 : i64, BaseName = "ptconvlstm__conv_layer__conv2d", Layer = 0 : i64, Location = loc("/usr/local/lib/python3.7/site-packages/torch/nn/modules/conv.py":298:0), MacID = "ptconvlstm__conv_layer__conv2d"}, {ArcID = 103 : i64, BaseName = "ptconvlstm__conv_layer__conv2d", Layer = 0 : i64, Location = loc("/usr/local/lib/python3.7/site-packages/torch/nn/modules/conv.py":298:0), MacID = "ptconvlstm__conv_layer__conv2d"}, {ArcID = 21 : i64, BaseName = "ptconvlstm__conv_layer__conv2d", Layer = 0 : i64, Location = loc("/usr/local/lib/python3.7/site-packages/torch/nn/modules/conv.py":298:0), MacID = "ptconvlstm__conv_layer__conv2d"}]>["MLIRWorkaround":32:0, "FakeLocation":64:0])
#loc64 = loc(fused<[{ArcID = 309 : i64, Layer = 0 : i64, Location = loc("software/arc/src/lib/templates/BigLinearExternalColPar.cpp":80:0), MacID = "ptconvlstm__conv_layer__conv2d"}, {ArcID = 197 : i64, BaseName = "ptconvlstm__conv_layer__conv2d", Layer = 0 : i64, Location = loc("/usr/local/lib/python3.7/site-packages/torch/nn/modules/conv.py":298:0), MacID = "ptconvlstm__conv_layer__conv2d"}, {ArcID = 103 : i64, BaseName = "ptconvlstm__conv_layer__conv2d", Layer = 0 : i64, Location = loc("/usr/local/lib/python3.7/site-packages/torch/nn/modules/conv.py":298:0), MacID = "ptconvlstm__conv_layer__conv2d"}, {ArcID = 21 : i64, BaseName = "ptconvlstm__conv_layer__conv2d", Layer = 0 : i64, Location = loc("/usr/local/lib/python3.7/site-packages/torch/nn/modules/conv.py":298:0), MacID = "ptconvlstm__conv_layer__conv2d"}]>["MLIRWorkaround":32:0, "FakeLocation":64:0])
#loc65 = loc(fused<[{ArcID = 310 : i64, Layer = 0 : i64, Location = loc("software/arc/src/lib/templates/BigLinearExternalColPar.cpp":80:0), MacID = "ptconvlstm__conv_layer__conv2d"}, {ArcID = 197 : i64, BaseName = "ptconvlstm__conv_layer__conv2d", Layer = 0 : i64, Location = loc("/usr/local/lib/python3.7/site-packages/torch/nn/modules/conv.py":298:0), MacID = "ptconvlstm__conv_layer__conv2d"}, {ArcID = 103 : i64, BaseName = "ptconvlstm__conv_layer__conv2d", Layer = 0 : i64, Location = loc("/usr/local/lib/python3.7/site-packages/torch/nn/modules/conv.py":298:0), MacID = "ptconvlstm__conv_layer__conv2d"}, {ArcID = 21 : i64, BaseName = "ptconvlstm__conv_layer__conv2d", Layer = 0 : i64, Location = loc("/usr/local/lib/python3.7/site-packages/torch/nn/modules/conv.py":298:0), MacID = "ptconvlstm__conv_layer__conv2d"}]>["MLIRWorkaround":32:0, "FakeLocation":64:0])
#loc66 = loc(fused<[{ArcID = 311 : i64, Layer = 0 : i64, Location = loc("software/arc/src/lib/templates/BigLinearExternalColPar.cpp":100:0), MacID = "ptconvlstm__conv_layer__conv2d"}, {ArcID = 197 : i64, BaseName = "ptconvlstm__conv_layer__conv2d", Layer = 0 : i64, Location = loc("/usr/local/lib/python3.7/site-packages/torch/nn/modules/conv.py":298:0), MacID = "ptconvlstm__conv_layer__conv2d"}, {ArcID = 103 : i64, BaseName = "ptconvlstm__conv_layer__conv2d", Layer = 0 : i64, Location = loc("/usr/local/lib/python3.7/site-packages/torch/nn/modules/conv.py":298:0), MacID = "ptconvlstm__conv_layer__conv2d"}, {ArcID = 21 : i64, BaseName = "ptconvlstm__conv_layer__conv2d", Layer = 0 : i64, Location = loc("/usr/local/lib/python3.7/site-packages/torch/nn/modules/conv.py":298:0), MacID = "ptconvlstm__conv_layer__conv2d"}]>["MLIRWorkaround":32:0, "FakeLocation":64:0])
#loc67 = loc(fused<[{ArcID = 312 : i64, Layer = 0 : i64, Location = loc("software/arc/src/lib/templates/BigLinearExternalColPar.cpp":110:0), MacID = "ptconvlstm__conv_layer__conv2d"}, {ArcID = 197 : i64, BaseName = "ptconvlstm__conv_layer__conv2d", Layer = 0 : i64, Location = loc("/usr/local/lib/python3.7/site-packages/torch/nn/modules/conv.py":298:0), MacID = "ptconvlstm__conv_layer__conv2d"}, {ArcID = 103 : i64, BaseName = "ptconvlstm__conv_layer__conv2d", Layer = 0 : i64, Location = loc("/usr/local/lib/python3.7/site-packages/torch/nn/modules/conv.py":298:0), MacID = "ptconvlstm__conv_layer__conv2d"}, {ArcID = 21 : i64, BaseName = "ptconvlstm__conv_layer__conv2d", Layer = 0 : i64, Location = loc("/usr/local/lib/python3.7/site-packages/torch/nn/modules/conv.py":298:0), MacID = "ptconvlstm__conv_layer__conv2d"}]>["MLIRWorkaround":32:0, "FakeLocation":64:0])
#loc68 = loc(fused<[{ArcID = 313 : i64, Layer = 0 : i64, Location = loc("software/arc/src/lib/templates/ConvIm2Col.cpp":297:0), MacID = "ptconvlstm__conv_layer__conv2d"}, {ArcID = 197 : i64, BaseName = "ptconvlstm__conv_layer__conv2d", Layer = 0 : i64, Location = loc("/usr/local/lib/python3.7/site-packages/torch/nn/modules/conv.py":298:0), MacID = "ptconvlstm__conv_layer__conv2d"}, {ArcID = 103 : i64, BaseName = "ptconvlstm__conv_layer__conv2d", Layer = 0 : i64, Location = loc("/usr/local/lib/python3.7/site-packages/torch/nn/modules/conv.py":298:0), MacID = "ptconvlstm__conv_layer__conv2d"}, {ArcID = 21 : i64, BaseName = "ptconvlstm__conv_layer__conv2d", Layer = 0 : i64, Location = loc("/usr/local/lib/python3.7/site-packages/torch/nn/modules/conv.py":298:0), MacID = "ptconvlstm__conv_layer__conv2d"}]>["MLIRWorkaround":32:0, "FakeLocation":64:0])
#loc69 = loc(fused<[{ArcID = 314 : i64, Layer = 0 : i64, Location = loc("software/arc/src/lib/templates/ConvIm2Col.cpp":298:0), MacID = "ptconvlstm__conv_layer__conv2d"}, {ArcID = 197 : i64, BaseName = "ptconvlstm__conv_layer__conv2d", Layer = 0 : i64, Location = loc("/usr/local/lib/python3.7/site-packages/torch/nn/modules/conv.py":298:0), MacID = "ptconvlstm__conv_layer__conv2d"}, {ArcID = 103 : i64, BaseName = "ptconvlstm__conv_layer__conv2d", Layer = 0 : i64, Location = loc("/usr/local/lib/python3.7/site-packages/torch/nn/modules/conv.py":298:0), MacID = "ptconvlstm__conv_layer__conv2d"}, {ArcID = 21 : i64, BaseName = "ptconvlstm__conv_layer__conv2d", Layer = 0 : i64, Location = loc("/usr/local/lib/python3.7/site-packages/torch/nn/modules/conv.py":298:0), MacID = "ptconvlstm__conv_layer__conv2d"}]>["MLIRWorkaround":32:0, "FakeLocation":64:0])
#loc70 = loc(fused<[{ArcID = 315 : i64, Layer = 0 : i64, Location = loc("software/arc/src/lib/templates/ConvIm2Col.cpp":371:0), MacID = "ptconvlstm__conv_layer__conv2d"}, {ArcID = 197 : i64, BaseName = "ptconvlstm__conv_layer__conv2d", Layer = 0 : i64, Location = loc("/usr/local/lib/python3.7/site-packages/torch/nn/modules/conv.py":298:0), MacID = "ptconvlstm__conv_layer__conv2d"}, {ArcID = 103 : i64, BaseName = "ptconvlstm__conv_layer__conv2d", Layer = 0 : i64, Location = loc("/usr/local/lib/python3.7/site-packages/torch/nn/modules/conv.py":298:0), MacID = "ptconvlstm__conv_layer__conv2d"}, {ArcID = 21 : i64, BaseName = "ptconvlstm__conv_layer__conv2d", Layer = 0 : i64, Location = loc("/usr/local/lib/python3.7/site-packages/torch/nn/modules/conv.py":298:0), MacID = "ptconvlstm__conv_layer__conv2d"}]>["MLIRWorkaround":32:0, "FakeLocation":64:0])
#loc71 = loc(fused<[{ArcID = 198 : i64, Layer = 0 : i64, Location = loc("/usr/local/lib/python3.7/site-packages/torch/nn/modules/conv.py":298:0), MacID = "default_198"}, {ArcID = 104 : i64, BaseName = "ptconvlstm__conv_layer__reshape_2", Layer = 0 : i64, Location = loc("/usr/local/lib/python3.7/site-packages/torch/nn/modules/conv.py":298:0), MacID = "ptconvlstm__conv_layer__reshape_2"}, {ArcID = 22 : i64, BaseName = "ptconvlstm__conv_layer__reshape_2", Layer = 0 : i64, Location = loc("/usr/local/lib/python3.7/site-packages/torch/nn/modules/conv.py":298:0), MacID = "ptconvlstm__conv_layer__reshape_2"}]>["MLIRWorkaround":32:0, "FakeLocation":64:0])
#loc72 = loc(fused<[{ArcID = 316 : i64, BaseName = "ptconvlstm__conv_layer__reshape_2", Layer = 0 : i64, Location = loc("/usr/local/lib/python3.7/site-packages/torch/nn/modules/conv.py":298:0), MacID = "ptconvlstm__conv_layer__reshape_2"}, {ArcID = 199 : i64, BaseName = "ptconvlstm__conv_layer__reshape_2", Layer = 0 : i64, Location = loc("/usr/local/lib/python3.7/site-packages/torch/nn/modules/conv.py":298:0), MacID = "ptconvlstm__conv_layer__reshape_2"}, {ArcID = 104 : i64, BaseName = "ptconvlstm__conv_layer__reshape_2", Layer = 0 : i64, Location = loc("/usr/local/lib/python3.7/site-packages/torch/nn/modules/conv.py":298:0), MacID = "ptconvlstm__conv_layer__reshape_2"}, {ArcID = 22 : i64, BaseName = "ptconvlstm__conv_layer__reshape_2", Layer = 0 : i64, Location = loc("/usr/local/lib/python3.7/site-packages/torch/nn/modules/conv.py":298:0), MacID = "ptconvlstm__conv_layer__reshape_2"}]>["MLIRWorkaround":32:0, "FakeLocation":64:0])
#loc73 = loc(fused<[{ArcID = 200 : i64, Layer = 0 : i64, Location = loc("/usr/local/lib/python3.7/site-packages/torch/overrides.py":1355:0), MacID = "default_200"}, {ArcID = 108 : i64, BaseName = "ptconvlstm__dense_layer__linear", Layer = 0 : i64, Location = loc("/usr/local/lib/python3.7/site-packages/torch/overrides.py":1355:0), MacID = "ptconvlstm__dense_layer__linear"}, {ArcID = 25 : i64, BaseName = "ptconvlstm__dense_layer__linear", Layer = 0 : i64, Location = loc("/usr/local/lib/python3.7/site-packages/torch/overrides.py":1355:0), MacID = "ptconvlstm__dense_layer__linear"}]>["MLIRWorkaround":32:0, "FakeLocation":64:0])
#loc74 = loc(fused<[{ArcID = 317 : i64, BaseName = "ptconvlstm__dense_layer__linear", Layer = 0 : i64, Location = loc("/usr/local/lib/python3.7/site-packages/torch/overrides.py":1355:0), MacID = "ptconvlstm__dense_layer__linear"}, {ArcID = 201 : i64, BaseName = "ptconvlstm__dense_layer__linear", Layer = 0 : i64, Location = loc("/usr/local/lib/python3.7/site-packages/torch/overrides.py":1355:0), MacID = "ptconvlstm__dense_layer__linear"}, {ArcID = 108 : i64, BaseName = "ptconvlstm__dense_layer__linear", Layer = 0 : i64, Location = loc("/usr/local/lib/python3.7/site-packages/torch/overrides.py":1355:0), MacID = "ptconvlstm__dense_layer__linear"}, {ArcID = 25 : i64, BaseName = "ptconvlstm__dense_layer__linear", Layer = 0 : i64, Location = loc("/usr/local/lib/python3.7/site-packages/torch/overrides.py":1355:0), MacID = "ptconvlstm__dense_layer__linear"}]>["MLIRWorkaround":32:0, "FakeLocation":64:0])
#loc75 = loc(fused<[{ArcID = 202 : i64, Layer = 0 : i64, Location = loc("/usr/local/lib/python3.7/site-packages/torch/overrides.py":1355:0), MacID = "default_202"}, {ArcID = 109 : i64, BaseName = "ptconvlstm__dense_layer__linear_t_output0", Layer = 0 : i64, Location = loc("/usr/local/lib/python3.7/site-packages/torch/overrides.py":1355:0), MacID = "ptconvlstm__dense_layer__linear_t_output0"}, {ArcID = 26 : i64, BaseName = "ptconvlstm__dense_layer__linear_t_output0", Layer = 0 : i64, Location = loc("/usr/local/lib/python3.7/site-packages/torch/overrides.py":1355:0), MacID = "ptconvlstm__dense_layer__linear_t_output0"}]>["MLIRWorkaround":32:0, "FakeLocation":64:0])
#loc76 = loc(fused<[{ArcID = 318 : i64, BaseName = "ptconvlstm__dense_layer__linear_t_output0", Layer = 0 : i64, Location = loc("/usr/local/lib/python3.7/site-packages/torch/overrides.py":1355:0), MacID = "ptconvlstm__dense_layer__linear_t_output0"}, {ArcID = 203 : i64, BaseName = "ptconvlstm__dense_layer__linear_t_output0", Layer = 0 : i64, Location = loc("/usr/local/lib/python3.7/site-packages/torch/overrides.py":1355:0), MacID = "ptconvlstm__dense_layer__linear_t_output0"}, {ArcID = 109 : i64, BaseName = "ptconvlstm__dense_layer__linear_t_output0", Layer = 0 : i64, Location = loc("/usr/local/lib/python3.7/site-packages/torch/overrides.py":1355:0), MacID = "ptconvlstm__dense_layer__linear_t_output0"}, {ArcID = 26 : i64, BaseName = "ptconvlstm__dense_layer__linear_t_output0", Layer = 0 : i64, Location = loc("/usr/local/lib/python3.7/site-packages/torch/overrides.py":1355:0), MacID = "ptconvlstm__dense_layer__linear_t_output0"}]>["MLIRWorkaround":32:0, "FakeLocation":64:0])
#loc77 = loc(fused<[{ArcID = 204 : i64, Layer = 0 : i64, Location = loc("logreg_ts.py":222:0), MacID = "default_204"}, {ArcID = 110 : i64, BaseName = "ptconvlstm__reshape", Layer = 0 : i64, Location = loc("logreg_ts.py":222:0), MacID = "ptconvlstm__reshape"}, {ArcID = 27 : i64, BaseName = "ptconvlstm__reshape", Layer = 0 : i64, Location = loc("logreg_ts.py":222:0), MacID = "ptconvlstm__reshape"}]>["MLIRWorkaround":32:0, "FakeLocation":64:0])
#loc78 = loc(fused<[{ArcID = 319 : i64, BaseName = "ptconvlstm__reshape", Layer = 0 : i64, Location = loc("logreg_ts.py":222:0), MacID = "ptconvlstm__reshape"}, {ArcID = 205 : i64, BaseName = "ptconvlstm__reshape", Layer = 0 : i64, Location = loc("logreg_ts.py":222:0), MacID = "ptconvlstm__reshape"}, {ArcID = 110 : i64, BaseName = "ptconvlstm__reshape", Layer = 0 : i64, Location = loc("logreg_ts.py":222:0), MacID = "ptconvlstm__reshape"}, {ArcID = 27 : i64, BaseName = "ptconvlstm__reshape", Layer = 0 : i64, Location = loc("logreg_ts.py":222:0), MacID = "ptconvlstm__reshape"}]>["MLIRWorkaround":32:0, "FakeLocation":64:0])
#loc79 = loc(fused<[{ArcID = 206 : i64, Layer = 0 : i64, Location = loc("logreg_ts.py":229:0), MacID = "default_206"}, {ArcID = 112 : i64, BaseName = "ptconvlstm__view", Layer = 0 : i64, Location = loc("logreg_ts.py":229:0), MacID = "ptconvlstm__view"}, {ArcID = 28 : i64, BaseName = "ptconvlstm__view", Layer = 0 : i64, Location = loc("logreg_ts.py":229:0), MacID = "ptconvlstm__view"}]>["MLIRWorkaround":32:0, "FakeLocation":64:0])
#loc80 = loc(fused<[{ArcID = 320 : i64, BaseName = "ptconvlstm__view", Layer = 0 : i64, Location = loc("logreg_ts.py":229:0), MacID = "ptconvlstm__view"}, {ArcID = 207 : i64, BaseName = "ptconvlstm__view", Layer = 0 : i64, Location = loc("logreg_ts.py":229:0), MacID = "ptconvlstm__view"}, {ArcID = 112 : i64, BaseName = "ptconvlstm__view", Layer = 0 : i64, Location = loc("logreg_ts.py":229:0), MacID = "ptconvlstm__view"}, {ArcID = 28 : i64, BaseName = "ptconvlstm__view", Layer = 0 : i64, Location = loc("logreg_ts.py":229:0), MacID = "ptconvlstm__view"}]>["MLIRWorkaround":32:0, "FakeLocation":64:0])
#loc81 = loc(fused<[{ArcID = 266 : i64, Layer = 0 : i64, Location = loc("/usr/local/lib/python3.7/site-packages/torch/nn/modules/conv.py":298:0), MacID = "default_266"}, {ArcID = 105 : i64, BaseName = "ptconvlstm__conv_layer__reshape_2_tensor", Layer = 0 : i64, Location = loc("/usr/local/lib/python3.7/site-packages/torch/nn/modules/conv.py":298:0), MacID = "default_105"}, {ArcID = 22 : i64, BaseName = "ptconvlstm__conv_layer__reshape_2", Layer = 0 : i64, Location = loc("/usr/local/lib/python3.7/site-packages/torch/nn/modules/conv.py":298:0), MacID = "ptconvlstm__conv_layer__reshape_2"}]>["MLIRWorkaround":32:0, "FakeLocation":64:0])
#loc82 = loc(fused<[{ArcID = 267 : i64, Layer = 0 : i64, Location = loc("logreg_ts.py":222:0), MacID = "default_267"}, {ArcID = 111 : i64, BaseName = "ptconvlstm__reshape_tensor", Layer = 0 : i64, Location = loc("logreg_ts.py":222:0), MacID = "default_111"}, {ArcID = 27 : i64, BaseName = "ptconvlstm__reshape", Layer = 0 : i64, Location = loc("logreg_ts.py":222:0), MacID = "ptconvlstm__reshape"}]>["MLIRWorkaround":32:0, "FakeLocation":64:0])
#loc83 = loc(fused<[{ArcID = 209 : i64, Layer = 0 : i64, Location = loc("logreg_ts.py":222:0), MacID = "default_209"}, {ArcID = 110 : i64, BaseName = "ptconvlstm__reshape", Layer = 0 : i64, Location = loc("logreg_ts.py":222:0), MacID = "ptconvlstm__reshape"}, {ArcID = 27 : i64, BaseName = "ptconvlstm__reshape", Layer = 0 : i64, Location = loc("logreg_ts.py":222:0), MacID = "ptconvlstm__reshape"}]>["MLIRWorkaround":32:0, "FakeLocation":64:0])
#loc84 = loc(fused<[{ArcID = 268 : i64, Layer = 0 : i64, Location = loc("logreg_ts.py":229:0), MacID = "default_268"}, {ArcID = 113 : i64, BaseName = "ptconvlstm__view_tensor", Layer = 0 : i64, Location = loc("logreg_ts.py":229:0), MacID = "default_113"}, {ArcID = 28 : i64, BaseName = "ptconvlstm__view", Layer = 0 : i64, Location = loc("logreg_ts.py":229:0), MacID = "ptconvlstm__view"}]>["MLIRWorkaround":32:0, "FakeLocation":64:0])
#loc85 = loc(fused<[{ArcID = 272 : i64, Layer = 0 : i64, Location = loc("logreg_ts.py":194:0), MacID = "default_272"}, {ArcID = 271 : i64, Layer = 0 : i64, Location = loc("logreg_ts.py":194:0), MacID = "default_187"}, {ArcID = 95 : i64, BaseName = "ptconvlstm__lambda_layer__indexselect", Layer = 0 : i64, Location = loc("logreg_ts.py":194:0), MacID = "ptconvlstm__lambda_layer__indexselect"}, {ArcID = 14 : i64, BaseName = "ptconvlstm__lambda_layer__indexselect", Layer = 0 : i64, Location = loc("logreg_ts.py":194:0), MacID = "ptconvlstm__lambda_layer__indexselect"}]>["MLIRWorkaround":32:0, "FakeLocation":64:0])
#loc86 = loc(fused<[{ArcID = 271 : i64, Layer = 0 : i64, Location = loc("logreg_ts.py":194:0), MacID = "default_187"}, {ArcID = 95 : i64, BaseName = "ptconvlstm__lambda_layer__indexselect", Layer = 0 : i64, Location = loc("logreg_ts.py":194:0), MacID = "ptconvlstm__lambda_layer__indexselect"}, {ArcID = 14 : i64, BaseName = "ptconvlstm__lambda_layer__indexselect", Layer = 0 : i64, Location = loc("logreg_ts.py":194:0), MacID = "ptconvlstm__lambda_layer__indexselect"}]>["MLIRWorkaround":32:0, "FakeLocation":64:0])
#loc87 = loc(fused<[{ArcID = 96 : i64, Layer = 0 : i64, Location = loc("UnknownFileName":0:0), MacID = "default_96"}, {ArcID = 6 : i64, BaseName = "out_window", Layer = 0 : i64, Location = loc("UnknownFileName":0:0), MacID = "out_window"}]>["MLIRWorkaround":32:0, "FakeLocation":64:0])
#loc88 = loc(fused<[{ArcID = 321 : i64, BaseName = "ptconvlstm__reshape_1", Layer = 0 : i64, Location = loc("logreg_ts.py":223:0), MacID = "ptconvlstm__reshape_1"}, {ArcID = 97 : i64, BaseName = "ptconvlstm__reshape_1", Layer = 0 : i64, Location = loc("logreg_ts.py":223:0), MacID = "ptconvlstm__reshape_1"}, {ArcID = 15 : i64, BaseName = "ptconvlstm__reshape_1", Layer = 0 : i64, Location = loc("logreg_ts.py":223:0), MacID = "ptconvlstm__reshape_1"}]>["MLIRWorkaround":32:0, "FakeLocation":64:0])
#loc89 = loc(fused<[{ArcID = 322 : i64, BaseName = "", Layer = 0 : i64, Location = loc("/usr/local/lib/python3.7/site-packages/torch/overrides.py":1355:0), MacID = "default_62"}, {ArcID = 114 : i64, BaseName = "", Layer = 0 : i64, Location = loc("/usr/local/lib/python3.7/site-packages/torch/overrides.py":1355:0), MacID = "default_62"}, {ArcID = 62 : i64, Layer = 0 : i64, Location = loc("/usr/local/lib/python3.7/site-packages/torch/overrides.py":1355:0), MacID = "default_62"}, {ArcID = 29 : i64, BaseName = "ptconvlstm__criterion__mseloss", Layer = 0 : i64, Location = loc("/usr/local/lib/python3.7/site-packages/torch/overrides.py":1355:0), MacID = "ptconvlstm__criterion__mseloss"}]>["MLIRWorkaround":32:0, "FakeLocation":64:0])
#loc90 = loc(fused<[{ArcID = 323 : i64, BaseName = "", Layer = 0 : i64, Location = loc("/usr/local/lib/python3.7/site-packages/torch/overrides.py":1355:0), MacID = "default_63"}, {ArcID = 115 : i64, BaseName = "", Layer = 0 : i64, Location = loc("/usr/local/lib/python3.7/site-packages/torch/overrides.py":1355:0), MacID = "default_63"}, {ArcID = 63 : i64, Layer = 0 : i64, Location = loc("/usr/local/lib/python3.7/site-packages/torch/overrides.py":1355:0), MacID = "default_63"}, {ArcID = 29 : i64, BaseName = "ptconvlstm__criterion__mseloss", Layer = 0 : i64, Location = loc("/usr/local/lib/python3.7/site-packages/torch/overrides.py":1355:0), MacID = "ptconvlstm__criterion__mseloss"}]>["MLIRWorkaround":32:0, "FakeLocation":64:0])
#loc91 = loc(fused<[{ArcID = 324 : i64, BaseName = "", Layer = 0 : i64, Location = loc("/usr/local/lib/python3.7/site-packages/torch/overrides.py":1355:0), MacID = "default_64"}, {ArcID = 116 : i64, BaseName = "", Layer = 0 : i64, Location = loc("/usr/local/lib/python3.7/site-packages/torch/overrides.py":1355:0), MacID = "default_64"}, {ArcID = 64 : i64, Layer = 0 : i64, Location = loc("/usr/local/lib/python3.7/site-packages/torch/overrides.py":1355:0), MacID = "default_64"}, {ArcID = 29 : i64, BaseName = "ptconvlstm__criterion__mseloss", Layer = 0 : i64, Location = loc("/usr/local/lib/python3.7/site-packages/torch/overrides.py":1355:0), MacID = "ptconvlstm__criterion__mseloss"}]>["MLIRWorkaround":32:0, "FakeLocation":64:0])
#loc92 = loc(fused<[{ArcID = 117 : i64, BaseName = "_tensor", Layer = 0 : i64, Location = loc("/usr/local/lib/python3.7/site-packages/torch/overrides.py":1355:0), MacID = "default_117"}, {ArcID = 64 : i64, Layer = 0 : i64, Location = loc("/usr/local/lib/python3.7/site-packages/torch/overrides.py":1355:0), MacID = "default_64"}, {ArcID = 29 : i64, BaseName = "ptconvlstm__criterion__mseloss", Layer = 0 : i64, Location = loc("/usr/local/lib/python3.7/site-packages/torch/overrides.py":1355:0), MacID = "ptconvlstm__criterion__mseloss"}]>["MLIRWorkaround":32:0, "FakeLocation":64:0])
#loc93 = loc(fused<[{ArcID = 270 : i64, Layer = 0 : i64, Location = loc("software/compiler/mac/src/lib/pass/transform/AIRToTLIRLoweringSections.cpp":85:0), MacID = "default_270"}, {ArcID = 269 : i64, Layer = 0 : i64, Location = loc("software/compiler/mac/src/lib/pass/transform/AIRToTLIRLoweringSections.cpp":85:0), MacID = "default_269"}, {ArcID = 90 : i64, Layer = 0 : i64, Location = loc("software/compiler/mac/src/lib/pass/transform/AIRToTLIRLoweringSections.cpp":85:0), MacID = "default_90"}]>["MLIRWorkaround":32:0, "FakeLocation":64:0])
#loc94 = loc(fused<[{ArcID = 269 : i64, Layer = 0 : i64, Location = loc("software/compiler/mac/src/lib/pass/transform/AIRToTLIRLoweringSections.cpp":85:0), MacID = "default_269"}, {ArcID = 90 : i64, Layer = 0 : i64, Location = loc("software/compiler/mac/src/lib/pass/transform/AIRToTLIRLoweringSections.cpp":85:0), MacID = "default_90"}]>["MLIRWorkaround":32:0, "FakeLocation":64:0])
#loc95 = loc(fused<[{ArcID = 118 : i64, Layer = 0 : i64, Location = loc("software/compiler/mac/src/lib/pass/transform/AIRToTLIRLoweringSections.cpp":85:0), MacID = "default_118"}, {ArcID = 90 : i64, Layer = 0 : i64, Location = loc("software/compiler/mac/src/lib/pass/transform/AIRToTLIRLoweringSections.cpp":85:0), MacID = "default_90"}]>["MLIRWorkaround":32:0, "FakeLocation":64:0])
#loc96 = loc(fused<[{ArcID = 90 : i64, Layer = 0 : i64, Location = loc("software/compiler/mac/src/lib/pass/transform/AIRToTLIRLoweringSections.cpp":85:0), MacID = "default_90"}]>["MLIRWorkaround":32:0, "FakeLocation":64:0])
#loc97 = loc(fused<[{ArcID = 150 : i64, BaseName = "gather_gradient_output_reshape_id1__gather_list", Layer = 0 : i64, Location = loc("/usr/local/lib/python3.7/site-packages/torch/nn/modules/conv.py":298:0), MacID = "default_150"}, {ArcID = 52 : i64, BaseName = "ptconvlstm__conv_layer__conv2d_bwd", Layer = 0 : i64, Location = loc("/usr/local/lib/python3.7/site-packages/torch/nn/modules/conv.py":298:0), MacID = "ptconvlstm__conv_layer__conv2d_bwd"}]>["MLIRWorkaround":32:0, "FakeLocation":64:0])
#loc98 = loc(fused<[{ArcID = 127 : i64, Layer = 0 : i64, Location = loc("UnknownFileName":0:0), MacID = "default_127"}, {ArcID = 7 : i64, BaseName = "ptconvlstm__criterion__mseloss__outputs__0__grad", Layer = 0 : i64, Location = loc("UnknownFileName":0:0), MacID = "ptconvlstm__criterion__mseloss__outputs__0__grad"}]>["MLIRWorkaround":32:0, "FakeLocation":64:0])
#loc99 = loc(fused<[{ArcID = 140 : i64, Layer = 0 : i64, Location = loc("UnknownFileName":0:0), MacID = "default_140"}, {ArcID = 1 : i64, BaseName = "inp_window_slice_1", Layer = 0 : i64, Location = loc("UnknownFileName":0:0), MacID = "inp_window_slice_1"}]>["MLIRWorkaround":32:0, "FakeLocation":64:0])
#loc100 = loc(fused<[{ArcID = 212 : i64, BaseName = "ptconvlstm__dense_layer__linear_bwd_weight_accum_buffer", Layer = 0 : i64, Location = loc("/usr/local/lib/python3.7/site-packages/torch/overrides.py":1355:0), MacID = "default_212"}, {ArcID = 135 : i64, BaseName = "ptconvlstm__dense_layer__linear_bwd_weight", Layer = 0 : i64, Location = loc("/usr/local/lib/python3.7/site-packages/torch/overrides.py":1355:0), MacID = "ptconvlstm__dense_layer__linear_bwd_weight"}, {ArcID = 38 : i64, BaseName = "ptconvlstm__dense_layer__linear_bwd_weight", Layer = 0 : i64, Location = loc("/usr/local/lib/python3.7/site-packages/torch/overrides.py":1355:0), MacID = "ptconvlstm__dense_layer__linear_bwd_weight"}]>["MLIRWorkaround":32:0, "FakeLocation":64:0])
#loc101 = loc(fused<[{ArcID = 213 : i64, BaseName = "ptconvlstm__dense_layer__linear_bwd_weight_accum_buffer_1", Layer = 0 : i64, Location = loc("/usr/local/lib/python3.7/site-packages/torch/overrides.py":1355:0), MacID = "default_213"}, {ArcID = 135 : i64, BaseName = "ptconvlstm__dense_layer__linear_bwd_weight", Layer = 0 : i64, Location = loc("/usr/local/lib/python3.7/site-packages/torch/overrides.py":1355:0), MacID = "ptconvlstm__dense_layer__linear_bwd_weight"}, {ArcID = 38 : i64, BaseName = "ptconvlstm__dense_layer__linear_bwd_weight", Layer = 0 : i64, Location = loc("/usr/local/lib/python3.7/site-packages/torch/overrides.py":1355:0), MacID = "ptconvlstm__dense_layer__linear_bwd_weight"}]>["MLIRWorkaround":32:0, "FakeLocation":64:0])
#loc102 = loc(fused<[{ArcID = 214 : i64, BaseName = "ptconvlstm__conv_layer__conv2d_bwd_accum_buffer", Layer = 0 : i64, Location = loc("/usr/local/lib/python3.7/site-packages/torch/nn/modules/conv.py":298:0), MacID = "default_214"}, {ArcID = 148 : i64, BaseName = "ptconvlstm__conv_layer__conv2d_bwd", Layer = 0 : i64, Location = loc("/usr/local/lib/python3.7/site-packages/torch/nn/modules/conv.py":298:0), MacID = "ptconvlstm__conv_layer__conv2d_bwd"}, {ArcID = 52 : i64, BaseName = "ptconvlstm__conv_layer__conv2d_bwd", Layer = 0 : i64, Location = loc("/usr/local/lib/python3.7/site-packages/torch/nn/modules/conv.py":298:0), MacID = "ptconvlstm__conv_layer__conv2d_bwd"}]>["MLIRWorkaround":32:0, "FakeLocation":64:0])
#loc103 = loc(fused<[{ArcID = 215 : i64, BaseName = "ptconvlstm__conv_layer__conv2d_bwd_accum_buffer_1", Layer = 0 : i64, Location = loc("/usr/local/lib/python3.7/site-packages/torch/nn/modules/conv.py":298:0), MacID = "default_215"}, {ArcID = 148 : i64, BaseName = "ptconvlstm__conv_layer__conv2d_bwd", Layer = 0 : i64, Location = loc("/usr/local/lib/python3.7/site-packages/torch/nn/modules/conv.py":298:0), MacID = "ptconvlstm__conv_layer__conv2d_bwd"}, {ArcID = 52 : i64, BaseName = "ptconvlstm__conv_layer__conv2d_bwd", Layer = 0 : i64, Location = loc("/usr/local/lib/python3.7/site-packages/torch/nn/modules/conv.py":298:0), MacID = "ptconvlstm__conv_layer__conv2d_bwd"}]>["MLIRWorkaround":32:0, "FakeLocation":64:0])
#loc104 = loc(fused<[{ArcID = 261 : i64, Layer = 0 : i64, Location = loc("logreg_ts.py":229:0), MacID = "default_261"}, {ArcID = 217 : i64, Layer = 0 : i64, Location = loc("logreg_ts.py":229:0), MacID = "default_217"}, {ArcID = 121 : i64, BaseName = "ptconvlstm__view_bwd", Layer = 0 : i64, Location = loc("logreg_ts.py":229:0), MacID = "ptconvlstm__view_bwd"}, {ArcID = 16 : i64, BaseName = "ptconvlstm__view_bwd", Layer = 0 : i64, Location = loc("logreg_ts.py":229:0), MacID = "ptconvlstm__view_bwd"}]>["MLIRWorkaround":32:0, "FakeLocation":64:0])
#loc105 = loc(fused<[{ArcID = 218 : i64, Layer = 0 : i64, Location = loc("logreg_ts.py":229:0), MacID = "default_218"}, {ArcID = 121 : i64, BaseName = "ptconvlstm__view_bwd", Layer = 0 : i64, Location = loc("logreg_ts.py":229:0), MacID = "ptconvlstm__view_bwd"}, {ArcID = 16 : i64, BaseName = "ptconvlstm__view_bwd", Layer = 0 : i64, Location = loc("logreg_ts.py":229:0), MacID = "ptconvlstm__view_bwd"}]>["MLIRWorkaround":32:0, "FakeLocation":64:0])
#loc106 = loc(fused<[{ArcID = 328 : i64, BaseName = "ptconvlstm__view_bwd", Layer = 0 : i64, Location = loc("logreg_ts.py":229:0), MacID = "ptconvlstm__view_bwd"}, {ArcID = 219 : i64, BaseName = "ptconvlstm__view_bwd", Layer = 0 : i64, Location = loc("logreg_ts.py":229:0), MacID = "ptconvlstm__view_bwd"}, {ArcID = 121 : i64, BaseName = "ptconvlstm__view_bwd", Layer = 0 : i64, Location = loc("logreg_ts.py":229:0), MacID = "ptconvlstm__view_bwd"}, {ArcID = 16 : i64, BaseName = "ptconvlstm__view_bwd", Layer = 0 : i64, Location = loc("logreg_ts.py":229:0), MacID = "ptconvlstm__view_bwd"}]>["MLIRWorkaround":32:0, "FakeLocation":64:0])
#loc107 = loc(fused<[{ArcID = 262 : i64, Layer = 0 : i64, Location = loc("logreg_ts.py":223:0), MacID = "default_262"}, {ArcID = 220 : i64, Layer = 0 : i64, Location = loc("logreg_ts.py":223:0), MacID = "default_220"}, {ArcID = 123 : i64, BaseName = "ptconvlstm__reshape_1_recompute_", Layer = 0 : i64, Location = loc("logreg_ts.py":223:0), MacID = "ptconvlstm__reshape_1_recompute_"}, {ArcID = 30 : i64, BaseName = "ptconvlstm__reshape_1_recompute_", Layer = 0 : i64, Location = loc("logreg_ts.py":223:0), MacID = "ptconvlstm__reshape_1_recompute_"}]>["MLIRWorkaround":32:0, "FakeLocation":64:0])
#loc108 = loc(fused<[{ArcID = 221 : i64, Layer = 0 : i64, Location = loc("logreg_ts.py":223:0), MacID = "default_221"}, {ArcID = 123 : i64, BaseName = "ptconvlstm__reshape_1_recompute_", Layer = 0 : i64, Location = loc("logreg_ts.py":223:0), MacID = "ptconvlstm__reshape_1_recompute_"}, {ArcID = 30 : i64, BaseName = "ptconvlstm__reshape_1_recompute_", Layer = 0 : i64, Location = loc("logreg_ts.py":223:0), MacID = "ptconvlstm__reshape_1_recompute_"}]>["MLIRWorkaround":32:0, "FakeLocation":64:0])
#loc109 = loc(fused<[{ArcID = 329 : i64, BaseName = "ptconvlstm__reshape_1_recompute_", Layer = 0 : i64, Location = loc("logreg_ts.py":223:0), MacID = "ptconvlstm__reshape_1_recompute_"}, {ArcID = 222 : i64, BaseName = "ptconvlstm__reshape_1_recompute_", Layer = 0 : i64, Location = loc("logreg_ts.py":223:0), MacID = "ptconvlstm__reshape_1_recompute_"}, {ArcID = 123 : i64, BaseName = "ptconvlstm__reshape_1_recompute_", Layer = 0 : i64, Location = loc("logreg_ts.py":223:0), MacID = "ptconvlstm__reshape_1_recompute_"}, {ArcID = 30 : i64, BaseName = "ptconvlstm__reshape_1_recompute_", Layer = 0 : i64, Location = loc("logreg_ts.py":223:0), MacID = "ptconvlstm__reshape_1_recompute_"}]>["MLIRWorkaround":32:0, "FakeLocation":64:0])
#loc110 = loc(fused<[{ArcID = 263 : i64, Layer = 0 : i64, Location = loc("/usr/local/lib/python3.7/site-packages/torch/overrides.py":1355:0), MacID = "default_263"}, {ArcID = 223 : i64, Layer = 0 : i64, Location = loc("/usr/local/lib/python3.7/site-packages/torch/overrides.py":1355:0), MacID = "default_223"}, {ArcID = 125 : i64, BaseName = "ptconvlstm__criterion__mseloss_bwd_sub", Layer = 0 : i64, Location = loc("/usr/local/lib/python3.7/site-packages/torch/overrides.py":1355:0), MacID = "ptconvlstm__criterion__mseloss_bwd"}, {ArcID = 65 : i64, BaseName = "ptconvlstm__criterion__mseloss_bwd_sub", Layer = 0 : i64, Location = loc("/usr/local/lib/python3.7/site-packages/torch/overrides.py":1355:0), MacID = "ptconvlstm__criterion__mseloss_bwd"}, {ArcID = 31 : i64, BaseName = "ptconvlstm__criterion__mseloss_bwd", Layer = 0 : i64, Location = loc("/usr/local/lib/python3.7/site-packages/torch/overrides.py":1355:0), MacID = "ptconvlstm__criterion__mseloss_bwd"}]>["MLIRWorkaround":32:0, "FakeLocation":64:0])
#loc111 = loc(fused<[{ArcID = 224 : i64, Layer = 0 : i64, Location = loc("/usr/local/lib/python3.7/site-packages/torch/overrides.py":1355:0), MacID = "default_224"}, {ArcID = 125 : i64, BaseName = "ptconvlstm__criterion__mseloss_bwd_sub", Layer = 0 : i64, Location = loc("/usr/local/lib/python3.7/site-packages/torch/overrides.py":1355:0), MacID = "ptconvlstm__criterion__mseloss_bwd"}, {ArcID = 65 : i64, BaseName = "ptconvlstm__criterion__mseloss_bwd_sub", Layer = 0 : i64, Location = loc("/usr/local/lib/python3.7/site-packages/torch/overrides.py":1355:0), MacID = "ptconvlstm__criterion__mseloss_bwd"}, {ArcID = 31 : i64, BaseName = "ptconvlstm__criterion__mseloss_bwd", Layer = 0 : i64, Location = loc("/usr/local/lib/python3.7/site-packages/torch/overrides.py":1355:0), MacID = "ptconvlstm__criterion__mseloss_bwd"}]>["MLIRWorkaround":32:0, "FakeLocation":64:0])
#loc112 = loc(fused<[{ArcID = 225 : i64, Layer = 0 : i64, Location = loc("/usr/local/lib/python3.7/site-packages/torch/overrides.py":1355:0), MacID = "default_225"}, {ArcID = 125 : i64, BaseName = "ptconvlstm__criterion__mseloss_bwd_sub", Layer = 0 : i64, Location = loc("/usr/local/lib/python3.7/site-packages/torch/overrides.py":1355:0), MacID = "ptconvlstm__criterion__mseloss_bwd"}, {ArcID = 65 : i64, BaseName = "ptconvlstm__criterion__mseloss_bwd_sub", Layer = 0 : i64, Location = loc("/usr/local/lib/python3.7/site-packages/torch/overrides.py":1355:0), MacID = "ptconvlstm__criterion__mseloss_bwd"}, {ArcID = 31 : i64, BaseName = "ptconvlstm__criterion__mseloss_bwd", Layer = 0 : i64, Location = loc("/usr/local/lib/python3.7/site-packages/torch/overrides.py":1355:0), MacID = "ptconvlstm__criterion__mseloss_bwd"}]>["MLIRWorkaround":32:0, "FakeLocation":64:0])
#loc113 = loc(fused<[{ArcID = 330 : i64, BaseName = "ptconvlstm__criterion__mseloss_bwd_sub", Layer = 0 : i64, Location = loc("/usr/local/lib/python3.7/site-packages/torch/overrides.py":1355:0), MacID = "ptconvlstm__criterion__mseloss_bwd"}, {ArcID = 226 : i64, BaseName = "ptconvlstm__criterion__mseloss_bwd_sub", Layer = 0 : i64, Location = loc("/usr/local/lib/python3.7/site-packages/torch/overrides.py":1355:0), MacID = "ptconvlstm__criterion__mseloss_bwd"}, {ArcID = 125 : i64, BaseName = "ptconvlstm__criterion__mseloss_bwd_sub", Layer = 0 : i64, Location = loc("/usr/local/lib/python3.7/site-packages/torch/overrides.py":1355:0), MacID = "ptconvlstm__criterion__mseloss_bwd"}, {ArcID = 65 : i64, BaseName = "ptconvlstm__criterion__mseloss_bwd_sub", Layer = 0 : i64, Location = loc("/usr/local/lib/python3.7/site-packages/torch/overrides.py":1355:0), MacID = "ptconvlstm__criterion__mseloss_bwd"}, {ArcID = 31 : i64, BaseName = "ptconvlstm__criterion__mseloss_bwd", Layer = 0 : i64, Location = loc("/usr/local/lib/python3.7/site-packages/torch/overrides.py":1355:0), MacID = "ptconvlstm__criterion__mseloss_bwd"}]>["MLIRWorkaround":32:0, "FakeLocation":64:0])
#loc114 = loc(fused<[{ArcID = 331 : i64, BaseName = "", Layer = 0 : i64, Location = loc("/usr/local/lib/python3.7/site-packages/torch/overrides.py":1355:0), MacID = "default_67"}, {ArcID = 227 : i64, BaseName = "", Layer = 0 : i64, Location = loc("/usr/local/lib/python3.7/site-packages/torch/overrides.py":1355:0), MacID = "default_67"}, {ArcID = 126 : i64, BaseName = "", Layer = 0 : i64, Location = loc("/usr/local/lib/python3.7/site-packages/torch/overrides.py":1355:0), MacID = "default_67"}, {ArcID = 67 : i64, Layer = 0 : i64, Location = loc("/usr/local/lib/python3.7/site-packages/torch/overrides.py":1355:0), MacID = "default_67"}, {ArcID = 31 : i64, BaseName = "ptconvlstm__criterion__mseloss_bwd", Layer = 0 : i64, Location = loc("/usr/local/lib/python3.7/site-packages/torch/overrides.py":1355:0), MacID = "ptconvlstm__criterion__mseloss_bwd"}]>["MLIRWorkaround":32:0, "FakeLocation":64:0])
#loc115 = loc(fused<[{ArcID = 332 : i64, BaseName = "", Layer = 0 : i64, Location = loc("/usr/local/lib/python3.7/site-packages/torch/overrides.py":1355:0), MacID = "default_68"}, {ArcID = 228 : i64, BaseName = "", Layer = 0 : i64, Location = loc("/usr/local/lib/python3.7/site-packages/torch/overrides.py":1355:0), MacID = "default_68"}, {ArcID = 128 : i64, BaseName = "", Layer = 0 : i64, Location = loc("/usr/local/lib/python3.7/site-packages/torch/overrides.py":1355:0), MacID = "default_68"}, {ArcID = 68 : i64, Layer = 0 : i64, Location = loc("/usr/local/lib/python3.7/site-packages/torch/overrides.py":1355:0), MacID = "default_68"}, {ArcID = 31 : i64, BaseName = "ptconvlstm__criterion__mseloss_bwd", Layer = 0 : i64, Location = loc("/usr/local/lib/python3.7/site-packages/torch/overrides.py":1355:0), MacID = "ptconvlstm__criterion__mseloss_bwd"}]>["MLIRWorkaround":32:0, "FakeLocation":64:0])
#loc116 = loc(fused<[{ArcID = 229 : i64, Layer = 0 : i64, Location = loc("logreg_ts.py":222:0), MacID = "default_229"}, {ArcID = 129 : i64, BaseName = "ptconvlstm__reshape_bwd", Layer = 0 : i64, Location = loc("logreg_ts.py":222:0), MacID = "ptconvlstm__reshape_bwd"}, {ArcID = 34 : i64, BaseName = "ptconvlstm__reshape_bwd", Layer = 0 : i64, Location = loc("logreg_ts.py":222:0), MacID = "ptconvlstm__reshape_bwd"}]>["MLIRWorkaround":32:0, "FakeLocation":64:0])
#loc117 = loc(fused<[{ArcID = 333 : i64, BaseName = "ptconvlstm__reshape_bwd", Layer = 0 : i64, Location = loc("logreg_ts.py":222:0), MacID = "ptconvlstm__reshape_bwd"}, {ArcID = 230 : i64, BaseName = "ptconvlstm__reshape_bwd", Layer = 0 : i64, Location = loc("logreg_ts.py":222:0), MacID = "ptconvlstm__reshape_bwd"}, {ArcID = 129 : i64, BaseName = "ptconvlstm__reshape_bwd", Layer = 0 : i64, Location = loc("logreg_ts.py":222:0), MacID = "ptconvlstm__reshape_bwd"}, {ArcID = 34 : i64, BaseName = "ptconvlstm__reshape_bwd", Layer = 0 : i64, Location = loc("logreg_ts.py":222:0), MacID = "ptconvlstm__reshape_bwd"}]>["MLIRWorkaround":32:0, "FakeLocation":64:0])
#loc118 = loc(fused<[{ArcID = 231 : i64, Layer = 0 : i64, Location = loc("/usr/local/lib/python3.7/site-packages/torch/overrides.py":1355:0), MacID = "default_231"}, {ArcID = 130 : i64, BaseName = "ptconvlstm__dense_layer__linear_t_output0_bwd_addn0", Layer = 0 : i64, Location = loc("/usr/local/lib/python3.7/site-packages/torch/overrides.py":1355:0), MacID = "ptconvlstm__dense_layer__linear_t_output0_bwd_addn0"}, {ArcID = 35 : i64, BaseName = "ptconvlstm__dense_layer__linear_t_output0_bwd_addn0", Layer = 0 : i64, Location = loc("/usr/local/lib/python3.7/site-packages/torch/overrides.py":1355:0), MacID = "ptconvlstm__dense_layer__linear_t_output0_bwd_addn0"}]>["MLIRWorkaround":32:0, "FakeLocation":64:0])
#loc119 = loc(fused<[{ArcID = 232 : i64, Layer = 0 : i64, Location = loc("/usr/local/lib/python3.7/site-packages/torch/overrides.py":1355:0), MacID = "default_232"}, {ArcID = 130 : i64, BaseName = "ptconvlstm__dense_layer__linear_t_output0_bwd_addn0", Layer = 0 : i64, Location = loc("/usr/local/lib/python3.7/site-packages/torch/overrides.py":1355:0), MacID = "ptconvlstm__dense_layer__linear_t_output0_bwd_addn0"}, {ArcID = 35 : i64, BaseName = "ptconvlstm__dense_layer__linear_t_output0_bwd_addn0", Layer = 0 : i64, Location = loc("/usr/local/lib/python3.7/site-packages/torch/overrides.py":1355:0), MacID = "ptconvlstm__dense_layer__linear_t_output0_bwd_addn0"}]>["MLIRWorkaround":32:0, "FakeLocation":64:0])
#loc120 = loc(fused<[{ArcID = 334 : i64, BaseName = "ptconvlstm__dense_layer__linear_t_output0_bwd_addn0", Layer = 0 : i64, Location = loc("/usr/local/lib/python3.7/site-packages/torch/overrides.py":1355:0), MacID = "ptconvlstm__dense_layer__linear_t_output0_bwd_addn0"}, {ArcID = 233 : i64, BaseName = "ptconvlstm__dense_layer__linear_t_output0_bwd_addn0", Layer = 0 : i64, Location = loc("/usr/local/lib/python3.7/site-packages/torch/overrides.py":1355:0), MacID = "ptconvlstm__dense_layer__linear_t_output0_bwd_addn0"}, {ArcID = 130 : i64, BaseName = "ptconvlstm__dense_layer__linear_t_output0_bwd_addn0", Layer = 0 : i64, Location = loc("/usr/local/lib/python3.7/site-packages/torch/overrides.py":1355:0), MacID = "ptconvlstm__dense_layer__linear_t_output0_bwd_addn0"}, {ArcID = 35 : i64, BaseName = "ptconvlstm__dense_layer__linear_t_output0_bwd_addn0", Layer = 0 : i64, Location = loc("/usr/local/lib/python3.7/site-packages/torch/overrides.py":1355:0), MacID = "ptconvlstm__dense_layer__linear_t_output0_bwd_addn0"}]>["MLIRWorkaround":32:0, "FakeLocation":64:0])
#loc121 = loc(fused<[{ArcID = 234 : i64, Layer = 0 : i64, Location = loc("/usr/local/lib/python3.7/site-packages/torch/overrides.py":1355:0), MacID = "default_234"}, {ArcID = 131 : i64, BaseName = "ptconvlstm__dense_layer__linear_t_output0_bwd", Layer = 0 : i64, Location = loc("/usr/local/lib/python3.7/site-packages/torch/overrides.py":1355:0), MacID = "ptconvlstm__dense_layer__linear_t_output0_bwd"}, {ArcID = 36 : i64, BaseName = "ptconvlstm__dense_layer__linear_t_output0_bwd", Layer = 0 : i64, Location = loc("/usr/local/lib/python3.7/site-packages/torch/overrides.py":1355:0), MacID = "ptconvlstm__dense_layer__linear_t_output0_bwd"}]>["MLIRWorkaround":32:0, "FakeLocation":64:0])
#loc122 = loc(fused<[{ArcID = 335 : i64, BaseName = "ptconvlstm__dense_layer__linear_t_output0_bwd", Layer = 0 : i64, Location = loc("/usr/local/lib/python3.7/site-packages/torch/overrides.py":1355:0), MacID = "ptconvlstm__dense_layer__linear_t_output0_bwd"}, {ArcID = 235 : i64, BaseName = "ptconvlstm__dense_layer__linear_t_output0_bwd", Layer = 0 : i64, Location = loc("/usr/local/lib/python3.7/site-packages/torch/overrides.py":1355:0), MacID = "ptconvlstm__dense_layer__linear_t_output0_bwd"}, {ArcID = 131 : i64, BaseName = "ptconvlstm__dense_layer__linear_t_output0_bwd", Layer = 0 : i64, Location = loc("/usr/local/lib/python3.7/site-packages/torch/overrides.py":1355:0), MacID = "ptconvlstm__dense_layer__linear_t_output0_bwd"}, {ArcID = 36 : i64, BaseName = "ptconvlstm__dense_layer__linear_t_output0_bwd", Layer = 0 : i64, Location = loc("/usr/local/lib/python3.7/site-packages/torch/overrides.py":1355:0), MacID = "ptconvlstm__dense_layer__linear_t_output0_bwd"}]>["MLIRWorkaround":32:0, "FakeLocation":64:0])
#loc123 = loc(fused<[{ArcID = 236 : i64, Layer = 0 : i64, Location = loc("/usr/local/lib/python3.7/site-packages/torch/overrides.py":1355:0), MacID = "default_236"}, {ArcID = 133 : i64, BaseName = "ptconvlstm__dense_layer__linear_bwd_loss", Layer = 0 : i64, Location = loc("/usr/local/lib/python3.7/site-packages/torch/overrides.py":1355:0), MacID = "ptconvlstm__dense_layer__linear_bwd_loss"}, {ArcID = 37 : i64, BaseName = "ptconvlstm__dense_layer__linear_bwd_loss", Layer = 0 : i64, Location = loc("/usr/local/lib/python3.7/site-packages/torch/overrides.py":1355:0), MacID = "ptconvlstm__dense_layer__linear_bwd_loss"}]>["MLIRWorkaround":32:0, "FakeLocation":64:0])
#loc124 = loc(fused<[{ArcID = 336 : i64, Layer = 0 : i64, Location = loc("software/compiler/mac/src/pybind/py_air.cpp":1531:0), MacID = "default_132"}, {ArcID = 5 : i64, BaseName = "ptconvlstm__dense_layer__weight", Layer = 0 : i64, Location = loc("software/compiler/mac/src/pybind/py_air.cpp":1531:0), MacID = "ptconvlstm__dense_layer__weight"}]>["MLIRWorkaround":32:0, "FakeLocation":64:0])
#loc125 = loc(fused<[{ArcID = 337 : i64, Layer = 0 : i64, Location = loc("/usr/local/lib/python3.7/site-packages/torch/overrides.py":1355:0), MacID = "ptconvlstm__dense_layer__linear_bwd_loss"}, {ArcID = 237 : i64, BaseName = "ptconvlstm__dense_layer__linear_bwd_loss", Layer = 0 : i64, Location = loc("/usr/local/lib/python3.7/site-packages/torch/overrides.py":1355:0), MacID = "ptconvlstm__dense_layer__linear_bwd_loss"}, {ArcID = 133 : i64, BaseName = "ptconvlstm__dense_layer__linear_bwd_loss", Layer = 0 : i64, Location = loc("/usr/local/lib/python3.7/site-packages/torch/overrides.py":1355:0), MacID = "ptconvlstm__dense_layer__linear_bwd_loss"}, {ArcID = 37 : i64, BaseName = "ptconvlstm__dense_layer__linear_bwd_loss", Layer = 0 : i64, Location = loc("/usr/local/lib/python3.7/site-packages/torch/overrides.py":1355:0), MacID = "ptconvlstm__dense_layer__linear_bwd_loss"}]>["MLIRWorkaround":32:0, "FakeLocation":64:0])
#loc126 = loc(fused<[{ArcID = 338 : i64, BaseName = "ptconvlstm__dense_layer__linear_bwd_loss_grad_b", Layer = 0 : i64, Location = loc("/usr/local/lib/python3.7/site-packages/torch/overrides.py":1355:0), MacID = "ptconvlstm__dense_layer__linear_bwd_loss"}, {ArcID = 237 : i64, BaseName = "ptconvlstm__dense_layer__linear_bwd_loss", Layer = 0 : i64, Location = loc("/usr/local/lib/python3.7/site-packages/torch/overrides.py":1355:0), MacID = "ptconvlstm__dense_layer__linear_bwd_loss"}, {ArcID = 133 : i64, BaseName = "ptconvlstm__dense_layer__linear_bwd_loss", Layer = 0 : i64, Location = loc("/usr/local/lib/python3.7/site-packages/torch/overrides.py":1355:0), MacID = "ptconvlstm__dense_layer__linear_bwd_loss"}, {ArcID = 37 : i64, BaseName = "ptconvlstm__dense_layer__linear_bwd_loss", Layer = 0 : i64, Location = loc("/usr/local/lib/python3.7/site-packages/torch/overrides.py":1355:0), MacID = "ptconvlstm__dense_layer__linear_bwd_loss"}]>["MLIRWorkaround":32:0, "FakeLocation":64:0])
#loc127 = loc(fused<[{ArcID = 264 : i64, Layer = 0 : i64, Location = loc("/usr/local/lib/python3.7/site-packages/torch/overrides.py":1355:0), MacID = "default_264"}, {ArcID = 238 : i64, Layer = 0 : i64, Location = loc("/usr/local/lib/python3.7/site-packages/torch/overrides.py":1355:0), MacID = "default_238"}, {ArcID = 135 : i64, BaseName = "ptconvlstm__dense_layer__linear_bwd_weight", Layer = 0 : i64, Location = loc("/usr/local/lib/python3.7/site-packages/torch/overrides.py":1355:0), MacID = "ptconvlstm__dense_layer__linear_bwd_weight"}, {ArcID = 38 : i64, BaseName = "ptconvlstm__dense_layer__linear_bwd_weight", Layer = 0 : i64, Location = loc("/usr/local/lib/python3.7/site-packages/torch/overrides.py":1355:0), MacID = "ptconvlstm__dense_layer__linear_bwd_weight"}]>["MLIRWorkaround":32:0, "FakeLocation":64:0])
#loc128 = loc(fused<[{ArcID = 239 : i64, Layer = 0 : i64, Location = loc("/usr/local/lib/python3.7/site-packages/torch/overrides.py":1355:0), MacID = "default_239"}, {ArcID = 135 : i64, BaseName = "ptconvlstm__dense_layer__linear_bwd_weight", Layer = 0 : i64, Location = loc("/usr/local/lib/python3.7/site-packages/torch/overrides.py":1355:0), MacID = "ptconvlstm__dense_layer__linear_bwd_weight"}, {ArcID = 38 : i64, BaseName = "ptconvlstm__dense_layer__linear_bwd_weight", Layer = 0 : i64, Location = loc("/usr/local/lib/python3.7/site-packages/torch/overrides.py":1355:0), MacID = "ptconvlstm__dense_layer__linear_bwd_weight"}]>["MLIRWorkaround":32:0, "FakeLocation":64:0])
#loc129 = loc(fused<[{ArcID = 240 : i64, Layer = 0 : i64, Location = loc("/usr/local/lib/python3.7/site-packages/torch/overrides.py":1355:0), MacID = "default_240"}, {ArcID = 135 : i64, BaseName = "ptconvlstm__dense_layer__linear_bwd_weight", Layer = 0 : i64, Location = loc("/usr/local/lib/python3.7/site-packages/torch/overrides.py":1355:0), MacID = "ptconvlstm__dense_layer__linear_bwd_weight"}, {ArcID = 38 : i64, BaseName = "ptconvlstm__dense_layer__linear_bwd_weight", Layer = 0 : i64, Location = loc("/usr/local/lib/python3.7/site-packages/torch/overrides.py":1355:0), MacID = "ptconvlstm__dense_layer__linear_bwd_weight"}]>["MLIRWorkaround":32:0, "FakeLocation":64:0])
#loc130 = loc(fused<[{ArcID = 339 : i64, Layer = 0 : i64, Location = loc("/usr/local/lib/python3.7/site-packages/torch/overrides.py":1355:0), MacID = "ptconvlstm__dense_layer__linear_bwd_weight"}, {ArcID = 241 : i64, BaseName = "ptconvlstm__dense_layer__linear_bwd_weight", Layer = 0 : i64, Location = loc("/usr/local/lib/python3.7/site-packages/torch/overrides.py":1355:0), MacID = "ptconvlstm__dense_layer__linear_bwd_weight"}, {ArcID = 135 : i64, BaseName = "ptconvlstm__dense_layer__linear_bwd_weight", Layer = 0 : i64, Location = loc("/usr/local/lib/python3.7/site-packages/torch/overrides.py":1355:0), MacID = "ptconvlstm__dense_layer__linear_bwd_weight"}, {ArcID = 38 : i64, BaseName = "ptconvlstm__dense_layer__linear_bwd_weight", Layer = 0 : i64, Location = loc("/usr/local/lib/python3.7/site-packages/torch/overrides.py":1355:0), MacID = "ptconvlstm__dense_layer__linear_bwd_weight"}]>["MLIRWorkaround":32:0, "FakeLocation":64:0])
#loc131 = loc(fused<[{ArcID = 340 : i64, BaseName = "ptconvlstm__dense_layer__linear_bwd_weight_grad_a", Layer = 0 : i64, Location = loc("/usr/local/lib/python3.7/site-packages/torch/overrides.py":1355:0), MacID = "ptconvlstm__dense_layer__linear_bwd_weight"}, {ArcID = 241 : i64, BaseName = "ptconvlstm__dense_layer__linear_bwd_weight", Layer = 0 : i64, Location = loc("/usr/local/lib/python3.7/site-packages/torch/overrides.py":1355:0), MacID = "ptconvlstm__dense_layer__linear_bwd_weight"}, {ArcID = 135 : i64, BaseName = "ptconvlstm__dense_layer__linear_bwd_weight", Layer = 0 : i64, Location = loc("/usr/local/lib/python3.7/site-packages/torch/overrides.py":1355:0), MacID = "ptconvlstm__dense_layer__linear_bwd_weight"}, {ArcID = 38 : i64, BaseName = "ptconvlstm__dense_layer__linear_bwd_weight", Layer = 0 : i64, Location = loc("/usr/local/lib/python3.7/site-packages/torch/overrides.py":1355:0), MacID = "ptconvlstm__dense_layer__linear_bwd_weight"}]>["MLIRWorkaround":32:0, "FakeLocation":64:0])
#loc132 = loc(fused<[{ArcID = 242 : i64, Layer = 0 : i64, Location = loc("/usr/local/lib/python3.7/site-packages/torch/nn/modules/conv.py":298:0), MacID = "default_242"}, {ArcID = 138 : i64, BaseName = "ptconvlstm__conv_layer__reshape_2_bwd", Layer = 0 : i64, Location = loc("/usr/local/lib/python3.7/site-packages/torch/nn/modules/conv.py":298:0), MacID = "ptconvlstm__conv_layer__reshape_2_bwd"}, {ArcID = 45 : i64, BaseName = "ptconvlstm__conv_layer__reshape_2_bwd", Layer = 0 : i64, Location = loc("/usr/local/lib/python3.7/site-packages/torch/nn/modules/conv.py":298:0), MacID = "ptconvlstm__conv_layer__reshape_2_bwd"}]>["MLIRWorkaround":32:0, "FakeLocation":64:0])
#loc133 = loc(fused<[{ArcID = 341 : i64, BaseName = "ptconvlstm__conv_layer__reshape_2_bwd", Layer = 0 : i64, Location = loc("/usr/local/lib/python3.7/site-packages/torch/nn/modules/conv.py":298:0), MacID = "ptconvlstm__conv_layer__reshape_2_bwd"}, {ArcID = 243 : i64, BaseName = "ptconvlstm__conv_layer__reshape_2_bwd", Layer = 0 : i64, Location = loc("/usr/local/lib/python3.7/site-packages/torch/nn/modules/conv.py":298:0), MacID = "ptconvlstm__conv_layer__reshape_2_bwd"}, {ArcID = 138 : i64, BaseName = "ptconvlstm__conv_layer__reshape_2_bwd", Layer = 0 : i64, Location = loc("/usr/local/lib/python3.7/site-packages/torch/nn/modules/conv.py":298:0), MacID = "ptconvlstm__conv_layer__reshape_2_bwd"}, {ArcID = 45 : i64, BaseName = "ptconvlstm__conv_layer__reshape_2_bwd", Layer = 0 : i64, Location = loc("/usr/local/lib/python3.7/site-packages/torch/nn/modules/conv.py":298:0), MacID = "ptconvlstm__conv_layer__reshape_2_bwd"}]>["MLIRWorkaround":32:0, "FakeLocation":64:0])
#loc134 = loc(fused<[{ArcID = 265 : i64, Layer = 0 : i64, Location = loc("logreg_ts.py":194:0), MacID = "default_265"}, {ArcID = 244 : i64, Layer = 0 : i64, Location = loc("logreg_ts.py":194:0), MacID = "default_244"}, {ArcID = 141 : i64, BaseName = "ptconvlstm__lambda_layer__indexselect_recompute_", Layer = 0 : i64, Location = loc("logreg_ts.py":194:0), MacID = "ptconvlstm__lambda_layer__indexselect_recompute_"}, {ArcID = 46 : i64, BaseName = "ptconvlstm__lambda_layer__indexselect_recompute_", Layer = 0 : i64, Location = loc("logreg_ts.py":194:0), MacID = "ptconvlstm__lambda_layer__indexselect_recompute_"}]>["MLIRWorkaround":32:0, "FakeLocation":64:0])
#loc135 = loc(fused<[{ArcID = 245 : i64, Layer = 0 : i64, Location = loc("logreg_ts.py":194:0), MacID = "default_245"}, {ArcID = 141 : i64, BaseName = "ptconvlstm__lambda_layer__indexselect_recompute_", Layer = 0 : i64, Location = loc("logreg_ts.py":194:0), MacID = "ptconvlstm__lambda_layer__indexselect_recompute_"}, {ArcID = 46 : i64, BaseName = "ptconvlstm__lambda_layer__indexselect_recompute_", Layer = 0 : i64, Location = loc("logreg_ts.py":194:0), MacID = "ptconvlstm__lambda_layer__indexselect_recompute_"}]>["MLIRWorkaround":32:0, "FakeLocation":64:0])
#loc136 = loc(fused<[{ArcID = 246 : i64, Layer = 0 : i64, Location = loc("logreg_ts.py":194:0), MacID = "default_246"}, {ArcID = 141 : i64, BaseName = "ptconvlstm__lambda_layer__indexselect_recompute_", Layer = 0 : i64, Location = loc("logreg_ts.py":194:0), MacID = "ptconvlstm__lambda_layer__indexselect_recompute_"}, {ArcID = 46 : i64, BaseName = "ptconvlstm__lambda_layer__indexselect_recompute_", Layer = 0 : i64, Location = loc("logreg_ts.py":194:0), MacID = "ptconvlstm__lambda_layer__indexselect_recompute_"}]>["MLIRWorkaround":32:0, "FakeLocation":64:0])
#loc137 = loc(fused<[{ArcID = 342 : i64, BaseName = "ptconvlstm__lambda_layer__indexselect_recompute_", Layer = 0 : i64, Location = loc("logreg_ts.py":194:0), MacID = "ptconvlstm__lambda_layer__indexselect_recompute_"}, {ArcID = 247 : i64, BaseName = "ptconvlstm__lambda_layer__indexselect_recompute_", Layer = 0 : i64, Location = loc("logreg_ts.py":194:0), MacID = "ptconvlstm__lambda_layer__indexselect_recompute_"}, {ArcID = 141 : i64, BaseName = "ptconvlstm__lambda_layer__indexselect_recompute_", Layer = 0 : i64, Location = loc("logreg_ts.py":194:0), MacID = "ptconvlstm__lambda_layer__indexselect_recompute_"}, {ArcID = 46 : i64, BaseName = "ptconvlstm__lambda_layer__indexselect_recompute_", Layer = 0 : i64, Location = loc("logreg_ts.py":194:0), MacID = "ptconvlstm__lambda_layer__indexselect_recompute_"}]>["MLIRWorkaround":32:0, "FakeLocation":64:0])
#loc138 = loc(fused<[{ArcID = 248 : i64, Layer = 0 : i64, Location = loc("logreg_ts.py":215:0), MacID = "default_248"}, {ArcID = 144 : i64, BaseName = "ptconvlstm__permute_recompute_", Layer = 0 : i64, Location = loc("logreg_ts.py":215:0), MacID = "ptconvlstm__permute_recompute_"}, {ArcID = 48 : i64, BaseName = "ptconvlstm__permute_recompute_", Layer = 0 : i64, Location = loc("logreg_ts.py":215:0), MacID = "ptconvlstm__permute_recompute_"}]>["MLIRWorkaround":32:0, "FakeLocation":64:0])
#loc139 = loc(fused<[{ArcID = 377 : i64, BaseName = "ptconvlstm__permute_recompute_", Layer = 0 : i64, Location = loc("logreg_ts.py":215:0), MacID = "ptconvlstm__permute_recompute_"}, {ArcID = 343 : i64, BaseName = "ptconvlstm__permute_recompute_", Layer = 0 : i64, Location = loc("logreg_ts.py":215:0), MacID = "ptconvlstm__permute_recompute_"}, {ArcID = 249 : i64, BaseName = "ptconvlstm__permute_recompute_", Layer = 0 : i64, Location = loc("logreg_ts.py":215:0), MacID = "ptconvlstm__permute_recompute_"}, {ArcID = 144 : i64, BaseName = "ptconvlstm__permute_recompute_", Layer = 0 : i64, Location = loc("logreg_ts.py":215:0), MacID = "ptconvlstm__permute_recompute_"}, {ArcID = 48 : i64, BaseName = "ptconvlstm__permute_recompute_", Layer = 0 : i64, Location = loc("logreg_ts.py":215:0), MacID = "ptconvlstm__permute_recompute_"}]>["MLIRWorkaround":32:0, "FakeLocation":64:0])
#loc140 = loc(fused<[{ArcID = 250 : i64, Layer = 0 : i64, Location = loc("/usr/local/lib/python3.7/site-packages/torch/nn/modules/conv.py":298:0), MacID = "default_250"}, {ArcID = 146 : i64, BaseName = "ptconvlstm__conv_layer__reshape_recompute_", Layer = 0 : i64, Location = loc("/usr/local/lib/python3.7/site-packages/torch/nn/modules/conv.py":298:0), MacID = "ptconvlstm__conv_layer__reshape_recompute_"}, {ArcID = 50 : i64, BaseName = "ptconvlstm__conv_layer__reshape_recompute_", Layer = 0 : i64, Location = loc("/usr/local/lib/python3.7/site-packages/torch/nn/modules/conv.py":298:0), MacID = "ptconvlstm__conv_layer__reshape_recompute_"}]>["MLIRWorkaround":32:0, "FakeLocation":64:0])
#loc141 = loc(fused<[{ArcID = 344 : i64, BaseName = "ptconvlstm__conv_layer__reshape_recompute_", Layer = 0 : i64, Location = loc("/usr/local/lib/python3.7/site-packages/torch/nn/modules/conv.py":298:0), MacID = "ptconvlstm__conv_layer__reshape_recompute_"}, {ArcID = 251 : i64, BaseName = "ptconvlstm__conv_layer__reshape_recompute_", Layer = 0 : i64, Location = loc("/usr/local/lib/python3.7/site-packages/torch/nn/modules/conv.py":298:0), MacID = "ptconvlstm__conv_layer__reshape_recompute_"}, {ArcID = 146 : i64, BaseName = "ptconvlstm__conv_layer__reshape_recompute_", Layer = 0 : i64, Location = loc("/usr/local/lib/python3.7/site-packages/torch/nn/modules/conv.py":298:0), MacID = "ptconvlstm__conv_layer__reshape_recompute_"}, {ArcID = 50 : i64, BaseName = "ptconvlstm__conv_layer__reshape_recompute_", Layer = 0 : i64, Location = loc("/usr/local/lib/python3.7/site-packages/torch/nn/modules/conv.py":298:0), MacID = "ptconvlstm__conv_layer__reshape_recompute_"}]>["MLIRWorkaround":32:0, "FakeLocation":64:0])
#loc142 = loc(fused<[{ArcID = 252 : i64, Layer = 0 : i64, Location = loc("/usr/local/lib/python3.7/site-packages/torch/nn/modules/conv.py":298:0), MacID = "default_252"}, {ArcID = 148 : i64, BaseName = "ptconvlstm__conv_layer__conv2d_bwd", Layer = 0 : i64, Location = loc("/usr/local/lib/python3.7/site-packages/torch/nn/modules/conv.py":298:0), MacID = "ptconvlstm__conv_layer__conv2d_bwd"}, {ArcID = 52 : i64, BaseName = "ptconvlstm__conv_layer__conv2d_bwd", Layer = 0 : i64, Location = loc("/usr/local/lib/python3.7/site-packages/torch/nn/modules/conv.py":298:0), MacID = "ptconvlstm__conv_layer__conv2d_bwd"}]>["MLIRWorkaround":32:0, "FakeLocation":64:0])
#loc143 = loc(fused<[{ArcID = 253 : i64, Layer = 0 : i64, Location = loc("/usr/local/lib/python3.7/site-packages/torch/nn/modules/conv.py":298:0), MacID = "default_253"}, {ArcID = 148 : i64, BaseName = "ptconvlstm__conv_layer__conv2d_bwd", Layer = 0 : i64, Location = loc("/usr/local/lib/python3.7/site-packages/torch/nn/modules/conv.py":298:0), MacID = "ptconvlstm__conv_layer__conv2d_bwd"}, {ArcID = 52 : i64, BaseName = "ptconvlstm__conv_layer__conv2d_bwd", Layer = 0 : i64, Location = loc("/usr/local/lib/python3.7/site-packages/torch/nn/modules/conv.py":298:0), MacID = "ptconvlstm__conv_layer__conv2d_bwd"}]>["MLIRWorkaround":32:0, "FakeLocation":64:0])
#loc144 = loc(fused<[{ArcID = 357 : i64, Layer = 0 : i64, Location = loc("software/arc/src/lib/templates/ConvGradIm2Col.cpp":1019:0), MacID = "ptconvlstm__conv_layer__conv2d_bwd"}, {ArcID = 254 : i64, BaseName = "ptconvlstm__conv_layer__conv2d_bwd", Layer = 0 : i64, Location = loc("/usr/local/lib/python3.7/site-packages/torch/nn/modules/conv.py":298:0), MacID = "ptconvlstm__conv_layer__conv2d_bwd"}, {ArcID = 148 : i64, BaseName = "ptconvlstm__conv_layer__conv2d_bwd", Layer = 0 : i64, Location = loc("/usr/local/lib/python3.7/site-packages/torch/nn/modules/conv.py":298:0), MacID = "ptconvlstm__conv_layer__conv2d_bwd"}, {ArcID = 52 : i64, BaseName = "ptconvlstm__conv_layer__conv2d_bwd", Layer = 0 : i64, Location = loc("/usr/local/lib/python3.7/site-packages/torch/nn/modules/conv.py":298:0), MacID = "ptconvlstm__conv_layer__conv2d_bwd"}]>["MLIRWorkaround":32:0, "FakeLocation":64:0])
#loc145 = loc(fused<[{ArcID = 358 : i64, Layer = 0 : i64, Location = loc("software/arc/src/lib/templates/ConvGradIm2Col.cpp":1071:0), MacID = "ptconvlstm__conv_layer__conv2d_bwd"}, {ArcID = 254 : i64, BaseName = "ptconvlstm__conv_layer__conv2d_bwd", Layer = 0 : i64, Location = loc("/usr/local/lib/python3.7/site-packages/torch/nn/modules/conv.py":298:0), MacID = "ptconvlstm__conv_layer__conv2d_bwd"}, {ArcID = 148 : i64, BaseName = "ptconvlstm__conv_layer__conv2d_bwd", Layer = 0 : i64, Location = loc("/usr/local/lib/python3.7/site-packages/torch/nn/modules/conv.py":298:0), MacID = "ptconvlstm__conv_layer__conv2d_bwd"}, {ArcID = 52 : i64, BaseName = "ptconvlstm__conv_layer__conv2d_bwd", Layer = 0 : i64, Location = loc("/usr/local/lib/python3.7/site-packages/torch/nn/modules/conv.py":298:0), MacID = "ptconvlstm__conv_layer__conv2d_bwd"}]>["MLIRWorkaround":32:0, "FakeLocation":64:0])
#loc146 = loc(fused<[{ArcID = 359 : i64, BaseName = "ptconvlstm__conv_layer__conv2d_bwd_conv_grad_stream0_kernel0__gather_list", Layer = 0 : i64, Location = loc("software/arc/src/lib/templates/ConvGradIm2Col.cpp":418:0), MacID = "ptconvlstm__conv_layer__conv2d_bwd"}, {ArcID = 254 : i64, BaseName = "ptconvlstm__conv_layer__conv2d_bwd", Layer = 0 : i64, Location = loc("/usr/local/lib/python3.7/site-packages/torch/nn/modules/conv.py":298:0), MacID = "ptconvlstm__conv_layer__conv2d_bwd"}, {ArcID = 148 : i64, BaseName = "ptconvlstm__conv_layer__conv2d_bwd", Layer = 0 : i64, Location = loc("/usr/local/lib/python3.7/site-packages/torch/nn/modules/conv.py":298:0), MacID = "ptconvlstm__conv_layer__conv2d_bwd"}, {ArcID = 52 : i64, BaseName = "ptconvlstm__conv_layer__conv2d_bwd", Layer = 0 : i64, Location = loc("/usr/local/lib/python3.7/site-packages/torch/nn/modules/conv.py":298:0), MacID = "ptconvlstm__conv_layer__conv2d_bwd"}]>["MLIRWorkaround":32:0, "FakeLocation":64:0])
#loc147 = loc(fused<[{ArcID = 360 : i64, Layer = 0 : i64, Location = loc("software/arc/src/lib/templates/ConvGradIm2Col.cpp":418:0), MacID = "ptconvlstm__conv_layer__conv2d_bwd"}, {ArcID = 254 : i64, BaseName = "ptconvlstm__conv_layer__conv2d_bwd", Layer = 0 : i64, Location = loc("/usr/local/lib/python3.7/site-packages/torch/nn/modules/conv.py":298:0), MacID = "ptconvlstm__conv_layer__conv2d_bwd"}, {ArcID = 148 : i64, BaseName = "ptconvlstm__conv_layer__conv2d_bwd", Layer = 0 : i64, Location = loc("/usr/local/lib/python3.7/site-packages/torch/nn/modules/conv.py":298:0), MacID = "ptconvlstm__conv_layer__conv2d_bwd"}, {ArcID = 52 : i64, BaseName = "ptconvlstm__conv_layer__conv2d_bwd", Layer = 0 : i64, Location = loc("/usr/local/lib/python3.7/site-packages/torch/nn/modules/conv.py":298:0), MacID = "ptconvlstm__conv_layer__conv2d_bwd"}]>["MLIRWorkaround":32:0, "FakeLocation":64:0])
#loc148 = loc(fused<[{ArcID = 361 : i64, Layer = 0 : i64, Location = loc("software/arc/src/lib/templates/ConvGradIm2Col.cpp":468:0), MacID = "ptconvlstm__conv_layer__conv2d_bwd"}, {ArcID = 254 : i64, BaseName = "ptconvlstm__conv_layer__conv2d_bwd", Layer = 0 : i64, Location = loc("/usr/local/lib/python3.7/site-packages/torch/nn/modules/conv.py":298:0), MacID = "ptconvlstm__conv_layer__conv2d_bwd"}, {ArcID = 148 : i64, BaseName = "ptconvlstm__conv_layer__conv2d_bwd", Layer = 0 : i64, Location = loc("/usr/local/lib/python3.7/site-packages/torch/nn/modules/conv.py":298:0), MacID = "ptconvlstm__conv_layer__conv2d_bwd"}, {ArcID = 52 : i64, BaseName = "ptconvlstm__conv_layer__conv2d_bwd", Layer = 0 : i64, Location = loc("/usr/local/lib/python3.7/site-packages/torch/nn/modules/conv.py":298:0), MacID = "ptconvlstm__conv_layer__conv2d_bwd"}]>["MLIRWorkaround":32:0, "FakeLocation":64:0])
#loc149 = loc(fused<[{ArcID = 362 : i64, Layer = 0 : i64, Location = loc("software/arc/src/lib/templates/BigLinearExternalColPar.cpp":40:0), MacID = "ptconvlstm__conv_layer__conv2d_bwd"}, {ArcID = 254 : i64, BaseName = "ptconvlstm__conv_layer__conv2d_bwd", Layer = 0 : i64, Location = loc("/usr/local/lib/python3.7/site-packages/torch/nn/modules/conv.py":298:0), MacID = "ptconvlstm__conv_layer__conv2d_bwd"}, {ArcID = 148 : i64, BaseName = "ptconvlstm__conv_layer__conv2d_bwd", Layer = 0 : i64, Location = loc("/usr/local/lib/python3.7/site-packages/torch/nn/modules/conv.py":298:0), MacID = "ptconvlstm__conv_layer__conv2d_bwd"}, {ArcID = 52 : i64, BaseName = "ptconvlstm__conv_layer__conv2d_bwd", Layer = 0 : i64, Location = loc("/usr/local/lib/python3.7/site-packages/torch/nn/modules/conv.py":298:0), MacID = "ptconvlstm__conv_layer__conv2d_bwd"}]>["MLIRWorkaround":32:0, "FakeLocation":64:0])
#loc150 = loc(fused<[{ArcID = 363 : i64, Layer = 0 : i64, Location = loc("software/arc/src/lib/templates/BigLinearExternalColPar.cpp":80:0), MacID = "ptconvlstm__conv_layer__conv2d_bwd"}, {ArcID = 254 : i64, BaseName = "ptconvlstm__conv_layer__conv2d_bwd", Layer = 0 : i64, Location = loc("/usr/local/lib/python3.7/site-packages/torch/nn/modules/conv.py":298:0), MacID = "ptconvlstm__conv_layer__conv2d_bwd"}, {ArcID = 148 : i64, BaseName = "ptconvlstm__conv_layer__conv2d_bwd", Layer = 0 : i64, Location = loc("/usr/local/lib/python3.7/site-packages/torch/nn/modules/conv.py":298:0), MacID = "ptconvlstm__conv_layer__conv2d_bwd"}, {ArcID = 52 : i64, BaseName = "ptconvlstm__conv_layer__conv2d_bwd", Layer = 0 : i64, Location = loc("/usr/local/lib/python3.7/site-packages/torch/nn/modules/conv.py":298:0), MacID = "ptconvlstm__conv_layer__conv2d_bwd"}]>["MLIRWorkaround":32:0, "FakeLocation":64:0])
#loc151 = loc(fused<[{ArcID = 364 : i64, Layer = 0 : i64, Location = loc("software/arc/src/lib/templates/BigLinearExternalColPar.cpp":80:0), MacID = "ptconvlstm__conv_layer__conv2d_bwd"}, {ArcID = 254 : i64, BaseName = "ptconvlstm__conv_layer__conv2d_bwd", Layer = 0 : i64, Location = loc("/usr/local/lib/python3.7/site-packages/torch/nn/modules/conv.py":298:0), MacID = "ptconvlstm__conv_layer__conv2d_bwd"}, {ArcID = 148 : i64, BaseName = "ptconvlstm__conv_layer__conv2d_bwd", Layer = 0 : i64, Location = loc("/usr/local/lib/python3.7/site-packages/torch/nn/modules/conv.py":298:0), MacID = "ptconvlstm__conv_layer__conv2d_bwd"}, {ArcID = 52 : i64, BaseName = "ptconvlstm__conv_layer__conv2d_bwd", Layer = 0 : i64, Location = loc("/usr/local/lib/python3.7/site-packages/torch/nn/modules/conv.py":298:0), MacID = "ptconvlstm__conv_layer__conv2d_bwd"}]>["MLIRWorkaround":32:0, "FakeLocation":64:0])
#loc152 = loc(fused<[{ArcID = 365 : i64, Layer = 0 : i64, Location = loc("software/arc/src/lib/templates/BigLinearExternalColPar.cpp":80:0), MacID = "ptconvlstm__conv_layer__conv2d_bwd"}, {ArcID = 254 : i64, BaseName = "ptconvlstm__conv_layer__conv2d_bwd", Layer = 0 : i64, Location = loc("/usr/local/lib/python3.7/site-packages/torch/nn/modules/conv.py":298:0), MacID = "ptconvlstm__conv_layer__conv2d_bwd"}, {ArcID = 148 : i64, BaseName = "ptconvlstm__conv_layer__conv2d_bwd", Layer = 0 : i64, Location = loc("/usr/local/lib/python3.7/site-packages/torch/nn/modules/conv.py":298:0), MacID = "ptconvlstm__conv_layer__conv2d_bwd"}, {ArcID = 52 : i64, BaseName = "ptconvlstm__conv_layer__conv2d_bwd", Layer = 0 : i64, Location = loc("/usr/local/lib/python3.7/site-packages/torch/nn/modules/conv.py":298:0), MacID = "ptconvlstm__conv_layer__conv2d_bwd"}]>["MLIRWorkaround":32:0, "FakeLocation":64:0])
#loc153 = loc(fused<[{ArcID = 366 : i64, Layer = 0 : i64, Location = loc("software/arc/src/lib/templates/BigLinearExternalColPar.cpp":80:0), MacID = "ptconvlstm__conv_layer__conv2d_bwd"}, {ArcID = 254 : i64, BaseName = "ptconvlstm__conv_layer__conv2d_bwd", Layer = 0 : i64, Location = loc("/usr/local/lib/python3.7/site-packages/torch/nn/modules/conv.py":298:0), MacID = "ptconvlstm__conv_layer__conv2d_bwd"}, {ArcID = 148 : i64, BaseName = "ptconvlstm__conv_layer__conv2d_bwd", Layer = 0 : i64, Location = loc("/usr/local/lib/python3.7/site-packages/torch/nn/modules/conv.py":298:0), MacID = "ptconvlstm__conv_layer__conv2d_bwd"}, {ArcID = 52 : i64, BaseName = "ptconvlstm__conv_layer__conv2d_bwd", Layer = 0 : i64, Location = loc("/usr/local/lib/python3.7/site-packages/torch/nn/modules/conv.py":298:0), MacID = "ptconvlstm__conv_layer__conv2d_bwd"}]>["MLIRWorkaround":32:0, "FakeLocation":64:0])
#loc154 = loc(fused<[{ArcID = 367 : i64, Layer = 0 : i64, Location = loc("software/arc/src/lib/templates/BigLinearExternalColPar.cpp":100:0), MacID = "ptconvlstm__conv_layer__conv2d_bwd"}, {ArcID = 254 : i64, BaseName = "ptconvlstm__conv_layer__conv2d_bwd", Layer = 0 : i64, Location = loc("/usr/local/lib/python3.7/site-packages/torch/nn/modules/conv.py":298:0), MacID = "ptconvlstm__conv_layer__conv2d_bwd"}, {ArcID = 148 : i64, BaseName = "ptconvlstm__conv_layer__conv2d_bwd", Layer = 0 : i64, Location = loc("/usr/local/lib/python3.7/site-packages/torch/nn/modules/conv.py":298:0), MacID = "ptconvlstm__conv_layer__conv2d_bwd"}, {ArcID = 52 : i64, BaseName = "ptconvlstm__conv_layer__conv2d_bwd", Layer = 0 : i64, Location = loc("/usr/local/lib/python3.7/site-packages/torch/nn/modules/conv.py":298:0), MacID = "ptconvlstm__conv_layer__conv2d_bwd"}]>["MLIRWorkaround":32:0, "FakeLocation":64:0])
#loc155 = loc(fused<[{ArcID = 368 : i64, Layer = 0 : i64, Location = loc("software/arc/src/lib/templates/BigLinearExternalColPar.cpp":110:0), MacID = "ptconvlstm__conv_layer__conv2d_bwd"}, {ArcID = 254 : i64, BaseName = "ptconvlstm__conv_layer__conv2d_bwd", Layer = 0 : i64, Location = loc("/usr/local/lib/python3.7/site-packages/torch/nn/modules/conv.py":298:0), MacID = "ptconvlstm__conv_layer__conv2d_bwd"}, {ArcID = 148 : i64, BaseName = "ptconvlstm__conv_layer__conv2d_bwd", Layer = 0 : i64, Location = loc("/usr/local/lib/python3.7/site-packages/torch/nn/modules/conv.py":298:0), MacID = "ptconvlstm__conv_layer__conv2d_bwd"}, {ArcID = 52 : i64, BaseName = "ptconvlstm__conv_layer__conv2d_bwd", Layer = 0 : i64, Location = loc("/usr/local/lib/python3.7/site-packages/torch/nn/modules/conv.py":298:0), MacID = "ptconvlstm__conv_layer__conv2d_bwd"}]>["MLIRWorkaround":32:0, "FakeLocation":64:0])
#loc156 = loc(fused<[{ArcID = 369 : i64, Layer = 0 : i64, Location = loc("software/arc/src/lib/templates/ConvGradIm2Col.cpp":1109:0), MacID = "ptconvlstm__conv_layer__conv2d_bwd"}, {ArcID = 254 : i64, BaseName = "ptconvlstm__conv_layer__conv2d_bwd", Layer = 0 : i64, Location = loc("/usr/local/lib/python3.7/site-packages/torch/nn/modules/conv.py":298:0), MacID = "ptconvlstm__conv_layer__conv2d_bwd"}, {ArcID = 148 : i64, BaseName = "ptconvlstm__conv_layer__conv2d_bwd", Layer = 0 : i64, Location = loc("/usr/local/lib/python3.7/site-packages/torch/nn/modules/conv.py":298:0), MacID = "ptconvlstm__conv_layer__conv2d_bwd"}, {ArcID = 52 : i64, BaseName = "ptconvlstm__conv_layer__conv2d_bwd", Layer = 0 : i64, Location = loc("/usr/local/lib/python3.7/site-packages/torch/nn/modules/conv.py":298:0), MacID = "ptconvlstm__conv_layer__conv2d_bwd"}]>["MLIRWorkaround":32:0, "FakeLocation":64:0])
#loc157 = loc(fused<[{ArcID = 370 : i64, Layer = 0 : i64, Location = loc("software/arc/src/lib/templates/ConvGradIm2Col.cpp":1115:0), MacID = "ptconvlstm__conv_layer__conv2d_bwd"}, {ArcID = 254 : i64, BaseName = "ptconvlstm__conv_layer__conv2d_bwd", Layer = 0 : i64, Location = loc("/usr/local/lib/python3.7/site-packages/torch/nn/modules/conv.py":298:0), MacID = "ptconvlstm__conv_layer__conv2d_bwd"}, {ArcID = 148 : i64, BaseName = "ptconvlstm__conv_layer__conv2d_bwd", Layer = 0 : i64, Location = loc("/usr/local/lib/python3.7/site-packages/torch/nn/modules/conv.py":298:0), MacID = "ptconvlstm__conv_layer__conv2d_bwd"}, {ArcID = 52 : i64, BaseName = "ptconvlstm__conv_layer__conv2d_bwd", Layer = 0 : i64, Location = loc("/usr/local/lib/python3.7/site-packages/torch/nn/modules/conv.py":298:0), MacID = "ptconvlstm__conv_layer__conv2d_bwd"}]>["MLIRWorkaround":32:0, "FakeLocation":64:0])
#loc158 = loc(fused<[{ArcID = 371 : i64, Layer = 0 : i64, Location = loc("software/arc/src/lib/templates/ConvGradIm2Col.cpp":1117:0), MacID = "ptconvlstm__conv_layer__conv2d_bwd"}, {ArcID = 254 : i64, BaseName = "ptconvlstm__conv_layer__conv2d_bwd", Layer = 0 : i64, Location = loc("/usr/local/lib/python3.7/site-packages/torch/nn/modules/conv.py":298:0), MacID = "ptconvlstm__conv_layer__conv2d_bwd"}, {ArcID = 148 : i64, BaseName = "ptconvlstm__conv_layer__conv2d_bwd", Layer = 0 : i64, Location = loc("/usr/local/lib/python3.7/site-packages/torch/nn/modules/conv.py":298:0), MacID = "ptconvlstm__conv_layer__conv2d_bwd"}, {ArcID = 52 : i64, BaseName = "ptconvlstm__conv_layer__conv2d_bwd", Layer = 0 : i64, Location = loc("/usr/local/lib/python3.7/site-packages/torch/nn/modules/conv.py":298:0), MacID = "ptconvlstm__conv_layer__conv2d_bwd"}]>["MLIRWorkaround":32:0, "FakeLocation":64:0])
#loc159 = loc(fused<[{ArcID = 372 : i64, Layer = 0 : i64, Location = loc("software/arc/src/lib/templates/ConvGradIm2Col.cpp":1118:0), MacID = "ptconvlstm__conv_layer__conv2d_bwd"}, {ArcID = 254 : i64, BaseName = "ptconvlstm__conv_layer__conv2d_bwd", Layer = 0 : i64, Location = loc("/usr/local/lib/python3.7/site-packages/torch/nn/modules/conv.py":298:0), MacID = "ptconvlstm__conv_layer__conv2d_bwd"}, {ArcID = 148 : i64, BaseName = "ptconvlstm__conv_layer__conv2d_bwd", Layer = 0 : i64, Location = loc("/usr/local/lib/python3.7/site-packages/torch/nn/modules/conv.py":298:0), MacID = "ptconvlstm__conv_layer__conv2d_bwd"}, {ArcID = 52 : i64, BaseName = "ptconvlstm__conv_layer__conv2d_bwd", Layer = 0 : i64, Location = loc("/usr/local/lib/python3.7/site-packages/torch/nn/modules/conv.py":298:0), MacID = "ptconvlstm__conv_layer__conv2d_bwd"}]>["MLIRWorkaround":32:0, "FakeLocation":64:0])
#loc160 = loc(fused<[{ArcID = 255 : i64, BaseName = "ptconvlstm__dense_layer__linear_bwd_weight_accum", Layer = 0 : i64, Location = loc("/usr/local/lib/python3.7/site-packages/torch/overrides.py":1355:0), MacID = "ptconvlstm__dense_layer__linear_bwd_weight"}, {ArcID = 135 : i64, BaseName = "ptconvlstm__dense_layer__linear_bwd_weight", Layer = 0 : i64, Location = loc("/usr/local/lib/python3.7/site-packages/torch/overrides.py":1355:0), MacID = "ptconvlstm__dense_layer__linear_bwd_weight"}, {ArcID = 38 : i64, BaseName = "ptconvlstm__dense_layer__linear_bwd_weight", Layer = 0 : i64, Location = loc("/usr/local/lib/python3.7/site-packages/torch/overrides.py":1355:0), MacID = "ptconvlstm__dense_layer__linear_bwd_weight"}]>["MLIRWorkaround":32:0, "FakeLocation":64:0])
#loc161 = loc(fused<[{ArcID = 256 : i64, BaseName = "ptconvlstm__dense_layer__linear_bwd_weight_accum_1", Layer = 0 : i64, Location = loc("/usr/local/lib/python3.7/site-packages/torch/overrides.py":1355:0), MacID = "ptconvlstm__dense_layer__linear_bwd_weight"}, {ArcID = 135 : i64, BaseName = "ptconvlstm__dense_layer__linear_bwd_weight", Layer = 0 : i64, Location = loc("/usr/local/lib/python3.7/site-packages/torch/overrides.py":1355:0), MacID = "ptconvlstm__dense_layer__linear_bwd_weight"}, {ArcID = 38 : i64, BaseName = "ptconvlstm__dense_layer__linear_bwd_weight", Layer = 0 : i64, Location = loc("/usr/local/lib/python3.7/site-packages/torch/overrides.py":1355:0), MacID = "ptconvlstm__dense_layer__linear_bwd_weight"}]>["MLIRWorkaround":32:0, "FakeLocation":64:0])
#loc162 = loc(fused<[{ArcID = 257 : i64, BaseName = "ptconvlstm__conv_layer__conv2d_bwd_accum", Layer = 0 : i64, Location = loc("/usr/local/lib/python3.7/site-packages/torch/nn/modules/conv.py":298:0), MacID = "ptconvlstm__conv_layer__conv2d_bwd"}, {ArcID = 148 : i64, BaseName = "ptconvlstm__conv_layer__conv2d_bwd", Layer = 0 : i64, Location = loc("/usr/local/lib/python3.7/site-packages/torch/nn/modules/conv.py":298:0), MacID = "ptconvlstm__conv_layer__conv2d_bwd"}, {ArcID = 52 : i64, BaseName = "ptconvlstm__conv_layer__conv2d_bwd", Layer = 0 : i64, Location = loc("/usr/local/lib/python3.7/site-packages/torch/nn/modules/conv.py":298:0), MacID = "ptconvlstm__conv_layer__conv2d_bwd"}]>["MLIRWorkaround":32:0, "FakeLocation":64:0])
#loc163 = loc(fused<[{ArcID = 258 : i64, BaseName = "ptconvlstm__conv_layer__conv2d_bwd_accum_1", Layer = 0 : i64, Location = loc("/usr/local/lib/python3.7/site-packages/torch/nn/modules/conv.py":298:0), MacID = "ptconvlstm__conv_layer__conv2d_bwd"}, {ArcID = 148 : i64, BaseName = "ptconvlstm__conv_layer__conv2d_bwd", Layer = 0 : i64, Location = loc("/usr/local/lib/python3.7/site-packages/torch/nn/modules/conv.py":298:0), MacID = "ptconvlstm__conv_layer__conv2d_bwd"}, {ArcID = 52 : i64, BaseName = "ptconvlstm__conv_layer__conv2d_bwd", Layer = 0 : i64, Location = loc("/usr/local/lib/python3.7/site-packages/torch/nn/modules/conv.py":298:0), MacID = "ptconvlstm__conv_layer__conv2d_bwd"}]>["MLIRWorkaround":32:0, "FakeLocation":64:0])
#loc164 = loc(fused<[{ArcID = 276 : i64, Layer = 0 : i64, Location = loc("logreg_ts.py":229:0), MacID = "default_276"}, {ArcID = 275 : i64, Layer = 0 : i64, Location = loc("logreg_ts.py":229:0), MacID = "default_216"}, {ArcID = 121 : i64, BaseName = "ptconvlstm__view_bwd", Layer = 0 : i64, Location = loc("logreg_ts.py":229:0), MacID = "ptconvlstm__view_bwd"}, {ArcID = 16 : i64, BaseName = "ptconvlstm__view_bwd", Layer = 0 : i64, Location = loc("logreg_ts.py":229:0), MacID = "ptconvlstm__view_bwd"}]>["MLIRWorkaround":32:0, "FakeLocation":64:0])
#loc165 = loc(fused<[{ArcID = 275 : i64, Layer = 0 : i64, Location = loc("logreg_ts.py":229:0), MacID = "default_216"}, {ArcID = 121 : i64, BaseName = "ptconvlstm__view_bwd", Layer = 0 : i64, Location = loc("logreg_ts.py":229:0), MacID = "ptconvlstm__view_bwd"}, {ArcID = 16 : i64, BaseName = "ptconvlstm__view_bwd", Layer = 0 : i64, Location = loc("logreg_ts.py":229:0), MacID = "ptconvlstm__view_bwd"}]>["MLIRWorkaround":32:0, "FakeLocation":64:0])
#loc166 = loc(fused<[{ArcID = 136 : i64, BaseName = "ptconvlstm__dense_layer__linear_bwd_weight_tensor", Layer = 0 : i64, Location = loc("/usr/local/lib/python3.7/site-packages/torch/overrides.py":1355:0), MacID = "default_136"}, {ArcID = 38 : i64, BaseName = "ptconvlstm__dense_layer__linear_bwd_weight", Layer = 0 : i64, Location = loc("/usr/local/lib/python3.7/site-packages/torch/overrides.py":1355:0), MacID = "ptconvlstm__dense_layer__linear_bwd_weight"}]>["MLIRWorkaround":32:0, "FakeLocation":64:0])
#loc167 = loc(fused<[{ArcID = 137 : i64, BaseName = "ptconvlstm__dense_layer__linear_bwd_weight_tensor1", Layer = 0 : i64, Location = loc("/usr/local/lib/python3.7/site-packages/torch/overrides.py":1355:0), MacID = "default_137"}, {ArcID = 38 : i64, BaseName = "ptconvlstm__dense_layer__linear_bwd_weight", Layer = 0 : i64, Location = loc("/usr/local/lib/python3.7/site-packages/torch/overrides.py":1355:0), MacID = "ptconvlstm__dense_layer__linear_bwd_weight"}]>["MLIRWorkaround":32:0, "FakeLocation":64:0])
#loc168 = loc(fused<[{ArcID = 149 : i64, Layer = 0 : i64, Location = loc("/usr/local/lib/python3.7/site-packages/torch/nn/modules/conv.py":298:0), MacID = "default_149"}, {ArcID = 52 : i64, BaseName = "ptconvlstm__conv_layer__conv2d_bwd", Layer = 0 : i64, Location = loc("/usr/local/lib/python3.7/site-packages/torch/nn/modules/conv.py":298:0), MacID = "ptconvlstm__conv_layer__conv2d_bwd"}]>["MLIRWorkaround":32:0, "FakeLocation":64:0])
#loc169 = loc(fused<[{ArcID = 151 : i64, Layer = 0 : i64, Location = loc("/usr/local/lib/python3.7/site-packages/torch/nn/modules/conv.py":298:0), MacID = "default_151"}, {ArcID = 52 : i64, BaseName = "ptconvlstm__conv_layer__conv2d_bwd", Layer = 0 : i64, Location = loc("/usr/local/lib/python3.7/site-packages/torch/nn/modules/conv.py":298:0), MacID = "ptconvlstm__conv_layer__conv2d_bwd"}]>["MLIRWorkaround":32:0, "FakeLocation":64:0])
#loc170 = loc(fused<[{ArcID = 152 : i64, BaseName = "ptconvlstm__conv_layer__conv2d_bwd_tensor", Layer = 0 : i64, Location = loc("/usr/local/lib/python3.7/site-packages/torch/nn/modules/conv.py":298:0), MacID = "default_152"}, {ArcID = 52 : i64, BaseName = "ptconvlstm__conv_layer__conv2d_bwd", Layer = 0 : i64, Location = loc("/usr/local/lib/python3.7/site-packages/torch/nn/modules/conv.py":298:0), MacID = "ptconvlstm__conv_layer__conv2d_bwd"}]>["MLIRWorkaround":32:0, "FakeLocation":64:0])
#loc171 = loc(fused<[{ArcID = 373 : i64, BaseName = "ptconvlstm__conv_layer__conv2d_weight_reshape_bwd", Layer = 0 : i64, Location = loc("ptconvlstm__conv_layer__conv2d_weight_reshape":0:0), MacID = "ptconvlstm__conv_layer__conv2d_weight_reshape_bwd"}, {ArcID = 153 : i64, BaseName = "ptconvlstm__conv_layer__conv2d_weight_reshape_bwd", Layer = 0 : i64, Location = loc("ptconvlstm__conv_layer__conv2d_weight_reshape":0:0), MacID = "ptconvlstm__conv_layer__conv2d_weight_reshape_bwd"}, {ArcID = 53 : i64, BaseName = "ptconvlstm__conv_layer__conv2d_weight_reshape_bwd", Layer = 0 : i64, Location = loc("ptconvlstm__conv_layer__conv2d_weight_reshape":0:0), MacID = "ptconvlstm__conv_layer__conv2d_weight_reshape_bwd"}]>["MLIRWorkaround":32:0, "FakeLocation":64:0])
#loc172 = loc(fused<[{ArcID = 374 : i64, BaseName = "ptconvlstm__conv_layer__conv2d_weight_permute_bwd", Layer = 0 : i64, Location = loc("ptconvlstm__conv_layer__conv2d_weight_permute":0:0), MacID = "ptconvlstm__conv_layer__conv2d_weight_permute_bwd"}, {ArcID = 154 : i64, BaseName = "ptconvlstm__conv_layer__conv2d_weight_permute_bwd", Layer = 0 : i64, Location = loc("ptconvlstm__conv_layer__conv2d_weight_permute":0:0), MacID = "ptconvlstm__conv_layer__conv2d_weight_permute_bwd"}, {ArcID = 56 : i64, BaseName = "ptconvlstm__conv_layer__conv2d_weight_permute_bwd", Layer = 0 : i64, Location = loc("ptconvlstm__conv_layer__conv2d_weight_permute":0:0), MacID = "ptconvlstm__conv_layer__conv2d_weight_permute_bwd"}]>["MLIRWorkaround":32:0, "FakeLocation":64:0])
#loc173 = loc(fused<[{ArcID = 375 : i64, BaseName = "ptconvlstm__conv_layer__reshape_1_bwd", Layer = 0 : i64, Location = loc("/usr/local/lib/python3.7/site-packages/torch/nn/modules/conv.py":298:0), MacID = "ptconvlstm__conv_layer__reshape_1_bwd"}, {ArcID = 155 : i64, BaseName = "ptconvlstm__conv_layer__reshape_1_bwd", Layer = 0 : i64, Location = loc("/usr/local/lib/python3.7/site-packages/torch/nn/modules/conv.py":298:0), MacID = "ptconvlstm__conv_layer__reshape_1_bwd"}, {ArcID = 57 : i64, BaseName = "ptconvlstm__conv_layer__reshape_1_bwd", Layer = 0 : i64, Location = loc("/usr/local/lib/python3.7/site-packages/torch/nn/modules/conv.py":298:0), MacID = "ptconvlstm__conv_layer__reshape_1_bwd"}]>["MLIRWorkaround":32:0, "FakeLocation":64:0])
#loc174 = loc(fused<[{ArcID = 156 : i64, BaseName = "ptconvlstm__conv_layer__reshape_1_bwd_tensor", Layer = 0 : i64, Location = loc("/usr/local/lib/python3.7/site-packages/torch/nn/modules/conv.py":298:0), MacID = "default_156"}, {ArcID = 57 : i64, BaseName = "ptconvlstm__conv_layer__reshape_1_bwd", Layer = 0 : i64, Location = loc("/usr/local/lib/python3.7/site-packages/torch/nn/modules/conv.py":298:0), MacID = "ptconvlstm__conv_layer__reshape_1_bwd"}]>["MLIRWorkaround":32:0, "FakeLocation":64:0])
#loc175 = loc(fused<[{ArcID = 274 : i64, Layer = 0 : i64, Location = loc("software/compiler/mac/src/lib/pass/transform/AIRToTLIRLoweringSections.cpp":85:0), MacID = "default_274"}, {ArcID = 273 : i64, Layer = 0 : i64, Location = loc("software/compiler/mac/src/lib/pass/transform/AIRToTLIRLoweringSections.cpp":85:0), MacID = "default_273"}, {ArcID = 119 : i64, Layer = 0 : i64, Location = loc("software/compiler/mac/src/lib/pass/transform/AIRToTLIRLoweringSections.cpp":85:0), MacID = "default_119"}]>["MLIRWorkaround":32:0, "FakeLocation":64:0])
#loc176 = loc(fused<[{ArcID = 273 : i64, Layer = 0 : i64, Location = loc("software/compiler/mac/src/lib/pass/transform/AIRToTLIRLoweringSections.cpp":85:0), MacID = "default_273"}, {ArcID = 119 : i64, Layer = 0 : i64, Location = loc("software/compiler/mac/src/lib/pass/transform/AIRToTLIRLoweringSections.cpp":85:0), MacID = "default_119"}]>["MLIRWorkaround":32:0, "FakeLocation":64:0])
#loc177 = loc(fused<[{ArcID = 157 : i64, Layer = 0 : i64, Location = loc("software/compiler/mac/src/lib/pass/transform/AIRToTLIRLoweringSections.cpp":85:0), MacID = "default_157"}, {ArcID = 119 : i64, Layer = 0 : i64, Location = loc("software/compiler/mac/src/lib/pass/transform/AIRToTLIRLoweringSections.cpp":85:0), MacID = "default_119"}]>["MLIRWorkaround":32:0, "FakeLocation":64:0])
#loc178 = loc(fused<[{ArcID = 119 : i64, Layer = 0 : i64, Location = loc("software/compiler/mac/src/lib/pass/transform/AIRToTLIRLoweringSections.cpp":85:0), MacID = "default_119"}]>["MLIRWorkaround":32:0, "FakeLocation":64:0])
#loc179 = loc(fused<[{ArcID = 159 : i64, Layer = 0 : i64, Location = loc("software/compiler/mac/src/pybind/py_air.cpp":1531:0), MacID = "default_159"}, {ArcID = 5 : i64, BaseName = "ptconvlstm__dense_layer__weight", Layer = 0 : i64, Location = loc("software/compiler/mac/src/pybind/py_air.cpp":1531:0), MacID = "ptconvlstm__dense_layer__weight"}]>["MLIRWorkaround":32:0, "FakeLocation":64:0])
#loc180 = loc(fused<[{ArcID = 160 : i64, Layer = 0 : i64, Location = loc("/usr/local/lib/python3.7/site-packages/torch/overrides.py":1355:0), MacID = "default_160"}, {ArcID = 38 : i64, BaseName = "ptconvlstm__dense_layer__linear_bwd_weight", Layer = 0 : i64, Location = loc("/usr/local/lib/python3.7/site-packages/torch/overrides.py":1355:0), MacID = "ptconvlstm__dense_layer__linear_bwd_weight"}]>["MLIRWorkaround":32:0, "FakeLocation":64:0])
#loc181 = loc(fused<[{ArcID = 161 : i64, Layer = 0 : i64, Location = loc("software/compiler/mac/src/pybind/py_air.cpp":1531:0), MacID = "default_161"}, {ArcID = 9 : i64, BaseName = "ptconvlstm__dense_layer__weight__sgd0__momentum", Layer = 0 : i64, Location = loc("software/compiler/mac/src/pybind/py_air.cpp":1531:0), MacID = "ptconvlstm__dense_layer__weight__sgd0__momentum"}]>["MLIRWorkaround":32:0, "FakeLocation":64:0])
#loc182 = loc(fused<[{ArcID = 162 : i64, BaseName = "ptconvlstm__dense_layer__weight__ptconvlstm__dense_layer__linear_bwd_weight_opt", Layer = 0 : i64, Location = loc("ptconvlstm__dense_layer__weight":0:0), MacID = "ptconvlstm__dense_layer__weight__ptconvlstm__dense_layer__linear_bwd_weight_opt"}, {ArcID = 41 : i64, BaseName = "ptconvlstm__dense_layer__weight__ptconvlstm__dense_layer__linear_bwd_weight_opt", Layer = 0 : i64, Location = loc("ptconvlstm__dense_layer__weight":0:0), MacID = "ptconvlstm__dense_layer__weight__ptconvlstm__dense_layer__linear_bwd_weight_opt"}]>["MLIRWorkaround":32:0, "FakeLocation":64:0])
#loc183 = loc(fused<[{ArcID = 163 : i64, Layer = 0 : i64, Location = loc("ptconvlstm__dense_layer__weight":0:0), MacID = "default_163"}, {ArcID = 41 : i64, BaseName = "ptconvlstm__dense_layer__weight__ptconvlstm__dense_layer__linear_bwd_weight_opt", Layer = 0 : i64, Location = loc("ptconvlstm__dense_layer__weight":0:0), MacID = "ptconvlstm__dense_layer__weight__ptconvlstm__dense_layer__linear_bwd_weight_opt"}]>["MLIRWorkaround":32:0, "FakeLocation":64:0])
#loc184 = loc(fused<[{ArcID = 164 : i64, Layer = 0 : i64, Location = loc("ptconvlstm__dense_layer__weight":0:0), MacID = "default_164"}, {ArcID = 41 : i64, BaseName = "ptconvlstm__dense_layer__weight__ptconvlstm__dense_layer__linear_bwd_weight_opt", Layer = 0 : i64, Location = loc("ptconvlstm__dense_layer__weight":0:0), MacID = "ptconvlstm__dense_layer__weight__ptconvlstm__dense_layer__linear_bwd_weight_opt"}]>["MLIRWorkaround":32:0, "FakeLocation":64:0])
#loc185 = loc(fused<[{ArcID = 165 : i64, Layer = 0 : i64, Location = loc("software/compiler/mac/src/pybind/py_air.cpp":1531:0), MacID = "default_165"}, {ArcID = 4 : i64, BaseName = "ptconvlstm__dense_layer__bias", Layer = 0 : i64, Location = loc("software/compiler/mac/src/pybind/py_air.cpp":1531:0), MacID = "ptconvlstm__dense_layer__bias"}]>["MLIRWorkaround":32:0, "FakeLocation":64:0])
#loc186 = loc(fused<[{ArcID = 166 : i64, Layer = 0 : i64, Location = loc("/usr/local/lib/python3.7/site-packages/torch/overrides.py":1355:0), MacID = "default_166"}, {ArcID = 38 : i64, BaseName = "ptconvlstm__dense_layer__linear_bwd_weight", Layer = 0 : i64, Location = loc("/usr/local/lib/python3.7/site-packages/torch/overrides.py":1355:0), MacID = "ptconvlstm__dense_layer__linear_bwd_weight"}]>["MLIRWorkaround":32:0, "FakeLocation":64:0])
#loc187 = loc(fused<[{ArcID = 167 : i64, Layer = 0 : i64, Location = loc("software/compiler/mac/src/pybind/py_air.cpp":1531:0), MacID = "default_167"}, {ArcID = 10 : i64, BaseName = "ptconvlstm__dense_layer__bias__sgd0__momentum", Layer = 0 : i64, Location = loc("software/compiler/mac/src/pybind/py_air.cpp":1531:0), MacID = "ptconvlstm__dense_layer__bias__sgd0__momentum"}]>["MLIRWorkaround":32:0, "FakeLocation":64:0])
#loc188 = loc(fused<[{ArcID = 168 : i64, BaseName = "ptconvlstm__dense_layer__bias__ptconvlstm__dense_layer__linear_bwd_weight_opt", Layer = 0 : i64, Location = loc("ptconvlstm__dense_layer__bias":0:0), MacID = "ptconvlstm__dense_layer__bias__ptconvlstm__dense_layer__linear_bwd_weight_opt"}, {ArcID = 43 : i64, BaseName = "ptconvlstm__dense_layer__bias__ptconvlstm__dense_layer__linear_bwd_weight_opt", Layer = 0 : i64, Location = loc("ptconvlstm__dense_layer__bias":0:0), MacID = "ptconvlstm__dense_layer__bias__ptconvlstm__dense_layer__linear_bwd_weight_opt"}]>["MLIRWorkaround":32:0, "FakeLocation":64:0])
#loc189 = loc(fused<[{ArcID = 169 : i64, Layer = 0 : i64, Location = loc("ptconvlstm__dense_layer__bias":0:0), MacID = "default_169"}, {ArcID = 43 : i64, BaseName = "ptconvlstm__dense_layer__bias__ptconvlstm__dense_layer__linear_bwd_weight_opt", Layer = 0 : i64, Location = loc("ptconvlstm__dense_layer__bias":0:0), MacID = "ptconvlstm__dense_layer__bias__ptconvlstm__dense_layer__linear_bwd_weight_opt"}]>["MLIRWorkaround":32:0, "FakeLocation":64:0])
#loc190 = loc(fused<[{ArcID = 170 : i64, Layer = 0 : i64, Location = loc("ptconvlstm__dense_layer__bias":0:0), MacID = "default_170"}, {ArcID = 43 : i64, BaseName = "ptconvlstm__dense_layer__bias__ptconvlstm__dense_layer__linear_bwd_weight_opt", Layer = 0 : i64, Location = loc("ptconvlstm__dense_layer__bias":0:0), MacID = "ptconvlstm__dense_layer__bias__ptconvlstm__dense_layer__linear_bwd_weight_opt"}]>["MLIRWorkaround":32:0, "FakeLocation":64:0])
#loc191 = loc(fused<[{ArcID = 171 : i64, Layer = 0 : i64, Location = loc("software/compiler/mac/src/pybind/py_air.cpp":1531:0), MacID = "default_171"}, {ArcID = 3 : i64, BaseName = "ptconvlstm__conv_layer__bias", Layer = 0 : i64, Location = loc("software/compiler/mac/src/pybind/py_air.cpp":1531:0), MacID = "ptconvlstm__conv_layer__bias"}]>["MLIRWorkaround":32:0, "FakeLocation":64:0])
#loc192 = loc(fused<[{ArcID = 172 : i64, Layer = 0 : i64, Location = loc("/usr/local/lib/python3.7/site-packages/torch/nn/modules/conv.py":298:0), MacID = "default_172"}, {ArcID = 52 : i64, BaseName = "ptconvlstm__conv_layer__conv2d_bwd", Layer = 0 : i64, Location = loc("/usr/local/lib/python3.7/site-packages/torch/nn/modules/conv.py":298:0), MacID = "ptconvlstm__conv_layer__conv2d_bwd"}]>["MLIRWorkaround":32:0, "FakeLocation":64:0])
#loc193 = loc(fused<[{ArcID = 173 : i64, Layer = 0 : i64, Location = loc("software/compiler/mac/src/pybind/py_air.cpp":1531:0), MacID = "default_173"}, {ArcID = 11 : i64, BaseName = "ptconvlstm__conv_layer__bias__sgd0__momentum", Layer = 0 : i64, Location = loc("software/compiler/mac/src/pybind/py_air.cpp":1531:0), MacID = "ptconvlstm__conv_layer__bias__sgd0__momentum"}]>["MLIRWorkaround":32:0, "FakeLocation":64:0])
#loc194 = loc(fused<[{ArcID = 174 : i64, BaseName = "ptconvlstm__conv_layer__bias__ptconvlstm__conv_layer__conv2d_bwd_opt", Layer = 0 : i64, Location = loc("ptconvlstm__conv_layer__bias":0:0), MacID = "ptconvlstm__conv_layer__bias__ptconvlstm__conv_layer__conv2d_bwd_opt"}, {ArcID = 55 : i64, BaseName = "ptconvlstm__conv_layer__bias__ptconvlstm__conv_layer__conv2d_bwd_opt", Layer = 0 : i64, Location = loc("ptconvlstm__conv_layer__bias":0:0), MacID = "ptconvlstm__conv_layer__bias__ptconvlstm__conv_layer__conv2d_bwd_opt"}]>["MLIRWorkaround":32:0, "FakeLocation":64:0])
#loc195 = loc(fused<[{ArcID = 175 : i64, Layer = 0 : i64, Location = loc("ptconvlstm__conv_layer__bias":0:0), MacID = "default_175"}, {ArcID = 55 : i64, BaseName = "ptconvlstm__conv_layer__bias__ptconvlstm__conv_layer__conv2d_bwd_opt", Layer = 0 : i64, Location = loc("ptconvlstm__conv_layer__bias":0:0), MacID = "ptconvlstm__conv_layer__bias__ptconvlstm__conv_layer__conv2d_bwd_opt"}]>["MLIRWorkaround":32:0, "FakeLocation":64:0])
#loc196 = loc(fused<[{ArcID = 176 : i64, Layer = 0 : i64, Location = loc("ptconvlstm__conv_layer__bias":0:0), MacID = "default_176"}, {ArcID = 55 : i64, BaseName = "ptconvlstm__conv_layer__bias__ptconvlstm__conv_layer__conv2d_bwd_opt", Layer = 0 : i64, Location = loc("ptconvlstm__conv_layer__bias":0:0), MacID = "ptconvlstm__conv_layer__bias__ptconvlstm__conv_layer__conv2d_bwd_opt"}]>["MLIRWorkaround":32:0, "FakeLocation":64:0])
#loc197 = loc(fused<[{ArcID = 177 : i64, Layer = 0 : i64, Location = loc("software/compiler/mac/src/pybind/py_air.cpp":1531:0), MacID = "default_177"}, {ArcID = 0 : i64, BaseName = "ptconvlstm__conv_layer__weight", Layer = 0 : i64, Location = loc("software/compiler/mac/src/pybind/py_air.cpp":1531:0), MacID = "ptconvlstm__conv_layer__weight"}]>["MLIRWorkaround":32:0, "FakeLocation":64:0])
#loc198 = loc(fused<[{ArcID = 178 : i64, Layer = 0 : i64, Location = loc("/usr/local/lib/python3.7/site-packages/torch/nn/modules/conv.py":298:0), MacID = "default_178"}, {ArcID = 57 : i64, BaseName = "ptconvlstm__conv_layer__reshape_1_bwd", Layer = 0 : i64, Location = loc("/usr/local/lib/python3.7/site-packages/torch/nn/modules/conv.py":298:0), MacID = "ptconvlstm__conv_layer__reshape_1_bwd"}]>["MLIRWorkaround":32:0, "FakeLocation":64:0])
#loc199 = loc(fused<[{ArcID = 179 : i64, Layer = 0 : i64, Location = loc("software/compiler/mac/src/pybind/py_air.cpp":1531:0), MacID = "default_179"}, {ArcID = 12 : i64, BaseName = "ptconvlstm__conv_layer__weight__sgd0__momentum", Layer = 0 : i64, Location = loc("software/compiler/mac/src/pybind/py_air.cpp":1531:0), MacID = "ptconvlstm__conv_layer__weight__sgd0__momentum"}]>["MLIRWorkaround":32:0, "FakeLocation":64:0])
#loc200 = loc(fused<[{ArcID = 180 : i64, BaseName = "ptconvlstm__conv_layer__weight__ptconvlstm__conv_layer__reshape_1_bwd_opt", Layer = 0 : i64, Location = loc("ptconvlstm__conv_layer__weight":0:0), MacID = "ptconvlstm__conv_layer__weight__ptconvlstm__conv_layer__reshape_1_bwd_opt"}, {ArcID = 59 : i64, BaseName = "ptconvlstm__conv_layer__weight__ptconvlstm__conv_layer__reshape_1_bwd_opt", Layer = 0 : i64, Location = loc("ptconvlstm__conv_layer__weight":0:0), MacID = "ptconvlstm__conv_layer__weight__ptconvlstm__conv_layer__reshape_1_bwd_opt"}]>["MLIRWorkaround":32:0, "FakeLocation":64:0])
#loc201 = loc(fused<[{ArcID = 181 : i64, Layer = 0 : i64, Location = loc("ptconvlstm__conv_layer__weight":0:0), MacID = "default_181"}, {ArcID = 59 : i64, BaseName = "ptconvlstm__conv_layer__weight__ptconvlstm__conv_layer__reshape_1_bwd_opt", Layer = 0 : i64, Location = loc("ptconvlstm__conv_layer__weight":0:0), MacID = "ptconvlstm__conv_layer__weight__ptconvlstm__conv_layer__reshape_1_bwd_opt"}]>["MLIRWorkaround":32:0, "FakeLocation":64:0])
#loc202 = loc(fused<[{ArcID = 182 : i64, Layer = 0 : i64, Location = loc("ptconvlstm__conv_layer__weight":0:0), MacID = "default_182"}, {ArcID = 59 : i64, BaseName = "ptconvlstm__conv_layer__weight__ptconvlstm__conv_layer__reshape_1_bwd_opt", Layer = 0 : i64, Location = loc("ptconvlstm__conv_layer__weight":0:0), MacID = "ptconvlstm__conv_layer__weight__ptconvlstm__conv_layer__reshape_1_bwd_opt"}]>["MLIRWorkaround":32:0, "FakeLocation":64:0])
#loc203 = loc(fused<[{ArcID = 278 : i64, Layer = 0 : i64, Location = loc("software/compiler/mac/src/lib/pass/transform/AIRToTLIRLoweringSections.cpp":85:0), MacID = "default_278"}, {ArcID = 277 : i64, Layer = 0 : i64, Location = loc("software/compiler/mac/src/lib/pass/transform/AIRToTLIRLoweringSections.cpp":85:0), MacID = "default_277"}, {ArcID = 158 : i64, Layer = 0 : i64, Location = loc("software/compiler/mac/src/lib/pass/transform/AIRToTLIRLoweringSections.cpp":85:0), MacID = "default_158"}]>["MLIRWorkaround":32:0, "FakeLocation":64:0])
#loc204 = loc(fused<[{ArcID = 277 : i64, Layer = 0 : i64, Location = loc("software/compiler/mac/src/lib/pass/transform/AIRToTLIRLoweringSections.cpp":85:0), MacID = "default_277"}, {ArcID = 158 : i64, Layer = 0 : i64, Location = loc("software/compiler/mac/src/lib/pass/transform/AIRToTLIRLoweringSections.cpp":85:0), MacID = "default_158"}]>["MLIRWorkaround":32:0, "FakeLocation":64:0])
#loc205 = loc(fused<[{ArcID = 183 : i64, Layer = 0 : i64, Location = loc("software/compiler/mac/src/lib/pass/transform/AIRToTLIRLoweringSections.cpp":85:0), MacID = "default_183"}, {ArcID = 158 : i64, Layer = 0 : i64, Location = loc("software/compiler/mac/src/lib/pass/transform/AIRToTLIRLoweringSections.cpp":85:0), MacID = "default_158"}]>["MLIRWorkaround":32:0, "FakeLocation":64:0])
#loc206 = loc(fused<[{ArcID = 158 : i64, Layer = 0 : i64, Location = loc("software/compiler/mac/src/lib/pass/transform/AIRToTLIRLoweringSections.cpp":85:0), MacID = "default_158"}]>["MLIRWorkaround":32:0, "FakeLocation":64:0])
module @program attributes {arc.AIRMappingDecisionIsSpatial = false, arc.kAIRAddnOpt = true, arc.kAIRAdvancedLoadSplitOpt = true, arc.kAIRAnnotateHyperFunctionArguments = false, arc.kAIRBufferBeforeConcatAddn = false, arc.kAIRBufferNonRedundancy = "", arc.kAIRDDRBoundSections = [], arc.kAIRDPTilingOptimization = false, arc.kAIRDisableConcatStoreOpt = false, arc.kAIRDisableLoadTilerOptWithDimOrdering = false, arc.kAIRDisableOptimizeRereadBuffer = false, arc.kAIREnableRemoteRead = false, arc.kAIREnableSkipBufferExtensionOpt = false, arc.kAIREnableStoreTilerOptWithDimOrdering = false, arc.kAIRForceDRAMFirstThenP2P = false, arc.kAIRMappingDecisionGlobalNumBatches = 1 : i64, arc.kAIRMappingDecisionSectionDRAMTransferSize = [2347854, 4646526, 9226112], arc.kAIRMappingDecisionSectionDRAMTransferTime = [0.021866094321012497, 0.043274145573377609, 0.085924863815307617], arc.kAIRMappingDecisionSectionLatencies = [5.6866094382712618E-5, 7.8274148108903319E-5, 1.2092486576875672E-4], arc.kAIRMappingDecisionSectionNames = ["$FWD", "$BCKWD", "$OPT"], arc.kAIRMappingDecisionSectionPCUs = [1.750000e+02, 1.240000e+02, 4.000000e+00], arc.kAIRMappingDecisionSectionPMUs = [[186, 4, 6, 33, 7, 17, 7], [163, 4, 14, 41, 11, 22, 5], [0, 4, 0, 33, 0, 0, 0]], arc.kAIRMappingDecisionSectionResourceScales = [1.1000000238418579, 1.2000000476837158, 0.89999997615814208], arc.kAIRMappingDecisionSectionTypes = ["Forward", "Backward", "Optimizer"], arc.kAIRMappingDecisionSectionUniqueNames = ["ptconvlstm__lambda_layer__indexselect_as_initial", "ptconvlstm__reshape_1_recompute__as_initial", "ptconvlstm__conv_layer__weight__ptconvlstm__conv_layer__reshape_1_bwd_opt_as_initial"], arc.kAIRMetaPipeWithOneIterationRemoval = false, arc.kAIRTransposeMatMulTransformation = false, arc.kAddStreamingBuffers = false, arc.kAppName = "logreg_torch_samba", arc.kArchMajor = 1 : i64, arc.kArchMinor = 0 : i64, arc.kBoxLayoutSize = 2 : i64, arc.kBoxLayoutType = 0 : i64, arc.kConcisePrinting = false, arc.kDataParallelBf16StochasticRounding = false, arc.kDataParallelBf16StochasticRoundingHighStaticBatchSize = false, arc.kDataParallelBf16StochasticRoundingSeedName = "", arc.kDataParallelFactor = 1 : i64, arc.kDataParallelInHostMemory = false, arc.kDataParallelReduceOnlyMode = false, arc.kDebugMode = false, arc.kDisableFuseToTwoHeadBuffers = false, arc.kEliminateBufferTimeout = 100 : i64, arc.kEnableAutoGrouping = true, arc.kEnableBufferBarriers = true, arc.kEnableFuseToLinearTraining = false, arc.kEnablePcuHeartBeat = false, arc.kEnableWrDoneInstrument = false, arc.kExperimentalOptimization = true, arc.kExperimentalRAILCrossEntropy = false, arc.kExperimentalRAILCrossEntropyGrad = false, arc.kGenerateReference = false, arc.kGenerateTensorboard = false, arc.kHasGraphData = true, arc.kHeuristicSliceLayouts = false, arc.kHeuristicTilerLayouts = true, arc.kIsBf16Conversion = true, arc.kLayoutTimeout = 1000 : i64, arc.kLegalizeDataflow = true, arc.kLegalizeSamples = false, arc.kLowered = true, arc.kMacAutogen = true, arc.kMaximumGroupLatencyFactor = 5.000000e-02 : f32, arc.kMoveViews = false, arc.kOptimizationLevel = 3 : i64, arc.kOptimizeDramTransfers = false, arc.kOutputFolder = "/qfs/people/jain432/pacer_saudade/code/sample_scripts/test", arc.kOverrideMaxFanout = 0 : i64, arc.kPefMetadataacc_report_json = "None", arc.kPefMetadataacc_test = "False", arc.kPefMetadataarc_debug_mode = "False", arc.kPefMetadatabatch_size = "1", arc.kPefMetadatabench_report_json = "None", arc.kPefMetadatacompiled_stats_json = "None", arc.kPefMetadatacompiler_configs_file = "", arc.kPefMetadatadata_folder = "mnist_data", arc.kPefMetadatadata_parallel = "False", arc.kPefMetadatadata_parallel_mode = "normal", arc.kPefMetadatadebug = "False", arc.kPefMetadatadefault_device = "DDR", arc.kPefMetadatadense_adam_fast_grad_compute = "False", arc.kPefMetadatadev_mode = "False", arc.kPefMetadatadisable_bf16_conversion = "False", arc.kPefMetadatadisable_mac_tiling = "False", arc.kPefMetadatadisable_retry_lower_visible_resources = "False", arc.kPefMetadatadistlearn_config = "", arc.kPefMetadatadropout_tiling_legalizer_error = "False", arc.kPefMetadatadump_accuracy_debug_info = "False", arc.kPefMetadatadump_compiled_stats_json = "False", arc.kPefMetadataenable_buffer_trial_compile = "False", arc.kPefMetadataenable_conv2d_conversion = "False", arc.kPefMetadataenable_conv_tiling = "False", arc.kPefMetadataenable_hd_retry_lower_visible_resources = "False", arc.kPefMetadataenable_hypersection = "False", arc.kPefMetadataenable_node_trial_compile = "False", arc.kPefMetadataenable_node_trial_compile_logging = "False", arc.kPefMetadataforce_node_proximity = "False", arc.kPefMetadatafp32_params = "False", arc.kPefMetadatafuse_fwd_bwd = "False", arc.kPefMetadatagen_tensorboard = "False", arc.kPefMetadatagrad_accumulation_steps = "1", arc.kPefMetadatahost_fifo = "False", arc.kPefMetadatahypersection_arc = "False", arc.kPefMetadatainclude_read_stall_cycles = "False", arc.kPefMetadatainference = "False", arc.kPefMetadatajson = "None", arc.kPefMetadatajson_counters = "", arc.kPefMetadatalatency_budget_bwd = "None", arc.kPefMetadatalatency_budget_fwd = "None", arc.kPefMetadatalisten_for_input = "False", arc.kPefMetadatalocal_rank = "-1", arc.kPefMetadatalog_dir = "None", arc.kPefMetadatalr = "0.0015", "arc.kPefMetadatamac_named_dims_c++" = "False", arc.kPefMetadatamac_only = "False", arc.kPefMetadatamac_print_mapping_ir = "False", arc.kPefMetadatamac_split_cat_as_stage_buf = "False", arc.kPefMetadatamac_templatedb_dir = "", arc.kPefMetadatamac_templatedb_dir_backup_to = "", arc.kPefMetadatamac_templatedb_dir_init_from = "", arc.kPefMetadatamac_v1 = "False", arc.kPefMetadatamapping = "section", arc.kPefMetadatamax_expected_mac_latency = "-1.0", arc.kPefMetadatamax_mac_loop_attempt = "-1", arc.kPefMetadatamax_tiling_depth = "None", arc.kPefMetadatametapipe_disable = "False", arc.kPefMetadatamicrobatch_size = "None", arc.kPefMetadatamin_duration = "0.0", arc.kPefMetadatamlir_file_name = "None", arc.kPefMetadatamock_inference = "False", arc.kPefMetadatamodel = "PTConvLSTM(\0A  (lambda_layer): Lambda()\0A  (conv_layer): Conv1d(136, 256, kernel_size=(3,), stride=(1,))\0A  (dense_layer): Linear(in_features=256, out_features=4080, bias=True)\0A  (criterion): MSELoss()\0A)", arc.kPefMetadatamodel_parallel = "False", arc.kPefMetadatamomentum = "0.0", arc.kPefMetadatan_chips = "1", arc.kPefMetadatandtest = "False", arc.kPefMetadatandtest_mp = "False", arc.kPefMetadatanum_classes = "10", arc.kPefMetadatanum_epochs = "1", arc.kPefMetadatanum_features = "784", arc.kPefMetadatanum_iterations = "100", arc.kPefMetadatanum_sections = "None", arc.kPefMetadatanum_spatial_batches = "1", arc.kPefMetadatanum_tiles = "-1", arc.kPefMetadataoptim_level = "o3", arc.kPefMetadataoptimize_concat_split = "False", arc.kPefMetadataoutput_config = "/qfs/people/jain432/pacer_saudade/code/sample_scripts/out/configs", arc.kPefMetadatapef = "None", arc.kPefMetadataplot = "None", arc.kPefMetadatarecompute_ratio = "-1.0", arc.kPefMetadatareduce_on_rdu = "False", arc.kPefMetadataresources_scaling_factors = "['-1.0', '-1.0', '-1.0', '-1.0']", arc.kPefMetadatarun_analysis_pass = "False", arc.kPefMetadatarun_graph_only = "False", arc.kPefMetadatasafe_mode = "False", arc.kPefMetadatasamba_plot = "False", arc.kPefMetadatasamba_version = "1.14.0", arc.kPefMetadatasambatune_graph = "False", arc.kPefMetadatasection_cut_beam_search = "[]", arc.kPefMetadatasection_cut_sort_order = "3", arc.kPefMetadatasingle_opt_sec = "False", arc.kPefMetadataskip_instrumentation_on_read0 = "False", arc.kPefMetadataskip_instrumentation_on_read1 = "False", arc.kPefMetadatastage_instrumentation = "none", "arc.kPefMetadatastop_mac_c++" = "False", arc.kPefMetadatastrict_conversion = "False", arc.kPefMetadatatensor_parallel = "none", arc.kPefMetadatatile_orientation = "auto", arc.kPefMetadataunroll_first = "False", arc.kPefMetadatavalidate_mac_resource_prediction = "False", arc.kPefMetadataverbose = "0", arc.kPefMetadatavisualize = "False", arc.kPefMetadataweight_caching = "False", arc.kPefMetadataweight_decay = "0.0003", arc.kPefMetadataweight_norm = "False", arc.kPefMetadataworld_size = "1", arc.kPefMetadatayaml_config = "None", arc.kPefName = "logreg", arc.kPlasmaIncludeReadStallCycles = false, arc.kPlasmaSkipInstrumentationOnRead0 = false, arc.kPlasmaSkipInstrumentationOnRead1 = false, arc.kPlasmaStageInstrumentation = "none", arc.kPrintSrcs = [], arc.kResourceAwareBuffers = false, arc.kSambaTuneGraph = false, arc.kSkipBufferBandwidthWeight = 1 : i64, arc.kSkipBufferMaxDepth = 4096 : i64, arc.kSkipBufferMaxFanin = 8 : i64, arc.kSkipBufferPmuWeight = 1 : i64, arc.kSplitSkipBuffer = true, arc.kStrictNodeNameOrdering = true, arc.kTileSize = 5 : i64, arc.kUniqueIdCounter = 378 : i64, arc.kUseTBufferEverywhere = false, arc.kVerbose = false, mac.kDisableMacTiling = false, mac.kMACDropoutTilingLegalizerError = false, mac.kMacConvTiling = false, mac.kMacDefaultDevice = "DDR", mac.kMacDenseAdamFastGradCompute = false, mac.kMacDisableAutoSpatialSplit = true, mac.kMacDisableMappingSort = false, mac.kMacDisableRetryLowerScalingFactor = false, mac.kMacEnableBufferTrialCompile = false, mac.kMacEnableHDRetryLowerVisibleResources = false, mac.kMacEnableHyperSection = false, mac.kMacEnableNodeTrialCompile = false, mac.kMacEnableNodeTrialCompileLogging = false, mac.kMacExpectedMaxLatency = -1.000000e+00 : f64, mac.kMacForceNodeProximity = false, mac.kMacFuseFwdBwd = false, mac.kMacInference = false, mac.kMacIsUnrollingFirst = false, mac.kMacMaxTilingDepth = 0 : i64, mac.kMacModelParallel = false, mac.kMacNumChips = 1 : i64, mac.kMacNumTiles = 4 : i64, mac.kMacOnlyCompileMac = false, mac.kMacPlot = false, mac.kMacPrintMappingIR = false, mac.kMacResourceSetupTraceScaleBwd = 1.200000e+00 : f64, mac.kMacResourceSetupTraceScaleFwd = 1.100000e+00 : f64, mac.kMacResourceSetupTraceScaleGradnorm = 9.000000e-01 : f64, mac.kMacResourceSetupTraceScaleOpt = 9.000000e-01 : f64, mac.kMacRunNamedDimsCpp = false, mac.kMacSafeMode = false, mac.kMacSectionCutBeamSearch = [2, 2], mac.kMacSectionCutSortOrder = 3 : i64, mac.kMacSingleOptSec = false, mac.kMacSplitCatAsStageBuffer = false, mac.kMacTemplateDBDir = "/qfs/people/jain432/pacer_saudade/code/sample_scripts/test/logreg/mac_templatedb", mac.kMacTensorParallel = "none", mac.kMacUseHostFIFO = false}  {
  module @templates  {
    module_terminator {kSourceContext = #loc0}
  }
  module @sections  {
    %0 = "tlir.Region"() {distribution = 7 : i32, distribution_gain = 1.000000e+00 : f64, kConfigured = true, kFromDeviceTransform = "", kHasShape = true, kIsHostFifoInput = false, kIsInputOnly = false, kIsMask = false, kIsPlaceholder = false, kIsRngSeed = false, kIsUserFacing = true, kIsWeight = true, kMacID = "ptconvlstm__conv_layer__weight_result0", kMemoryType = 0 : i64, kName = "ptconvlstm__conv_layer__weight", kSourceContext = #loc1, kToDeviceTransform = "", kUniqueId = 69 : i64, kUserCreated = true, kZeroFillDram = false} : () -> tensor<256x136x3xbf16>
    %1 = "tlir.Region"() {distribution = 6 : i32, distribution_max = 1.000000e-01 : f64, distribution_min = -1.000000e-01 : f64, kConfigured = true, kFromDeviceTransform = ".long()", kHasShape = true, kIsHostFifoInput = false, kIsInputOnly = true, kIsMask = false, kIsPlaceholder = false, kIsRngSeed = false, kIsUserFacing = true, kMacID = "inp_window_slice_1_result0", kMemoryType = 2 : i64, kName = "inp_window_slice_1", kSourceContext = #loc2, kToDeviceTransform = ".int().int()", kUniqueId = 70 : i64, kUserCreated = true, kZeroFillDram = false} : () -> tensor<3xi32>
    %2 = "tlir.Region"() {distribution = 6 : i32, distribution_max = 1.000000e-01 : f64, distribution_min = -1.000000e-01 : f64, kConfigured = true, kFromDeviceTransform = "", kHasShape = true, kIsHostFifoInput = false, kIsInputOnly = true, kIsMask = false, kIsPlaceholder = false, kIsRngSeed = false, kIsUserFacing = true, kMacID = "inp_window_result0", kMemoryType = 0 : i64, kName = "inp_window", kSourceContext = #loc3, kToDeviceTransform = "", kUniqueId = 71 : i64, kUserCreated = true, kZeroFillDram = false} : () -> tensor<1x60x136xbf16>
    %3 = "tlir.Region"() {distribution = 7 : i32, distribution_gain = 1.000000e+00 : f64, kConfigured = true, kFromDeviceTransform = ".squeeze(1)", kHasShape = true, kIsHostFifoInput = false, kIsInputOnly = false, kIsMask = false, kIsPlaceholder = false, kIsRngSeed = false, kIsUserFacing = true, kIsWeight = true, kMacID = "ptconvlstm__conv_layer__bias_result0", kMemoryType = 0 : i64, kName = "ptconvlstm__conv_layer__bias", kSourceContext = #loc4, kToDeviceTransform = ".unsqueeze(1)", kUniqueId = 72 : i64, kUserCreated = true, kZeroFillDram = false} : () -> tensor<256x1xbf16>
    %4 = "tlir.Region"() {distribution = 6 : i32, distribution_max = 1.000000e-01 : f64, distribution_min = -1.000000e-01 : f64, kConfigured = true, kFromDeviceTransform = ".squeeze(1)", kHasShape = true, kIsHostFifoInput = false, kIsInputOnly = false, kIsMask = false, kIsPlaceholder = false, kIsRngSeed = false, kIsUserFacing = true, kIsWeight = true, kMacID = "ptconvlstm__dense_layer__bias_result0", kMemoryType = 0 : i64, kName = "ptconvlstm__dense_layer__bias", kSourceContext = #loc5, kToDeviceTransform = ".unsqueeze(1)", kUniqueId = 73 : i64, kUserCreated = true, kZeroFillDram = false} : () -> tensor<4080x1xbf16>
    %5 = "tlir.Region"() {distribution = 7 : i32, distribution_gain = 1.000000e+00 : f64, kConfigured = true, kFromDeviceTransform = "", kHasShape = true, kIsHostFifoInput = false, kIsInputOnly = false, kIsMask = false, kIsPlaceholder = false, kIsRngSeed = false, kIsUserFacing = true, kIsWeight = true, kMacID = "ptconvlstm__dense_layer__weight_result0", kMemoryType = 0 : i64, kName = "ptconvlstm__dense_layer__weight", kSourceContext = #loc6, kToDeviceTransform = "", kUniqueId = 74 : i64, kUserCreated = true, kZeroFillDram = false} : () -> tensor<4080x256xbf16>
    %6 = "tlir.Region"() {distribution = 6 : i32, distribution_max = 1.000000e-01 : f64, distribution_min = -1.000000e-01 : f64, kConfigured = true, kFromDeviceTransform = "", kHasShape = true, kIsHostFifoInput = false, kIsInputOnly = true, kIsMask = false, kIsPlaceholder = false, kIsRngSeed = false, kIsUserFacing = true, kMacID = "out_window_result0", kMemoryType = 0 : i64, kName = "out_window", kSourceContext = #loc7, kToDeviceTransform = "", kUniqueId = 75 : i64, kUserCreated = true, kZeroFillDram = false} : () -> tensor<1x30x136xbf16>
    %7 = "tlir.Region"() {distribution = 6 : i32, distribution_max = 1.000000e+00 : f64, distribution_min = 1.000000e+00 : f64, kConfigured = true, kFromDeviceTransform = "", kHasShape = true, kIsHostFifoInput = false, kIsInputOnly = false, kIsMask = false, kIsPlaceholder = false, kIsRngSeed = false, kIsUserFacing = true, kMacID = "ptconvlstm__criterion__mseloss__outputs__0__grad_result0", kMemoryType = 0 : i64, kName = "ptconvlstm__criterion__mseloss__outputs__0__grad", kSourceContext = #loc8, kToDeviceTransform = "", kUniqueId = 76 : i64, kUserCreated = true, kZeroFillDram = false} : () -> tensor<1xbf16>
    %8 = "tlir.Region"() {distribution = 6 : i32, distribution_max = 1.000000e+00 : f64, distribution_min = 1.000000e+00 : f64, kConfigured = true, kFromDeviceTransform = "", kHasShape = true, kIsHostFifoInput = false, kIsInputOnly = false, kIsMask = false, kIsPlaceholder = false, kIsRngSeed = false, kIsUserFacing = true, kMacID = "ptconvlstm__view__outputs__0__grad_result0", kMemoryType = 0 : i64, kName = "ptconvlstm__view__outputs__0__grad", kSourceContext = #loc9, kToDeviceTransform = "", kUniqueId = 77 : i64, kUserCreated = true, kZeroFillDram = false} : () -> tensor<1x30x136xbf16>
…
          "tlir.Store"(%15, %84) {kChipID = 0 : i64, kConfigured = true, kIsCheckPoint = false, kMacID = "default_268", kOpRWPattern0 = "kWriteOperand", kReverseLoops = [false], kSliceAxes = [0], kSliceSize = 1 : i64, kSliceSubtensor = false, kSourceContext = #loc84, kStoreSlice = true, kUniqueId = 268 : i64, kUserCreated = true} : (tensor<1x30x136xbf16>, tensor<30x136xbf16>) -> ()
          "tlir.terminator"() {kConfigured = true, kMacID = "default_272", kSourceContext = #loc85, kUniqueId = 272 : i64, kUserCreated = true} : () -> ()
        }) {kConfigured = true, kMacID = "default_187", kNumIterations = 1 : i64, kSourceContext = #loc86, kUniqueId = 271 : i64, kUserCreated = true, type = none} : () -> ()
        %30 = "tlir.Load"(%6) {kChipID = 0 : i64, kConfigured = true, kMacID = "default_96", kSourceContext = #loc87, kStageId = -1 : i64, kUniqueId = 96 : i64, kUserCreated = true} : (tensor<1x30x136xbf16>) -> tensor<1x30x136xbf16>
        %31 = "tlir.Reshape"(%30) {kConfigured = true, kDieID = -1 : i64, kIsCriticalStage = false, kLatency = 1.300000e+01 : f64, kMacID = "ptconvlstm__reshape_1", kName = "ptconvlstm__reshape_1", kSourceContext = #loc88, kStageId = -1 : i64, kStageLatency = 1.300000e+01 : f64, kUniqueId = 321 : i64, kUserCreated = true} : (tensor<1x30x136xbf16>) -> tensor<1x4080xbf16>
        %32 = "tlir.Sub"(%29, %31) {kBinaryOp = true, kConfigured = true, kDieID = -1 : i64, kIsCriticalStage = false, kLatency = 3.190000e+02 : f64, kMacID = "default_62", kSourceContext = #loc89, kStageId = -1 : i64, kStageLatency = 3.190000e+02 : f64, kUniqueId = 322 : i64, kUserCreated = true} : (tensor<1x4080xbf16>, tensor<1x4080xbf16>) -> tensor<1x4080xbf16>
        %33 = "tlir.Mul"(%32, %32) {kBinaryOp = true, kConfigured = true, kDieID = -1 : i64, kIsCriticalStage = false, kLatency = 3.190000e+02 : f64, kMacID = "default_63", kSourceContext = #loc90, kStageId = -1 : i64, kStageLatency = 3.190000e+02 : f64, kUniqueId = 323 : i64, kUserCreated = true} : (tensor<1x4080xbf16>, tensor<1x4080xbf16>) -> tensor<1x4080xbf16>
        %34 = "tlir.MeanAll"(%33) {kConfigured = true, kDieID = -1 : i64, kIsCriticalStage = false, kLatency = 3.190000e+02 : f64, kMacID = "default_64", kSourceContext = #loc91, kStageId = -1 : i64, kStageLatency = 3.190000e+02 : f64, kUniqueId = 324 : i64, kUserCreated = true} : (tensor<1x4080xbf16>) -> tensor<1xbf16>
        "tlir.Store"(%16, %34) {kChipID = 0 : i64, kConfigured = true, kIsCheckPoint = false, kMacID = "default_117", kName = "_tensor", kOpRWPattern0 = "kWriteOperand", kSliceAxes = [], kSourceContext = #loc92, kStoreSlice = false, kUniqueId = 117 : i64, kUserCreated = true} : (tensor<1xbf16>, tensor<1xbf16>) -> ()
        "tlir.terminator"() {kConfigured = true, kMacID = "default_270", kSourceContext = #loc93, kUniqueId = 270 : i64, kUserCreated = true} : () -> ()
      }) {kConfigured = true, kMacID = "default_269", kPartitionId = 0 : i64, kSourceContext = #loc94, kUniqueId = 269 : i64, kUserCreated = true, type = none} : () -> ()
      "tlir.terminator"() {kConfigured = true, kMacID = "default_118", kSourceContext = #loc95, kUniqueId = 118 : i64, kUserCreated = true} : () -> ()
    }) {kConfigured = true, kGlobalId = 0 : i64, kIsHostSection = false, kMacID = "default_90", kPartitionId = 0 : i64, kSectionLatency = 5.6866094382712618E-5 : f64, kSectionName = "$FWD", kSectionUniqueName = "ptconvlstm__lambda_layer__indexselect_as_initial", kSourceContext = #loc96, kUniqueId = 90 : i64, kUserCreated = true, type = none} : () -> ()
    "tlir.Section"() ( {
      %21 = "tlir.Region"() {DataAlignmentGatherInput = 1 : i64, DataAlignmentGatherInputS = 2 : i64, DataAlignmentGatherOutput = 1 : i64, DataAlignmentGatherOutputS = 2 : i64, DataPtrgather.list = [0, 384], DataPtrgather.listS = 2 : i64, VectorDimensionGatherInput = 1 : i64, VectorDimensionGatherInputS = 2 : i64, VectorDimensionGatherOutput = 1 : i64, VectorDimensionGatherOutputS = 2 : i64, VectorOrderingGatherInput = 1 : i64, VectorOrderingGatherInputS = 2 : i64, VectorOrderingGatherOutput = 1 : i64, VectorOrderingGatherOutputS = 2 : i64, distribution = 9 : i32, gather.allow_oob = false, gather.allow_overflow = false, gather.base_list_tile_counters = 0 : i64, gather.base_max = [1, 13, 256, 3], gather.base_mult = [0, 0, 64, 0], gather.base_stride = [1, 1, 1, 1], gather.crush_par = 1 : i64, gather.depth2col = false, gather.depth_base_at = 1 : i64, gather.depth_group = 1 : i64, gather.depth_offset_at = 2 : i64, gather.filter_area = 0 : i64, gather.fixed_length = 0 : i64, gather.group_packed = 13 : i64, gather.group_unpacked = 39 : i64, gather.input_vec_base = -1 : i64, gather.input_vec_bound = -1 : i64, gather.input_vec_inner = -1 : i64, gather.input_vec_outer = -1 : i64, gather.list_length = 39 : i64, gather.list_tiles = 1 : i64, gather.num_channels = 136 : i64, gather.offset_list_tile_counters = 0 : i64, gather.offset_max = [1, 13, 256, 3], gather.offset_mult = [0, 3, 0, 1], gather.offset_stride = [1, 1, 1, 1], gather.output_mode = 0 : i64, gather.output_shape = [408, 256], gather.pace_shape = [], gather.permute = false, gather.reread = 1 : i64, gather.seg_length = 3 : i64, gather.streaming = 1 : i64, gather.streaming_repeat = 0 : i64, gather.surface_output_vectors = 0 : i64, gather.surface_par = 1 : i64, gather.swarm_par = 1 : i64, gather.tile_shape = [], gather.total_bytes = 212992 : i64, gather.total_unpacked = 9984 : i64, gather.use_tile_counter = false, kChipID = 0 : i64, kConfigured = true, kHasShape = true, kIsPlaceholder = false, kMacID = "default_150", kName = "gather_gradient_output_reshape_id1__gather_list", kSourceContext = #loc97, kUniqueId = 150 : i64, kUserCreated = true} : () -> tensor<96xi32>
      "tlir.Chip"() ( {
        %22 = "tlir.Load"(%7) {kChipID = 0 : i64, kConfigured = true, kMacID = "default_127", kSourceContext = #loc98, kStageId = -1 : i64, kUniqueId = 127 : i64, kUserCreated = true} : (tensor<1xbf16>) -> tensor<1xbf16>
        %23 = "tlir.Load"(%1) {kChipID = 0 : i64, kConfigured = true, kMacID = "default_140", kSourceContext = #loc99, kStageId = -1 : i64, kUniqueId = 140 : i64, kUserCreated = true} : (tensor<3xi32>) -> tensor<3xi32>
        %24 = "tlir.mutable.AccumBuffer"() {kChipID = 0 : i64, kConfigured = true, kHasShape = true, kIsPlaceholder = false, kMacID = "default_212", kName = "ptconvlstm__dense_layer__linear_bwd_weight_accum_buffer", kSourceContext = #loc100, kUniqueId = 212 : i64, kUserCreated = true} : () -> tensor<4080x256xbf16>
        %25 = "tlir.mutable.AccumBuffer"() {kChipID = 0 : i64, kConfigured = true, kHasShape = true, kIsPlaceholder = false, kMacID = "default_213", kName = "ptconvlstm__dense_layer__linear_bwd_weight_accum_buffer_1", kSourceContext = #loc101, kUniqueId = 213 : i64, kUserCreated = true} : () -> tensor<4080x1xbf16>
        %26 = "tlir.mutable.AccumBuffer"() {kChipID = 0 : i64, kConfigured = true, kHasShape = true, kIsPlaceholder = false, kMacID = "default_214", kName = "ptconvlstm__conv_layer__conv2d_bwd_accum_buffer", kSourceContext = #loc102, kUniqueId = 214 : i64, kUserCreated = true} : () -> tensor<480x256xbf16>
        %27 = "tlir.mutable.AccumBuffer"() {kChipID = 0 : i64, kConfigured = true, kHasShape = true, kIsPlaceholder = false, kMacID = "default_215", kName = "ptconvlstm__conv_layer__conv2d_bwd_accum_buffer_1", kSourceContext = #loc103, kUniqueId = 215 : i64, kUserCreated = true} : () -> tensor<256x1xbf16>
        "tlir.iter_loop.MetaPipeline"() ( {
          %33 = "tlir.Load"(%8) {kChipID = 0 : i64, kConfigured = true, kKeepDim = false, kLoadSlice = true, kMacID = "default_261", kReverseLoops = [false], kSliceAxes = [0 : index], kSliceSize = 1 : i64, kSourceContext = #loc104, kUniqueId = 261 : i64, kUserCreated = true} : (tensor<1x30x136xbf16>) -> tensor<30x136xbf16>
          %34:2 = "tlir.Buffer"(%33) {kChipID = 0 : i64, kConfigured = true, kDepth = 2 : i64, kHead0Depth = 2 : i64, kHead1Depth = 2 : i64, kMacID = "default_218", kSourceContext = #loc105, kUniqueId = 218 : i64, kUserCreated = true} : (tensor<30x136xbf16>) -> (tensor<30x136xbf16>, tensor<30x136xbf16>)
          %35 = "tlir.Reshape"(%34#1) {kConfigured = true, kDieID = -1 : i64, kIsCriticalStage = false, kLatency = 1.300000e+01 : f64, kMacID = "ptconvlstm__view_bwd", kName = "ptconvlstm__view_bwd", kSourceContext = #loc106, kStageId = -1 : i64, kStageLatency = 1.300000e+01 : f64, kUniqueId = 328 : i64, kUserCreated = true} : (tensor<30x136xbf16>) -> tensor<1x4080xbf16>
          %36 = "tlir.Load"(%6) {kChipID = 0 : i64, kConfigured = true, kKeepDim = false, kLoadSlice = true, kMacID = "default_262", kReverseLoops = [false], kSliceAxes = [0 : index], kSliceSize = 1 : i64, kSourceContext = #loc107, kUniqueId = 262 : i64, kUserCreated = true} : (tensor<1x30x136xbf16>) -> tensor<30x136xbf16>
          %37:2 = "tlir.Buffer"(%36) {kChipID = 0 : i64, kConfigured = true, kDepth = 2 : i64, kHead0Depth = 2 : i64, kHead1Depth = 2 : i64, kMacID = "default_221", kSourceContext = #loc108, kUniqueId = 221 : i64, kUserCreated = true} : (tensor<30x136xbf16>) -> (tensor<30x136xbf16>, tensor<30x136xbf16>)
          %38 = "tlir.Reshape"(%37#1) {kConfigured = true, kDieID = -1 : i64, kIsCriticalStage = false, kLatency = 1.300000e+01 : f64, kMacID = "ptconvlstm__reshape_1_recompute_", kName = "ptconvlstm__reshape_1_recompute_", kSourceContext = #loc109, kStageId = -1 : i64, kStageLatency = 1.300000e+01 : f64, kUniqueId = 329 : i64, kUserCreated = true} : (tensor<30x136xbf16>) -> tensor<4080xbf16>
          %39 = "tlir.Load"(%14) {kChipID = 0 : i64, kConfigured = true, kKeepDim = false, kLoadSlice = true, kMacID = "default_263", kReverseLoops = [false], kSliceAxes = [0 : index], kSliceSize = 1 : i64, kSourceContext = #loc110, kUniqueId = 263 : i64, kUserCreated = true} : (tensor<1x4080xbf16>) -> tensor<4080xbf16>
          %40:2 = "tlir.Buffer"(%39) {kChipID = 0 : i64, kConfigured = true, kDepth = 2 : i64, kHead0Depth = 2 : i64, kHead1Depth = 2 : i64, kMacID = "default_224", kSourceContext = #loc111, kUniqueId = 224 : i64, kUserCreated = true} : (tensor<4080xbf16>) -> (tensor<4080xbf16>, tensor<4080xbf16>)
          %41:2 = "tlir.Buffer"(%38) {kChipID = 0 : i64, kConfigured = true, kDepth = 2 : i64, kHead0Depth = 2 : i64, kHead1Depth = 2 : i64, kMacID = "default_225", kSourceContext = #loc112, kUniqueId = 225 : i64, kUserCreated = true} : (tensor<4080xbf16>) -> (tensor<4080xbf16>, tensor<4080xbf16>)
          %42 = "tlir.Sub"(%40#1, %41#1) {kBinaryOp = true, kConfigured = true, kDieID = -1 : i64, kIsCriticalStage = false, kLatency = 1.060000e+02 : f64, kMacID = "ptconvlstm__criterion__mseloss_bwd", kName = "ptconvlstm__criterion__mseloss_bwd_sub", kSourceContext = #loc113, kStageId = -1 : i64, kStageLatency = 1.060000e+02 : f64, kUniqueId = 330 : i64, kUserCreated = true} : (tensor<4080xbf16>, tensor<4080xbf16>) -> tensor<4080xbf16>
          %43 = "tlir.Scale"(%42) {kConditionalScaling = false, kConfigured = true, kDieID = -1 : i64, kIsCriticalStage = false, kLatency = 1.060000e+02 : f64, kMacID = "default_67", kScaleFactorFloat = 4.920960e-04 : bf16, kSourceContext = #loc114, kStageId = -1 : i64, kStageLatency = 1.060000e+02 : f64, kUniqueId = 331 : i64, kUserCreated = true, kUsingInputB = false} : (tensor<4080xbf16>) -> tensor<4080xbf16>
          %44 = "tlir.Scale"(%43, %22) {kConditionalScaling = false, kConfigured = true, kDieID = -1 : i64, kIsCriticalStage = false, kLatency = 1.060000e+02 : f64, kMacID = "default_68", kSourceContext = #loc115, kStageId = -1 : i64, kStageLatency = 1.060000e+02 : f64, kUniqueId = 332 : i64, kUserCreated = true, kUsingInputB = true} : (tensor<4080xbf16>, tensor<1xbf16>) -> tensor<4080xbf16>
          %45:2 = "tlir.Buffer"(%44) {kChipID = 0 : i64, kConfigured = true, kDepth = 2 : i64, kHead0Depth = 2 : i64, kHead1Depth = 2 : i64, kMacID = "default_229", kSourceContext = #loc116, kUniqueId = 229 : i64, kUserCreated = true} : (tensor<4080xbf16>) -> (tensor<4080xbf16>, tensor<4080xbf16>)
          %46 = "tlir.Reshape"(%45#1) {kConfigured = true, kDieID = -1 : i64, kIsCriticalStage = false, kLatency = 1.300000e+01 : f64, kMacID = "ptconvlstm__reshape_bwd", kName = "ptconvlstm__reshape_bwd", kSourceContext = #loc117, kStageId = -1 : i64, kStageLatency = 1.300000e+01 : f64, kUniqueId = 333 : i64, kUserCreated = true} : (tensor<4080xbf16>) -> tensor<1x4080xbf16>
          %47:2 = "tlir.Buffer"(%46) {kChipID = 0 : i64, kConfigured = true, kDepth = 2 : i64, kHead0Depth = 2 : i64, kHead1Depth = 2 : i64, kMacID = "default_231", kSourceContext = #loc118, kUniqueId = 231 : i64, kUserCreated = true} : (tensor<1x4080xbf16>) -> (tensor<1x4080xbf16>, tensor<1x4080xbf16>)
          %48:2 = "tlir.Buffer"(%35) {kChipID = 0 : i64, kConfigured = true, kDepth = 2 : i64, kHead0Depth = 2 : i64, kHead1Depth = 2 : i64, kMacID = "default_232", kSourceContext = #loc119, kUniqueId = 232 : i64, kUserCreated = true} : (tensor<1x4080xbf16>) -> (tensor<1x4080xbf16>, tensor<1x4080xbf16>)
          %49 = "tlir.AddN"(%47#1, %48#1) {kConfigured = true, kDieID = -1 : i64, kIsCriticalStage = false, kLatency = 1.060000e+02 : f64, kMacID = "ptconvlstm__dense_layer__linear_t_output0_bwd_addn0", kName = "ptconvlstm__dense_layer__linear_t_output0_bwd_addn0", kSourceContext = #loc120, kStageId = -1 : i64, kStageLatency = 1.060000e+02 : f64, kUniqueId = 334 : i64, kUserCreated = true} : (tensor<1x4080xbf16>, tensor<1x4080xbf16>) -> tensor<1x4080xbf16>
          %50:2 = "tlir.Buffer"(%49) {kChipID = 0 : i64, kConfigured = true, kDepth = 2 : i64, kHead0Depth = 2 : i64, kHead1Depth = 2 : i64, kMacID = "default_234", kSourceContext = #loc121, kUniqueId = 234 : i64, kUserCreated = true} : (tensor<1x4080xbf16>) -> (tensor<1x4080xbf16>, tensor<1x4080xbf16>)
          %51 = "tlir.PermuteView"(%50#1) {kConfigured = true, kDieID = -1 : i64, kIsCriticalStage = false, kLatency = 0.000000e+00 : f64, kMacID = "ptconvlstm__dense_layer__linear_t_output0_bwd", kName = "ptconvlstm__dense_layer__linear_t_output0_bwd", kPermutation = [1, 0], kSourceContext = #loc122, kStageId = -1 : i64, kStageLatency = 0.000000e+00 : f64, kUniqueId = 335 : i64, kUserCreated = true} : (tensor<1x4080xbf16>) -> tensor<4080x1xbf16>
          %52:2 = "tlir.Buffer"(%51) {kChipID = 0 : i64, kConfigured = true, kDepth = 2 : i64, kHead0Depth = 2 : i64, kHead1Depth = 2 : i64, kMacID = "default_236", kSourceContext = #loc123, kUniqueId = 236 : i64, kUserCreated = true} : (tensor<4080x1xbf16>) -> (tensor<4080x1xbf16>, tensor<4080x1xbf16>)
          %53 = "tlir.Load"(%5) {kChipID = 0 : i64, kConfigured = true, kMacID = "default_132", kSourceContext = #loc124, kUniqueId = 336 : i64, kUserCreated = true} : (tensor<4080x256xbf16>) -> tensor<4080x256xbf16>
          %54 = "tlir.Transpose"(%53) {kConfigured = true, kMacID = "ptconvlstm__dense_layer__linear_bwd_loss", kNoExperimentalHD = false, kSourceContext = #loc125, kTransposeType = 2 : i64, kUniqueId = 337 : i64, kUserCreated = true} : (tensor<4080x256xbf16>) -> tensor<256x4080xbf16>
          %55 = "tlir.Linear"(%54, %52#1) {kBoxLayout = true, kBoxPerPartition = true, kConfigured = true, kInputAIsWeight = true, kIsCriticalStage = false, kMacID = "ptconvlstm__dense_layer__linear_bwd_loss", kName = "ptconvlstm__dense_layer__linear_bwd_loss_grad_b", kNumColComputeUnits = 1 : i64, kNumPartitions = 1 : i64, kNumRowComputeUnits = 8 : i64, kReadAHead = 0 : i32, kReadBHead = 1 : i32, kSourceContext = #loc126, kStageId = -1 : i64, kStageLatency = 4.367000e+03 : f64, kUniqueId = 338 : i64, kUseBigGemm = true, kUserCreated = true, kWbufSplit = false} : (tensor<256x4080xbf16>, tensor<4080x1xbf16>) -> tensor<256x1xbf16>
          %56 = "tlir.Load"(%13) {kChipID = 0 : i64, kConfigured = true, kKeepDim = false, kLoadSlice = true, kMacID = "default_264", kReverseLoops = [false], kSliceAxes = [0 : index], kSliceSize = 1 : i64, kSourceContext = #loc127, kUniqueId = 264 : i64, kUserCreated = true} : (tensor<1x256x1xbf16>) -> tensor<256x1xbf16>
          %57:2 = "tlir.Buffer"(%56) {kChipID = 0 : i64, kConfigured = true, kDepth = 2 : i64, kHead0Depth = 2 : i64, kHead1Depth = 2 : i64, kMacID = "default_239", kSourceContext = #loc128, kUniqueId = 239 : i64, kUserCreated = true} : (tensor<256x1xbf16>) -> (tensor<256x1xbf16>, tensor<256x1xbf16>)
          %58:2 = "tlir.Buffer"(%51) {kChipID = 0 : i64, kConfigured = true, kDepth = 2 : i64, kHead0Depth = 2 : i64, kHead1Depth = 2 : i64, kMacID = "default_240", kSourceContext = #loc129, kUniqueId = 240 : i64, kUserCreated = true} : (tensor<4080x1xbf16>) -> (tensor<4080x1xbf16>, tensor<4080x1xbf16>)
          %59 = "tlir.Placeholder"() {kConfigured = true, kMacID = "ptconvlstm__dense_layer__linear_bwd_weight", kSourceContext = #loc130, kUniqueId = 339 : i64, kUserCreated = true} : () -> none
          %60:3 = "tlir.BigLinearGrad"(%58#1, %57#1, %59) {kColPar = 2 : i64, kConfigured = true, kEnableBoxAccumTailPmu = true, kEnableBoxLayout = true, kEnableBoxOutput = true, kEnableBoxPerPartition = false, kEnableFusedGradientBias = false, kEnableLoopBuffer = false, kExternalBTranspose = false, kHasBias = true, kIsCriticalStage = false, kMacID = "ptconvlstm__dense_layer__linear_bwd_weight", kName = "ptconvlstm__dense_layer__linear_bwd_weight_grad_a", kNumPartitions = 32 : i64, kRowPar = 1 : i64, kSourceContext = #loc131, kStageId = -1 : i64, kStageLatency = 4.096000e+03 : f64, kUniqueId = 340 : i64, kUserCreated = true} : (tensor<4080x1xbf16>, tensor<256x1xbf16>, none) -> (tensor<4080x256xbf16>, tensor<4080x1xbf16>, tensor<4080x1xbf16>)
          %61:2 = "tlir.Buffer"(%55) {kChipID = 0 : i64, kConfigured = true, kDepth = 2 : i64, kHead0Depth = 4 : i64, kHead1Depth = 4 : i64, kMacID = "default_242", kSourceContext = #loc132, kUniqueId = 242 : i64, kUserCreated = true} : (tensor<256x1xbf16>) -> (tensor<256x1xbf16>, tensor<256x1xbf16>)
          %62 = "tlir.Reshape"(%61#1) {kConfigured = true, kDieID = -1 : i64, kIsCriticalStage = false, kLatency = 1.300000e+01 : f64, kMacID = "ptconvlstm__conv_layer__reshape_2_bwd", kName = "ptconvlstm__conv_layer__reshape_2_bwd", kSourceContext = #loc133, kStageId = -1 : i64, kStageLatency = 1.300000e+01 : f64, kUniqueId = 341 : i64, kUserCreated = true} : (tensor<256x1xbf16>) -> tensor<256x1x1xbf16>
          %63 = "tlir.Load"(%2) {kChipID = 0 : i64, kConfigured = true, kKeepDim = false, kLoadSlice = true, kMacID = "default_265", kReverseLoops = [false], kSliceAxes = [0 : index], kSliceSize = 1 : i64, kSourceContext = #loc134, kUniqueId = 265 : i64, kUserCreated = true} : (tensor<1x60x136xbf16>) -> tensor<60x136xbf16>
          %64:2 = "tlir.Buffer"(%63) {kChipID = 0 : i64, kConfigured = true, kDepth = 2 : i64, kHead0Depth = 2 : i64, kHead1Depth = 2 : i64, kMacID = "default_245", kSourceContext = #loc135, kUniqueId = 245 : i64, kUserCreated = true} : (tensor<60x136xbf16>) -> (tensor<60x136xbf16>, tensor<60x136xbf16>)
          %65:2 = "tlir.Buffer"(%23) {kChipID = 0 : i64, kConfigured = true, kDepth = 1 : i64, kHead0Depth = 1 : i64, kHead1Depth = 1 : i64, kMacID = "default_246", kRereads1 = 1 : i64, kSourceContext = #loc136, kStageId = 6 : i64, kUniqueId = 246 : i64, kUserCreated = true} : (tensor<3xi32>) -> (tensor<3xi32>, tensor<3xi32>)
          %66 = "tlir.Index"(%64#1, %65#1) {kConfigured = true, kDieID = -1 : i64, kDim = 0 : i64, kIsCriticalStage = false, kLatency = 1.100000e+01 : f64, kMacID = "ptconvlstm__lambda_layer__indexselect_recompute_", kName = "ptconvlstm__lambda_layer__indexselect_recompute_", kSourceContext = #loc137, kStageId = -1 : i64, kStageLatency = 1.100000e+01 : f64, kUniqueId = 342 : i64, kUserCreated = true} : (tensor<60x136xbf16>, tensor<3xi32>) -> tensor<3x136xbf16>
          %67:2 = "tlir.Buffer"(%66) {kChipID = 0 : i64, kConfigured = true, kDepth = 2 : i64, kHead0Depth = 2 : i64, kHead1Depth = 2 : i64, kMacID = "default_248", kSourceContext = #loc138, kUniqueId = 248 : i64, kUserCreated = true} : (tensor<3x136xbf16>) -> (tensor<3x136xbf16>, tensor<3x136xbf16>)
          %68 = "tlir.PermuteView"(%67#1) {kConfigured = true, kDieID = -1 : i64, kIsCriticalStage = false, kLatency = 1.300000e+01 : f64, kMacID = "ptconvlstm__permute_recompute_", kName = "ptconvlstm__permute_recompute_", kPermutation = [1, 0], kSourceContext = #loc139, kStageId = -1 : i64, kStageLatency = 1.300000e+01 : f64, kUniqueId = 377 : i64, kUserCreated = true} : (tensor<3x136xbf16>) -> tensor<136x3xbf16>
          %69:2 = "tlir.Buffer"(%68) {kChipID = 0 : i64, kConfigured = true, kDepth = 2 : i64, kHead0Depth = 2 : i64, kHead1Depth = 2 : i64, kMacID = "default_250", kSourceContext = #loc140, kUniqueId = 250 : i64, kUserCreated = true} : (tensor<136x3xbf16>) -> (tensor<136x3xbf16>, tensor<136x3xbf16>)
          %70 = "tlir.Reshape"(%69#1) {kConfigured = true, kDieID = -1 : i64, kIsCriticalStage = false, kLatency = 1.300000e+01 : f64, kMacID = "ptconvlstm__conv_layer__reshape_recompute_", kName = "ptconvlstm__conv_layer__reshape_recompute_", kSourceContext = #loc141, kStageId = -1 : i64, kStageLatency = 1.300000e+01 : f64, kUniqueId = 344 : i64, kUserCreated = true} : (tensor<136x3xbf16>) -> tensor<136x3x1xbf16>
          %71:2 = "tlir.Buffer"(%70) {kChipID = 0 : i64, kConfigured = true, kDepth = 2 : i64, kHead0Depth = 2 : i64, kHead1Depth = 2 : i64, kMacID = "default_252", kSourceContext = #loc142, kUniqueId = 252 : i64, kUserCreated = true} : (tensor<136x3x1xbf16>) -> (tensor<136x3x1xbf16>, tensor<136x3x1xbf16>)
          %72:2 = "tlir.Buffer"(%62) {kChipID = 0 : i64, kConfigured = true, kDepth = 2 : i64, kHead0Depth = 2 : i64, kHead1Depth = 2 : i64, kMacID = "default_253", kSourceContext = #loc143, kUniqueId = 253 : i64, kUserCreated = true} : (tensor<256x1x1xbf16>) -> (tensor<256x1x1xbf16>, tensor<256x1x1xbf16>)
          %73 = "tlir.StreamingPermute"(%72#1) {kConfigured = true, kMacID = "ptconvlstm__conv_layer__conv2d_bwd", kPermuteType = 4 : i64, kSourceContext = #loc144, kUniqueId = 357 : i64, kUserCreated = true} : (tensor<256x1x1xbf16>) -> tensor<1x256xbf16>
          %74:2 = "tlir.Buffer"(%71#1) {kBufferType = 1 : i64, kConfigured = true, kDepth = 2 : i64, kHead0Depth = 2 : i64, kHead1Depth = 2 : i64, kIsReshapeBuffer = true, kIsSplitImageBuffer = false, kMacID = "ptconvlstm__conv_layer__conv2d_bwd", kReshapeBase = 0 : i64, kReshapeBound = 4 : i64, kReshapeInner = true, kReshapeVecInner = 5 : i64, kReshapeVecOuter = 3 : i64, kSourceContext = #loc145, kUniqueId = 358 : i64, kUserCreated = true} : (tensor<136x3x1xbf16>) -> (tensor<136x3x1xbf16>, tensor<136x3x1xbf16>)
          %75 = "tlir.Region"() {DataAlignmentGatherInput = 1 : i64, DataAlignmentGatherInputS = 2 : i64, DataAlignmentGatherOutput = 1 : i64, DataAlignmentGatherOutputS = 2 : i64, DataPtrgather.list = [837888, 64], DataPtrgather.listS = 2 : i64, VectorDimensionGatherInput = 2 : i64, VectorDimensionGatherInputS = 2 : i64, VectorDimensionGatherOutput = 1 : i64, VectorDimensionGatherOutputS = 2 : i64, VectorOrderingGatherInput = 2 : i64, VectorOrderingGatherInputS = 2 : i64, VectorOrderingGatherOutput = 1 : i64, VectorOrderingGatherOutputS = 2 : i64, distribution = 9 : i32, gather.allow_oob = true, gather.allow_overflow = false, gather.base_list_tile_counters = 0 : i64, gather.base_max = [320, 3, 1], gather.base_mult = [1, 0, 0], gather.base_stride = [64, 1, 1], gather.crush_par = 1 : i64, gather.depth2col = false, gather.depth_base_at = 1 : i64, gather.depth_group = 1 : i64, gather.depth_offset_at = 2 : i64, gather.filter_area = 0 : i64, gather.fixed_length = 32 : i64, gather.group_packed = 15 : i64, gather.group_unpacked = 15 : i64, gather.input_vec_base = -1 : i64, gather.input_vec_bound = -1 : i64, gather.input_vec_inner = -1 : i64, gather.input_vec_outer = -1 : i64, gather.list_length = 3 : i64, gather.list_tiles = 1 : i64, gather.num_channels = 136 : i64, gather.offset_list_tile_counters = 0 : i64, gather.offset_max = [160, 3], gather.offset_mult = [0, 1], gather.offset_stride = [32, 1], gather.output_mode = 1 : i64, gather.output_shape = [480, 1], gather.pace_shape = [32, 1], gather.permute = false, gather.reread = 1 : i64, gather.seg_length = 1 : i64, gather.streaming = 1 : i64, gather.streaming_repeat = 0 : i64, gather.surface_output_vectors = 0 : i64, gather.surface_par = 1 : i64, gather.swarm_par = 1 : i64, gather.tile_shape = [], gather.total_bytes = 960 : i64, gather.total_unpacked = 15 : i64, gather.use_tile_counter = false, kConfigured = true, kHasShape = true, kIsPlaceholder = false, kMacID = "ptconvlstm__conv_layer__conv2d_bwd", kName = "ptconvlstm__conv_layer__conv2d_bwd_conv_grad_stream0_kernel0__gather_list", kPlacementHint = [0, 1, 1, 0], kSourceContext = #loc146, kUniqueId = 359 : i64, kUserCreated = true} : () -> tensor<16xi32>
          %76 = "tlir.Gather"(%74#1, %75) {DataAlignment0 = 1 : i64, DataAlignment0S = 4 : i64, DataAlignmentGatherInput = 1 : i64, DataAlignmentGatherInputS = 2 : i64, DataAlignmentGatherOutput = 1 : i64, DataAlignmentGatherOutputS = 2 : i64, DataPtrgather.list = [837952, 64], DataPtrgather.listS = 2 : i64, VectorDimension0 = 1 : i64, VectorDimension0S = 4 : i64, VectorDimensionGatherInput = 2 : i64, VectorDimensionGatherInputS = 2 : i64, VectorDimensionGatherOutput = 1 : i64, VectorDimensionGatherOutputS = 2 : i64, VectorOrdering0 = 1 : i64, VectorOrdering0S = 4 : i64, VectorOrderingGatherInput = 2 : i64, VectorOrderingGatherInputS = 2 : i64, VectorOrderingGatherOutput = 1 : i64, VectorOrderingGatherOutputS = 2 : i64, distribution = 9 : i32, gather.allow_oob = true, gather.allow_overflow = false, gather.base_list_tile_counters = 0 : i64, gather.base_max = [320, 3, 1], gather.base_mult = [1, 0, 0], gather.base_stride = [64, 1, 1], gather.crush_par = 1 : i64, gather.depth2col = false, gather.depth_base_at = 1 : i64, gather.depth_group = 1 : i64, gather.depth_offset_at = 2 : i64, gather.filter_area = 0 : i64, gather.fixed_length = 32 : i64, gather.group_packed = 15 : i64, gather.group_unpacked = 15 : i64, gather.input_vec_base = -1 : i64, gather.input_vec_bound = -1 : i64, gather.input_vec_inner = -1 : i64, gather.input_vec_outer = -1 : i64, gather.list_length = 3 : i64, gather.list_tiles = 1 : i64, gather.num_channels = 136 : i64, gather.offset_list_tile_counters = 0 : i64, gather.offset_max = [160, 3], gather.offset_mult = [0, 1], gather.offset_stride = [32, 1], gather.output_mode = 1 : i64, gather.output_shape = [480, 1], gather.pace_shape = [32, 1], gather.permute = false, gather.reread = 1 : i64, gather.seg_length = 1 : i64, gather.streaming = 1 : i64, gather.streaming_repeat = 0 : i64, gather.surface_output_vectors = 0 : i64, gather.surface_par = 1 : i64, gather.swarm_par = 1 : i64, gather.tile_shape = [], gather.total_bytes = 960 : i64, gather.total_unpacked = 15 : i64, gather.use_tile_counter = false, kConfigured = true, kDepth2Col = false, kDepth2ColPointwise = false, kDepth2ColPointwiseGrad = false, kMacID = "ptconvlstm__conv_layer__conv2d_bwd", kPaceMultiplier = 15 : i64, kPlacementHint = [0, 1, 1, 0], kSourceContext = #loc147, kStageMultiplierBase = 1 : i64, kUniqueId = 360 : i64, kUserCreated = true} : (tensor<136x3x1xbf16>, tensor<16xi32>) -> tensor<480x1xbf16>
          %77:2 = "tlir.Buffer"(%76) {kConfigured = true, kDepth = 2 : i64, kHead0Depth = 2 : i64, kHead1Depth = 2 : i64, kMacID = "ptconvlstm__conv_layer__conv2d_bwd", kSourceContext = #loc148, kStageMultiplierBase = 1 : i64, kUniqueId = 361 : i64, kUserCreated = true} : (tensor<480x1xbf16>) -> (tensor<480x1xbf16>, tensor<480x1xbf16>)
          %78:4 = "tlir.Split"(%73) {kAxis = 1 : i64, kBufferDepth = 2 : i64, kConfigured = true, kMacID = "ptconvlstm__conv_layer__conv2d_bwd", kSectionSizes = [72 : index, 72 : index, 72 : index, 40 : index], kSourceContext = #loc149, kSplitGemmReread = false, kSplitType = 1 : i64, kUniqueId = 362 : i64, kUserCreated = true} : (tensor<1x256xbf16>) -> (tensor<1x72xbf16>, tensor<1x72xbf16>, tensor<1x72xbf16>, tensor<1x40xbf16>)
          %79 = "tlir.Linear"(%77#1, %78#0) {kConcatGroup = 4 : i64, kConfigured = true, kHasWeight = false, kIgnoreLinearColParUpdate = true, kInputAIsWeight = false, kMacID = "ptconvlstm__conv_layer__conv2d_bwd", kNumColComputeUnits = 2 : i64, kNumPartitions = 1 : i64, kNumRowComputeUnits = 1 : i64, kReadAHead = 0 : i32, kReadBHead = 1 : i32, kSeqIdBase = 0 : i64, kSourceContext = #loc150, kStageMultiplierBase = 15 : i64, kStreamingColPar = true, kUniqueId = 363 : i64, kUseBigGemm = true, kUserCreated = true, kWbufRepeat = 0 : i64, kWbufRepeatClipAt = 0 : i64, kWbufRepeatInterleaveSize = 0 : i64} : (tensor<480x1xbf16>, tensor<1x72xbf16>) -> tensor<480x72xbf16>
          %80 = "tlir.Linear"(%77#1, %78#1) {kConcatGroup = 4 : i64, kConfigured = true, kHasWeight = false, kIgnoreLinearColParUpdate = true, kInputAIsWeight = false, kMacID = "ptconvlstm__conv_layer__conv2d_bwd", kNumColComputeUnits = 2 : i64, kNumPartitions = 1 : i64, kNumRowComputeUnits = 1 : i64, kReadAHead = 0 : i32, kReadBHead = 1 : i32, kSeqIdBase = 72 : i64, kSourceContext = #loc151, kStageMultiplierBase = 15 : i64, kStreamingColPar = true, kUniqueId = 364 : i64, kUseBigGemm = true, kUserCreated = true, kWbufRepeat = 0 : i64, kWbufRepeatClipAt = 0 : i64, kWbufRepeatInterleaveSize = 0 : i64} : (tensor<480x1xbf16>, tensor<1x72xbf16>) -> tensor<480x72xbf16>
          %81 = "tlir.Linear"(%77#1, %78#2) {kConcatGroup = 4 : i64, kConfigured = true, kHasWeight = false, kIgnoreLinearColParUpdate = true, kInputAIsWeight = false, kMacID = "ptconvlstm__conv_layer__conv2d_bwd", kNumColComputeUnits = 2 : i64, kNumPartitions = 1 : i64, kNumRowComputeUnits = 1 : i64, kReadAHead = 0 : i32, kReadBHead = 1 : i32, kSeqIdBase = 144 : i64, kSourceContext = #loc152, kStageMultiplierBase = 15 : i64, kStreamingColPar = true, kUniqueId = 365 : i64, kUseBigGemm = true, kUserCreated = true, kWbufRepeat = 0 : i64, kWbufRepeatClipAt = 0 : i64, kWbufRepeatInterleaveSize = 0 : i64} : (tensor<480x1xbf16>, tensor<1x72xbf16>) -> tensor<480x72xbf16>
          %82 = "tlir.Linear"(%77#1, %78#3) {kConcatGroup = 4 : i64, kConfigured = true, kHasWeight = false, kIgnoreLinearColParUpdate = true, kInputAIsWeight = false, kMacID = "ptconvlstm__conv_layer__conv2d_bwd", kNumColComputeUnits = 2 : i64, kNumPartitions = 1 : i64, kNumRowComputeUnits = 1 : i64, kReadAHead = 0 : i32, kReadBHead = 1 : i32, kSeqIdBase = 216 : i64, kSourceContext = #loc153, kStageMultiplierBase = 15 : i64, kStreamingColPar = true, kUniqueId = 366 : i64, kUseBigGemm = true, kUserCreated = true, kWbufRepeat = 0 : i64, kWbufRepeatClipAt = 0 : i64, kWbufRepeatInterleaveSize = 0 : i64} : (tensor<480x1xbf16>, tensor<1x40xbf16>) -> tensor<480x40xbf16>
          %83 = "tlir.Concat"(%79, %80, %81, %82) {kAxis = 1 : i64, kConcatGroup = 4 : i64, kConcatType = 1 : i64, kConfigured = true, kIntColParVectors = 72 : i64, kMacID = "ptconvlstm__conv_layer__conv2d_bwd", kSourceContext = #loc154, kTimeSlices = [72, 72, 72, 40], kUniqueId = 367 : i64, kUserCreated = true} : (tensor<480x72xbf16>, tensor<480x72xbf16>, tensor<480x72xbf16>, tensor<480x40xbf16>) -> tensor<480x256xbf16>
          %84:2 = "tlir.Buffer"(%83) {kBufferType = 1 : i64, kConfigured = true, kDepth = 2 : i64, kHead0Depth = 2 : i64, kHead1Depth = 2 : i64, kMacID = "ptconvlstm__conv_layer__conv2d_bwd", kSourceContext = #loc155, kUniqueId = 368 : i64, kUserCreated = true} : (tensor<480x256xbf16>) -> (tensor<480x256xbf16>, tensor<480x256xbf16>)
          %85 = "tlir.ConcatView"(%84#1) {DataAlignmentkPreserveLayout = 1 : i64, DataAlignmentkPreserveLayoutS = 2 : i64, VectorDimensionkPreserveLayout = 1 : i64, VectorDimensionkPreserveLayoutS = 2 : i64, VectorOrderingkPreserveLayout = 1 : i64, VectorOrderingkPreserveLayoutS = 2 : i64, kAxis = 0 : i64, kConfigured = true, kMacID = "ptconvlstm__conv_layer__conv2d_bwd", kSourceContext = #loc156, kUniqueId = 369 : i64, kUserCreated = true} : (tensor<480x256xbf16>) -> tensor<480x256xbf16>
          %86 = "tlir.BiasTransposeGrad"(%72#1) {kConfigured = true, kMacID = "ptconvlstm__conv_layer__conv2d_bwd", kSourceContext = #loc157, kStreaming = true, kUniqueId = 370 : i64, kUserCreated = true} : (tensor<256x1x1xbf16>) -> tensor<256x1x1xbf16>
          %87 = "tlir.Reshape"(%86) {kConfigured = true, kMacID = "ptconvlstm__conv_layer__conv2d_bwd", kSourceContext = #loc158, kUniqueId = 371 : i64, kUserCreated = true} : (tensor<256x1x1xbf16>) -> tensor<256x1xbf16>
          %88 = "tlir.LayoutCast"(%87) {DataAlignmentkOutputLayout = 1 : i64, DataAlignmentkOutputLayoutS = 2 : i64, DataAlignmentkRequiredLayout = 1 : i64, DataAlignmentkRequiredLayoutS = 2 : i64, VectorDimensionkOutputLayout = 1 : i64, VectorDimensionkOutputLayoutS = 2 : i64, VectorDimensionkRequiredLayout = 1 : i64, VectorDimensionkRequiredLayoutS = 2 : i64, VectorOrderingkOutputLayout = 1 : i64, VectorOrderingkOutputLayoutS = 2 : i64, VectorOrderingkRequiredLayout = 1 : i64, VectorOrderingkRequiredLayoutS = 2 : i64, kChecked = false, kConfigured = true, kForced = true, kMacID = "ptconvlstm__conv_layer__conv2d_bwd", kSourceContext = #loc159, kUniqueId = 372 : i64, kUserCreated = true} : (tensor<256x1xbf16>) -> tensor<256x1xbf16>
          "tlir.mutate.Accumulate"(%24, %60#0) {kChipID = 0 : i64, kConfigured = true, kMacID = "ptconvlstm__dense_layer__linear_bwd_weight", kName = "ptconvlstm__dense_layer__linear_bwd_weight_accum", kOpRWPattern0 = "kWriteOperand", kSourceContext = #loc160, kUniqueId = 255 : i64, kUserCreated = true} : (tensor<4080x256xbf16>, tensor<4080x256xbf16>) -> ()
          "tlir.mutate.Accumulate"(%25, %60#1) {kChipID = 0 : i64, kConfigured = true, kMacID = "ptconvlstm__dense_layer__linear_bwd_weight", kName = "ptconvlstm__dense_layer__linear_bwd_weight_accum_1", kOpRWPattern0 = "kWriteOperand", kSourceContext = #loc161, kUniqueId = 256 : i64, kUserCreated = true} : (tensor<4080x1xbf16>, tensor<4080x1xbf16>) -> ()
          "tlir.mutate.Accumulate"(%26, %85) {kAccumVersion = 3 : i64, kChipID = 0 : i64, kConfigured = true, kMacID = "ptconvlstm__conv_layer__conv2d_bwd", kName = "ptconvlstm__conv_layer__conv2d_bwd_accum", kOpRWPattern0 = "kWriteOperand", kSourceContext = #loc162, kUniqueId = 257 : i64, kUserCreated = true} : (tensor<480x256xbf16>, tensor<480x256xbf16>) -> ()
          "tlir.mutate.Accumulate"(%27, %88) {kAccumVersion = 3 : i64, kChipID = 0 : i64, kConfigured = true, kMacID = "ptconvlstm__conv_layer__conv2d_bwd", kName = "ptconvlstm__conv_layer__conv2d_bwd_accum_1", kOpRWPattern0 = "kWriteOperand", kSourceContext = #loc163, kUniqueId = 258 : i64, kUserCreated = true} : (tensor<256x1xbf16>, tensor<256x1xbf16>) -> ()
          "tlir.terminator"() {kConfigured = true, kMacID = "default_276", kSourceContext = #loc164, kUniqueId = 276 : i64, kUserCreated = true} : () -> ()
        }) {kConfigured = true, kMacID = "default_216", kNumIterations = 1 : i64, kSourceContext = #loc165, kUniqueId = 275 : i64, kUserCreated = true, type = none} : () -> ()
        "tlir.Store"(%17, %24) {kChipID = 0 : i64, kConfigured = true, kIsCheckPoint = false, kMacID = "default_136", kName = "ptconvlstm__dense_layer__linear_bwd_weight_tensor", kOpRWPattern0 = "kWriteOperand", kSliceAxes = [], kSourceContext = #loc166, kStoreSlice = false, kUniqueId = 136 : i64, kUserCreated = true} : (tensor<4080x256xbf16>, tensor<4080x256xbf16>) -> ()
        "tlir.Store"(%18, %25) {kChipID = 0 : i64, kConfigured = true, kIsCheckPoint = false, kMacID = "default_137", kName = "ptconvlstm__dense_layer__linear_bwd_weight_tensor1", kOpRWPattern0 = "kWriteOperand", kSliceAxes = [], kSourceContext = #loc167, kStoreSlice = false, kUniqueId = 137 : i64, kUserCreated = true} : (tensor<4080x1xbf16>, tensor<4080x1xbf16>) -> ()
        %28:2 = "tlir.Buffer"(%26) {kChipID = 0 : i64, kConfigured = true, kDepth = 2 : i64, kHead0Depth = 2 : i64, kHead1Depth = 2 : i64, kMacID = "default_149", kSourceContext = #loc168, kUniqueId = 149 : i64, kUserCreated = true} : (tensor<480x256xbf16>) -> (tensor<480x256xbf16>, tensor<480x256xbf16>)
        %29 = "tlir.Gather"(%28#1, %21) {DataAlignment0 = 1 : i64, DataAlignment0S = 4 : i64, DataAlignmentGatherInput = 1 : i64, DataAlignmentGatherInputS = 2 : i64, DataAlignmentGatherOutput = 1 : i64, DataAlignmentGatherOutputS = 2 : i64, DataPtrgather.list = [384, 384], DataPtrgather.listS = 2 : i64, VectorDimension0 = 1 : i64, VectorDimension0S = 4 : i64, VectorDimensionGatherInput = 1 : i64, VectorDimensionGatherInputS = 2 : i64, VectorDimensionGatherOutput = 1 : i64, VectorDimensionGatherOutputS = 2 : i64, VectorOrdering0 = 1 : i64, VectorOrdering0S = 4 : i64, VectorOrderingGatherInput = 1 : i64, VectorOrderingGatherInputS = 2 : i64, VectorOrderingGatherOutput = 1 : i64, VectorOrderingGatherOutputS = 2 : i64, distribution = 9 : i32, gather.allow_oob = false, gather.allow_overflow = false, gather.base_list_tile_counters = 0 : i64, gather.base_max = [1, 13, 256, 3], gather.base_mult = [0, 0, 64, 0], gather.base_stride = [1, 1, 1, 1], gather.crush_par = 1 : i64, gather.depth2col = false, gather.depth_base_at = 1 : i64, gather.depth_group = 1 : i64, gather.depth_offset_at = 2 : i64, gather.filter_area = 0 : i64, gather.fixed_length = 0 : i64, gather.group_packed = 13 : i64, gather.group_unpacked = 39 : i64, gather.input_vec_base = -1 : i64, gather.input_vec_bound = -1 : i64, gather.input_vec_inner = -1 : i64, gather.input_vec_outer = -1 : i64, gather.list_length = 39 : i64, gather.list_tiles = 1 : i64, gather.num_channels = 136 : i64, gather.offset_list_tile_counters = 0 : i64, gather.offset_max = [1, 13, 256, 3], gather.offset_mult = [0, 3, 0, 1], gather.offset_stride = [1, 1, 1, 1], gather.output_mode = 0 : i64, gather.output_shape = [408, 256], gather.pace_shape = [], gather.permute = false, gather.reread = 1 : i64, gather.seg_length = 3 : i64, gather.streaming = 1 : i64, gather.streaming_repeat = 0 : i64, gather.surface_output_vectors = 0 : i64, gather.surface_par = 1 : i64, gather.swarm_par = 1 : i64, gather.tile_shape = [], gather.total_bytes = 212992 : i64, gather.total_unpacked = 9984 : i64, gather.use_tile_counter = false, kChipID = 0 : i64, kConfigured = true, kDisableReread = true, kMacID = "default_151", kSourceContext = #loc169, kUniqueId = 151 : i64, kUserCreated = true} : (tensor<480x256xbf16>, tensor<96xi32>) -> tensor<408x256xbf16>
        "tlir.Store"(%19, %27) {kChipID = 0 : i64, kConfigured = true, kIsCheckPoint = false, kMacID = "default_152", kName = "ptconvlstm__conv_layer__conv2d_bwd_tensor", kOpRWPattern0 = "kWriteOperand", kSliceAxes = [], kSourceContext = #loc170, kStoreSlice = false, kUniqueId = 152 : i64, kUserCreated = true} : (tensor<256x1xbf16>, tensor<256x1xbf16>) -> ()
        %30 = "tlir.Reshape"(%29) {kConfigured = true, kDieID = -1 : i64, kIsCriticalStage = false, kLatency = 1.300000e+01 : f64, kMacID = "ptconvlstm__conv_layer__conv2d_weight_reshape_bwd", kName = "ptconvlstm__conv_layer__conv2d_weight_reshape_bwd", kSourceContext = #loc171, kStageId = -1 : i64, kStageLatency = 1.300000e+01 : f64, kUniqueId = 373 : i64, kUserCreated = true} : (tensor<408x256xbf16>) -> tensor<3x1x136x256xbf16>
        %31 = "tlir.Permute"(%30) {kConfigured = true, kDieID = -1 : i64, kIsCriticalStage = false, kLatency = 1.300000e+01 : f64, kMacID = "ptconvlstm__conv_layer__conv2d_weight_permute_bwd", kName = "ptconvlstm__conv_layer__conv2d_weight_permute_bwd", kPermutation = [3 : index, 2 : index, 0 : index, 1 : index], kSourceContext = #loc172, kStageId = -1 : i64, kStageLatency = 1.300000e+01 : f64, kUniqueId = 374 : i64, kUserCreated = true} : (tensor<3x1x136x256xbf16>) -> tensor<256x136x3x1xbf16>
        %32 = "tlir.Reshape"(%31) {kConfigured = true, kDieID = -1 : i64, kIsCriticalStage = false, kLatency = 1.300000e+01 : f64, kMacID = "ptconvlstm__conv_layer__reshape_1_bwd", kName = "ptconvlstm__conv_layer__reshape_1_bwd", kSourceContext = #loc173, kStageId = -1 : i64, kStageLatency = 1.300000e+01 : f64, kUniqueId = 375 : i64, kUserCreated = true} : (tensor<256x136x3x1xbf16>) -> tensor<256x136x3xbf16>
        "tlir.Store"(%20, %32) {kChipID = 0 : i64, kConfigured = true, kIsCheckPoint = false, kMacID = "default_156", kName = "ptconvlstm__conv_layer__reshape_1_bwd_tensor", kOpRWPattern0 = "kWriteOperand", kSliceAxes = [], kSourceContext = #loc174, kStoreSlice = false, kUniqueId = 156 : i64, kUserCreated = true} : (tensor<256x136x3xbf16>, tensor<256x136x3xbf16>) -> ()
        "tlir.terminator"() {kConfigured = true, kMacID = "default_274", kSourceContext = #loc175, kUniqueId = 274 : i64, kUserCreated = true} : () -> ()
      }) {kConfigured = true, kMacID = "default_273", kPartitionId = 0 : i64, kSourceContext = #loc176, kUniqueId = 273 : i64, kUserCreated = true, type = none} : () -> ()
      "tlir.terminator"() {kConfigured = true, kMacID = "default_157", kSourceContext = #loc177, kUniqueId = 157 : i64, kUserCreated = true} : () -> ()
    }) {kConfigured = true, kGlobalId = 1 : i64, kIsHostSection = false, kMacID = "default_119", kPartitionId = 1 : i64, kSectionLatency = 7.8274148108903319E-5 : f64, kSectionName = "$BCKWD", kSectionUniqueName = "ptconvlstm__reshape_1_recompute__as_initial", kSourceContext = #loc178, kUniqueId = 119 : i64, kUserCreated = true, type = none} : () -> ()
    "tlir.Section"() ( {
      "tlir.Chip"() ( {
        %21 = "tlir.Load"(%5) {kChipID = 0 : i64, kConfigured = true, kMacID = "default_159", kSourceContext = #loc179, kUniqueId = 159 : i64, kUserCreated = true} : (tensor<4080x256xbf16>) -> tensor<4080x256xbf16>
        %22 = "tlir.Load"(%17) {kChipID = 0 : i64, kConfigured = true, kMacID = "default_160", kSourceContext = #loc180, kStageId = -1 : i64, kUniqueId = 160 : i64, kUserCreated = true} : (tensor<4080x256xbf16>) -> tensor<4080x256xbf16>
        %23 = "tlir.Load"(%9) {kChipID = 0 : i64, kConfigured = true, kMacID = "default_161", kSourceContext = #loc181, kUniqueId = 161 : i64, kUserCreated = true} : (tensor<4080x256xbf16>) -> tensor<4080x256xbf16>
        %24:2 = "tlir.SGD"(%21, %23, %22) {kChipID = 0 : i64, kConfigured = true, kDecayArgInName = "weight_decay", kDecayRate = 3.0000001424923539E-4 : f64, kLrArgInName = "lr", kLrRate = 0.001500000013038516 : f64, kMacID = "ptconvlstm__dense_layer__weight__ptconvlstm__dense_layer__linear_bwd_weight_opt", kMixP = true, kMomentumArgInName = "momentum", kMomentumRate = 0.000000e+00 : f64, kName = "ptconvlstm__dense_layer__weight__ptconvlstm__dense_layer__linear_bwd_weight_opt", kSourceContext = #loc182, kStrndSeed = 43690 : i64, kStrndSeedArgInName = "strnd_seed", kUniqueId = 162 : i64, kUserCreated = true} : (tensor<4080x256xbf16>, tensor<4080x256xbf16>, tensor<4080x256xbf16>) -> (tensor<4080x256xbf16>, tensor<4080x256xbf16>)
        "tlir.Store"(%5, %24#0) {kChipID = 0 : i64, kConfigured = true, kIsCheckPoint = false, kMacID = "default_163", kOpRWPattern0 = "kWriteOperand", kSliceAxes = [], kSourceContext = #loc183, kStoreSlice = false, kUniqueId = 163 : i64, kUserCreated = true} : (tensor<4080x256xbf16>, tensor<4080x256xbf16>) -> ()
        "tlir.Store"(%9, %24#1) {kChipID = 0 : i64, kConfigured = true, kIsCheckPoint = false, kMacID = "default_164", kOpRWPattern0 = "kWriteOperand", kSliceAxes = [], kSourceContext = #loc184, kStoreSlice = false, kUniqueId = 164 : i64, kUserCreated = true} : (tensor<4080x256xbf16>, tensor<4080x256xbf16>) -> ()
        %25 = "tlir.Load"(%4) {kChipID = 0 : i64, kConfigured = true, kMacID = "default_165", kSourceContext = #loc185, kUniqueId = 165 : i64, kUserCreated = true} : (tensor<4080x1xbf16>) -> tensor<4080x1xbf16>
        %26 = "tlir.Load"(%18) {kChipID = 0 : i64, kConfigured = true, kMacID = "default_166", kSourceContext = #loc186, kStageId = -1 : i64, kUniqueId = 166 : i64, kUserCreated = true} : (tensor<4080x1xbf16>) -> tensor<4080x1xbf16>
        %27 = "tlir.Load"(%10) {kChipID = 0 : i64, kConfigured = true, kMacID = "default_167", kSourceContext = #loc187, kUniqueId = 167 : i64, kUserCreated = true} : (tensor<4080x1xbf16>) -> tensor<4080x1xbf16>
        %28:2 = "tlir.SGD"(%25, %27, %26) {kChipID = 0 : i64, kConfigured = true, kDecayArgInName = "weight_decay", kDecayRate = 3.0000001424923539E-4 : f64, kLrArgInName = "lr", kLrRate = 0.001500000013038516 : f64, kMacID = "ptconvlstm__dense_layer__bias__ptconvlstm__dense_layer__linear_bwd_weight_opt", kMixP = true, kMomentumArgInName = "momentum", kMomentumRate = 0.000000e+00 : f64, kName = "ptconvlstm__dense_layer__bias__ptconvlstm__dense_layer__linear_bwd_weight_opt", kSourceContext = #loc188, kStrndSeed = 43690 : i64, kStrndSeedArgInName = "strnd_seed", kUniqueId = 168 : i64, kUserCreated = true} : (tensor<4080x1xbf16>, tensor<4080x1xbf16>, tensor<4080x1xbf16>) -> (tensor<4080x1xbf16>, tensor<4080x1xbf16>)
        "tlir.Store"(%4, %28#0) {kChipID = 0 : i64, kConfigured = true, kIsCheckPoint = false, kMacID = "default_169", kOpRWPattern0 = "kWriteOperand", kSliceAxes = [], kSourceContext = #loc189, kStoreSlice = false, kUniqueId = 169 : i64, kUserCreated = true} : (tensor<4080x1xbf16>, tensor<4080x1xbf16>) -> ()
        "tlir.Store"(%10, %28#1) {kChipID = 0 : i64, kConfigured = true, kIsCheckPoint = false, kMacID = "default_170", kOpRWPattern0 = "kWriteOperand", kSliceAxes = [], kSourceContext = #loc190, kStoreSlice = false, kUniqueId = 170 : i64, kUserCreated = true} : (tensor<4080x1xbf16>, tensor<4080x1xbf16>) -> ()
        %29 = "tlir.Load"(%3) {kChipID = 0 : i64, kConfigured = true, kMacID = "default_171", kSourceContext = #loc191, kUniqueId = 171 : i64, kUserCreated = true} : (tensor<256x1xbf16>) -> tensor<256x1xbf16>
        %30 = "tlir.Load"(%19) {kChipID = 0 : i64, kConfigured = true, kMacID = "default_172", kSourceContext = #loc192, kStageId = -1 : i64, kUniqueId = 172 : i64, kUserCreated = true} : (tensor<256x1xbf16>) -> tensor<256x1xbf16>
        %31 = "tlir.Load"(%11) {kChipID = 0 : i64, kConfigured = true, kMacID = "default_173", kSourceContext = #loc193, kUniqueId = 173 : i64, kUserCreated = true} : (tensor<256x1xbf16>) -> tensor<256x1xbf16>
        %32:2 = "tlir.SGD"(%29, %31, %30) {kChipID = 0 : i64, kConfigured = true, kDecayArgInName = "weight_decay", kDecayRate = 3.0000001424923539E-4 : f64, kLrArgInName = "lr", kLrRate = 0.001500000013038516 : f64, kMacID = "ptconvlstm__conv_layer__bias__ptconvlstm__conv_layer__conv2d_bwd_opt", kMixP = true, kMomentumArgInName = "momentum", kMomentumRate = 0.000000e+00 : f64, kName = "ptconvlstm__conv_layer__bias__ptconvlstm__conv_layer__conv2d_bwd_opt", kSourceContext = #loc194, kStrndSeed = 43690 : i64, kStrndSeedArgInName = "strnd_seed", kUniqueId = 174 : i64, kUserCreated = true} : (tensor<256x1xbf16>, tensor<256x1xbf16>, tensor<256x1xbf16>) -> (tensor<256x1xbf16>, tensor<256x1xbf16>)
        "tlir.Store"(%3, %32#0) {kChipID = 0 : i64, kConfigured = true, kIsCheckPoint = false, kMacID = "default_175", kOpRWPattern0 = "kWriteOperand", kSliceAxes = [], kSourceContext = #loc195, kStoreSlice = false, kUniqueId = 175 : i64, kUserCreated = true} : (tensor<256x1xbf16>, tensor<256x1xbf16>) -> ()
        "tlir.Store"(%11, %32#1) {kChipID = 0 : i64, kConfigured = true, kIsCheckPoint = false, kMacID = "default_176", kOpRWPattern0 = "kWriteOperand", kSliceAxes = [], kSourceContext = #loc196, kStoreSlice = false, kUniqueId = 176 : i64, kUserCreated = true} : (tensor<256x1xbf16>, tensor<256x1xbf16>) -> ()
        %33 = "tlir.Load"(%0) {kChipID = 0 : i64, kConfigured = true, kMacID = "default_177", kSourceContext = #loc197, kUniqueId = 177 : i64, kUserCreated = true} : (tensor<256x136x3xbf16>) -> tensor<256x136x3xbf16>
        %34 = "tlir.Load"(%20) {kChipID = 0 : i64, kConfigured = true, kMacID = "default_178", kSourceContext = #loc198, kStageId = -1 : i64, kUniqueId = 178 : i64, kUserCreated = true} : (tensor<256x136x3xbf16>) -> tensor<256x136x3xbf16>
        %35 = "tlir.Load"(%12) {kChipID = 0 : i64, kConfigured = true, kMacID = "default_179", kSourceContext = #loc199, kUniqueId = 179 : i64, kUserCreated = true} : (tensor<256x136x3xbf16>) -> tensor<256x136x3xbf16>
        %36:2 = "tlir.SGD"(%33, %35, %34) {kChipID = 0 : i64, kConfigured = true, kDecayArgInName = "weight_decay", kDecayRate = 3.0000001424923539E-4 : f64, kLrArgInName = "lr", kLrRate = 0.001500000013038516 : f64, kMacID = "ptconvlstm__conv_layer__weight__ptconvlstm__conv_layer__reshape_1_bwd_opt", kMixP = true, kMomentumArgInName = "momentum", kMomentumRate = 0.000000e+00 : f64, kName = "ptconvlstm__conv_layer__weight__ptconvlstm__conv_layer__reshape_1_bwd_opt", kSourceContext = #loc200, kStrndSeed = 43690 : i64, kStrndSeedArgInName = "strnd_seed", kUniqueId = 180 : i64, kUserCreated = true} : (tensor<256x136x3xbf16>, tensor<256x136x3xbf16>, tensor<256x136x3xbf16>) -> (tensor<256x136x3xbf16>, tensor<256x136x3xbf16>)
        "tlir.Store"(%0, %36#0) {kChipID = 0 : i64, kConfigured = true, kIsCheckPoint = false, kMacID = "default_181", kOpRWPattern0 = "kWriteOperand", kSliceAxes = [], kSourceContext = #loc201, kStoreSlice = false, kUniqueId = 181 : i64, kUserCreated = true} : (tensor<256x136x3xbf16>, tensor<256x136x3xbf16>) -> ()
        "tlir.Store"(%12, %36#1) {kChipID = 0 : i64, kConfigured = true, kIsCheckPoint = false, kMacID = "default_182", kOpRWPattern0 = "kWriteOperand", kSliceAxes = [], kSourceContext = #loc202, kStoreSlice = false, kUniqueId = 182 : i64, kUserCreated = true} : (tensor<256x136x3xbf16>, tensor<256x136x3xbf16>) -> ()
        "tlir.terminator"() {kConfigured = true, kMacID = "default_278", kSourceContext = #loc203, kUniqueId = 278 : i64, kUserCreated = true} : () -> ()
      }) {kConfigured = true, kMacID = "default_277", kPartitionId = 0 : i64, kSourceContext = #loc204, kUniqueId = 277 : i64, kUserCreated = true, type = none} : () -> ()
      "tlir.terminator"() {kConfigured = true, kMacID = "default_183", kSourceContext = #loc205, kUniqueId = 183 : i64, kUserCreated = true} : () -> ()
    }) {kConfigured = true, kGlobalId = 2 : i64, kIsHostSection = false, kMacID = "default_158", kPartitionId = 2 : i64, kSectionLatency = 1.2092486576875672E-4 : f64, kSectionName = "$OPT", kSectionUniqueName = "ptconvlstm__conv_layer__weight__ptconvlstm__conv_layer__reshape_1_bwd_opt_as_initial", kSourceContext = #loc206, kUniqueId = 158 : i64, kUserCreated = true, type = none} : () -> ()
    module_terminator {kSourceContext = #loc0}
  }
  module @schedule  {
    module_terminator {kSourceContext = #loc0}
  }
  module @rnn_function  {
    module_terminator {kSourceContext = #loc0}
  }
  module_terminator {kSourceContext = #loc0}
}

