module @program attributes {arc.AIRMappingDecisionIsSpatial = false, arc.kAIRAddnOpt = true, arc.kAIRBufferBeforeConcatAddn = false, arc.kAIRBufferNonRedundancy = false, arc.kAIRDDRBoundSections = [], arc.kAIRDPTilingOptimization = false, arc.kAIRDisableConcatStoreOpt = false, arc.kAIRDisableOptimizeRereadBuffer = false, arc.kAIRMappingDecisionGlobalNumBatches = 1 : i64, arc.kAIRMappingDecisionSectionDRAMTransferSize = [2347854, 4646526, 9226112], arc.kAIRMappingDecisionSectionDRAMTransferTime = [0.021866094321012497, 0.043274145573377609, 0.085924863815307617], arc.kAIRMappingDecisionSectionLatencies = [5.6866094382712618E-5, 7.8274148108903319E-5, 1.2092486576875672E-4], arc.kAIRMappingDecisionSectionNames = ["$FWD", "$BCKWD", "$OPT"], arc.kAIRMappingDecisionSectionPCUs = [1.840000e+02, 1.030000e+02, 4.000000e+00], arc.kAIRMappingDecisionSectionPMUs = [[186, 4, 6, 24, 8, 14, 7], [98, 4, 14, 23, 12, 18, 5], [0, 4, 0, 33, 0, 0, 0]], arc.kAIRMappingDecisionSectionResourceScales = [1.1000000238418579, 1.2000000476837158, 0.89999997615814208], arc.kAIRMappingDecisionSectionTypes = ["Forward", "Backward", "Optimizer"], arc.kAIRMappingDecisionSectionUniqueNames = ["ptconvlstm__lambda_layer__indexselect_as_initial", "ptconvlstm__reshape_1_recompute__as_initial", "ptconvlstm__dense_layer__weight__ptconvlstm__dense_layer__linear_bwd_weight_opt_as_initial"], arc.kAIRMetaPipeWithOneIterationRemoval = false, arc.kAIRTransposeMatMulTransformation = false, arc.kAddStreamingBuffers = false, arc.kAppName = "logreg_torch_samba", arc.kArchMajor = 1 : i64, arc.kArchMinor = 0 : i64, arc.kConcisePrinting = false, arc.kDataParallelFactor = 1 : i64, arc.kDataParallelInHostMemory = false, arc.kDataParallelReduceOnlyMode = false, arc.kDebugMode = false, arc.kDisableFuseToTwoHeadBuffers = false, arc.kEliminateBufferTimeout = 100 : i64, arc.kEnableAutoGrouping = true, arc.kEnableBufferBarriers = true, arc.kEnableFuseToLinearTraining = false, arc.kEnablePcuHeartBeat = false, arc.kEnableWrDoneInstrument = false, arc.kExperimentalBufferDepth = false, arc.kExperimentalOptimization = true, arc.kExperimentalRAILCrossEntropy = false, arc.kExperimentalRAILCrossEntropyGrad = false, arc.kGenerateReference = false, arc.kGenerateTensorboard = false, arc.kHasGraphData = true, arc.kLayoutTimeout = 1000 : i64, arc.kLegalizeDataflow = true, arc.kLegalizeSamples = false, arc.kLowered = true, arc.kMacAutogen = true, arc.kMaximumGroupLatencyFactor = 5.000000e-02 : f32, arc.kMoveViews = false, arc.kOutputFolder = "/qfs/people/jain432/pacer_saudade/code/sample_scripts/models", arc.kOverrideMaxFanout = 0 : i64, arc.kPefMetadataacc_test = "False", arc.kPefMetadataarc_debug_mode = "False", arc.kPefMetadatabatch_size = "1", arc.kPefMetadatacompiled_stats_json = "None", arc.kPefMetadatacompiler_configs_file = "", arc.kPefMetadatadata_folder = "mnist_data", arc.kPefMetadatadata_parallel = "False", arc.kPefMetadatadata_parallel_mode = "normal", arc.kPefMetadatadebug = "False", arc.kPefMetadatadev_mode = "False", arc.kPefMetadatadisable_mac_tiling = "False", arc.kPefMetadatadisable_retry_lower_visible_resources = "False", arc.kPefMetadatadistlearn_config = "", arc.kPefMetadatadump_accuracy_debug_info = "False", arc.kPefMetadataenable_conv2d_conversion = "False", arc.kPefMetadataenable_conv_tiling = "False", arc.kPefMetadataenable_hd_retry_lower_visible_resources = "False", arc.kPefMetadataforce_node_proximity = "False", arc.kPefMetadatafp32_params = "False", arc.kPefMetadatafuse_fwd_bwd = "False", arc.kPefMetadatagen_tensorboard = "False", arc.kPefMetadatagrad_accumulation_steps = "1", arc.kPefMetadatahost_fifo = "False", arc.kPefMetadatahypersection_arc = "False", arc.kPefMetadatainclude_read_stall_cycles = "False", arc.kPefMetadatainference = "False", arc.kPefMetadatajson = "None", arc.kPefMetadatalatency_budget_bwd = "None", arc.kPefMetadatalatency_budget_fwd = "None", arc.kPefMetadatalisten_for_input = "False", arc.kPefMetadatalocal_rank = "-1", arc.kPefMetadatalog_dir = "None", arc.kPefMetadatalog_level = "warning", arc.kPefMetadatalr = "0.0015", arc.kPefMetadatamac_human_decision = "None", arc.kPefMetadatamac_only = "False", arc.kPefMetadatamac_v1 = "False", arc.kPefMetadatamapping = "section", arc.kPefMetadatamax_expected_mac_latency = "-1.0", arc.kPefMetadatamax_mac_loop_attempt = "35", arc.kPefMetadatametapipe_disable = "False", arc.kPefMetadatamicrobatch_size = "None", arc.kPefMetadatamin_duration = "0.0", arc.kPefMetadatamlir_file_name = "None", arc.kPefMetadatamock_inference = "False", arc.kPefMetadatamodel = "PTConvLSTM(\0A  (lambda_layer): Lambda()\0A  (conv_layer): Conv1d(136, 256, kernel_size=(3,), stride=(1,))\0A  (dense_layer): Linear(in_features=256, out_features=4080, bias=True)\0A  (criterion): MSELoss()\0A)", arc.kPefMetadatamodel_parallel = "False", arc.kPefMetadatamomentum = "0.0", arc.kPefMetadatan_chips = "1", arc.kPefMetadatandtest = "False", arc.kPefMetadatandtest_mp = "False", arc.kPefMetadatanum_classes = "10", arc.kPefMetadatanum_epochs = "1", arc.kPefMetadatanum_features = "784", arc.kPefMetadatanum_iterations = "100", arc.kPefMetadatanum_sections = "None", arc.kPefMetadatanum_spatial_batches = "1", arc.kPefMetadatanum_tiles = "4", arc.kPefMetadatapef = "None", arc.kPefMetadataplot = "None", arc.kPefMetadatarecompute_ratio = "-1.0", arc.kPefMetadatareduce_on_rdu = "False", arc.kPefMetadataresources_scaling_factors = "['-1.0', '-1.0', '-1.0', '-1.0']", arc.kPefMetadatarun_analysis_pass = "False", arc.kPefMetadatarun_graph_only = "False", arc.kPefMetadatasamba_plot = "False", arc.kPefMetadatasamba_version = "1.11.2", arc.kPefMetadatasection_cut_beam_search = "['2', '2']", arc.kPefMetadatasection_cut_sort_order = "3", arc.kPefMetadatasingle_opt_sec = "False", arc.kPefMetadataskip_instrumentation_on_read0 = "False", arc.kPefMetadataskip_instrumentation_on_read1 = "False", arc.kPefMetadatastage_instrumentation = "none", "arc.kPefMetadatastop_mac_c++" = "False", arc.kPefMetadatatensor_parallel = "none", arc.kPefMetadatatile_orientation = "auto", arc.kPefMetadatavalidate_mac_resource_prediction = "False", arc.kPefMetadataverbose = "0", arc.kPefMetadatavisualize = "False", arc.kPefMetadataweight_decay = "0.0003", arc.kPefMetadataweight_norm = "False", arc.kPefMetadataworld_size = "1", arc.kPefMetadatayaml_config = "None", arc.kPefName = "cnn", arc.kPlasmaAStarConnect = true, arc.kPlasmaIncludeReadStallCycles = false, arc.kPlasmaSkipInstrumentationOnRead0 = false, arc.kPlasmaSkipInstrumentationOnRead1 = false, arc.kPlasmaStageInstrumentation = "none", arc.kPrintSrcs = [], arc.kResourceAwareBuffers = false, arc.kSkipBufferBandwidthWeight = 1 : i64, arc.kSkipBufferMaxDepth = 4096 : i64, arc.kSkipBufferMaxFanin = 8 : i64, arc.kSkipBufferPmuWeight = 1 : i64, arc.kSplitSkipBuffer = true, arc.kTileSize = 5 : i64, arc.kUniqueIdCounter = 419 : i64, arc.kVerbose = false, mac.kMacConvTiling = false, mac.kMacDisableAutoSpatialSplit = true, mac.kMacDisableRetryLowerScalingFactor = false, mac.kMacEnableHDRetryLowerVisibleResources = false, mac.kMacEnableHyperSection = 0 : i64, mac.kMacExpectedMaxLatency = -1.000000e+00 : f64, mac.kMacForceNodeProximity = false, mac.kMacFuseFwdBwd = false, mac.kMacInference = false, mac.kMacIsIterativeMapping = false, mac.kMacModelParallel = false, mac.kMacNumChips = 1 : i64, mac.kMacNumTiles = 4 : i64, mac.kMacOnlyCompileMac = false, mac.kMacPlot = false, mac.kMacResourceSetupTraceScaleBwd = 1.200000e+00 : f64, mac.kMacResourceSetupTraceScaleFwd = 1.100000e+00 : f64, mac.kMacResourceSetupTraceScaleGradnorm = 9.000000e-01 : f64, mac.kMacResourceSetupTraceScaleOpt = 9.000000e-01 : f64, mac.kMacSectionCutBeamSearch = [2, 2], mac.kMacSectionCutSortOrder = 3 : i64, mac.kMacSingleOptSec = false, mac.kMacUseHostFIFO = false}  {
  module @templates  {
    module_terminator {kSourceContext = "Unknown File:"}
  }
  module @sections  {
    %0 = "tlir.Region"() {DataAlignment0 = 0 : i64, DataAlignment0S = 2 : i64, VectorDimension0 = 0 : i64, VectorDimension0S = 2 : i64, VectorOrdering0 = 1 : i64, VectorOrdering0S = 2 : i64, distribution = 6 : i32, distribution_max = 1.000000e-01 : f64, distribution_min = -1.000000e-01 : f64, kFromDeviceTransform = "", kGroup = -1 : i64, kHasShape = true, kIsDynamicLoadTable = false, kIsEmbeddingTable = false, kIsHostFifoInput = false, kIsInputOnly = true, kIsLoaded = true, kIsMask = false, kIsOneShotTransferred = true, kIsPlaceholder = false, kIsRngSeed = false, kIsScatterNdTable = false, kIsScatterTable = false, kIsSliceLoaded = false, kIsSliceStored = false, kIsStored = false, kIsUserFacing = true, kMemoryType = 2 : i64, kName = "inp_window_slice_1", kSourceContext = "UnknownFileName:0:0", kToDeviceTransform = ".int().int()", kUniqueId = 60 : i64, kUserCreated = true, kZeroFillDram = false} : () -> tensor<3xi32>
    %1 = "tlir.Region"() {DataAlignment0 = 1 : i64, DataAlignment0S = 2 : i64, VectorDimension0 = 0 : i64, VectorDimension0S = 2 : i64, VectorOrdering0 = 1 : i64, VectorOrdering0S = 2 : i64, distribution = 6 : i32, distribution_max = 1.000000e-01 : f64, distribution_min = -1.000000e-01 : f64, kFromDeviceTransform = "", kGroup = -2 : i64, kHasShape = true, kIsDynamicLoadTable = false, kIsEmbeddingTable = false, kIsHostFifoInput = false, kIsInputOnly = true, kIsLoaded = true, kIsMask = false, kIsOneShotTransferred = false, kIsPlaceholder = false, kIsRngSeed = false, kIsScatterNdTable = false, kIsScatterTable = false, kIsSliceLoaded = true, kIsSliceStored = false, kIsStored = false, kIsUserFacing = true, kMemoryType = 0 : i64, kName = "inp_window", kSourceContext = "UnknownFileName:0:0", kToDeviceTransform = "", kUniqueId = 61 : i64, kUserCreated = true, kZeroFillDram = false} : () -> tensor<1x60x136xbf16>
    %2 = "tlir.Region"() {DataAlignment0 = 1 : i64, DataAlignment0S = 2 : i64, VectorDimension0 = 1 : i64, VectorDimension0S = 2 : i64, VectorOrdering0 = 1 : i64, VectorOrdering0S = 2 : i64, distribution = 7 : i32, distribution_gain = 1.000000e+00 : f64, kFromDeviceTransform = ".squeeze(1)", kGroup = 0 : i64, kHasShape = true, kIsDynamicLoadTable = false, kIsEmbeddingTable = false, kIsHostFifoInput = false, kIsLoaded = true, kIsMask = false, kIsOneShotTransferred = true, kIsPlaceholder = false, kIsRngSeed = false, kIsScatterNdTable = false, kIsScatterTable = false, kIsSliceLoaded = false, kIsSliceStored = false, kIsStored = true, kIsUserFacing = true, kIsWeight = true, kMemoryType = 0 : i64, kName = "ptconvlstm__conv_layer__bias", kPlacementHint = [1, 0], kSourceContext = "software/compiler/mac/src/pybind/py_air.cpp:1503:0", kToDeviceTransform = ".unsqueeze(1)", kUniqueId = 62 : i64, kUserCreated = true, kZeroFillDram = false} : () -> tensor<256x1xbf16>
    %3 = "tlir.Region"() {DataAlignment0 = 1 : i64, DataAlignment0S = 2 : i64, VectorDimension0 = 1 : i64, VectorDimension0S = 2 : i64, VectorOrdering0 = 1 : i64, VectorOrdering0S = 2 : i64, distribution = 7 : i32, distribution_gain = 1.000000e+00 : f64, kFromDeviceTransform = ".reshape(3, 136,256).permute(2, 1, 0)", kGroup = 1 : i64, kHasShape = true, kIsDynamicLoadTable = false, kIsEmbeddingTable = false, kIsHostFifoInput = false, kIsLoaded = true, kIsMask = false, kIsOneShotTransferred = true, kIsPlaceholder = false, kIsRngSeed = false, kIsScatterNdTable = false, kIsScatterTable = false, kIsSliceLoaded = false, kIsSliceStored = false, kIsStored = true, kIsUserFacing = true, kIsWeight = true, kMemoryType = 0 : i64, kName = "ptconvlstm__conv_layer__weight", kPlacementHint = [1, 0], kSourceContext = "software/compiler/mac/src/pybind/py_air.cpp:1503:0", kToDeviceTransform = ".permute(2, 1, 0).reshape(-1, 256)", kUniqueId = 63 : i64, kUserCreated = true, kZeroFillDram = false} : () -> tensor<408x256xbf16>
    %4 = "tlir.Region"() {DataAlignment0 = 1 : i64, DataAlignment0S = 2 : i64, VectorDimension0 = 1 : i64, VectorDimension0S = 2 : i64, VectorOrdering0 = 1 : i64, VectorOrdering0S = 2 : i64, distribution = 6 : i32, distribution_max = 1.000000e-01 : f64, distribution_min = -1.000000e-01 : f64, kFromDeviceTransform = ".squeeze(1)", kGroup = 5 : i64, kHasShape = true, kIsDynamicLoadTable = false, kIsEmbeddingTable = false, kIsHostFifoInput = false, kIsLoaded = true, kIsMask = false, kIsOneShotTransferred = true, kIsPlaceholder = false, kIsRngSeed = false, kIsScatterNdTable = false, kIsScatterTable = false, kIsSliceLoaded = false, kIsSliceStored = false, kIsStored = true, kIsUserFacing = true, kIsWeight = true, kMemoryType = 0 : i64, kName = "ptconvlstm__dense_layer__bias", kPlacementHint = [1, 0], kSourceContext = "software/compiler/mac/src/pybind/py_air.cpp:1503:0", kToDeviceTransform = ".unsqueeze(1)", kUniqueId = 64 : i64, kUserCreated = true, kZeroFillDram = false} : () -> tensor<4080x1xbf16>
    %5 = "tlir.Region"() {DataAlignment0 = 1 : i64, DataAlignment0S = 2 : i64, VectorDimension0 = 1 : i64, VectorDimension0S = 2 : i64, VectorOrdering0 = 1 : i64, VectorOrdering0S = 2 : i64, distribution = 7 : i32, distribution_gain = 1.000000e+00 : f64, kFromDeviceTransform = "", kGroup = 2 : i64, kHasShape = true, kIsDynamicLoadTable = false, kIsEmbeddingTable = false, kIsHostFifoInput = false, kIsLoaded = true, kIsMask = false, kIsOneShotTransferred = true, kIsPlaceholder = false, kIsRngSeed = false, kIsScatterNdTable = false, kIsScatterTable = false, kIsSliceLoaded = false, kIsSliceStored = false, kIsStored = true, kIsUserFacing = true, kIsWeight = true, kMemoryType = 0 : i64, kName = "ptconvlstm__dense_layer__weight", kSourceContext = "software/compiler/mac/src/pybind/py_air.cpp:1503:0", kToDeviceTransform = "", kUniqueId = 65 : i64, kUserCreated = true, kZeroFillDram = false} : () -> tensor<4080x256xbf16>
    %6 = "tlir.Region"() {DataAlignment0 = 0 : i64, DataAlignment0S = 2 : i64, VectorDimension0 = 0 : i64, VectorDimension0S = 2 : i64, VectorOrdering0 = 1 : i64, VectorOrdering0S = 2 : i64, distribution = 6 : i32, distribution_max = 1.000000e-01 : f64, distribution_min = -1.000000e-01 : f64, kFromDeviceTransform = "", kGroup = -7 : i64, kHasShape = true, kIsDynamicLoadTable = false, kIsEmbeddingTable = false, kIsHostFifoInput = false, kIsInputOnly = true, kIsLoaded = true, kIsMask = false, kIsOneShotTransferred = false, kIsPlaceholder = false, kIsRngSeed = false, kIsScatterNdTable = false, kIsScatterTable = false, kIsSliceLoaded = true, kIsSliceStored = false, kIsStored = false, kIsUserFacing = true, kMemoryType = 0 : i64, kName = "out_window", kSourceContext = "UnknownFileName:0:0", kToDeviceTransform = "", kUniqueId = 66 : i64, kUserCreated = true, kZeroFillDram = false} : () -> tensor<1x30x136xbf16>
    %7 = "tlir.Region"() {DataAlignment0 = 1 : i64, DataAlignment0S = 2 : i64, VectorDimension0 = 0 : i64, VectorDimension0S = 2 : i64, VectorOrdering0 = 1 : i64, VectorOrdering0S = 2 : i64, distribution = 6 : i32, distribution_max = 1.000000e+00 : f64, distribution_min = 1.000000e+00 : f64, kFromDeviceTransform = "", kGroup = -8 : i64, kHasShape = true, kIsDynamicLoadTable = false, kIsEmbeddingTable = false, kIsHostFifoInput = false, kIsInputOnly = true, kIsLoaded = true, kIsMask = false, kIsOneShotTransferred = false, kIsPlaceholder = false, kIsRngSeed = false, kIsScatterNdTable = false, kIsScatterTable = false, kIsSliceLoaded = true, kIsSliceStored = false, kIsStored = false, kIsUserFacing = true, kMemoryType = 0 : i64, kName = "ptconvlstm__criterion__mseloss__outputs__0__grad", kPlacementHint = [0, 1, 1, 0], kSourceContext = "UnknownFileName:0:0", kToDeviceTransform = "", kUniqueId = 67 : i64, kUserCreated = true, kZeroFillDram = false} : () -> tensor<1xbf16>
    %8 = "tlir.Region"() {DataAlignment0 = 0 : i64, DataAlignment0S = 2 : i64, VectorDimension0 = 0 : i64, VectorDimension0S = 2 : i64, VectorOrdering0 = 1 : i64, VectorOrdering0S = 2 : i64, distribution = 6 : i32, distribution_max = 1.000000e+00 : f64, distribution_min = 1.000000e+00 : f64, kFromDeviceTransform = "", kGroup = 3 : i64, kHasShape = true, kIsDynamicLoadTable = false, kIsEmbeddingTable = false, kIsHostFifoInput = false, kIsInputOnly = true, kIsLoaded = true, kIsMask = false, kIsOneShotTransferred = false, kIsPlaceholder = false, kIsRngSeed = false, kIsScatterNdTable = false, kIsScatterTable = false, kIsSliceLoaded = true, kIsSliceStored = false, kIsStored = false, kIsUserFacing = true, kMemoryType = 0 : i64, kName = "ptconvlstm__view__outputs__0__grad", kPlacementHint = [0, 1, 1, 0], kSourceContext = "UnknownFileName:0:0", kToDeviceTransform = "", kUniqueId = 68 : i64, kUserCreated = true, kZeroFillDram = false} : () -> tensor<1x30x136xbf16>
    %9 = "tlir.Region"() {DataAlignment0 = 1 : i64, DataAlignment0S = 2 : i64, VectorDimension0 = 1 : i64, VectorDimension0S = 2 : i64, VectorOrdering0 = 1 : i64, VectorOrdering0S = 2 : i64, distribution = 7 : i32, distribution_gain = 1.000000e+00 : f64, kFromDeviceTransform = "", kGroup = 6 : i64, kHasShape = true, kIsDynamicLoadTable = false, kIsEmbeddingTable = false, kIsHostFifoInput = false, kIsLoaded = true, kIsMask = false, kIsOneShotTransferred = true, kIsPlaceholder = false, kIsRngSeed = false, kIsScatterNdTable = false, kIsScatterTable = false, kIsSliceLoaded = false, kIsSliceStored = false, kIsStored = true, kIsUserFacing = true, kIsWeight = true, kMemoryType = 0 : i64, kName = "ptconvlstm__conv_layer__bias__sgd0__momentum", kSourceContext = "software/compiler/mac/src/pybind/py_air.cpp:1503:0", kToDeviceTransform = "", kUniqueId = 69 : i64, kUserCreated = true, kZeroFillDram = false} : () -> tensor<256x1xbf16>
    %10 = "tlir.Region"() {DataAlignment0 = 1 : i64, DataAlignment0S = 2 : i64, VectorDimension0 = 1 : i64, VectorDimension0S = 2 : i64, VectorOrdering0 = 1 : i64, VectorOrdering0S = 2 : i64, distribution = 7 : i32, distribution_gain = 1.000000e+00 : f64, kFromDeviceTransform = "", kGroup = 6 : i64, kHasShape = true, kIsDynamicLoadTable = false, kIsEmbeddingTable = false, kIsHostFifoInput = false, kIsLoaded = true, kIsMask = false, kIsOneShotTransferred = true, kIsPlaceholder = false, kIsRngSeed = false, kIsScatterNdTable = false, kIsScatterTable = false, kIsSliceLoaded = false, kIsSliceStored = false, kIsStored = true, kIsUserFacing = true, kIsWeight = true, kMemoryType = 0 : i64, kName = "ptconvlstm__conv_layer__weight__sgd0__momentum", kSourceContext = "software/compiler/mac/src/pybind/py_air.cpp:1503:0", kToDeviceTransform = "", kUniqueId = 70 : i64, kUserCreated = true, kZeroFillDram = false} : () -> tensor<408x256xbf16>
    %11 = "tlir.Region"() {DataAlignment0 = 1 : i64, DataAlignment0S = 2 : i64, VectorDimension0 = 1 : i64, VectorDimension0S = 2 : i64, VectorOrdering0 = 1 : i64, VectorOrdering0S = 2 : i64, distribution = 7 : i32, distribution_gain = 1.000000e+00 : f64, kFromDeviceTransform = "", kGroup = 6 : i64, kHasShape = true, kIsDynamicLoadTable = false, kIsEmbeddingTable = false, kIsHostFifoInput = false, kIsLoaded = true, kIsMask = false, kIsOneShotTransferred = true, kIsPlaceholder = false, kIsRngSeed = false, kIsScatterNdTable = false, kIsScatterTable = false, kIsSliceLoaded = false, kIsSliceStored = false, kIsStored = true, kIsUserFacing = true, kIsWeight = true, kMemoryType = 0 : i64, kName = "ptconvlstm__dense_layer__bias__sgd0__momentum", kSourceContext = "software/compiler/mac/src/pybind/py_air.cpp:1503:0", kToDeviceTransform = "", kUniqueId = 71 : i64, kUserCreated = true, kZeroFillDram = false} : () -> tensor<4080x1xbf16>
    %12 = "tlir.Region"() {DataAlignment0 = 1 : i64, DataAlignment0S = 2 : i64, VectorDimension0 = 1 : i64, VectorDimension0S = 2 : i64, VectorOrdering0 = 1 : i64, VectorOrdering0S = 2 : i64, distribution = 7 : i32, distribution_gain = 1.000000e+00 : f64, kFromDeviceTransform = "", kGroup = 6 : i64, kHasShape = true, kIsDynamicLoadTable = false, kIsEmbeddingTable = false, kIsHostFifoInput = false, kIsLoaded = true, kIsMask = false, kIsOneShotTransferred = true, kIsPlaceholder = false, kIsRngSeed = false, kIsScatterNdTable = false, kIsScatterTable = false, kIsSliceLoaded = false, kIsSliceStored = false, kIsStored = true, kIsUserFacing = true, kIsWeight = true, kMemoryType = 0 : i64, kName = "ptconvlstm__dense_layer__weight__sgd0__momentum", kSourceContext = "software/compiler/mac/src/pybind/py_air.cpp:1503:0", kToDeviceTransform = "", kUniqueId = 72 : i64, kUserCreated = true, kZeroFillDram = false} : () -> tensor<4080x256xbf16>
    %13 = "tlir.Region"() {DataAlignment0 = 1 : i64, DataAlignment0S = 2 : i64, VectorDimension0 = 1 : i64, VectorDimension0S = 2 : i64, VectorOrdering0 = 0 : i64, VectorOrdering0S = 2 : i64, kGroup = 4 : i64, kHasShape = true, kIsDynamicLoadTable = false, kIsEmbeddingTable = false, kIsLoaded = true, kIsOneShotTransferred = false, kIsPlaceholder = false, kIsScatterNdTable = false, kIsScatterTable = false, kIsSliceLoaded = true, kIsSliceStored = true, kIsStored = true, kLinearGradBInputHint = 1 : i64, kName = "ptconvlstm__conv_layer__conv1d__squeeze_Reshape0_used_by_ptconvlstm__dense_layer__linear_bwd_weight", kPlacementHint = [1, 0], kSourceContext = "ptconvlstm__conv_layer__conv1d__squeeze_Reshape:0:0", kUniqueId = 73 : i64, kUserCreated = true} : () -> tensor<1x256x1xbf16>
    %14 = "tlir.Region"() {DataAlignment0 = 1 : i64, DataAlignment0S = 2 : i64, VectorDimension0 = 0 : i64, VectorDimension0S = 2 : i64, VectorOrdering0 = 1 : i64, VectorOrdering0S = 2 : i64, kGroup = -15 : i64, kHasShape = true, kIsDynamicLoadTable = false, kIsEmbeddingTable = false, kIsLoaded = true, kIsOneShotTransferred = false, kIsPlaceholder = false, kIsScatterNdTable = false, kIsScatterTable = false, kIsSliceLoaded = true, kIsSliceStored = true, kIsStored = true, kLinearGradAInputHint = 1 : i64, kName = "ptconvlstm__reshape0_used_by_ptconvlstm__criterion__mseloss_bwd_sub", kSourceContext = "logreg_ts.py:219:0", kUniqueId = 74 : i64, kUserCreated = true} : () -> tensor<1x4080xbf16>
    %15 = "tlir.Region"() {DataAlignment0 = 1 : i64, DataAlignment0S = 2 : i64, VectorDimension0 = 0 : i64, VectorDimension0S = 2 : i64, VectorOrdering0 = 1 : i64, VectorOrdering0S = 2 : i64, kChipID = 0 : i64, kFromDeviceTransform = "", kGroup = -16 : i64, kHasShape = true, kIsDataParallelAccumBuf = false, kIsDynamicLoadTable = false, kIsEmbeddingTable = false, kIsHostFifoOutput = false, kIsLoaded = false, kIsOneShotTransferred = false, kIsPlaceholder = false, kIsScatterNdTable = false, kIsScatterTable = false, kIsSliceLoaded = false, kIsSliceStored = true, kIsStored = true, kIsUserFacing = true, kMemoryType = 2 : i64, kName = "ptconvlstm__criterion__mseloss__outputs__0", kPlacementHint = [1, 0], kSourceContext = "software/compiler/mac/src/pybind/py_air.cpp:1677:0", kToDeviceTransform = "", kUniqueId = 75 : i64, kUserCreated = true, kZeroFillDram = false} : () -> tensor<1xbf16>
    %16 = "tlir.Region"() {DataAlignment0 = 0 : i64, DataAlignment0S = 2 : i64, VectorDimension0 = 0 : i64, VectorDimension0S = 2 : i64, VectorOrdering0 = 1 : i64, VectorOrdering0S = 2 : i64, kChipID = 0 : i64, kFromDeviceTransform = "", kGroup = -17 : i64, kHasShape = true, kIsDataParallelAccumBuf = false, kIsDynamicLoadTable = false, kIsEmbeddingTable = false, kIsHostFifoOutput = false, kIsLoaded = false, kIsOneShotTransferred = false, kIsPlaceholder = false, kIsScatterNdTable = false, kIsScatterTable = false, kIsSliceLoaded = false, kIsSliceStored = true, kIsStored = true, kIsUserFacing = true, kMemoryType = 2 : i64, kName = "ptconvlstm__view__outputs__0", kPlacementHint = [1, 0], kSourceContext = "software/compiler/mac/src/pybind/py_air.cpp:1677:0", kToDeviceTransform = "", kUniqueId = 76 : i64, kUserCreated = true, kZeroFillDram = false} : () -> tensor<1x30x136xbf16>
    %17 = "tlir.Region"() {DataAlignment0 = 1 : i64, DataAlignment0S = 2 : i64, VectorDimension0 = 1 : i64, VectorDimension0S = 2 : i64, VectorOrdering0 = 1 : i64, VectorOrdering0S = 2 : i64, kChipID = 0 : i64, kFromDeviceTransform = ".reshape(3, 136,256).permute(2, 1, 0)", kGroup = 7 : i64, kHasShape = true, kIsDataParallelAccumBuf = false, kIsDynamicLoadTable = false, kIsEmbeddingTable = false, kIsHostFifoOutput = false, kIsLoaded = true, kIsOneShotTransferred = true, kIsPlaceholder = false, kIsScatterNdTable = false, kIsScatterTable = false, kIsSliceLoaded = false, kIsSliceStored = false, kIsStored = true, kIsUserFacing = true, kMemoryType = 0 : i64, kName = "ptconvlstm__conv_layer__weight__grad", kSourceContext = "software/compiler/mac/src/pybind/py_air.cpp:1677:0", kToDeviceTransform = ".permute(2, 1, 0).reshape(-1, 256)", kUniqueId = 77 : i64, kUserCreated = true, kZeroFillDram = false} : () -> tensor<408x256xbf16>
    %18 = "tlir.Region"() {DataAlignment0 = 1 : i64, DataAlignment0S = 2 : i64, VectorDimension0 = 1 : i64, VectorDimension0S = 2 : i64, VectorOrdering0 = 1 : i64, VectorOrdering0S = 2 : i64, kChipID = 0 : i64, kFromDeviceTransform = ".squeeze(1)", kGroup = 7 : i64, kHasShape = true, kIsDataParallelAccumBuf = false, kIsDynamicLoadTable = false, kIsEmbeddingTable = false, kIsHostFifoOutput = false, kIsLoaded = true, kIsOneShotTransferred = true, kIsPlaceholder = false, kIsScatterNdTable = false, kIsScatterTable = false, kIsSliceLoaded = false, kIsSliceStored = false, kIsStored = true, kIsUserFacing = true, kMemoryType = 0 : i64, kName = "ptconvlstm__conv_layer__bias__grad", kSourceContext = "software/compiler/mac/src/pybind/py_air.cpp:1677:0", kToDeviceTransform = ".unsqueeze(1)", kUniqueId = 78 : i64, kUserCreated = true, kZeroFillDram = false} : () -> tensor<256x1xbf16>
    %19 = "tlir.Region"() {DataAlignment0 = 1 : i64, DataAlignment0S = 2 : i64, VectorDimension0 = 1 : i64, VectorDimension0S = 2 : i64, VectorOrdering0 = 1 : i64, VectorOrdering0S = 2 : i64, kChipID = 0 : i64, kFromDeviceTransform = "", kGroup = 7 : i64, kHasShape = true, kIsDataParallelAccumBuf = false, kIsDynamicLoadTable = false, kIsEmbeddingTable = false, kIsHostFifoOutput = false, kIsLoaded = true, kIsOneShotTransferred = true, kIsPlaceholder = false, kIsScatterNdTable = false, kIsScatterTable = false, kIsSliceLoaded = false, kIsSliceStored = false, kIsStored = true, kIsUserFacing = true, kMemoryType = 0 : i64, kName = "ptconvlstm__dense_layer__weight__grad", kSourceContext = "software/compiler/mac/src/pybind/py_air.cpp:1677:0", kToDeviceTransform = "", kUniqueId = 79 : i64, kUserCreated = true, kZeroFillDram = false} : () -> tensor<4080x256xbf16>
    %20 = "tlir.Region"() {DataAlignment0 = 1 : i64, DataAlignment0S = 2 : i64, VectorDimension0 = 1 : i64, VectorDimension0S = 2 : i64, VectorOrdering0 = 1 : i64, VectorOrdering0S = 2 : i64, kChipID = 0 : i64, kFromDeviceTransform = ".squeeze(1)", kGroup = 8 : i64, kHasShape = true, kIsDataParallelAccumBuf = false, kIsDynamicLoadTable = false, kIsEmbeddingTable = false, kIsHostFifoOutput = false, kIsLoaded = true, kIsOneShotTransferred = true, kIsPlaceholder = false, kIsScatterNdTable = false, kIsScatterTable = false, kIsSliceLoaded = false, kIsSliceStored = false, kIsStored = true, kIsUserFacing = true, kMemoryType = 0 : i64, kName = "ptconvlstm__dense_layer__bias__grad", kSourceContext = "software/compiler/mac/src/pybind/py_air.cpp:1677:0", kToDeviceTransform = ".unsqueeze(1)", kUniqueId = 80 : i64, kUserCreated = true, kZeroFillDram = false} : () -> tensor<4080x1xbf16>
    "tlir.Section"() ( {
      "tlir.Chip"() ( {
        %21 = "tlir.Load"(%0) {DataAlignment0 = 0 : i64, DataAlignment0S = 2 : i64, DataAlignmentkAddedAlignment = -2 : i64, DataAlignmentkAddedAlignmentS = 2 : i64, VectorDimension0 = 0 : i64, VectorDimension0S = 2 : i64, VectorOrdering0 = 1 : i64, VectorOrdering0S = 2 : i64, kChipID = 0 : i64, kGroup = -25 : i64, kIsGrouped = false, kName = "inp_window_slice_1_0_0_83", kPlacementHint = [1, 0], kRequiresWBuf = false, kSourceContext = "UnknownFileName:0:0", kStageId = 0 : i64, kTemplateName = "load_0_0_83", kUniqueId = 83 : i64, kUseVectorTranspose = false, kUserCreated = true} : (tensor<3xi32>) -> tensor<3xi32>
        %22 = "tlir.Load"(%3) {DataAlignment0 = 1 : i64, DataAlignment0S = 2 : i64, DataAlignmentkAddedAlignment = -2 : i64, DataAlignmentkAddedAlignmentS = 2 : i64, VectorDimension0 = 1 : i64, VectorDimension0S = 2 : i64, VectorOrdering0 = 1 : i64, VectorOrdering0S = 2 : i64, kChipID = 0 : i64, kGroup = -26 : i64, kIsGrouped = false, kName = "ptconvlstm__conv_layer__weight_0_0_87", kPlacementHint = [1, 0], kRequiresWBuf = false, kSourceContext = "software/compiler/mac/src/pybind/py_air.cpp:1503:0", kStageId = 0 : i64, kTemplateName = "load_0_0_87", kUniqueId = 87 : i64, kUseVectorTranspose = false, kUserCreated = true} : (tensor<408x256xbf16>) -> tensor<408x256xbf16>
        %23 = "tlir.Load"(%2) {DataAlignment0 = 1 : i64, DataAlignment0S = 2 : i64, DataAlignmentkAddedAlignment = -2 : i64, DataAlignmentkAddedAlignmentS = 2 : i64, VectorDimension0 = 1 : i64, VectorDimension0S = 2 : i64, VectorOrdering0 = 1 : i64, VectorOrdering0S = 2 : i64, kChipID = 0 : i64, kGroup = -27 : i64, kIsGrouped = false, kName = "ptconvlstm__conv_layer__bias_0_0_88", kPlacementHint = [1, 0], kRequiresWBuf = false, kSourceContext = "software/compiler/mac/src/pybind/py_air.cpp:1503:0", kStageId = 0 : i64, kTemplateName = "load_0_0_88", kUniqueId = 88 : i64, kUseVectorTranspose = false, kUserCreated = true} : (tensor<256x1xbf16>) -> tensor<256x1xbf16>
        %24 = "tlir.Load"(%5) {DataAlignment0 = 1 : i64, DataAlignment0S = 2 : i64, DataAlignmentkAddedAlignment = -2 : i64, DataAlignmentkAddedAlignmentS = 2 : i64, VectorDimension0 = 1 : i64, VectorDimension0S = 2 : i64, VectorOrdering0 = 1 : i64, VectorOrdering0S = 2 : i64, kChipID = 0 : i64, kGroup = 2 : i64, kIsGrouped = false, kName = "ptconvlstm__dense_layer__weight_0_0_92", kPlacementHint = [1, 0], kRequiresWBuf = true, kSourceContext = "software/compiler/mac/src/pybind/py_air.cpp:1503:0", kStageId = 0 : i64, kTemplateName = "load_0_0_92", kUniqueId = 92 : i64, kUseVectorTranspose = false, kUserCreated = true} : (tensor<4080x256xbf16>) -> tensor<4080x256xbf16>
        %25 = "tlir.Load"(%4) {DataAlignment0 = 1 : i64, DataAlignment0S = 2 : i64, DataAlignmentkAddedAlignment = -2 : i64, DataAlignmentkAddedAlignmentS = 2 : i64, VectorDimension0 = 1 : i64, VectorDimension0S = 2 : i64, VectorOrdering0 = 1 : i64, VectorOrdering0S = 2 : i64, kChipID = 0 : i64, kGroup = 5 : i64, kIsGrouped = false, kName = "ptconvlstm__dense_layer__bias_0_0_93", kPlacementHint = [1, 0], kRequiresWBuf = true, kSourceContext = "software/compiler/mac/src/pybind/py_air.cpp:1503:0", kStageId = 0 : i64, kTemplateName = "load_0_0_93", kUniqueId = 93 : i64, kUseVectorTranspose = false, kUserCreated = true} : (tensor<4080x1xbf16>) -> tensor<4080x1xbf16>
        %26:2 = "tlir.Buffer"(%22) {DataAlignment0 = 1 : i64, DataAlignment0S = 2 : i64, DataAlignment1 = 1 : i64, DataAlignment1S = 2 : i64, VectorDimension0 = 1 : i64, VectorDimension0S = 2 : i64, VectorDimension1 = 1 : i64, VectorDimension1S = 2 : i64, VectorOrdering0 = 1 : i64, VectorOrdering0S = 2 : i64, VectorOrdering1 = 1 : i64, VectorOrdering1S = 2 : i64, kDepth = 1 : i64, kHead0CtrlFlowEnable = false, kHead0Depth = 1 : i64, kHead1CtrlFlowEnable = false, kHead1Depth = 1 : i64, kName = "nbuf1a_0_0_382", kNbufHead = 1 : i64, kNumHead0RdEn = 0 : i64, kNumHead1RdEn = 0 : i64, kPlacementHint = [1, 0], kSourceContext = "software/compiler/mac/src/pybind/py_air.cpp:1503:0", kStageId = 0 : i64, kUniqueId = 382 : i64} : (tensor<408x256xbf16>) -> (tensor<408x256xbf16>, tensor<408x256xbf16>)
        "tlir.iter_loop.MetaPipeline"() ( {
          %27 = "tlir.Load"(%1) {DataAlignment0 = 1 : i64, DataAlignment0S = 2 : i64, DataAlignmentkAddedAlignment = -2 : i64, DataAlignmentkAddedAlignmentS = 2 : i64, VectorDimension0 = 0 : i64, VectorDimension0S = 2 : i64, VectorOrdering0 = 1 : i64, VectorOrdering0S = 2 : i64, kBatchSize = 1 : i64, kChipID = 0 : i64, kGroup = -28 : i64, kIsGrouped = false, kIsReverse = false, kKeepDim = false, kLoadSlice = true, kMultiLoadDepth = 2 : i64, kName = "inp_window_0_0_262", kPlacementHint = [1, 0], kRequiresWBuf = false, kSliceAxes = [0 : index], kSliceSize = 1 : i64, kSourceContext = "logreg_ts.py:191:0", kStageId = 0 : i64, kStageMultiplier = 1 : i64, kTemplateName = "load_0_0_262", kUniqueId = 262 : i64, kUseVectorTranspose = false, kUserCreated = true} : (tensor<1x60x136xbf16>) -> tensor<60x136xbf16>
          %28:2 = "tlir.Buffer"(%27) {DataAlignment0 = 1 : i64, DataAlignment0S = 2 : i64, DataAlignment1 = 1 : i64, DataAlignment1S = 2 : i64, VectorDimension0 = 0 : i64, VectorDimension0S = 2 : i64, VectorDimension1 = 0 : i64, VectorDimension1S = 2 : i64, VectorOrdering0 = 1 : i64, VectorOrdering0S = 2 : i64, VectorOrdering1 = 1 : i64, VectorOrdering1S = 2 : i64, kChipID = 0 : i64, kDepth = 2 : i64, kHead0CtrlFlowEnable = false, kHead0Depth = 2 : i64, kHead1CtrlFlowEnable = true, kHead1Depth = 2 : i64, kHead1MultipleSample = false, kName = "nbuf2u_0_0_173", kNbufHead = 1 : i64, kNumHead0RdEn = 0 : i64, kNumHead1RdEn = 2 : i64, kPlacementHint = [1, 0], kSourceContext = "logreg_ts.py:191:0", kStageId = 0 : i64, kStageMultiplier = 1 : i64, kUniqueId = 173 : i64, kUserCreated = true} : (tensor<60x136xbf16>) -> (tensor<60x136xbf16>, tensor<60x136xbf16>)
          %29:2 = "tlir.Buffer"(%21) {DataAlignment0 = 0 : i64, DataAlignment0S = 2 : i64, DataAlignment1 = 0 : i64, DataAlignment1S = 2 : i64, VectorDimension0 = 0 : i64, VectorDimension0S = 2 : i64, VectorDimension1 = 0 : i64, VectorDimension1S = 2 : i64, VectorOrdering0 = 1 : i64, VectorOrdering0S = 2 : i64, VectorOrdering1 = 1 : i64, VectorOrdering1S = 2 : i64, kChipID = 0 : i64, kDepth = 1 : i64, kHead0CtrlFlowEnable = false, kHead0Depth = 1 : i64, kHead1CtrlFlowEnable = true, kHead1Depth = 1 : i64, kHead1MultipleSample = false, kName = "nbuf1u_0_0_174", kNbufHead = 1 : i64, kNumHead0RdEn = 0 : i64, kNumHead1RdEn = 2 : i64, kPlacementHint = [1, 0], kRereads1 = 1 : i64, kSourceContext = "logreg_ts.py:191:0", kStageId = 0 : i64, kStageMultiplier = 1 : i64, kUniqueId = 174 : i64, kUserCreated = true} : (tensor<3xi32>) -> (tensor<3xi32>, tensor<3xi32>)
          %30 = "tlir.Index"(%28#1, %29#1) {DataAlignment0 = 1 : i64, DataAlignment0S = 2 : i64, VectorDimension0 = 0 : i64, VectorDimension0S = 2 : i64, VectorOrdering0 = 1 : i64, VectorOrdering0S = 2 : i64, kDim = 0 : i64, kIsCriticalStage = false, kLatency = 1.100000e+01 : f64, kMacID = "ptconvlstm__lambda_layer__indexselect", kMicroBatch = 1 : i64, kName = "ptconvlstm__lambda_layer__indexselect", kPlacementHint = [1, 0], kSourceContext = "logreg_ts.py:191:0", kStageId = 0 : i64, kStageLatency = 1.100000e+01 : f64, kStageMultiplier = 1 : i64, kTemplateName = "index_0_0_284", kUniqueId = 284 : i64, kUserCreated = true} : (tensor<60x136xbf16>, tensor<3xi32>) -> tensor<3x136xbf16>
          %31:2 = "tlir.Buffer"(%30) {DataAlignment0 = 1 : i64, DataAlignment0S = 2 : i64, DataAlignment1 = 1 : i64, DataAlignment1S = 2 : i64, VectorDimension0 = 0 : i64, VectorDimension0S = 2 : i64, VectorDimension1 = 0 : i64, VectorDimension1S = 2 : i64, VectorOrdering0 = 1 : i64, VectorOrdering0S = 2 : i64, VectorOrdering1 = 1 : i64, VectorOrdering1S = 2 : i64, kBufferType = 1 : i64, kChipID = 0 : i64, kDepth = 2 : i64, kHead0CtrlFlowEnable = false, kHead0Depth = 2 : i64, kHead1CtrlFlowEnable = true, kHead1Depth = 2 : i64, kHead1MultipleSample = true, kName = "gbuf2u_0_0_176", kNbufHead = 1 : i64, kNumHead0RdEn = 0 : i64, kNumHead1RdEn = 2 : i64, kPlacementHint = [1, 0], kSourceContext = "logreg_ts.py:212:0", kStageId = 0 : i64, kStageMultiplier = 1 : i64, kUniqueId = 176 : i64, kUserCreated = true} : (tensor<3x136xbf16>) -> (tensor<3x136xbf16>, tensor<3x136xbf16>)
          %32 = "tlir.PermuteView"(%31#1) {DataAlignment0 = 1 : i64, DataAlignment0S = 2 : i64, VectorDimension0 = 1 : i64, VectorDimension0S = 2 : i64, VectorOrdering0 = 0 : i64, VectorOrdering0S = 2 : i64, kIsCriticalStage = false, kLatency = 1.300000e+01 : f64, kMacID = "ptconvlstm__permute", kName = "ptconvlstm__permute", kPermutation = [1, 0], kPlacementHint = [1, 0], kSourceContext = "logreg_ts.py:212:0", kStageId = 0 : i64, kStageLatency = 1.300000e+01 : f64, kStageMultiplier = 1 : i64, kTemplateName = "permute_view_0_0_372", kUniqueId = 372 : i64, kUserCreated = true} : (tensor<3x136xbf16>) -> tensor<136x3xbf16>
          %33:2 = "tlir.Buffer"(%32) {DataAlignment0 = 1 : i64, DataAlignment0S = 2 : i64, DataAlignment1 = 1 : i64, DataAlignment1S = 2 : i64, VectorDimension0 = 1 : i64, VectorDimension0S = 2 : i64, VectorDimension1 = 1 : i64, VectorDimension1S = 2 : i64, VectorOrdering0 = 0 : i64, VectorOrdering0S = 2 : i64, VectorOrdering1 = 0 : i64, VectorOrdering1S = 2 : i64, kBufferType = 1 : i64, kChipID = 0 : i64, kDepth = 2 : i64, kHead0CtrlFlowEnable = false, kHead0Depth = 2 : i64, kHead1CtrlFlowEnable = true, kHead1Depth = 2 : i64, kHead1MultipleSample = true, kName = "gbuf2u_0_0_178", kNbufHead = 1 : i64, kNumHead0RdEn = 0 : i64, kNumHead1RdEn = 2 : i64, kPlacementHint = [1, 0], kSourceContext = "ptconvlstm__conv_layer__conv1d__unsqueeze_Reshape:0:0", kStageId = 0 : i64, kStageMultiplier = 1 : i64, kUniqueId = 178 : i64, kUserCreated = true} : (tensor<136x3xbf16>) -> (tensor<136x3xbf16>, tensor<136x3xbf16>)
          %34 = "tlir.Reshape"(%33#1) {DataAlignment0 = 1 : i64, DataAlignment0S = 2 : i64, VectorDimension0 = 2 : i64, VectorDimension0S = 2 : i64, VectorOrdering0 = 2 : i64, VectorOrdering0S = 2 : i64, kIsCriticalStage = false, kLatency = 1.300000e+01 : f64, kMacID = "ptconvlstm__conv_layer__conv1d__unsqueeze_Reshape", kName = "ptconvlstm__conv_layer__conv1d__unsqueeze_Reshape", kPlacementHint = [1, 0], kSourceContext = "ptconvlstm__conv_layer__conv1d__unsqueeze_Reshape:0:0", kStageId = 0 : i64, kStageLatency = 1.300000e+01 : f64, kStageMultiplier = 1 : i64, kTemplateName = "reshape_0_0_286", kUniqueId = 286 : i64, kUserCreated = true} : (tensor<136x3xbf16>) -> tensor<136x3x1xbf16>
          %35:2 = "tlir.Buffer"(%34) {DataAlignment0 = 1 : i64, DataAlignment0S = 2 : i64, DataAlignment1 = 1 : i64, DataAlignment1S = 2 : i64, VectorDimension0 = 2 : i64, VectorDimension0S = 2 : i64, VectorDimension1 = 2 : i64, VectorDimension1S = 2 : i64, VectorOrdering0 = 2 : i64, VectorOrdering0S = 2 : i64, VectorOrdering1 = 2 : i64, VectorOrdering1S = 2 : i64, kBufferType = 1 : i64, kChipID = 0 : i64, kDepth = 2 : i64, kHead0CtrlFlowEnable = false, kHead0Depth = 2 : i64, kHead1CtrlFlowEnable = true, kHead1Depth = 2 : i64, kHead1MultipleSample = true, kIsImageBuffer = true, kName = "gbuf2u_0_0_180", kNbufHead = 1 : i64, kNumHead0RdEn = 0 : i64, kNumHead1RdEn = 2 : i64, kPlacementHint = [1, 0], kSourceContext = "ptconvlstm__conv_layer__conv1d__conv2d_Conv2d:0:0", kStageId = 0 : i64, kStageMultiplier = 1 : i64, kUniqueId = 180 : i64, kUserCreated = true} : (tensor<136x3x1xbf16>) -> (tensor<136x3x1xbf16>, tensor<136x3x1xbf16>)
          %36 = "tlir.Region"() {DataAlignment0 = 1 : i64, DataAlignment0S = 2 : i64, DataAlignmentGatherInput = 1 : i64, DataAlignmentGatherInputS = 2 : i64, DataAlignmentGatherOutput = 1 : i64, DataAlignmentGatherOutputS = 2 : i64, DataPtrgather.list = [768, 384], DataPtrgather.listS = 2 : i64, VectorDimension0 = 0 : i64, VectorDimension0S = 2 : i64, VectorDimensionGatherInput = 2 : i64, VectorDimensionGatherInputS = 2 : i64, VectorDimensionGatherOutput = 0 : i64, VectorDimensionGatherOutputS = 2 : i64, VectorOrdering0 = 1 : i64, VectorOrdering0S = 2 : i64, VectorOrderingGatherInput = 2 : i64, VectorOrderingGatherInputS = 2 : i64, VectorOrderingGatherOutput = 0 : i64, VectorOrderingGatherOutputS = 2 : i64, distribution = 9 : i32, gather.allow_oob = false, gather.allow_overflow = false, gather.base_list_tile_counters = 0 : i64, gather.base_max = [1, 96, 5, 32], gather.base_mult = [0, 0, 64, 0], gather.base_stride = [1, 32, 1, 1], gather.crush_par = 1 : i64, gather.depth2col = true, gather.depth_base_at = 1 : i64, gather.depth_group = 1 : i64, gather.depth_offset_at = 2 : i64, gather.filter_area = 3 : i64, gather.fixed_length = 32 : i64, gather.group_packed = 480 : i64, gather.group_unpacked = 480 : i64, gather.input_vec_base = 0 : i64, gather.input_vec_bound = 14 : i64, gather.input_vec_inner = -1 : i64, gather.input_vec_outer = -1 : i64, gather.list_length = 96 : i64, gather.list_tiles = 1 : i64, gather.num_channels = 136 : i64, gather.offset_list_tile_counters = 0 : i64, gather.offset_max = [1, 96, 5, 32], gather.offset_mult = [0, 1, 0, 1], gather.offset_stride = [1, 32, 1, 1], gather.output_mode = 1 : i64, gather.output_shape = [1, 408], gather.pace_shape = [32, 408], gather.permute = true, gather.reread = 43 : i64, gather.seg_length = 32 : i64, gather.streaming = 1 : i64, gather.streaming_repeat = 0 : i64, gather.surface_output_vectors = 1 : i64, gather.surface_par = 1 : i64, gather.swarm_par = 1 : i64, gather.tile_shape = [], gather.total_bytes = 30720 : i64, gather.total_unpacked = 480 : i64, gather.use_tile_counter = false, kGroup = 9 : i64, kHasShape = true, kIsDynamicLoadTable = false, kIsEmbeddingTable = false, kIsLoaded = true, kIsOneShotTransferred = true, kIsPlaceholder = false, kIsScatterNdTable = false, kIsScatterTable = false, kIsSliceLoaded = false, kIsSliceStored = false, kIsStored = false, kMacID = "ptconvlstm__conv_layer__conv1d__conv2d_Conv2d", kName = "ptconvlstm__conv_layer__conv1d__conv2d_Conv2d_conv_fwd_stream0__gather_list", kPlacementHint = [1, 0], kSourceContext = "software/arc/src/lib/templates/ConvIm2Col.cpp:200:0", kStageMultiplier = 1 : i64, kUniqueId = 287 : i64, kUserCreated = true} : () -> tensor<96xi32>
          %37 = "tlir.Load"(%36) {DataAlignment0 = 1 : i64, DataAlignment0S = 2 : i64, DataAlignmentkAddedAlignment = -2 : i64, DataAlignmentkAddedAlignmentS = 2 : i64, VectorDimension0 = 0 : i64, VectorDimension0S = 2 : i64, VectorOrdering0 = 1 : i64, VectorOrdering0S = 2 : i64, kBatchSize = 1 : i64, kGroup = 9 : i64, kIsGrouped = false, kName = "ptconvlstm__conv_layer__conv1d__conv2d_Conv2d_conv_fwd_stream0__gather_list_0_0_374", kPlacementHint = [1, 0], kRequiresWBuf = false, kSourceContext = "software/arc/src/lib/templates/ConvIm2Col.cpp:200:0", kStageId = 0 : i64, kStageMultiplier = 1 : i64, kTemplateName = "load_0_0_374", kUniqueId = 374 : i64, kUseVectorTranspose = false} : (tensor<96xi32>) -> tensor<96xi32>
          %38:2 = "tlir.Buffer"(%37) {DataAlignment0 = 1 : i64, DataAlignment0S = 2 : i64, DataAlignment1 = 1 : i64, DataAlignment1S = 2 : i64, VectorDimension0 = 0 : i64, VectorDimension0S = 2 : i64, VectorDimension1 = 0 : i64, VectorDimension1S = 2 : i64, VectorOrdering0 = 1 : i64, VectorOrdering0S = 2 : i64, VectorOrdering1 = 1 : i64, VectorOrdering1S = 2 : i64, kBufferType = 2 : i64, kDepth = 1 : i64, kHead0CtrlFlowEnable = false, kHead0Depth = 1 : i64, kHead1CtrlFlowEnable = false, kHead1Depth = 1 : i64, kMacID = "ptconvlstm__conv_layer__conv1d__conv2d_Conv2d", kName = "lbuf1a_0_0_383", kNbufHead = 1 : i64, kNumHead0RdEn = 0 : i64, kNumHead1RdEn = 0 : i64, kPlacementHint = [1, 0], kSourceContext = "software/arc/src/lib/templates/ConvIm2Col.cpp:200:0", kStageId = 0 : i64, kStageMultiplier = 1 : i64, kUniqueId = 383 : i64} : (tensor<96xi32>) -> (tensor<96xi32>, tensor<96xi32>)
          %39 = "tlir.Gather"(%35#1, %38#1) {DataAlignment0 = 1 : i64, DataAlignment0S = 4 : i64, DataAlignmentGatherInput = 1 : i64, DataAlignmentGatherInputS = 2 : i64, DataAlignmentGatherOutput = 1 : i64, DataAlignmentGatherOutputS = 2 : i64, DataPtrgather.list = [1152, 384], DataPtrgather.listS = 2 : i64, VectorDimension0 = 0 : i64, VectorDimension0S = 4 : i64, VectorDimensionGatherInput = 2 : i64, VectorDimensionGatherInputS = 2 : i64, VectorDimensionGatherOutput = 0 : i64, VectorDimensionGatherOutputS = 2 : i64, VectorOrdering0 = 0 : i64, VectorOrdering0S = 4 : i64, VectorOrderingGatherInput = 2 : i64, VectorOrderingGatherInputS = 2 : i64, VectorOrderingGatherOutput = 0 : i64, VectorOrderingGatherOutputS = 2 : i64, distribution = 9 : i32, gather.allow_oob = false, gather.allow_overflow = false, gather.base_list_tile_counters = 0 : i64, gather.base_max = [1, 96, 5, 32], gather.base_mult = [0, 0, 64, 0], gather.base_stride = [1, 32, 1, 1], gather.crush_par = 1 : i64, gather.depth2col = true, gather.depth_base_at = 1 : i64, gather.depth_group = 1 : i64, gather.depth_offset_at = 2 : i64, gather.filter_area = 3 : i64, gather.fixed_length = 32 : i64, gather.group_packed = 480 : i64, gather.group_unpacked = 480 : i64, gather.input_vec_base = 0 : i64, gather.input_vec_bound = 14 : i64, gather.input_vec_inner = -1 : i64, gather.input_vec_outer = -1 : i64, gather.list_length = 96 : i64, gather.list_tiles = 1 : i64, gather.num_channels = 136 : i64, gather.offset_list_tile_counters = 0 : i64, gather.offset_max = [1, 96, 5, 32], gather.offset_mult = [0, 1, 0, 1], gather.offset_stride = [1, 32, 1, 1], gather.output_mode = 1 : i64, gather.output_shape = [1, 408], gather.pace_shape = [32, 408], gather.permute = true, gather.reread = 43 : i64, gather.seg_length = 32 : i64, gather.streaming = 1 : i64, gather.streaming_repeat = 0 : i64, gather.surface_output_vectors = 1 : i64, gather.surface_par = 1 : i64, gather.swarm_par = 1 : i64, gather.tile_shape = [], gather.total_bytes = 30720 : i64, gather.total_unpacked = 480 : i64, gather.use_tile_counter = false, kDepth2Col = false, kDepth2ColPointwise = false, kMacID = "ptconvlstm__conv_layer__conv1d__conv2d_Conv2d", kName = "gather288", kPaceMultiplier = 1 : i64, kPlacementHint = [1, 0], kSourceContext = "software/arc/src/lib/templates/ConvIm2Col.cpp:200:0", kStageId = 0 : i64, kStageMultiplier = 1 : i64, kStageMultiplierBase = 1 : i64, kStreamingTransposeShape = [136, 96], kUniqueId = 288 : i64, kUserCreated = true} : (tensor<136x3x1xbf16>, tensor<96xi32>) -> tensor<1x408xbf16>
          %40:2 = "tlir.Buffer"(%39) {DataAlignment0 = 1 : i64, DataAlignment0S = 2 : i64, DataAlignment1 = 1 : i64, DataAlignment1S = 2 : i64, VectorDimension0 = 1 : i64, VectorDimension0S = 2 : i64, VectorDimension1 = 1 : i64, VectorDimension1S = 2 : i64, VectorOrdering0 = 1 : i64, VectorOrdering0S = 2 : i64, VectorOrdering1 = 1 : i64, VectorOrdering1S = 2 : i64, kBufferType = 6 : i64, kDepth = 2 : i64, kHead0CtrlFlowEnable = false, kHead0Depth = 2 : i64, kHead1CtrlFlowEnable = false, kHead1Depth = 2 : i64, kMacID = "ptconvlstm__conv_layer__conv1d__conv2d_Conv2d", kName = "sbuf2u_0_0_289", kNumHead0RdEn = 0 : i64, kNumHead1RdEn = 0 : i64, kPlacementHint = [1, 0], kSourceContext = "software/arc/src/lib/templates/ConvIm2Col.cpp:205:0", kStageId = 0 : i64, kStageMultiplier = 1 : i64, kStageMultiplierBase = 1 : i64, kUniqueId = 289 : i64, kUserCreated = true} : (tensor<1x408xbf16>) -> (tensor<1x408xbf16>, tensor<1x408xbf16>)
          %41:22 = "tlir.Split"(%26#1) {DataAlignment0 = 1 : i64, DataAlignment0S = 2 : i64, DataAlignment1 = 1 : i64, DataAlignment10 = 1 : i64, DataAlignment10S = 2 : i64, DataAlignment11 = 1 : i64, DataAlignment11S = 2 : i64, DataAlignment12 = 1 : i64, DataAlignment12S = 2 : i64, DataAlignment13 = 1 : i64, DataAlignment13S = 2 : i64, DataAlignment14 = 1 : i64, DataAlignment14S = 2 : i64, DataAlignment15 = 1 : i64, DataAlignment15S = 2 : i64, DataAlignment16 = 1 : i64, DataAlignment16S = 2 : i64, DataAlignment17 = 1 : i64, DataAlignment17S = 2 : i64, DataAlignment18 = 1 : i64, DataAlignment18S = 2 : i64, DataAlignment19 = 1 : i64, DataAlignment19S = 2 : i64, DataAlignment1S = 2 : i64, DataAlignment2 = 1 : i64, DataAlignment20 = 1 : i64, DataAlignment20S = 2 : i64, DataAlignment21 = 1 : i64, DataAlignment21S = 2 : i64, DataAlignment2S = 2 : i64, DataAlignment3 = 1 : i64, DataAlignment3S = 2 : i64, DataAlignment4 = 1 : i64, DataAlignment4S = 2 : i64, DataAlignment5 = 1 : i64, DataAlignment5S = 2 : i64, DataAlignment6 = 1 : i64, DataAlignment6S = 2 : i64, DataAlignment7 = 1 : i64, DataAlignment7S = 2 : i64, DataAlignment8 = 1 : i64, DataAlignment8S = 2 : i64, DataAlignment9 = 1 : i64, DataAlignment9S = 2 : i64, VectorDimension0 = 1 : i64, VectorDimension0S = 2 : i64, VectorDimension1 = 1 : i64, VectorDimension10 = 1 : i64, VectorDimension10S = 2 : i64, VectorDimension11 = 1 : i64, VectorDimension11S = 2 : i64, VectorDimension12 = 1 : i64, VectorDimension12S = 2 : i64, VectorDimension13 = 1 : i64, VectorDimension13S = 2 : i64, VectorDimension14 = 1 : i64, VectorDimension14S = 2 : i64, VectorDimension15 = 1 : i64, VectorDimension15S = 2 : i64, VectorDimension16 = 1 : i64, VectorDimension16S = 2 : i64, VectorDimension17 = 1 : i64, VectorDimension17S = 2 : i64, VectorDimension18 = 1 : i64, VectorDimension18S = 2 : i64, VectorDimension19 = 1 : i64, VectorDimension19S = 2 : i64, VectorDimension1S = 2 : i64, VectorDimension2 = 1 : i64, VectorDimension20 = 1 : i64, VectorDimension20S = 2 : i64, VectorDimension21 = 1 : i64, VectorDimension21S = 2 : i64, VectorDimension2S = 2 : i64, VectorDimension3 = 1 : i64, VectorDimension3S = 2 : i64, VectorDimension4 = 1 : i64, VectorDimension4S = 2 : i64, VectorDimension5 = 1 : i64, VectorDimension5S = 2 : i64, VectorDimension6 = 1 : i64, VectorDimension6S = 2 : i64, VectorDimension7 = 1 : i64, VectorDimension7S = 2 : i64, VectorDimension8 = 1 : i64, VectorDimension8S = 2 : i64, VectorDimension9 = 1 : i64, VectorDimension9S = 2 : i64, VectorOrdering0 = 1 : i64, VectorOrdering0S = 2 : i64, VectorOrdering1 = 1 : i64, VectorOrdering10 = 1 : i64, VectorOrdering10S = 2 : i64, VectorOrdering11 = 1 : i64, VectorOrdering11S = 2 : i64, VectorOrdering12 = 1 : i64, VectorOrdering12S = 2 : i64, VectorOrdering13 = 1 : i64, VectorOrdering13S = 2 : i64, VectorOrdering14 = 1 : i64, VectorOrdering14S = 2 : i64, VectorOrdering15 = 1 : i64, VectorOrdering15S = 2 : i64, VectorOrdering16 = 1 : i64, VectorOrdering16S = 2 : i64, VectorOrdering17 = 1 : i64, VectorOrdering17S = 2 : i64, VectorOrdering18 = 1 : i64, VectorOrdering18S = 2 : i64, VectorOrdering19 = 1 : i64, VectorOrdering19S = 2 : i64, VectorOrdering1S = 2 : i64, VectorOrdering2 = 1 : i64, VectorOrdering20 = 1 : i64, VectorOrdering20S = 2 : i64, VectorOrdering21 = 1 : i64, VectorOrdering21S = 2 : i64, VectorOrdering2S = 2 : i64, VectorOrdering3 = 1 : i64, VectorOrdering3S = 2 : i64, VectorOrdering4 = 1 : i64, VectorOrdering4S = 2 : i64, VectorOrdering5 = 1 : i64, VectorOrdering5S = 2 : i64, VectorOrdering6 = 1 : i64, VectorOrdering6S = 2 : i64, VectorOrdering7 = 1 : i64, VectorOrdering7S = 2 : i64, VectorOrdering8 = 1 : i64, VectorOrdering8S = 2 : i64, VectorOrdering9 = 1 : i64, VectorOrdering9S = 2 : i64, kAxis = 1 : i64, kMacID = "ptconvlstm__conv_layer__conv1d__conv2d_Conv2d", kName = "split_kernel_gbuf_0_0_290", kPlacementHint = [1, 0], kPreferTBuffer = false, kSectionSizes = [12 : index, 12 : index, 12 : index, 12 : index, 12 : index, 12 : index, 12 : index, 12 : index, 12 : index, 12 : index, 12 : index, 12 : index, 12 : index, 12 : index, 12 : index, 12 : index, 12 : index, 12 : index, 12 : index, 12 : index, 12 : index, 4 : index], kSourceContext = "software/arc/src/lib/templates/BigLinearExternalColPar.cpp:40:0", kSplitGemmReread = true, kSplitType = 1 : i64, kStageId = 0 : i64, kStageMultiplier = 1 : i64, kTemplateName = "split_kernel_gbuf_0_0_290", kUniqueId = 290 : i64, kUserCreated = true} : (tensor<408x256xbf16>) -> (tensor<408x12xbf16>, tensor<408x12xbf16>, tensor<408x12xbf16>, tensor<408x12xbf16>, tensor<408x12xbf16>, tensor<408x12xbf16>, tensor<408x12xbf16>, tensor<408x12xbf16>, tensor<408x12xbf16>, tensor<408x12xbf16>, tensor<408x12xbf16>, tensor<408x12xbf16>, tensor<408x12xbf16>, tensor<408x12xbf16>, tensor<408x12xbf16>, tensor<408x12xbf16>, tensor<408x12xbf16>, tensor<408x12xbf16>, tensor<408x12xbf16>, tensor<408x12xbf16>, tensor<408x12xbf16>, tensor<408x4xbf16>)
          %42 = "tlir.Linear"(%40#1, %41#0) {DataAlignment0 = 1 : i64, DataAlignment0S = 2 : i64, VectorDimension0 = 1 : i64, VectorDimension0S = 2 : i64, VectorOrdering0 = 1 : i64, VectorOrdering0S = 2 : i64, kConcatGroup = 4 : i64, kHasWeight = false, kIgnoreLinearColParUpdate = true, kInputAIsWeight = false, kMacID = "ptconvlstm__conv_layer__conv1d__conv2d_Conv2d", kName = "biggemm_0_0_291", kNumColComputeUnits = 2 : i64, kNumPartitions = 1 : i64, kNumRowComputeUnits = 1 : i64, kPlacementHint = [1, 0], kReadAHead = 0 : i32, kReadBHead = 1 : i32, kSeqIdBase = 0 : i64, kSourceContext = "software/arc/src/lib/templates/BigLinearExternalColPar.cpp:80:0", kStageId = 0 : i64, kStageMultiplier = 1 : i64, kStageMultiplierBase = 1 : i64, kStreamingColPar = true, kTemplateName = "biggemm_0_0_291", kUniqueId = 291 : i64, kUseBigGemm = true, kUserCreated = true, kWbufBlockInterleavedWrite = false, kWbufRepeat = 0 : i64, kWbufRepeatClipAt = 0 : i64, kWbufRepeatInterleaveSize = 0 : i64} : (tensor<1x408xbf16>, tensor<408x12xbf16>) -> tensor<1x12xbf16>
          %43 = "tlir.Linear"(%40#1, %41#1) {DataAlignment0 = 1 : i64, DataAlignment0S = 2 : i64, VectorDimension0 = 1 : i64, VectorDimension0S = 2 : i64, VectorOrdering0 = 1 : i64, VectorOrdering0S = 2 : i64, kConcatGroup = 4 : i64, kHasWeight = false, kIgnoreLinearColParUpdate = true, kInputAIsWeight = false, kMacID = "ptconvlstm__conv_layer__conv1d__conv2d_Conv2d", kName = "biggemm_0_0_292", kNumColComputeUnits = 2 : i64, kNumPartitions = 1 : i64, kNumRowComputeUnits = 1 : i64, kPlacementHint = [1, 0], kReadAHead = 0 : i32, kReadBHead = 1 : i32, kSeqIdBase = 12 : i64, kSourceContext = "software/arc/src/lib/templates/BigLinearExternalColPar.cpp:80:0", kStageId = 0 : i64, kStageMultiplier = 1 : i64, kStageMultiplierBase = 1 : i64, kStreamingColPar = true, kTemplateName = "biggemm_0_0_292", kUniqueId = 292 : i64, kUseBigGemm = true, kUserCreated = true, kWbufBlockInterleavedWrite = false, kWbufRepeat = 0 : i64, kWbufRepeatClipAt = 0 : i64, kWbufRepeatInterleaveSize = 0 : i64} : (tensor<1x408xbf16>, tensor<408x12xbf16>) -> tensor<1x12xbf16>
          %44 = "tlir.Linear"(%40#1, %41#2) {DataAlignment0 = 1 : i64, DataAlignment0S = 2 : i64, VectorDimension0 = 1 : i64, VectorDimension0S = 2 : i64, VectorOrdering0 = 1 : i64, VectorOrdering0S = 2 : i64, kConcatGroup = 4 : i64, kHasWeight = false, kIgnoreLinearColParUpdate = true, kInputAIsWeight = false, kMacID = "ptconvlstm__conv_layer__conv1d__conv2d_Conv2d", kName = "biggemm_0_0_293", kNumColComputeUnits = 2 : i64, kNumPartitions = 1 : i64, kNumRowComputeUnits = 1 : i64, kPlacementHint = [1, 0], kReadAHead = 0 : i32, kReadBHead = 1 : i32, kSeqIdBase = 24 : i64, kSourceContext = "software/arc/src/lib/templates/BigLinearExternalColPar.cpp:80:0", kStageId = 0 : i64, kStageMultiplier = 1 : i64, kStageMultiplierBase = 1 : i64, kStreamingColPar = true, kTemplateName = "biggemm_0_0_293", kUniqueId = 293 : i64, kUseBigGemm = true, kUserCreated = true, kWbufBlockInterleavedWrite = false, kWbufRepeat = 0 : i64, kWbufRepeatClipAt = 0 : i64, kWbufRepeatInterleaveSize = 0 : i64} : (tensor<1x408xbf16>, tensor<408x12xbf16>) -> tensor<1x12xbf16>
          %45 = "tlir.Linear"(%40#1, %41#3) {DataAlignment0 = 1 : i64, DataAlignment0S = 2 : i64, VectorDimension0 = 1 : i64, VectorDimension0S = 2 : i64, VectorOrdering0 = 1 : i64, VectorOrdering0S = 2 : i64, kConcatGroup = 4 : i64, kHasWeight = false, kIgnoreLinearColParUpdate = true, kInputAIsWeight = false, kMacID = "ptconvlstm__conv_layer__conv1d__conv2d_Conv2d", kName = "biggemm_0_0_294", kNumColComputeUnits = 2 : i64, kNumPartitions = 1 : i64, kNumRowComputeUnits = 1 : i64, kPlacementHint = [1, 0], kReadAHead = 0 : i32, kReadBHead = 1 : i32, kSeqIdBase = 36 : i64, kSourceContext = "software/arc/src/lib/templates/BigLinearExternalColPar.cpp:80:0", kStageId = 0 : i64, kStageMultiplier = 1 : i64, kStageMultiplierBase = 1 : i64, kStreamingColPar = true, kTemplateName = "biggemm_0_0_294", kUniqueId = 294 : i64, kUseBigGemm = true, kUserCreated = true, kWbufBlockInterleavedWrite = false, kWbufRepeat = 0 : i64, kWbufRepeatClipAt = 0 : i64, kWbufRepeatInterleaveSize = 0 : i64} : (tensor<1x408xbf16>, tensor<408x12xbf16>) -> tensor<1x12xbf16>
          %46 = "tlir.Linear"(%40#1, %41#4) {DataAlignment0 = 1 : i64, DataAlignment0S = 2 : i64, VectorDimension0 = 1 : i64, VectorDimension0S = 2 : i64, VectorOrdering0 = 1 : i64, VectorOrdering0S = 2 : i64, kConcatGroup = 4 : i64, kHasWeight = false, kIgnoreLinearColParUpdate = true, kInputAIsWeight = false, kMacID = "ptconvlstm__conv_layer__conv1d__conv2d_Conv2d", kName = "biggemm_0_0_295", kNumColComputeUnits = 2 : i64, kNumPartitions = 1 : i64, kNumRowComputeUnits = 1 : i64, kPlacementHint = [1, 0], kReadAHead = 0 : i32, kReadBHead = 1 : i32, kSeqIdBase = 0 : i64, kSourceContext = "software/arc/src/lib/templates/BigLinearExternalColPar.cpp:80:0", kStageId = 0 : i64, kStageMultiplier = 1 : i64, kStageMultiplierBase = 1 : i64, kStreamingColPar = true, kTemplateName = "biggemm_0_0_295", kUniqueId = 295 : i64, kUseBigGemm = true, kUserCreated = true, kWbufBlockInterleavedWrite = false, kWbufRepeat = 0 : i64, kWbufRepeatClipAt = 0 : i64, kWbufRepeatInterleaveSize = 0 : i64} : (tensor<1x408xbf16>, tensor<408x12xbf16>) -> tensor<1x12xbf16>
          %47 = "tlir.Linear"(%40#1, %41#5) {DataAlignment0 = 1 : i64, DataAlignment0S = 2 : i64, VectorDimension0 = 1 : i64, VectorDimension0S = 2 : i64, VectorOrdering0 = 1 : i64, VectorOrdering0S = 2 : i64, kConcatGroup = 4 : i64, kHasWeight = false, kIgnoreLinearColParUpdate = true, kInputAIsWeight = false, kMacID = "ptconvlstm__conv_layer__conv1d__conv2d_Conv2d", kName = "biggemm_0_0_296", kNumColComputeUnits = 2 : i64, kNumPartitions = 1 : i64, kNumRowComputeUnits = 1 : i64, kPlacementHint = [1, 0], kReadAHead = 0 : i32, kReadBHead = 1 : i32, kSeqIdBase = 12 : i64, kSourceContext = "software/arc/src/lib/templates/BigLinearExternalColPar.cpp:80:0", kStageId = 0 : i64, kStageMultiplier = 1 : i64, kStageMultiplierBase = 1 : i64, kStreamingColPar = true, kTemplateName = "biggemm_0_0_296", kUniqueId = 296 : i64, kUseBigGemm = true, kUserCreated = true, kWbufBlockInterleavedWrite = false, kWbufRepeat = 0 : i64, kWbufRepeatClipAt = 0 : i64, kWbufRepeatInterleaveSize = 0 : i64} : (tensor<1x408xbf16>, tensor<408x12xbf16>) -> tensor<1x12xbf16>
          %48 = "tlir.Linear"(%40#1, %41#6) {DataAlignment0 = 1 : i64, DataAlignment0S = 2 : i64, VectorDimension0 = 1 : i64, VectorDimension0S = 2 : i64, VectorOrdering0 = 1 : i64, VectorOrdering0S = 2 : i64, kConcatGroup = 4 : i64, kHasWeight = false, kIgnoreLinearColParUpdate = true, kInputAIsWeight = false, kMacID = "ptconvlstm__conv_layer__conv1d__conv2d_Conv2d", kName = "biggemm_0_0_297", kNumColComputeUnits = 2 : i64, kNumPartitions = 1 : i64, kNumRowComputeUnits = 1 : i64, kPlacementHint = [1, 0], kReadAHead = 0 : i32, kReadBHead = 1 : i32, kSeqIdBase = 24 : i64, kSourceContext = "software/arc/src/lib/templates/BigLinearExternalColPar.cpp:80:0", kStageId = 0 : i64, kStageMultiplier = 1 : i64, kStageMultiplierBase = 1 : i64, kStreamingColPar = true, kTemplateName = "biggemm_0_0_297", kUniqueId = 297 : i64, kUseBigGemm = true, kUserCreated = true, kWbufBlockInterleavedWrite = false, kWbufRepeat = 0 : i64, kWbufRepeatClipAt = 0 : i64, kWbufRepeatInterleaveSize = 0 : i64} : (tensor<1x408xbf16>, tensor<408x12xbf16>) -> tensor<1x12xbf16>
          %49 = "tlir.Linear"(%40#1, %41#7) {DataAlignment0 = 1 : i64, DataAlignment0S = 2 : i64, VectorDimension0 = 1 : i64, VectorDimension0S = 2 : i64, VectorOrdering0 = 1 : i64, VectorOrdering0S = 2 : i64, kConcatGroup = 4 : i64, kHasWeight = false, kIgnoreLinearColParUpdate = true, kInputAIsWeight = false, kMacID = "ptconvlstm__conv_layer__conv1d__conv2d_Conv2d", kName = "biggemm_0_0_298", kNumColComputeUnits = 2 : i64, kNumPartitions = 1 : i64, kNumRowComputeUnits = 1 : i64, kPlacementHint = [1, 0], kReadAHead = 0 : i32, kReadBHead = 1 : i32, kSeqIdBase = 36 : i64, kSourceContext = "software/arc/src/lib/templates/BigLinearExternalColPar.cpp:80:0", kStageId = 0 : i64, kStageMultiplier = 1 : i64, kStageMultiplierBase = 1 : i64, kStreamingColPar = true, kTemplateName = "biggemm_0_0_298", kUniqueId = 298 : i64, kUseBigGemm = true, kUserCreated = true, kWbufBlockInterleavedWrite = false, kWbufRepeat = 0 : i64, kWbufRepeatClipAt = 0 : i64, kWbufRepeatInterleaveSize = 0 : i64} : (tensor<1x408xbf16>, tensor<408x12xbf16>) -> tensor<1x12xbf16>
          %50 = "tlir.Linear"(%40#1, %41#8) {DataAlignment0 = 1 : i64, DataAlignment0S = 2 : i64, VectorDimension0 = 1 : i64, VectorDimension0S = 2 : i64, VectorOrdering0 = 1 : i64, VectorOrdering0S = 2 : i64, kConcatGroup = 4 : i64, kHasWeight = false, kIgnoreLinearColParUpdate = true, kInputAIsWeight = false, kMacID = "ptconvlstm__conv_layer__conv1d__conv2d_Conv2d", kName = "biggemm_0_0_299", kNumColComputeUnits = 2 : i64, kNumPartitions = 1 : i64, kNumRowComputeUnits = 1 : i64, kPlacementHint = [1, 0], kReadAHead = 0 : i32, kReadBHead = 1 : i32, kSeqIdBase = 0 : i64, kSourceContext = "software/arc/src/lib/templates/BigLinearExternalColPar.cpp:80:0", kStageId = 0 : i64, kStageMultiplier = 1 : i64, kStageMultiplierBase = 1 : i64, kStreamingColPar = true, kTemplateName = "biggemm_0_0_299", kUniqueId = 299 : i64, kUseBigGemm = true, kUserCreated = true, kWbufBlockInterleavedWrite = false, kWbufRepeat = 0 : i64, kWbufRepeatClipAt = 0 : i64, kWbufRepeatInterleaveSize = 0 : i64} : (tensor<1x408xbf16>, tensor<408x12xbf16>) -> tensor<1x12xbf16>
          %51 = "tlir.Linear"(%40#1, %41#9) {DataAlignment0 = 1 : i64, DataAlignment0S = 2 : i64, VectorDimension0 = 1 : i64, VectorDimension0S = 2 : i64, VectorOrdering0 = 1 : i64, VectorOrdering0S = 2 : i64, kConcatGroup = 4 : i64, kHasWeight = false, kIgnoreLinearColParUpdate = true, kInputAIsWeight = false, kMacID = "ptconvlstm__conv_layer__conv1d__conv2d_Conv2d", kName = "biggemm_0_0_300", kNumColComputeUnits = 2 : i64, kNumPartitions = 1 : i64, kNumRowComputeUnits = 1 : i64, kPlacementHint = [1, 0], kReadAHead = 0 : i32, kReadBHead = 1 : i32, kSeqIdBase = 12 : i64, kSourceContext = "software/arc/src/lib/templates/BigLinearExternalColPar.cpp:80:0", kStageId = 0 : i64, kStageMultiplier = 1 : i64, kStageMultiplierBase = 1 : i64, kStreamingColPar = true, kTemplateName = "biggemm_0_0_300", kUniqueId = 300 : i64, kUseBigGemm = true, kUserCreated = true, kWbufBlockInterleavedWrite = false, kWbufRepeat = 0 : i64, kWbufRepeatClipAt = 0 : i64, kWbufRepeatInterleaveSize = 0 : i64} : (tensor<1x408xbf16>, tensor<408x12xbf16>) -> tensor<1x12xbf16>
          %52 = "tlir.Linear"(%40#1, %41#10) {DataAlignment0 = 1 : i64, DataAlignment0S = 2 : i64, VectorDimension0 = 1 : i64, VectorDimension0S = 2 : i64, VectorOrdering0 = 1 : i64, VectorOrdering0S = 2 : i64, kConcatGroup = 4 : i64, kHasWeight = false, kIgnoreLinearColParUpdate = true, kInputAIsWeight = false, kMacID = "ptconvlstm__conv_layer__conv1d__conv2d_Conv2d", kName = "biggemm_0_0_301", kNumColComputeUnits = 2 : i64, kNumPartitions = 1 : i64, kNumRowComputeUnits = 1 : i64, kPlacementHint = [1, 0], kReadAHead = 0 : i32, kReadBHead = 1 : i32, kSeqIdBase = 24 : i64, kSourceContext = "software/arc/src/lib/templates/BigLinearExternalColPar.cpp:80:0", kStageId = 0 : i64, kStageMultiplier = 1 : i64, kStageMultiplierBase = 1 : i64, kStreamingColPar = true, kTemplateName = "biggemm_0_0_301", kUniqueId = 301 : i64, kUseBigGemm = true, kUserCreated = true, kWbufBlockInterleavedWrite = false, kWbufRepeat = 0 : i64, kWbufRepeatClipAt = 0 : i64, kWbufRepeatInterleaveSize = 0 : i64} : (tensor<1x408xbf16>, tensor<408x12xbf16>) -> tensor<1x12xbf16>
          %53 = "tlir.Linear"(%40#1, %41#11) {DataAlignment0 = 1 : i64, DataAlignment0S = 2 : i64, VectorDimension0 = 1 : i64, VectorDimension0S = 2 : i64, VectorOrdering0 = 1 : i64, VectorOrdering0S = 2 : i64, kConcatGroup = 4 : i64, kHasWeight = false, kIgnoreLinearColParUpdate = true, kInputAIsWeight = false, kMacID = "ptconvlstm__conv_layer__conv1d__conv2d_Conv2d", kName = "biggemm_0_0_302", kNumColComputeUnits = 2 : i64, kNumPartitions = 1 : i64, kNumRowComputeUnits = 1 : i64, kPlacementHint = [1, 0], kReadAHead = 0 : i32, kReadBHead = 1 : i32, kSeqIdBase = 36 : i64, kSourceContext = "software/arc/src/lib/templates/BigLinearExternalColPar.cpp:80:0", kStageId = 0 : i64, kStageMultiplier = 1 : i64, kStageMultiplierBase = 1 : i64, kStreamingColPar = true, kTemplateName = "biggemm_0_0_302", kUniqueId = 302 : i64, kUseBigGemm = true, kUserCreated = true, kWbufBlockInterleavedWrite = false, kWbufRepeat = 0 : i64, kWbufRepeatClipAt = 0 : i64, kWbufRepeatInterleaveSize = 0 : i64} : (tensor<1x408xbf16>, tensor<408x12xbf16>) -> tensor<1x12xbf16>
          %54 = "tlir.Linear"(%40#1, %41#12) {DataAlignment0 = 1 : i64, DataAlignment0S = 2 : i64, VectorDimension0 = 1 : i64, VectorDimension0S = 2 : i64, VectorOrdering0 = 1 : i64, VectorOrdering0S = 2 : i64, kConcatGroup = 4 : i64, kHasWeight = false, kIgnoreLinearColParUpdate = true, kInputAIsWeight = false, kMacID = "ptconvlstm__conv_layer__conv1d__conv2d_Conv2d", kName = "biggemm_0_0_303", kNumColComputeUnits = 2 : i64, kNumPartitions = 1 : i64, kNumRowComputeUnits = 1 : i64, kPlacementHint = [1, 0], kReadAHead = 0 : i32, kReadBHead = 1 : i32, kSeqIdBase = 0 : i64, kSourceContext = "software/arc/src/lib/templates/BigLinearExternalColPar.cpp:80:0", kStageId = 0 : i64, kStageMultiplier = 1 : i64, kStageMultiplierBase = 1 : i64, kStreamingColPar = true, kTemplateName = "biggemm_0_0_303", kUniqueId = 303 : i64, kUseBigGemm = true, kUserCreated = true, kWbufBlockInterleavedWrite = false, kWbufRepeat = 0 : i64, kWbufRepeatClipAt = 0 : i64, kWbufRepeatInterleaveSize = 0 : i64} : (tensor<1x408xbf16>, tensor<408x12xbf16>) -> tensor<1x12xbf16>
          %55 = "tlir.Linear"(%40#1, %41#13) {DataAlignment0 = 1 : i64, DataAlignment0S = 2 : i64, VectorDimension0 = 1 : i64, VectorDimension0S = 2 : i64, VectorOrdering0 = 1 : i64, VectorOrdering0S = 2 : i64, kConcatGroup = 4 : i64, kHasWeight = false, kIgnoreLinearColParUpdate = true, kInputAIsWeight = false, kMacID = "ptconvlstm__conv_layer__conv1d__conv2d_Conv2d", kName = "biggemm_0_0_304", kNumColComputeUnits = 2 : i64, kNumPartitions = 1 : i64, kNumRowComputeUnits = 1 : i64, kPlacementHint = [1, 0], kReadAHead = 0 : i32, kReadBHead = 1 : i32, kSeqIdBase = 12 : i64, kSourceContext = "software/arc/src/lib/templates/BigLinearExternalColPar.cpp:80:0", kStageId = 0 : i64, kStageMultiplier = 1 : i64, kStageMultiplierBase = 1 : i64, kStreamingColPar = true, kTemplateName = "biggemm_0_0_304", kUniqueId = 304 : i64, kUseBigGemm = true, kUserCreated = true, kWbufBlockInterleavedWrite = false, kWbufRepeat = 0 : i64, kWbufRepeatClipAt = 0 : i64, kWbufRepeatInterleaveSize = 0 : i64} : (tensor<1x408xbf16>, tensor<408x12xbf16>) -> tensor<1x12xbf16>
          %56 = "tlir.Linear"(%40#1, %41#14) {DataAlignment0 = 1 : i64, DataAlignment0S = 2 : i64, VectorDimension0 = 1 : i64, VectorDimension0S = 2 : i64, VectorOrdering0 = 1 : i64, VectorOrdering0S = 2 : i64, kConcatGroup = 4 : i64, kHasWeight = false, kIgnoreLinearColParUpdate = true, kInputAIsWeight = false, kMacID = "ptconvlstm__conv_layer__conv1d__conv2d_Conv2d", kName = "biggemm_0_0_305", kNumColComputeUnits = 2 : i64, kNumPartitions = 1 : i64, kNumRowComputeUnits = 1 : i64, kPlacementHint = [1, 0], kReadAHead = 0 : i32, kReadBHead = 1 : i32, kSeqIdBase = 24 : i64, kSourceContext = "software/arc/src/lib/templates/BigLinearExternalColPar.cpp:80:0", kStageId = 0 : i64, kStageMultiplier = 1 : i64, kStageMultiplierBase = 1 : i64, kStreamingColPar = true, kTemplateName = "biggemm_0_0_305", kUniqueId = 305 : i64, kUseBigGemm = true, kUserCreated = true, kWbufBlockInterleavedWrite = false, kWbufRepeat = 0 : i64, kWbufRepeatClipAt = 0 : i64, kWbufRepeatInterleaveSize = 0 : i64} : (tensor<1x408xbf16>, tensor<408x12xbf16>) -> tensor<1x12xbf16>
          %57 = "tlir.Linear"(%40#1, %41#15) {DataAlignment0 = 1 : i64, DataAlignment0S = 2 : i64, VectorDimension0 = 1 : i64, VectorDimension0S = 2 : i64, VectorOrdering0 = 1 : i64, VectorOrdering0S = 2 : i64, kConcatGroup = 4 : i64, kHasWeight = false, kIgnoreLinearColParUpdate = true, kInputAIsWeight = false, kMacID = "ptconvlstm__conv_layer__conv1d__conv2d_Conv2d", kName = "biggemm_0_0_306", kNumColComputeUnits = 2 : i64, kNumPartitions = 1 : i64, kNumRowComputeUnits = 1 : i64, kPlacementHint = [1, 0], kReadAHead = 0 : i32, kReadBHead = 1 : i32, kSeqIdBase = 36 : i64, kSourceContext = "software/arc/src/lib/templates/BigLinearExternalColPar.cpp:80:0", kStageId = 0 : i64, kStageMultiplier = 1 : i64, kStageMultiplierBase = 1 : i64, kStreamingColPar = true, kTemplateName = "biggemm_0_0_306", kUniqueId = 306 : i64, kUseBigGemm = true, kUserCreated = true, kWbufBlockInterleavedWrite = false, kWbufRepeat = 0 : i64, kWbufRepeatClipAt = 0 : i64, kWbufRepeatInterleaveSize = 0 : i64} : (tensor<1x408xbf16>, tensor<408x12xbf16>) -> tensor<1x12xbf16>
          %58 = "tlir.Linear"(%40#1, %41#16) {DataAlignment0 = 1 : i64, DataAlignment0S = 2 : i64, VectorDimension0 = 1 : i64, VectorDimension0S = 2 : i64, VectorOrdering0 = 1 : i64, VectorOrdering0S = 2 : i64, kConcatGroup = 4 : i64, kHasWeight = false, kIgnoreLinearColParUpdate = true, kInputAIsWeight = false, kMacID = "ptconvlstm__conv_layer__conv1d__conv2d_Conv2d", kName = "biggemm_0_0_307", kNumColComputeUnits = 2 : i64, kNumPartitions = 1 : i64, kNumRowComputeUnits = 1 : i64, kPlacementHint = [1, 0], kReadAHead = 0 : i32, kReadBHead = 1 : i32, kSeqIdBase = 0 : i64, kSourceContext = "software/arc/src/lib/templates/BigLinearExternalColPar.cpp:80:0", kStageId = 0 : i64, kStageMultiplier = 1 : i64, kStageMultiplierBase = 1 : i64, kStreamingColPar = true, kTemplateName = "biggemm_0_0_307", kUniqueId = 307 : i64, kUseBigGemm = true, kUserCreated = true, kWbufBlockInterleavedWrite = false, kWbufRepeat = 0 : i64, kWbufRepeatClipAt = 0 : i64, kWbufRepeatInterleaveSize = 0 : i64} : (tensor<1x408xbf16>, tensor<408x12xbf16>) -> tensor<1x12xbf16>
          %59 = "tlir.Linear"(%40#1, %41#17) {DataAlignment0 = 1 : i64, DataAlignment0S = 2 : i64, VectorDimension0 = 1 : i64, VectorDimension0S = 2 : i64, VectorOrdering0 = 1 : i64, VectorOrdering0S = 2 : i64, kConcatGroup = 4 : i64, kHasWeight = false, kIgnoreLinearColParUpdate = true, kInputAIsWeight = false, kMacID = "ptconvlstm__conv_layer__conv1d__conv2d_Conv2d", kName = "biggemm_0_0_308", kNumColComputeUnits = 2 : i64, kNumPartitions = 1 : i64, kNumRowComputeUnits = 1 : i64, kPlacementHint = [1, 0], kReadAHead = 0 : i32, kReadBHead = 1 : i32, kSeqIdBase = 12 : i64, kSourceContext = "software/arc/src/lib/templates/BigLinearExternalColPar.cpp:80:0", kStageId = 0 : i64, kStageMultiplier = 1 : i64, kStageMultiplierBase = 1 : i64, kStreamingColPar = true, kTemplateName = "biggemm_0_0_308", kUniqueId = 308 : i64, kUseBigGemm = true, kUserCreated = true, kWbufBlockInterleavedWrite = false, kWbufRepeat = 0 : i64, kWbufRepeatClipAt = 0 : i64, kWbufRepeatInterleaveSize = 0 : i64} : (tensor<1x408xbf16>, tensor<408x12xbf16>) -> tensor<1x12xbf16>
          %60 = "tlir.Linear"(%40#1, %41#18) {DataAlignment0 = 1 : i64, DataAlignment0S = 2 : i64, VectorDimension0 = 1 : i64, VectorDimension0S = 2 : i64, VectorOrdering0 = 1 : i64, VectorOrdering0S = 2 : i64, kConcatGroup = 4 : i64, kHasWeight = false, kIgnoreLinearColParUpdate = true, kInputAIsWeight = false, kMacID = "ptconvlstm__conv_layer__conv1d__conv2d_Conv2d", kName = "biggemm_0_0_309", kNumColComputeUnits = 2 : i64, kNumPartitions = 1 : i64, kNumRowComputeUnits = 1 : i64, kPlacementHint = [1, 0], kReadAHead = 0 : i32, kReadBHead = 1 : i32, kSeqIdBase = 24 : i64, kSourceContext = "software/arc/src/lib/templates/BigLinearExternalColPar.cpp:80:0", kStageId = 0 : i64, kStageMultiplier = 1 : i64, kStageMultiplierBase = 1 : i64, kStreamingColPar = true, kTemplateName = "biggemm_0_0_309", kUniqueId = 309 : i64, kUseBigGemm = true, kUserCreated = true, kWbufBlockInterleavedWrite = false, kWbufRepeat = 0 : i64, kWbufRepeatClipAt = 0 : i64, kWbufRepeatInterleaveSize = 0 : i64} : (tensor<1x408xbf16>, tensor<408x12xbf16>) -> tensor<1x12xbf16>
          %61 = "tlir.Linear"(%40#1, %41#19) {DataAlignment0 = 1 : i64, DataAlignment0S = 2 : i64, VectorDimension0 = 1 : i64, VectorDimension0S = 2 : i64, VectorOrdering0 = 1 : i64, VectorOrdering0S = 2 : i64, kConcatGroup = 4 : i64, kHasWeight = false, kIgnoreLinearColParUpdate = true, kInputAIsWeight = false, kMacID = "ptconvlstm__conv_layer__conv1d__conv2d_Conv2d", kName = "biggemm_0_0_310", kNumColComputeUnits = 2 : i64, kNumPartitions = 1 : i64, kNumRowComputeUnits = 1 : i64, kPlacementHint = [1, 0], kReadAHead = 0 : i32, kReadBHead = 1 : i32, kSeqIdBase = 36 : i64, kSourceContext = "software/arc/src/lib/templates/BigLinearExternalColPar.cpp:80:0", kStageId = 0 : i64, kStageMultiplier = 1 : i64, kStageMultiplierBase = 1 : i64, kStreamingColPar = true, kTemplateName = "biggemm_0_0_310", kUniqueId = 310 : i64, kUseBigGemm = true, kUserCreated = true, kWbufBlockInterleavedWrite = false, kWbufRepeat = 0 : i64, kWbufRepeatClipAt = 0 : i64, kWbufRepeatInterleaveSize = 0 : i64} : (tensor<1x408xbf16>, tensor<408x12xbf16>) -> tensor<1x12xbf16>
          %62 = "tlir.Linear"(%40#1, %41#20) {DataAlignment0 = 1 : i64, DataAlignment0S = 2 : i64, VectorDimension0 = 1 : i64, VectorDimension0S = 2 : i64, VectorOrdering0 = 1 : i64, VectorOrdering0S = 2 : i64, kConcatGroup = 2 : i64, kHasWeight = false, kIgnoreLinearColParUpdate = true, kInputAIsWeight = false, kMacID = "ptconvlstm__conv_layer__conv1d__conv2d_Conv2d", kName = "biggemm_0_0_311", kNumColComputeUnits = 2 : i64, kNumPartitions = 1 : i64, kNumRowComputeUnits = 1 : i64, kPlacementHint = [1, 0], kReadAHead = 0 : i32, kReadBHead = 1 : i32, kSeqIdBase = 0 : i64, kSourceContext = "software/arc/src/lib/templates/BigLinearExternalColPar.cpp:80:0", kStageId = 0 : i64, kStageMultiplier = 1 : i64, kStageMultiplierBase = 1 : i64, kStreamingColPar = true, kTemplateName = "biggemm_0_0_311", kUniqueId = 311 : i64, kUseBigGemm = true, kUserCreated = true, kWbufBlockInterleavedWrite = false, kWbufRepeat = 0 : i64, kWbufRepeatClipAt = 0 : i64, kWbufRepeatInterleaveSize = 0 : i64} : (tensor<1x408xbf16>, tensor<408x12xbf16>) -> tensor<1x12xbf16>
          %63 = "tlir.Linear"(%40#1, %41#21) {DataAlignment0 = 1 : i64, DataAlignment0S = 2 : i64, VectorDimension0 = 1 : i64, VectorDimension0S = 2 : i64, VectorOrdering0 = 1 : i64, VectorOrdering0S = 2 : i64, kConcatGroup = 2 : i64, kHasWeight = false, kIgnoreLinearColParUpdate = true, kInputAIsWeight = false, kMacID = "ptconvlstm__conv_layer__conv1d__conv2d_Conv2d", kName = "biggemm_0_0_312", kNumColComputeUnits = 2 : i64, kNumPartitions = 1 : i64, kNumRowComputeUnits = 1 : i64, kPlacementHint = [1, 0], kReadAHead = 0 : i32, kReadBHead = 1 : i32, kSeqIdBase = 12 : i64, kSourceContext = "software/arc/src/lib/templates/BigLinearExternalColPar.cpp:80:0", kStageId = 0 : i64, kStageMultiplier = 1 : i64, kStageMultiplierBase = 1 : i64, kStreamingColPar = true, kTemplateName = "biggemm_0_0_312", kUniqueId = 312 : i64, kUseBigGemm = true, kUserCreated = true, kWbufBlockInterleavedWrite = false, kWbufRepeat = 0 : i64, kWbufRepeatClipAt = 0 : i64, kWbufRepeatInterleaveSize = 0 : i64} : (tensor<1x408xbf16>, tensor<408x4xbf16>) -> tensor<1x4xbf16>
          %64 = "tlir.ConcatView"(%42, %43, %44, %45, %46, %47, %48, %49, %50, %51, %52, %53, %54, %55, %56, %57, %58, %59, %60, %61, %62, %63) {DataAlignment0 = 1 : i64, DataAlignment0S = 2 : i64, DataAlignmentkPreserveLayout = -1 : i64, DataAlignmentkPreserveLayoutS = 2 : i64, VectorDimension0 = 1 : i64, VectorDimension0S = 2 : i64, VectorDimensionkPreserveLayout = -1 : i64, VectorDimensionkPreserveLayoutS = 2 : i64, VectorOrdering0 = 1 : i64, VectorOrdering0S = 2 : i64, VectorOrderingkPreserveLayout = -1 : i64, VectorOrderingkPreserveLayoutS = 2 : i64, kAxis = 1 : i64, kConcatCollapse = false, kConcatGroup = 4 : i64, kConcatType = 1 : i64, kForceM = 0 : i64, kIntColParVectors = 12 : i64, kName = "concatview411", kPlacementHint = [1, 0], kSourceContext = "software/arc/src/lib/templates/BigLinearExternalColPar.cpp:100:0", kStageId = 0 : i64, kStageMultiplier = 1 : i64, kTemplateName = "concat_view_0_0_411", kTimeSlices = [12, 12, 12, 12, 12, 12, 12, 12, 12, 12, 12, 12, 12, 12, 12, 12, 12, 12, 12, 12, 12, 4], kUniqueId = 411 : i64} : (tensor<1x12xbf16>, tensor<1x12xbf16>, tensor<1x12xbf16>, tensor<1x12xbf16>, tensor<1x12xbf16>, tensor<1x12xbf16>, tensor<1x12xbf16>, tensor<1x12xbf16>, tensor<1x12xbf16>, tensor<1x12xbf16>, tensor<1x12xbf16>, tensor<1x12xbf16>, tensor<1x12xbf16>, tensor<1x12xbf16>, tensor<1x12xbf16>, tensor<1x12xbf16>, tensor<1x12xbf16>, tensor<1x12xbf16>, tensor<1x12xbf16>, tensor<1x12xbf16>, tensor<1x12xbf16>, tensor<1x4xbf16>) -> tensor<1x256xbf16>
          %65:2 = "tlir.Buffer"(%64) {DataAlignment0 = 1 : i64, DataAlignment0S = 2 : i64, DataAlignment1 = 1 : i64, DataAlignment1S = 2 : i64, VectorDimension0 = 1 : i64, VectorDimension0S = 2 : i64, VectorDimension1 = 1 : i64, VectorDimension1S = 2 : i64, VectorOrdering0 = 1 : i64, VectorOrdering0S = 2 : i64, VectorOrdering1 = 1 : i64, VectorOrdering1S = 2 : i64, kBufferType = 1 : i64, kDepth = 2 : i64, kHead0CtrlFlowEnable = false, kHead0Depth = 0 : i64, kHead1CtrlFlowEnable = true, kHead1Depth = 2 : i64, kHead1MultipleSample = true, kIsLowerForConcatView = true, kMacID = "ptconvlstm__conv_layer__conv1d__conv2d_Conv2d", kName = "gbuf2u_0_0_315", kNbufHead = 1 : i64, kNumHead0RdEn = 0 : i64, kNumHead1RdEn = 2 : i64, kPlacementHint = [1, 0], kSourceContext = "software/arc/src/lib/templates/ConvIm2Col.cpp:295:0", kStageId = 0 : i64, kStageMultiplier = 1 : i64, kUniqueId = 315 : i64, kUserCreated = true} : (tensor<1x256xbf16>) -> (tensor<1x256xbf16>, tensor<1x256xbf16>)
          %66 = "tlir.BiasTransposeAdd"(%65#1, %23) {DataAlignment0 = 1 : i64, DataAlignment0S = 2 : i64, VectorDimension0 = 1 : i64, VectorDimension0S = 2 : i64, VectorOrdering0 = 1 : i64, VectorOrdering0S = 2 : i64, kMacID = "ptconvlstm__conv_layer__conv1d__conv2d_Conv2d", kName = "bias_transpose_add_0_0_316", kPlacementHint = [1, 0], kSourceContext = "software/arc/src/lib/templates/ConvIm2Col.cpp:296:0", kStageId = 0 : i64, kStageMultiplier = 1 : i64, kStreaming = false, kTemplateName = "bias_transpose_add_0_0_316", kUniqueId = 316 : i64, kUserCreated = true} : (tensor<1x256xbf16>, tensor<256x1xbf16>) -> tensor<1x256xbf16>
          %67 = "tlir.StreamingPermute"(%66) {DataAlignment0 = 1 : i64, DataAlignment0S = 2 : i64, VectorDimension0 = 2 : i64, VectorDimension0S = 2 : i64, VectorOrdering0 = 2 : i64, VectorOrdering0S = 2 : i64, kMacID = "ptconvlstm__conv_layer__conv1d__conv2d_Conv2d", kName = "streaming_transpose_0_0_317", kOutputReshape = [256 : index, 1 : index, 1 : index], kPermuteType = 7 : i64, kPlacementHint = [1, 0], kSourceContext = "software/arc/src/lib/templates/ConvIm2Col.cpp:368:0", kStageId = 0 : i64, kStageMultiplier = 1 : i64, kTemplateName = "streaming_transpose_0_0_317", kUniqueId = 317 : i64, kUserCreated = true} : (tensor<1x256xbf16>) -> tensor<256x1x1xbf16>
          %68:2 = "tlir.Buffer"(%67) {DataAlignment0 = 1 : i64, DataAlignment0S = 2 : i64, DataAlignment1 = 1 : i64, DataAlignment1S = 2 : i64, VectorDimension0 = 2 : i64, VectorDimension0S = 2 : i64, VectorDimension1 = 2 : i64, VectorDimension1S = 2 : i64, VectorOrdering0 = 2 : i64, VectorOrdering0S = 2 : i64, VectorOrdering1 = 2 : i64, VectorOrdering1S = 2 : i64, kBufferType = 1 : i64, kChipID = 0 : i64, kDepth = 2 : i64, kHead0CtrlFlowEnable = false, kHead0Depth = 2 : i64, kHead1CtrlFlowEnable = true, kHead1Depth = 2 : i64, kHead1MultipleSample = true, kName = "gbuf2u_0_0_182", kNbufHead = 1 : i64, kNumHead0RdEn = 0 : i64, kNumHead1RdEn = 2 : i64, kPlacementHint = [1, 0], kSourceContext = "ptconvlstm__conv_layer__conv1d__squeeze_Reshape:0:0", kStageId = 0 : i64, kStageMultiplier = 1 : i64, kUniqueId = 182 : i64, kUserCreated = true} : (tensor<256x1x1xbf16>) -> (tensor<256x1x1xbf16>, tensor<256x1x1xbf16>)
          %69 = "tlir.Reshape"(%68#1) {DataAlignment0 = 1 : i64, DataAlignment0S = 2 : i64, VectorDimension0 = 1 : i64, VectorDimension0S = 2 : i64, VectorOrdering0 = 1 : i64, VectorOrdering0S = 2 : i64, kIsCriticalStage = false, kLatency = 1.300000e+01 : f64, kMacID = "ptconvlstm__conv_layer__conv1d__squeeze_Reshape", kName = "ptconvlstm__conv_layer__conv1d__squeeze_Reshape", kPlacementHint = [1, 0], kSourceContext = "ptconvlstm__conv_layer__conv1d__squeeze_Reshape:0:0", kStageId = 0 : i64, kStageLatency = 1.300000e+01 : f64, kStageMultiplier = 1 : i64, kTemplateName = "reshape_0_0_318", kUniqueId = 318 : i64, kUserCreated = true} : (tensor<256x1x1xbf16>) -> tensor<256x1xbf16>
          %70:2 = "tlir.Buffer"(%69) {DataAlignment0 = 1 : i64, DataAlignment0S = 2 : i64, DataAlignment1 = 1 : i64, DataAlignment1S = 2 : i64, VectorDimension0 = 1 : i64, VectorDimension0S = 2 : i64, VectorDimension1 = 1 : i64, VectorDimension1S = 2 : i64, VectorOrdering0 = 1 : i64, VectorOrdering0S = 2 : i64, VectorOrdering1 = 1 : i64, VectorOrdering1S = 2 : i64, kBufferType = 1 : i64, kDepth = 2 : i64, kHead0CtrlFlowEnable = true, kHead0Depth = 2 : i64, kHead0Hydra = 0 : i64, kHead0MultipleSample = false, kHead0ReadParFactor = 0 : i64, kHead1CtrlFlowEnable = true, kHead1Depth = 2 : i64, kHead1Hydra = 4 : i64, kHead1MultipleSample = false, kHead1ReadParFactor = 0 : i64, kIsImageBuffer = false, kIsSplitImageBuffer = false, kName = "gbuf2a_0_0_415", kNumHead0RdEn = 1 : i64, kNumHead1RdEn = 2 : i64, kPlacementHint = [1, 0], kReadVT = false, kSourceContext = "ptconvlstm__conv_layer__conv1d__squeeze_Reshape:0:0", kStageId = 0 : i64, kStageMultiplier = 1 : i64, kTranspose = 0 : i64, kUniqueId = 415 : i64, kWriteVT = false} : (tensor<256x1xbf16>) -> (tensor<256x1xbf16>, tensor<256x1xbf16>)
          %71 = "tlir.Linear"(%24, %70#1) {DataAlignment0 = 1 : i64, DataAlignment0S = 2 : i64, VectorDimension0 = 1 : i64, VectorDimension0S = 2 : i64, VectorOrdering0 = 1 : i64, VectorOrdering0S = 2 : i64, kBiasCaching = false, kBoxLayout = true, kBoxLayoutAnchor = [], kBoxPerPartition = true, kBoxPerWbufSplit = false, kExclusiveRoutes = false, kExclusiveVCA = false, kInputAIsWeight = true, kIsCriticalStage = false, kIsFromConv1x1 = false, kLatency = 4.570000e+02 : f64, kMacID = "ptconvlstm__dense_layer__linear", kName = "ptconvlstm__dense_layer__linear", kNumColComputeUnits = 1 : i64, kNumPartitions = 4 : i64, kNumRowComputeUnits = 32 : i64, kPlacementHint = [1, 0], kReadAHead = 0 : i32, kReadBHead = 1 : i32, kSourceContext = "/usr/local/lib/python3.7/site-packages/torch/overrides.py:1202:0", kStageId = 0 : i64, kStageLatency = 4.570000e+02 : f64, kStageMultiplier = 1 : i64, kStagingBias = false, kTemplateName = "biggemm_0_0_319", kUniqueId = 319 : i64, kUseBigGemm = true, kUserCreated = true, kWbufBlockInterleavedWrite = false, kWbufSplit = false} : (tensor<4080x256xbf16>, tensor<256x1xbf16>) -> tensor<4080x1xbf16>
          %72:2 = "tlir.Buffer"(%71) {DataAlignment0 = 1 : i64, DataAlignment0S = 2 : i64, DataAlignment1 = 1 : i64, DataAlignment1S = 2 : i64, VectorDimension0 = 1 : i64, VectorDimension0S = 2 : i64, VectorDimension1 = 1 : i64, VectorDimension1S = 2 : i64, VectorOrdering0 = 1 : i64, VectorOrdering0S = 2 : i64, VectorOrdering1 = 1 : i64, VectorOrdering1S = 2 : i64, kBufferType = 1 : i64, kDepth = 1 : i64, kHead0CtrlFlowEnable = false, kHead0Depth = 1 : i64, kHead1CtrlFlowEnable = false, kHead1Depth = 1 : i64, kHead1MultipleSample = false, kName = "gbuf1a_0_0_381", kNbufHead = 1 : i64, kNumHead0RdEn = 0 : i64, kNumHead1RdEn = 0 : i64, kPlacementHint = [1, 0], kSourceContext = "/usr/local/lib/python3.7/site-packages/torch/overrides.py:1202:0", kStageId = 0 : i64, kStageMultiplier = 1 : i64, kUniqueId = 381 : i64} : (tensor<4080x1xbf16>) -> (tensor<4080x1xbf16>, tensor<4080x1xbf16>)
          %73 = "tlir.AddBias"(%25, %72#1) {DataAlignment0 = 1 : i64, DataAlignment0S = 2 : i64, VectorDimension0 = 1 : i64, VectorDimension0S = 2 : i64, VectorOrdering0 = 1 : i64, VectorOrdering0S = 2 : i64, kName = "bias_add_0_0_378", kPlacementHint = [1, 0], kSourceContext = "/usr/local/lib/python3.7/site-packages/torch/overrides.py:1202:0", kStageId = 0 : i64, kStageMultiplier = 1 : i64, kTemplateName = "bias_add_0_0_378", kUniqueId = 378 : i64, kWbufSplit = false, kWeightCaching = false} : (tensor<4080x1xbf16>, tensor<4080x1xbf16>) -> tensor<4080x1xbf16>
          %74:2 = "tlir.Buffer"(%73) {DataAlignment0 = 1 : i64, DataAlignment0S = 2 : i64, DataAlignment1 = 1 : i64, DataAlignment1S = 2 : i64, VectorDimension0 = 0 : i64, VectorDimension0S = 2 : i64, VectorDimension1 = 0 : i64, VectorDimension1S = 2 : i64, VectorOrdering0 = 0 : i64, VectorOrdering0S = 2 : i64, VectorOrdering1 = 0 : i64, VectorOrdering1S = 2 : i64, kBufferType = 1 : i64, kChipID = 0 : i64, kDepth = 2 : i64, kHead0CtrlFlowEnable = false, kHead0Depth = 2 : i64, kHead1CtrlFlowEnable = true, kHead1Depth = 2 : i64, kHead1MultipleSample = true, kName = "gbuf2u_0_0_186", kNbufHead = 1 : i64, kNumHead0RdEn = 0 : i64, kNumHead1RdEn = 2 : i64, kPlacementHint = [1, 0], kSourceContext = "/usr/local/lib/python3.7/site-packages/torch/overrides.py:1202:0", kStageId = 0 : i64, kStageMultiplier = 1 : i64, kTranspose = 1 : i64, kUniqueId = 186 : i64, kUserCreated = true} : (tensor<4080x1xbf16>) -> (tensor<4080x1xbf16>, tensor<4080x1xbf16>)
          %75 = "tlir.PermuteView"(%74#1) {DataAlignment0 = 1 : i64, DataAlignment0S = 2 : i64, VectorDimension0 = 1 : i64, VectorDimension0S = 2 : i64, VectorOrdering0 = 1 : i64, VectorOrdering0S = 2 : i64, kIsCriticalStage = false, kLatency = 0.000000e+00 : f64, kMacID = "ptconvlstm__dense_layer__linear_t_output0", kName = "ptconvlstm__dense_layer__linear_t_output0", kPermutation = [1, 0], kPlacementHint = [1, 0], kSourceContext = "/usr/local/lib/python3.7/site-packages/torch/overrides.py:1202:0", kStageId = 0 : i64, kStageLatency = 0.000000e+00 : f64, kStageMultiplier = 1 : i64, kTemplateName = "permute_view_0_0_320", kUniqueId = 320 : i64, kUserCreated = true} : (tensor<4080x1xbf16>) -> tensor<1x4080xbf16>
          %76:2 = "tlir.Buffer"(%75) {DataAlignment0 = 1 : i64, DataAlignment0S = 2 : i64, DataAlignment1 = 1 : i64, DataAlignment1S = 2 : i64, VectorDimension0 = 1 : i64, VectorDimension0S = 2 : i64, VectorDimension1 = 0 : i64, VectorDimension1S = 2 : i64, VectorOrdering0 = 1 : i64, VectorOrdering0S = 2 : i64, VectorOrdering1 = 0 : i64, VectorOrdering1S = 2 : i64, kBufferType = 1 : i64, kDepth = 2 : i64, kHead0CtrlFlowEnable = true, kHead0Depth = 2 : i64, kHead0Hydra = 0 : i64, kHead0MultipleSample = false, kHead0ReadParFactor = 0 : i64, kHead1CtrlFlowEnable = true, kHead1Depth = 2 : i64, kHead1Hydra = 0 : i64, kHead1MultipleSample = true, kHead1ReadParFactor = 0 : i64, kIsImageBuffer = false, kIsSplitImageBuffer = false, kName = "gbuf2a_0_0_416", kNumHead0RdEn = 4 : i64, kNumHead1RdEn = 2 : i64, kPlacementHint = [1, 0], kReadVT = false, kSourceContext = "logreg_ts.py:219:0", kStageId = 0 : i64, kStageMultiplier = 1 : i64, kTranspose = 1 : i64, kUniqueId = 416 : i64, kWriteVT = false} : (tensor<1x4080xbf16>) -> (tensor<1x4080xbf16>, tensor<1x4080xbf16>)
          %77 = "tlir.Transpose"(%76#0) {DataAlignment0 = 1 : i64, DataAlignment0S = 2 : i64, VectorDimension0 = 0 : i64, VectorDimension0S = 2 : i64, VectorOrdering0 = 0 : i64, VectorOrdering0S = 2 : i64, kName = "transpose_0_0_398", kPlacementHint = [1, 0], kSourceContext = "logreg_ts.py:219:0", kStageId = 0 : i64, kStageMultiplier = 1 : i64, kTemplateName = "transpose_0_0_398", kTransposeType = 1 : i64, kUniqueId = 398 : i64} : (tensor<1x4080xbf16>) -> tensor<1x4080xbf16>
          %78 = "tlir.LayoutCast"(%77) {DataAlignment0 = 1 : i64, DataAlignment0S = 2 : i64, DataAlignmentkOutputLayout = 1 : i64, DataAlignmentkOutputLayoutS = 2 : i64, DataAlignmentkRequiredLayout = 1 : i64, DataAlignmentkRequiredLayoutS = 2 : i64, VectorDimension0 = 0 : i64, VectorDimension0S = 2 : i64, VectorDimensionkOutputLayout = 0 : i64, VectorDimensionkOutputLayoutS = 2 : i64, VectorDimensionkRequiredLayout = 0 : i64, VectorDimensionkRequiredLayoutS = 2 : i64, VectorOrdering0 = 1 : i64, VectorOrdering0S = 2 : i64, VectorOrderingkOutputLayout = 1 : i64, VectorOrderingkOutputLayoutS = 2 : i64, VectorOrderingkRequiredLayout = 0 : i64, VectorOrderingkRequiredLayoutS = 2 : i64, kChecked = false, kName = "layout_cast_0_0_399", kPlacementHint = [1, 0], kSourceContext = "logreg_ts.py:219:0", kStageId = 0 : i64, kStageMultiplier = 1 : i64, kTemplateName = "layout_cast_0_0_399", kUniqueId = 399 : i64} : (tensor<1x4080xbf16>) -> tensor<1x4080xbf16>
          %79 = "tlir.Reshape"(%78) {DataAlignment0 = 1 : i64, DataAlignment0S = 2 : i64, VectorDimension0 = 0 : i64, VectorDimension0S = 2 : i64, VectorOrdering0 = 1 : i64, VectorOrdering0S = 2 : i64, kIsCriticalStage = false, kLatency = 1.300000e+01 : f64, kMacID = "ptconvlstm__reshape", kName = "ptconvlstm__reshape", kPlacementHint = [1, 0], kSourceContext = "logreg_ts.py:219:0", kStageId = 0 : i64, kStageLatency = 1.300000e+01 : f64, kStageMultiplier = 1 : i64, kTemplateName = "reshape_0_0_321", kUniqueId = 321 : i64, kUserCreated = true} : (tensor<1x4080xbf16>) -> tensor<4080xbf16>
          %80 = "tlir.Load"(%6) {DataAlignment0 = 4 : i64, DataAlignment0S = 2 : i64, DataAlignmentkAddedAlignment = 4 : i64, DataAlignmentkAddedAlignmentS = 2 : i64, VectorDimension0 = 0 : i64, VectorDimension0S = 2 : i64, VectorOrdering0 = 1 : i64, VectorOrdering0S = 2 : i64, kBatchSize = 1 : i64, kChipID = 0 : i64, kGroup = -29 : i64, kIsGrouped = false, kIsReverse = false, kKeepDim = false, kLoadSlice = true, kMultiLoadDepth = 2 : i64, kName = "out_window_0_0_263", kPlacementHint = [1, 0], kRequiresWBuf = false, kSliceAxes = [0 : index], kSliceSize = 1 : i64, kSourceContext = "logreg_ts.py:220:0", kStageId = 0 : i64, kStageMultiplier = 1 : i64, kTemplateName = "load_0_0_263", kUniqueId = 263 : i64, kUseVectorTranspose = false, kUserCreated = true} : (tensor<1x30x136xbf16>) -> tensor<30x136xbf16>
          %81:2 = "tlir.Buffer"(%80) {DataAlignment0 = 4 : i64, DataAlignment0S = 2 : i64, DataAlignment1 = 4 : i64, DataAlignment1S = 2 : i64, VectorDimension0 = 0 : i64, VectorDimension0S = 2 : i64, VectorDimension1 = 0 : i64, VectorDimension1S = 2 : i64, VectorOrdering0 = 1 : i64, VectorOrdering0S = 2 : i64, VectorOrdering1 = 1 : i64, VectorOrdering1S = 2 : i64, kChipID = 0 : i64, kDepth = 2 : i64, kHead0CtrlFlowEnable = false, kHead0Depth = 2 : i64, kHead1CtrlFlowEnable = true, kHead1Depth = 2 : i64, kHead1MultipleSample = true, kName = "nbuf2u_0_0_191", kNbufHead = 1 : i64, kNumHead0RdEn = 0 : i64, kNumHead1RdEn = 2 : i64, kPlacementHint = [1, 0], kSourceContext = "logreg_ts.py:220:0", kStageId = 0 : i64, kStageMultiplier = 1 : i64, kUniqueId = 191 : i64, kUserCreated = true} : (tensor<30x136xbf16>) -> (tensor<30x136xbf16>, tensor<30x136xbf16>)
          %82:2 = "tlir.Buffer"(%76#0) {DataAlignment0 = 1 : i64, DataAlignment0S = 2 : i64, DataAlignment1 = 1 : i64, DataAlignment1S = 2 : i64, VectorDimension0 = 1 : i64, VectorDimension0S = 2 : i64, VectorDimension1 = 1 : i64, VectorDimension1S = 2 : i64, VectorOrdering0 = 1 : i64, VectorOrdering0S = 2 : i64, VectorOrdering1 = 1 : i64, VectorOrdering1S = 2 : i64, kBufferType = 1 : i64, kChipID = 0 : i64, kDepth = 2 : i64, kHead0CtrlFlowEnable = false, kHead0Depth = 2 : i64, kHead1CtrlFlowEnable = true, kHead1Depth = 2 : i64, kHead1MultipleSample = false, kName = "gbuf2u_0_0_194", kNbufHead = 1 : i64, kNumHead0RdEn = 0 : i64, kNumHead1RdEn = 2 : i64, kPlacementHint = [1, 0], kSourceContext = "/usr/local/lib/python3.7/site-packages/torch/overrides.py:1202:0", kStageId = 0 : i64, kStageMultiplier = 1 : i64, kUniqueId = 194 : i64, kUserCreated = true} : (tensor<1x4080xbf16>) -> (tensor<1x4080xbf16>, tensor<1x4080xbf16>)
          %83 = "tlir.Reshape"(%81#1) {DataAlignment0 = 1 : i64, DataAlignment0S = 2 : i64, VectorDimension0 = 0 : i64, VectorDimension0S = 2 : i64, VectorOrdering0 = 1 : i64, VectorOrdering0S = 2 : i64, kIsCriticalStage = false, kLatency = -1.000000e+00 : f64, kMacID = "", kName = "reshape_0_0_322", kPlacementHint = [1, 0], kSourceContext = "/usr/local/lib/python3.7/site-packages/torch/overrides.py:1202:0", kStageId = 0 : i64, kStageLatency = -1.000000e+00 : f64, kStageMultiplier = 1 : i64, kTemplateName = "reshape_0_0_322", kUniqueId = 322 : i64, kUserCreated = true} : (tensor<30x136xbf16>) -> tensor<1x4080xbf16>
          %84 = "tlir.LayoutCast"(%83) {DataAlignment0 = 1 : i64, DataAlignment0S = 2 : i64, DataAlignmentkOutputLayout = 1 : i64, DataAlignmentkOutputLayoutS = 2 : i64, DataAlignmentkRequiredLayout = 1 : i64, DataAlignmentkRequiredLayoutS = 2 : i64, VectorDimension0 = 0 : i64, VectorDimension0S = 2 : i64, VectorDimensionkOutputLayout = 0 : i64, VectorDimensionkOutputLayoutS = 2 : i64, VectorDimensionkRequiredLayout = 0 : i64, VectorDimensionkRequiredLayoutS = 2 : i64, VectorOrdering0 = 0 : i64, VectorOrdering0S = 2 : i64, VectorOrderingkOutputLayout = 0 : i64, VectorOrderingkOutputLayoutS = 2 : i64, VectorOrderingkRequiredLayout = 1 : i64, VectorOrderingkRequiredLayoutS = 2 : i64, kChecked = false, kName = "layout_cast_0_0_401", kPlacementHint = [1, 0], kSourceContext = "/usr/local/lib/python3.7/site-packages/torch/overrides.py:1202:0", kStageId = 0 : i64, kStageMultiplier = 1 : i64, kTemplateName = "layout_cast_0_0_401", kUniqueId = 401 : i64} : (tensor<1x4080xbf16>) -> tensor<1x4080xbf16>
          %85:2 = "tlir.Buffer"(%84) {DataAlignment0 = 1 : i64, DataAlignment0S = 2 : i64, DataAlignment1 = 1 : i64, DataAlignment1S = 2 : i64, VectorDimension0 = 1 : i64, VectorDimension0S = 2 : i64, VectorDimension1 = 1 : i64, VectorDimension1S = 2 : i64, VectorOrdering0 = 1 : i64, VectorOrdering0S = 2 : i64, VectorOrdering1 = 1 : i64, VectorOrdering1S = 2 : i64, kBufferType = 1 : i64, kChipID = 0 : i64, kDepth = 2 : i64, kHead0CtrlFlowEnable = false, kHead0Depth = 2 : i64, kHead1CtrlFlowEnable = true, kHead1Depth = 2 : i64, kHead1MultipleSample = false, kName = "gbuf2u_0_0_196", kNbufHead = 1 : i64, kNumHead0RdEn = 0 : i64, kNumHead1RdEn = 2 : i64, kPlacementHint = [1, 0], kSourceContext = "/usr/local/lib/python3.7/site-packages/torch/overrides.py:1202:0", kStageId = 0 : i64, kStageMultiplier = 1 : i64, kTranspose = 1 : i64, kUniqueId = 196 : i64, kUserCreated = true} : (tensor<1x4080xbf16>) -> (tensor<1x4080xbf16>, tensor<1x4080xbf16>)
          %86 = "tlir.Sub"(%82#1, %85#1) {DataAlignment0 = 1 : i64, DataAlignment0S = 2 : i64, VectorDimension0 = 1 : i64, VectorDimension0S = 2 : i64, VectorOrdering0 = 1 : i64, VectorOrdering0S = 2 : i64, kBinaryOp = true, kIsCriticalStage = false, kLatency = 3.190000e+02 : f64, kMacID = "", kName = "sub_0_0_323", kPlacementHint = [1, 0], kSourceContext = "/usr/local/lib/python3.7/site-packages/torch/overrides.py:1202:0", kStageId = 0 : i64, kStageLatency = 3.190000e+02 : f64, kStageMultiplier = 1 : i64, kTemplateName = "sub_0_0_323", kUniqueId = 323 : i64, kUserCreated = true} : (tensor<1x4080xbf16>, tensor<1x4080xbf16>) -> tensor<1x4080xbf16>
          %87:2 = "tlir.Buffer"(%86) {DataAlignment0 = 1 : i64, DataAlignment0S = 2 : i64, DataAlignment1 = 1 : i64, DataAlignment1S = 2 : i64, VectorDimension0 = 1 : i64, VectorDimension0S = 2 : i64, VectorDimension1 = 1 : i64, VectorDimension1S = 2 : i64, VectorOrdering0 = 1 : i64, VectorOrdering0S = 2 : i64, VectorOrdering1 = 1 : i64, VectorOrdering1S = 2 : i64, kBufferType = 1 : i64, kDepth = 1 : i64, kHead0CtrlFlowEnable = false, kHead0Depth = 1 : i64, kHead0Hydra = 0 : i64, kHead0MultipleSample = false, kHead0ReadParFactor = 0 : i64, kHead1CtrlFlowEnable = false, kHead1Depth = 1 : i64, kHead1Hydra = 0 : i64, kHead1MultipleSample = false, kHead1ReadParFactor = 0 : i64, kIsImageBuffer = false, kIsSplitImageBuffer = false, kName = "gbuf1a_0_0_417", kNumHead0RdEn = 0 : i64, kNumHead1RdEn = 0 : i64, kPlacementHint = [1, 0], kReadVT = false, kSourceContext = "/usr/local/lib/python3.7/site-packages/torch/overrides.py:1202:0", kStageId = 0 : i64, kStageMultiplier = 1 : i64, kTranspose = 0 : i64, kUniqueId = 417 : i64, kWriteVT = false} : (tensor<1x4080xbf16>) -> (tensor<1x4080xbf16>, tensor<1x4080xbf16>)
          %88 = "tlir.Mul"(%87#1, %87#0) {DataAlignment0 = 1 : i64, DataAlignment0S = 2 : i64, VectorDimension0 = 1 : i64, VectorDimension0S = 2 : i64, VectorOrdering0 = 1 : i64, VectorOrdering0S = 2 : i64, kBinaryOp = true, kIsCriticalStage = false, kLatency = 3.190000e+02 : f64, kMacID = "", kName = "mul_0_0_324", kPlacementHint = [1, 0], kSourceContext = "/usr/local/lib/python3.7/site-packages/torch/overrides.py:1202:0", kStageId = 0 : i64, kStageLatency = 3.190000e+02 : f64, kStageMultiplier = 1 : i64, kTemplateName = "mul_0_0_324", kUniqueId = 324 : i64, kUserCreated = true} : (tensor<1x4080xbf16>, tensor<1x4080xbf16>) -> tensor<1x4080xbf16>
          %89 = "tlir.Mean"(%88) {DataAlignment0 = 1 : i64, DataAlignment0S = 2 : i64, VectorDimension0 = 0 : i64, VectorDimension0S = 2 : i64, VectorOrdering0 = 1 : i64, VectorOrdering0S = 2 : i64, kAxis = [1 : index], kIsCriticalStage = false, kKeepDims = false, kLatency = 3.190000e+02 : f64, kMacID = "", kName = "mean_p_0_0_325", kPlacementHint = [1, 0], kPreferRail = false, kSourceContext = "/usr/local/lib/python3.7/site-packages/torch/overrides.py:1202:0", kStageId = 0 : i64, kStageLatency = 3.190000e+02 : f64, kStageMultiplier = 1 : i64, kTemplateName = "mean_p_0_0_325", kUniqueId = 325 : i64, kUserCreated = true} : (tensor<1x4080xbf16>) -> tensor<1xbf16>
          %90 = "tlir.LayoutCast"(%76#1) {DataAlignment0 = 1 : i64, DataAlignment0S = 2 : i64, DataAlignmentkOutputLayout = 1 : i64, DataAlignmentkOutputLayoutS = 2 : i64, DataAlignmentkRequiredLayout = 1 : i64, DataAlignmentkRequiredLayoutS = 2 : i64, VectorDimension0 = 0 : i64, VectorDimension0S = 2 : i64, VectorDimensionkOutputLayout = 0 : i64, VectorDimensionkOutputLayoutS = 2 : i64, VectorDimensionkRequiredLayout = 0 : i64, VectorDimensionkRequiredLayoutS = 2 : i64, VectorOrdering0 = 1 : i64, VectorOrdering0S = 2 : i64, VectorOrderingkOutputLayout = 1 : i64, VectorOrderingkOutputLayoutS = 2 : i64, VectorOrderingkRequiredLayout = 0 : i64, VectorOrderingkRequiredLayoutS = 2 : i64, kChecked = false, kName = "layout_cast_0_0_402", kPlacementHint = [1, 0], kSourceContext = "/usr/local/lib/python3.7/site-packages/torch/overrides.py:1202:0", kStageId = 0 : i64, kStageMultiplier = 1 : i64, kTemplateName = "layout_cast_0_0_402", kUniqueId = 402 : i64} : (tensor<1x4080xbf16>) -> tensor<1x4080xbf16>
          %91 = "tlir.Reshape"(%90) {DataAlignment0 = 4 : i64, DataAlignment0S = 2 : i64, VectorDimension0 = 0 : i64, VectorDimension0S = 2 : i64, VectorOrdering0 = 1 : i64, VectorOrdering0S = 2 : i64, kIsCriticalStage = false, kLatency = 1.300000e+01 : f64, kMacID = "ptconvlstm__view", kName = "ptconvlstm__view", kPlacementHint = [1, 0], kSourceContext = "logreg_ts.py:226:0", kStageId = 0 : i64, kStageLatency = 1.300000e+01 : f64, kStageMultiplier = 1 : i64, kTemplateName = "reshape_0_0_326", kUniqueId = 326 : i64, kUserCreated = true} : (tensor<1x4080xbf16>) -> tensor<30x136xbf16>
          %92 = "tlir.OutputBuffer"(%70#0) {DataAlignment0 = 1 : i64, DataAlignment0S = 2 : i64, VectorDimension0 = 1 : i64, VectorDimension0S = 2 : i64, VectorOrdering0 = 1 : i64, VectorOrdering0S = 2 : i64, kDepth = 2 : i64, kName = "output_buf_0_0_408", kPlacementHint = [1, 0], kSourceContext = "ptconvlstm__conv_layer__conv1d__squeeze_Reshape:0:0", kStageId = 0 : i64, kStageMultiplier = 1 : i64, kTemplateName = "output_buf_0_0_408", kUniqueId = 408 : i64} : (tensor<256x1xbf16>) -> tensor<256x1xbf16>
          "tlir.Store"(%13, %92) {kBatchSize = 1 : i64, kChipID = 0 : i64, kGroup = -30 : i64, kIsCheckPoint = false, kIsReverse = false, kName = "ptconvlstm__conv_layer__conv1d__squeeze_Reshape0_used_by_ptconvlstm__dense_layer__linear_bwd_weight_0_0_270", kOpRWPattern0 = "kWriteOperand", kPlacementHint = [1, 0], kRemovesAlignment = false, kRequiresWBuf = false, kSliceAxes = [0 : index], kSliceSize = 1 : i64, kSourceContext = "ptconvlstm__conv_layer__conv1d__squeeze_Reshape:0:0", kStageId = 0 : i64, kStageMultiplier = 1 : i64, kStoreSlice = true, kTemplateName = "store_0_0_270", kUniqueId = 270 : i64, kUseVectorTranspose = true, kUserCreated = true} : (tensor<1x256x1xbf16>, tensor<256x1xbf16>) -> ()
          %93:2 = "tlir.Buffer"(%79) {DataAlignment0 = 1 : i64, DataAlignment0S = 2 : i64, DataAlignment1 = 1 : i64, DataAlignment1S = 2 : i64, VectorDimension0 = 0 : i64, VectorDimension0S = 2 : i64, VectorDimension1 = 0 : i64, VectorDimension1S = 2 : i64, VectorOrdering0 = 1 : i64, VectorOrdering0S = 2 : i64, VectorOrdering1 = 1 : i64, VectorOrdering1S = 2 : i64, kDepth = 2 : i64, kHead0CtrlFlowEnable = false, kHead0Depth = 2 : i64, kHead1CtrlFlowEnable = false, kHead1Depth = 2 : i64, kName = "nbuf2a_0_0_385", kNbufHead = 1 : i64, kNumHead0RdEn = 0 : i64, kNumHead1RdEn = 0 : i64, kPlacementHint = [1, 0], kSourceContext = "logreg_ts.py:219:0", kStageId = 0 : i64, kStageMultiplier = 1 : i64, kUniqueId = 385 : i64} : (tensor<4080xbf16>) -> (tensor<4080xbf16>, tensor<4080xbf16>)
          "tlir.Store"(%14, %93#1) {kBatchSize = 1 : i64, kChipID = 0 : i64, kGroup = -31 : i64, kIsCheckPoint = false, kIsReverse = false, kName = "ptconvlstm__reshape0_used_by_ptconvlstm__criterion__mseloss_bwd_sub_0_0_271", kOpRWPattern0 = "kWriteOperand", kPlacementHint = [1, 0], kRemovesAlignment = false, kRequiresWBuf = false, kSliceAxes = [0 : index], kSliceSize = 1 : i64, kSourceContext = "logreg_ts.py:219:0", kStageId = 0 : i64, kStageMultiplier = 1 : i64, kStoreSlice = true, kTemplateName = "store_0_0_271", kUniqueId = 271 : i64, kUseVectorTranspose = false, kUserCreated = true} : (tensor<1x4080xbf16>, tensor<4080xbf16>) -> ()
          %94:2 = "tlir.Buffer"(%89) {DataAlignment0 = 1 : i64, DataAlignment0S = 2 : i64, DataAlignment1 = 1 : i64, DataAlignment1S = 2 : i64, VectorDimension0 = 0 : i64, VectorDimension0S = 2 : i64, VectorDimension1 = 0 : i64, VectorDimension1S = 2 : i64, VectorOrdering0 = 1 : i64, VectorOrdering0S = 2 : i64, VectorOrdering1 = 1 : i64, VectorOrdering1S = 2 : i64, kDepth = 2 : i64, kHead0CtrlFlowEnable = false, kHead0Depth = 2 : i64, kHead1CtrlFlowEnable = false, kHead1Depth = 2 : i64, kName = "nbuf2a_0_0_386", kNbufHead = 1 : i64, kNumHead0RdEn = 0 : i64, kNumHead1RdEn = 0 : i64, kPlacementHint = [1, 0], kSourceContext = "/usr/local/lib/python3.7/site-packages/torch/overrides.py:1202:0", kStageId = 0 : i64, kStageMultiplier = 1 : i64, kUniqueId = 386 : i64} : (tensor<1xbf16>) -> (tensor<1xbf16>, tensor<1xbf16>)
          "tlir.Store"(%15, %94#1) {kBatchSize = 1 : i64, kChipID = 0 : i64, kGroup = -32 : i64, kIsCheckPoint = false, kIsReverse = false, kName = "ptconvlstm__criterion__mseloss__outputs__0_0_0_272", kOpRWPattern0 = "kWriteOperand", kPlacementHint = [1, 0], kRemovesAlignment = false, kRequiresWBuf = false, kSliceAxes = [0 : index], kSliceSize = 1 : i64, kSourceContext = "/usr/local/lib/python3.7/site-packages/torch/overrides.py:1202:0", kStageId = 0 : i64, kStageMultiplier = 1 : i64, kStoreSlice = true, kTemplateName = "store_0_0_272", kUniqueId = 272 : i64, kUseVectorTranspose = false, kUserCreated = true} : (tensor<1xbf16>, tensor<1xbf16>) -> ()
          %95:2 = "tlir.Buffer"(%91) {DataAlignment0 = 4 : i64, DataAlignment0S = 2 : i64, DataAlignment1 = 4 : i64, DataAlignment1S = 2 : i64, VectorDimension0 = 0 : i64, VectorDimension0S = 2 : i64, VectorDimension1 = 0 : i64, VectorDimension1S = 2 : i64, VectorOrdering0 = 1 : i64, VectorOrdering0S = 2 : i64, VectorOrdering1 = 1 : i64, VectorOrdering1S = 2 : i64, kDepth = 2 : i64, kHead0CtrlFlowEnable = false, kHead0Depth = 2 : i64, kHead1CtrlFlowEnable = false, kHead1Depth = 2 : i64, kName = "nbuf2a_0_0_387", kNbufHead = 1 : i64, kNumHead0RdEn = 0 : i64, kNumHead1RdEn = 0 : i64, kPlacementHint = [1, 0], kSourceContext = "logreg_ts.py:226:0", kStageId = 0 : i64, kStageMultiplier = 1 : i64, kUniqueId = 387 : i64} : (tensor<30x136xbf16>) -> (tensor<30x136xbf16>, tensor<30x136xbf16>)
          "tlir.Store"(%16, %95#1) {kBatchSize = 1 : i64, kChipID = 0 : i64, kGroup = -33 : i64, kIsCheckPoint = false, kIsReverse = false, kName = "ptconvlstm__view__outputs__0_0_0_273", kOpRWPattern0 = "kWriteOperand", kPlacementHint = [1, 0], kRemovesAlignment = true, kRequiresWBuf = false, kSliceAxes = [0 : index], kSliceSize = 1 : i64, kSourceContext = "logreg_ts.py:226:0", kStageId = 0 : i64, kStageMultiplier = 1 : i64, kStoreSlice = true, kTemplateName = "store_0_0_273", kUniqueId = 273 : i64, kUseVectorTranspose = false, kUserCreated = true} : (tensor<1x30x136xbf16>, tensor<30x136xbf16>) -> ()
          "tlir.terminator"() {kName = "terminator277", kSourceContext = "logreg_ts.py:191:0", kStageId = 0 : i64, kStageMultiplier = 1 : i64, kUniqueId = 277 : i64} : () -> ()
        }) {kName = "metapipeline276", kNumIterations = 1 : i64, kSourceContext = "logreg_ts.py:191:0", kStageId = 0 : i64, kUniqueId = 276 : i64, type = none} : () -> ()
        "tlir.terminator"() {kName = "terminator275", kSourceContext = "software/arc/src/lib/pass/transform/AIRToTLIRLoweringSections.cpp:89:0", kStageId = 0 : i64, kUniqueId = 275 : i64} : () -> ()
      }) {kName = "chip0_0", kPartitionId = 0 : i64, kSourceContext = "software/arc/src/lib/pass/transform/AIRToTLIRLoweringSections.cpp:89:0", kStageId = 0 : i64, kUniqueId = 274 : i64, type = none} : () -> ()
      "tlir.terminator"() {kName = "terminator106", kSourceContext = "software/arc/src/lib/pass/transform/AIRToTLIRLoweringSections.cpp:89:0", kStageId = 0 : i64, kUniqueId = 106 : i64} : () -> ()
    }) {kGlobalId = 0 : i64, kIsHostSection = false, kName = "section0", kPartitionId = 0 : i64, kSectionLatency = 5.6866094382712618E-5 : f64, kSectionName = "$FWD", kSectionUniqueName = "ptconvlstm__lambda_layer__indexselect_as_initial", kSourceContext = "software/arc/src/lib/pass/transform/AIRToTLIRLoweringSections.cpp:89:0", kStageId = 0 : i64, kUniqueId = 81 : i64, type = none} : () -> ()
    "tlir.Section"() ( {
      %21 = "tlir.Region"() {DataAlignment0 = 1 : i64, DataAlignment0S = 2 : i64, DataAlignmentGatherInput = 1 : i64, DataAlignmentGatherInputS = 2 : i64, DataAlignmentGatherOutput = 1 : i64, DataAlignmentGatherOutputS = 2 : i64, DataPtrgather.list = [0, 384], DataPtrgather.listS = 2 : i64, VectorDimension0 = 0 : i64, VectorDimension0S = 2 : i64, VectorDimensionGatherInput = 1 : i64, VectorDimensionGatherInputS = 2 : i64, VectorDimensionGatherOutput = 1 : i64, VectorDimensionGatherOutputS = 2 : i64, VectorOrdering0 = 1 : i64, VectorOrdering0S = 2 : i64, VectorOrderingGatherInput = 1 : i64, VectorOrderingGatherInputS = 2 : i64, VectorOrderingGatherOutput = 1 : i64, VectorOrderingGatherOutputS = 2 : i64, distribution = 9 : i32, gather.allow_oob = false, gather.allow_overflow = false, gather.base_list_tile_counters = 0 : i64, gather.base_max = [1, 13, 256, 3], gather.base_mult = [0, 0, 64, 0], gather.base_stride = [1, 1, 1, 1], gather.crush_par = 1 : i64, gather.depth2col = false, gather.depth_base_at = 1 : i64, gather.depth_group = 1 : i64, gather.depth_offset_at = 2 : i64, gather.filter_area = 0 : i64, gather.fixed_length = 0 : i64, gather.group_packed = 13 : i64, gather.group_unpacked = 39 : i64, gather.input_vec_base = -1 : i64, gather.input_vec_bound = -1 : i64, gather.input_vec_inner = -1 : i64, gather.input_vec_outer = -1 : i64, gather.list_length = 39 : i64, gather.list_tiles = 1 : i64, gather.num_channels = 136 : i64, gather.offset_list_tile_counters = 0 : i64, gather.offset_max = [1, 13, 256, 3], gather.offset_mult = [0, 3, 0, 1], gather.offset_stride = [1, 1, 1, 1], gather.output_mode = 0 : i64, gather.output_shape = [408, 256], gather.pace_shape = [], gather.permute = false, gather.reread = 1 : i64, gather.seg_length = 3 : i64, gather.streaming = 1 : i64, gather.streaming_repeat = 0 : i64, gather.surface_output_vectors = 0 : i64, gather.surface_par = 1 : i64, gather.swarm_par = 1 : i64, gather.tile_shape = [], gather.total_bytes = 212992 : i64, gather.total_unpacked = 9984 : i64, gather.use_tile_counter = false, kChipID = 0 : i64, kGroup = 10 : i64, kHasShape = true, kIsDynamicLoadTable = false, kIsEmbeddingTable = false, kIsLoaded = true, kIsOneShotTransferred = true, kIsPlaceholder = false, kIsScatterNdTable = false, kIsScatterTable = false, kIsSliceLoaded = false, kIsSliceStored = false, kIsStored = false, kName = "gather_gradient_output_reshape_id1__gather_list", kSourceContext = "ptconvlstm__conv_layer__conv1d__conv2d_Conv2d:0:0", kUniqueId = 132 : i64, kUserCreated = true} : () -> tensor<96xi32>
      "tlir.Chip"() ( {
        %22 = "tlir.Load"(%0) {DataAlignment0 = 0 : i64, DataAlignment0S = 2 : i64, DataAlignmentkAddedAlignment = -2 : i64, DataAlignmentkAddedAlignmentS = 2 : i64, VectorDimension0 = 0 : i64, VectorDimension0S = 2 : i64, VectorOrdering0 = 1 : i64, VectorOrdering0S = 2 : i64, kChipID = 0 : i64, kGroup = -34 : i64, kIsGrouped = false, kName = "inp_window_slice_1_1_0_124", kPlacementHint = [0, 1, 1, 0], kRequiresWBuf = false, kSourceContext = "UnknownFileName:0:0", kStageId = 0 : i64, kTemplateName = "load_1_0_124", kUniqueId = 124 : i64, kUseVectorTranspose = false, kUserCreated = true} : (tensor<3xi32>) -> tensor<3xi32>
        %23 = "tlir.AccumBuffer"() {DataAlignment0 = 1 : i64, DataAlignment0S = 2 : i64, VectorDimension0 = 1 : i64, VectorDimension0S = 2 : i64, VectorOrdering0 = 1 : i64, VectorOrdering0S = 2 : i64, kChipID = 0 : i64, kHasShape = true, kIsPlaceholder = false, kName = "ptconvlstm__conv_layer__conv1d__conv2d_Conv2d_bwd_accum_buffer", kPlacementHint = [0, 1, 1, 0], kSourceContext = "ptconvlstm__conv_layer__conv1d__conv2d_Conv2d:0:0", kStageId = 0 : i64, kTemplateName = "accum_buffer_1_0_207", kUniqueId = 207 : i64, kUserCreated = true} : () -> tensor<480x256xbf16>
        %24 = "tlir.AccumBuffer"() {DataAlignment0 = 1 : i64, DataAlignment0S = 2 : i64, VectorDimension0 = 1 : i64, VectorDimension0S = 2 : i64, VectorOrdering0 = 1 : i64, VectorOrdering0S = 2 : i64, kChipID = 0 : i64, kHasShape = true, kIsPlaceholder = false, kName = "ptconvlstm__conv_layer__conv1d__conv2d_Conv2d_bwd_accum_buffer_1", kSourceContext = "ptconvlstm__conv_layer__conv1d__conv2d_Conv2d:0:0", kStageId = 0 : i64, kTemplateName = "accum_buffer_1_0_208", kUniqueId = 208 : i64, kUserCreated = true} : () -> tensor<256x1xbf16>
        %25 = "tlir.AccumBuffer"() {DataAlignment0 = 1 : i64, DataAlignment0S = 2 : i64, VectorDimension0 = 1 : i64, VectorDimension0S = 2 : i64, VectorOrdering0 = 1 : i64, VectorOrdering0S = 2 : i64, kChipID = 0 : i64, kHasShape = true, kIsPlaceholder = false, kName = "ptconvlstm__dense_layer__linear_bwd_weight_accum_buffer", kSourceContext = "/usr/local/lib/python3.7/site-packages/torch/overrides.py:1202:0", kStageId = 0 : i64, kTemplateName = "accum_buffer_1_0_209", kUniqueId = 209 : i64, kUserCreated = true} : () -> tensor<4080x256xbf16>
        %26 = "tlir.AccumBuffer"() {DataAlignment0 = 1 : i64, DataAlignment0S = 2 : i64, VectorDimension0 = 1 : i64, VectorDimension0S = 2 : i64, VectorOrdering0 = 1 : i64, VectorOrdering0S = 2 : i64, kChipID = 0 : i64, kHasShape = true, kIsPlaceholder = false, kName = "ptconvlstm__dense_layer__linear_bwd_weight_accum_buffer_1", kSourceContext = "/usr/local/lib/python3.7/site-packages/torch/overrides.py:1202:0", kStageId = 0 : i64, kTemplateName = "accum_buffer_1_0_210", kUniqueId = 210 : i64, kUserCreated = true} : () -> tensor<4080x1xbf16>
        "tlir.iter_loop.MetaPipeline"() ( {
          %32 = "tlir.Load"(%6) {DataAlignment0 = 4 : i64, DataAlignment0S = 2 : i64, DataAlignmentkAddedAlignment = 4 : i64, DataAlignmentkAddedAlignmentS = 2 : i64, VectorDimension0 = 0 : i64, VectorDimension0S = 2 : i64, VectorOrdering0 = 1 : i64, VectorOrdering0S = 2 : i64, kBatchSize = 1 : i64, kChipID = 0 : i64, kGroup = -35 : i64, kIsGrouped = false, kIsReverse = false, kKeepDim = false, kLoadSlice = true, kMultiLoadDepth = 2 : i64, kName = "out_window_1_0_264", kPlacementHint = [0, 1, 1, 0], kRequiresWBuf = false, kSliceAxes = [0 : index], kSliceSize = 1 : i64, kSourceContext = "logreg_ts.py:220:0", kStageId = 0 : i64, kStageMultiplier = 1 : i64, kTemplateName = "load_1_0_264", kUniqueId = 264 : i64, kUseVectorTranspose = false, kUserCreated = true} : (tensor<1x30x136xbf16>) -> tensor<30x136xbf16>
          %33:2 = "tlir.Buffer"(%32) {DataAlignment0 = 4 : i64, DataAlignment0S = 2 : i64, DataAlignment1 = 4 : i64, DataAlignment1S = 2 : i64, VectorDimension0 = 0 : i64, VectorDimension0S = 2 : i64, VectorDimension1 = 0 : i64, VectorDimension1S = 2 : i64, VectorOrdering0 = 1 : i64, VectorOrdering0S = 2 : i64, VectorOrdering1 = 1 : i64, VectorOrdering1S = 2 : i64, kChipID = 0 : i64, kDepth = 2 : i64, kHead0CtrlFlowEnable = false, kHead0Depth = 2 : i64, kHead1CtrlFlowEnable = true, kHead1Depth = 2 : i64, kHead1MultipleSample = true, kName = "nbuf2u_1_0_213", kNbufHead = 1 : i64, kNumHead0RdEn = 0 : i64, kNumHead1RdEn = 2 : i64, kPlacementHint = [0, 1, 1, 0], kSourceContext = "logreg_ts.py:220:0", kStageId = 0 : i64, kStageMultiplier = 1 : i64, kUniqueId = 213 : i64, kUserCreated = true} : (tensor<30x136xbf16>) -> (tensor<30x136xbf16>, tensor<30x136xbf16>)
          %34 = "tlir.Load"(%7) {DataAlignment0 = 1 : i64, DataAlignment0S = 2 : i64, DataAlignmentkAddedAlignment = -2 : i64, DataAlignmentkAddedAlignmentS = 2 : i64, VectorDimension0 = 0 : i64, VectorDimension0S = 2 : i64, VectorOrdering0 = 1 : i64, VectorOrdering0S = 2 : i64, kBatchSize = 1 : i64, kChipID = 0 : i64, kGroup = -36 : i64, kIsGrouped = false, kIsReverse = false, kKeepDim = true, kLoadSlice = true, kMultiLoadDepth = 2 : i64, kName = "ptconvlstm__criterion__mseloss__outputs__0__grad_1_0_265", kPlacementHint = [0, 1, 1, 0], kRequiresWBuf = false, kSliceAxes = [0 : index], kSliceSize = 1 : i64, kSourceContext = "/usr/local/lib/python3.7/site-packages/torch/overrides.py:1202:0", kStageId = 0 : i64, kStageMultiplier = 1 : i64, kTemplateName = "load_1_0_265", kUniqueId = 265 : i64, kUseVectorTranspose = false, kUserCreated = true} : (tensor<1xbf16>) -> tensor<1xbf16>
          %35:2 = "tlir.Buffer"(%34) {DataAlignment0 = 1 : i64, DataAlignment0S = 2 : i64, DataAlignment1 = 1 : i64, DataAlignment1S = 2 : i64, VectorDimension0 = 0 : i64, VectorDimension0S = 2 : i64, VectorDimension1 = 0 : i64, VectorDimension1S = 2 : i64, VectorOrdering0 = 1 : i64, VectorOrdering0S = 2 : i64, VectorOrdering1 = 1 : i64, VectorOrdering1S = 2 : i64, kChipID = 0 : i64, kDepth = 2 : i64, kHead0CtrlFlowEnable = false, kHead0Depth = 2 : i64, kHead1CtrlFlowEnable = true, kHead1Depth = 2 : i64, kHead1MultipleSample = false, kName = "nbuf2u_1_0_216", kNbufHead = 1 : i64, kNumHead0RdEn = 0 : i64, kNumHead1RdEn = 2 : i64, kPlacementHint = [0, 1, 1, 0], kSourceContext = "/usr/local/lib/python3.7/site-packages/torch/overrides.py:1202:0", kStageId = 0 : i64, kStageMultiplier = 1 : i64, kUniqueId = 216 : i64, kUserCreated = true} : (tensor<1xbf16>) -> (tensor<1xbf16>, tensor<1xbf16>)
          %36 = "tlir.SumGrad"(%35#1) {DataAlignment0 = 1 : i64, DataAlignment0S = 2 : i64, VectorDimension0 = 0 : i64, VectorDimension0S = 2 : i64, VectorOrdering0 = 0 : i64, VectorOrdering0S = 2 : i64, kAxis = 1 : i64, kIsCriticalStage = false, kLatency = 0.000000e+00 : f64, kMacID = "ptconvlstm__criterion__mseloss_bwd_expand", kName = "ptconvlstm__criterion__mseloss_bwd_expand", kPlacementHint = [0, 1, 1, 0], kSourceContext = "/usr/local/lib/python3.7/site-packages/torch/overrides.py:1202:0", kStageId = 0 : i64, kStageLatency = 0.000000e+00 : f64, kStageMultiplier = 1 : i64, kTemplateName = "sum_grad_1_0_327", kUniqueId = 327 : i64, kUserCreated = true} : (tensor<1xbf16>) -> tensor<1x4080xbf16>
          %37 = "tlir.Load"(%14) {DataAlignment0 = 1 : i64, DataAlignment0S = 2 : i64, DataAlignmentkAddedAlignment = -2 : i64, DataAlignmentkAddedAlignmentS = 2 : i64, VectorDimension0 = 0 : i64, VectorDimension0S = 2 : i64, VectorOrdering0 = 1 : i64, VectorOrdering0S = 2 : i64, kBatchSize = 1 : i64, kChipID = 0 : i64, kGroup = -37 : i64, kIsGrouped = false, kIsReverse = false, kKeepDim = true, kLinearGradAInputHint = 1 : i64, kLoadSlice = true, kMultiLoadDepth = 2 : i64, kName = "ptconvlstm__reshape0_used_by_ptconvlstm__criterion__mseloss_bwd_sub_1_0_266", kPlacementHint = [0, 1, 1, 0], kRequiresWBuf = false, kSliceAxes = [0 : index], kSliceSize = 1 : i64, kSourceContext = "/usr/local/lib/python3.7/site-packages/torch/overrides.py:1202:0", kStageId = 0 : i64, kStageMultiplier = 1 : i64, kTemplateName = "load_1_0_266", kUniqueId = 266 : i64, kUseVectorTranspose = false, kUserCreated = true} : (tensor<1x4080xbf16>) -> tensor<1x4080xbf16>
          %38:2 = "tlir.Buffer"(%37) {DataAlignment0 = 1 : i64, DataAlignment0S = 2 : i64, DataAlignment1 = 1 : i64, DataAlignment1S = 2 : i64, VectorDimension0 = 0 : i64, VectorDimension0S = 2 : i64, VectorDimension1 = 0 : i64, VectorDimension1S = 2 : i64, VectorOrdering0 = 1 : i64, VectorOrdering0S = 2 : i64, VectorOrdering1 = 1 : i64, VectorOrdering1S = 2 : i64, kChipID = 0 : i64, kDepth = 2 : i64, kHead0CtrlFlowEnable = false, kHead0Depth = 2 : i64, kHead1CtrlFlowEnable = true, kHead1Depth = 2 : i64, kHead1MultipleSample = false, kLinearGradAInputHint = 1 : i64, kName = "nbuf2u_1_0_219", kNbufHead = 1 : i64, kNumHead0RdEn = 0 : i64, kNumHead1RdEn = 2 : i64, kPlacementHint = [0, 1, 1, 0], kSourceContext = "/usr/local/lib/python3.7/site-packages/torch/overrides.py:1202:0", kStageId = 0 : i64, kStageMultiplier = 1 : i64, kUniqueId = 219 : i64, kUserCreated = true} : (tensor<1x4080xbf16>) -> (tensor<1x4080xbf16>, tensor<1x4080xbf16>)
          %39 = "tlir.Reshape"(%33#1) {DataAlignment0 = 1 : i64, DataAlignment0S = 2 : i64, VectorDimension0 = 0 : i64, VectorDimension0S = 2 : i64, VectorOrdering0 = 1 : i64, VectorOrdering0S = 2 : i64, kIsCriticalStage = false, kLatency = -1.000000e+00 : f64, kMacID = "", kName = "reshape_1_0_328", kPlacementHint = [0, 1, 1, 0], kSourceContext = "/usr/local/lib/python3.7/site-packages/torch/overrides.py:1202:0", kStageId = 0 : i64, kStageLatency = -1.000000e+00 : f64, kStageMultiplier = 1 : i64, kTemplateName = "reshape_1_0_328", kUniqueId = 328 : i64, kUserCreated = true} : (tensor<30x136xbf16>) -> tensor<1x4080xbf16>
          %40:2 = "tlir.Buffer"(%39) {DataAlignment0 = 1 : i64, DataAlignment0S = 2 : i64, DataAlignment1 = 1 : i64, DataAlignment1S = 2 : i64, VectorDimension0 = 0 : i64, VectorDimension0S = 2 : i64, VectorDimension1 = 0 : i64, VectorDimension1S = 2 : i64, VectorOrdering0 = 1 : i64, VectorOrdering0S = 2 : i64, VectorOrdering1 = 1 : i64, VectorOrdering1S = 2 : i64, kBufferType = 1 : i64, kChipID = 0 : i64, kDepth = 2 : i64, kHead0CtrlFlowEnable = false, kHead0Depth = 2 : i64, kHead1CtrlFlowEnable = true, kHead1Depth = 2 : i64, kHead1MultipleSample = false, kName = "gbuf2u_1_0_221", kNbufHead = 1 : i64, kNumHead0RdEn = 0 : i64, kNumHead1RdEn = 2 : i64, kPlacementHint = [0, 1, 1, 0], kSourceContext = "/usr/local/lib/python3.7/site-packages/torch/overrides.py:1202:0", kStageId = 0 : i64, kStageMultiplier = 1 : i64, kUniqueId = 221 : i64, kUserCreated = true} : (tensor<1x4080xbf16>) -> (tensor<1x4080xbf16>, tensor<1x4080xbf16>)
          %41 = "tlir.Sub"(%38#1, %40#1) {DataAlignment0 = 1 : i64, DataAlignment0S = 2 : i64, VectorDimension0 = 0 : i64, VectorDimension0S = 2 : i64, VectorOrdering0 = 1 : i64, VectorOrdering0S = 2 : i64, kBinaryOp = true, kIsCriticalStage = false, kLatency = 1.060000e+02 : f64, kLinearGradAInputHint = 1 : i64, kMacID = "ptconvlstm__criterion__mseloss_bwd", kName = "ptconvlstm__criterion__mseloss_bwd_sub", kPlacementHint = [0, 1, 1, 0], kSourceContext = "/usr/local/lib/python3.7/site-packages/torch/overrides.py:1202:0", kStageId = 0 : i64, kStageLatency = 1.060000e+02 : f64, kStageMultiplier = 1 : i64, kTemplateName = "sub_1_0_329", kUniqueId = 329 : i64, kUserCreated = true} : (tensor<1x4080xbf16>, tensor<1x4080xbf16>) -> tensor<1x4080xbf16>
          %42 = "tlir.Scale"(%41) {DataAlignment0 = 1 : i64, DataAlignment0S = 2 : i64, VectorDimension0 = 0 : i64, VectorDimension0S = 2 : i64, VectorOrdering0 = 1 : i64, VectorOrdering0S = 2 : i64, kConditionalScaling = false, kIsCriticalStage = false, kLatency = 1.060000e+02 : f64, kLinearGradAInputHint = 1 : i64, kMacID = "ptconvlstm__criterion__mseloss_bwd", kName = "ptconvlstm__criterion__mseloss_bwd_scale", kPlacementHint = [0, 1, 1, 0], kScaleFactorFloat = 4.920960e-04 : bf16, kSourceContext = "/usr/local/lib/python3.7/site-packages/torch/overrides.py:1202:0", kStageId = 0 : i64, kStageLatency = 1.060000e+02 : f64, kStageMultiplier = 1 : i64, kTemplateName = "scales_1_0_330", kUniqueId = 330 : i64, kUserCreated = true, kUsingInputB = false} : (tensor<1x4080xbf16>) -> tensor<1x4080xbf16>
          %43:2 = "tlir.Buffer"(%42) {DataAlignment0 = 1 : i64, DataAlignment0S = 2 : i64, DataAlignment1 = 1 : i64, DataAlignment1S = 2 : i64, VectorDimension0 = 0 : i64, VectorDimension0S = 2 : i64, VectorDimension1 = 0 : i64, VectorDimension1S = 2 : i64, VectorOrdering0 = 1 : i64, VectorOrdering0S = 2 : i64, VectorOrdering1 = 1 : i64, VectorOrdering1S = 2 : i64, kBufferType = 1 : i64, kChipID = 0 : i64, kDepth = 2 : i64, kHead0CtrlFlowEnable = false, kHead0Depth = 2 : i64, kHead1CtrlFlowEnable = true, kHead1Depth = 2 : i64, kHead1MultipleSample = false, kLinearGradAInputHint = 1 : i64, kName = "gbuf2u_1_0_224", kNbufHead = 1 : i64, kNumHead0RdEn = 0 : i64, kNumHead1RdEn = 2 : i64, kPlacementHint = [0, 1, 1, 0], kSourceContext = "/usr/local/lib/python3.7/site-packages/torch/overrides.py:1202:0", kStageId = 0 : i64, kStageMultiplier = 1 : i64, kUniqueId = 224 : i64, kUserCreated = true} : (tensor<1x4080xbf16>) -> (tensor<1x4080xbf16>, tensor<1x4080xbf16>)
          %44:2 = "tlir.Buffer"(%36) {DataAlignment0 = 1 : i64, DataAlignment0S = 2 : i64, DataAlignment1 = 1 : i64, DataAlignment1S = 2 : i64, DataAlignmentkLayoutCastOutputLayout = 1 : i64, DataAlignmentkLayoutCastOutputLayoutS = 2 : i64, DataAlignmentkLayoutCastRequiredLayout = 1 : i64, DataAlignmentkLayoutCastRequiredLayoutS = 2 : i64, VectorDimension0 = 0 : i64, VectorDimension0S = 2 : i64, VectorDimension1 = 0 : i64, VectorDimension1S = 2 : i64, VectorDimensionkLayoutCastOutputLayout = 0 : i64, VectorDimensionkLayoutCastOutputLayoutS = 2 : i64, VectorDimensionkLayoutCastRequiredLayout = 0 : i64, VectorDimensionkLayoutCastRequiredLayoutS = 2 : i64, VectorOrdering0 = 1 : i64, VectorOrdering0S = 2 : i64, VectorOrdering1 = 0 : i64, VectorOrdering1S = 2 : i64, VectorOrderingkLayoutCastOutputLayout = 1 : i64, VectorOrderingkLayoutCastOutputLayoutS = 2 : i64, VectorOrderingkLayoutCastRequiredLayout = 0 : i64, VectorOrderingkLayoutCastRequiredLayoutS = 2 : i64, kBufferType = 1 : i64, kChipID = 0 : i64, kDepth = 2 : i64, kHead0CtrlFlowEnable = false, kHead0Depth = 2 : i64, kHead1CtrlFlowEnable = true, kHead1Depth = 2 : i64, kHead1MultipleSample = false, kLayoutCastChecked = false, kLayoutCastEmbedded = false, kName = "gbuf2u_1_0_225", kNbufHead = 1 : i64, kNumHead0RdEn = 0 : i64, kNumHead1RdEn = 2 : i64, kPlacementHint = [0, 1, 1, 0], kSourceContext = "/usr/local/lib/python3.7/site-packages/torch/overrides.py:1202:0", kStageId = 0 : i64, kStageMultiplier = 1 : i64, kUniqueId = 225 : i64, kUserCreated = true} : (tensor<1x4080xbf16>) -> (tensor<1x4080xbf16>, tensor<1x4080xbf16>)
          %45 = "tlir.LayoutCast"(%44#1) {DataAlignment0 = 1 : i64, DataAlignment0S = 2 : i64, DataAlignmentkOutputLayout = 1 : i64, DataAlignmentkOutputLayoutS = 2 : i64, DataAlignmentkRequiredLayout = 1 : i64, DataAlignmentkRequiredLayoutS = 2 : i64, VectorDimension0 = 0 : i64, VectorDimension0S = 2 : i64, VectorDimensionkOutputLayout = 0 : i64, VectorDimensionkOutputLayoutS = 2 : i64, VectorDimensionkRequiredLayout = 0 : i64, VectorDimensionkRequiredLayoutS = 2 : i64, VectorOrdering0 = 1 : i64, VectorOrdering0S = 2 : i64, VectorOrderingkOutputLayout = 1 : i64, VectorOrderingkOutputLayoutS = 2 : i64, VectorOrderingkRequiredLayout = 0 : i64, VectorOrderingkRequiredLayoutS = 2 : i64, kChecked = false, kName = "layout_cast_1_0_413", kPlacementHint = [0, 1, 1, 0], kSourceContext = "/usr/local/lib/python3.7/site-packages/torch/overrides.py:1202:0", kStageId = 0 : i64, kStageMultiplier = 1 : i64, kTemplateName = "layout_cast_1_0_413", kUniqueId = 413 : i64} : (tensor<1x4080xbf16>) -> tensor<1x4080xbf16>
          %46 = "tlir.Mul"(%43#1, %45) {DataAlignment0 = 1 : i64, DataAlignment0S = 2 : i64, VectorDimension0 = 0 : i64, VectorDimension0S = 2 : i64, VectorOrdering0 = 1 : i64, VectorOrdering0S = 2 : i64, kBinaryOp = true, kIsCriticalStage = false, kLatency = 1.360000e+02 : f64, kLinearGradAInputHint = 1 : i64, kMacID = "ptconvlstm__criterion__mseloss_bwd_mul", kName = "ptconvlstm__criterion__mseloss_bwd_mul", kPlacementHint = [0, 1, 1, 0], kSourceContext = "/usr/local/lib/python3.7/site-packages/torch/overrides.py:1202:0", kStageId = 0 : i64, kStageLatency = 1.360000e+02 : f64, kStageMultiplier = 1 : i64, kTemplateName = "mul_1_0_331", kUniqueId = 331 : i64, kUserCreated = true} : (tensor<1x4080xbf16>, tensor<1x4080xbf16>) -> tensor<1x4080xbf16>
          %47 = "tlir.Load"(%8) {DataAlignment0 = 4 : i64, DataAlignment0S = 2 : i64, DataAlignmentkAddedAlignment = 4 : i64, DataAlignmentkAddedAlignmentS = 2 : i64, VectorDimension0 = 0 : i64, VectorDimension0S = 2 : i64, VectorOrdering0 = 1 : i64, VectorOrdering0S = 2 : i64, kBatchSize = 1 : i64, kChipID = 0 : i64, kGroup = 11 : i64, kIsGrouped = false, kIsReverse = false, kKeepDim = false, kLoadSlice = true, kMultiLoadDepth = 2 : i64, kName = "ptconvlstm__view__outputs__0__grad_1_0_267", kPlacementHint = [0, 1, 1, 0], kRequiresWBuf = false, kSliceAxes = [0 : index], kSliceSize = 1 : i64, kSourceContext = "logreg_ts.py:226:0", kStageId = 0 : i64, kStageMultiplier = 1 : i64, kTemplateName = "load_1_0_267", kUniqueId = 267 : i64, kUseVectorTranspose = false, kUserCreated = true} : (tensor<1x30x136xbf16>) -> tensor<30x136xbf16>
          %48:2 = "tlir.Buffer"(%47) {DataAlignment0 = 4 : i64, DataAlignment0S = 2 : i64, DataAlignment1 = 4 : i64, DataAlignment1S = 2 : i64, VectorDimension0 = 0 : i64, VectorDimension0S = 2 : i64, VectorDimension1 = 0 : i64, VectorDimension1S = 2 : i64, VectorOrdering0 = 1 : i64, VectorOrdering0S = 2 : i64, VectorOrdering1 = 1 : i64, VectorOrdering1S = 2 : i64, kBufferType = 1 : i64, kChipID = 0 : i64, kDepth = 2 : i64, kHead0CtrlFlowEnable = false, kHead0Depth = 2 : i64, kHead1CtrlFlowEnable = true, kHead1Depth = 2 : i64, kHead1MultipleSample = true, kName = "gbuf2u_1_0_228", kNbufHead = 1 : i64, kNumHead0RdEn = 0 : i64, kNumHead1RdEn = 2 : i64, kPlacementHint = [0, 1, 1, 0], kSourceContext = "logreg_ts.py:226:0", kStageId = 0 : i64, kStageMultiplier = 1 : i64, kUniqueId = 228 : i64, kUserCreated = true} : (tensor<30x136xbf16>) -> (tensor<30x136xbf16>, tensor<30x136xbf16>)
          %49 = "tlir.Reshape"(%48#1) {DataAlignment0 = 1 : i64, DataAlignment0S = 2 : i64, VectorDimension0 = 0 : i64, VectorDimension0S = 2 : i64, VectorOrdering0 = 1 : i64, VectorOrdering0S = 2 : i64, kIsCriticalStage = false, kLatency = 1.300000e+01 : f64, kMacID = "ptconvlstm__view_bwd", kName = "ptconvlstm__view_bwd", kPlacementHint = [0, 1, 1, 0], kSourceContext = "logreg_ts.py:226:0", kStageId = 0 : i64, kStageLatency = 1.300000e+01 : f64, kStageMultiplier = 1 : i64, kTemplateName = "reshape_1_0_332", kUniqueId = 332 : i64, kUserCreated = true} : (tensor<30x136xbf16>) -> tensor<1x4080xbf16>
          %50:2 = "tlir.Buffer"(%46) {DataAlignment0 = 1 : i64, DataAlignment0S = 2 : i64, DataAlignment1 = 1 : i64, DataAlignment1S = 2 : i64, VectorDimension0 = 0 : i64, VectorDimension0S = 2 : i64, VectorDimension1 = 0 : i64, VectorDimension1S = 2 : i64, VectorOrdering0 = 1 : i64, VectorOrdering0S = 2 : i64, VectorOrdering1 = 1 : i64, VectorOrdering1S = 2 : i64, kBufferType = 1 : i64, kChipID = 0 : i64, kDepth = 2 : i64, kHead0CtrlFlowEnable = false, kHead0Depth = 0 : i64, kHead1CtrlFlowEnable = true, kHead1Depth = 2 : i64, kHead1MultipleSample = true, kLinearGradAInputHint = 1 : i64, kName = "gbuf2u_1_0_233", kNbufHead = 1 : i64, kNumHead0RdEn = 0 : i64, kNumHead1RdEn = 2 : i64, kPlacementHint = [0, 1, 1, 0], kSourceContext = "/usr/local/lib/python3.7/site-packages/torch/overrides.py:1202:0", kStageId = 0 : i64, kStageMultiplier = 1 : i64, kUniqueId = 233 : i64, kUserCreated = true} : (tensor<1x4080xbf16>) -> (tensor<1x4080xbf16>, tensor<1x4080xbf16>)
          %51 = "tlir.AddN"(%50#1, %49) {DataAlignment0 = 1 : i64, DataAlignment0S = 2 : i64, VectorDimension0 = 0 : i64, VectorDimension0S = 2 : i64, VectorOrdering0 = 1 : i64, VectorOrdering0S = 2 : i64, kIsCriticalStage = false, kLatency = 1.060000e+02 : f64, kLinearGradAInputHint = 1 : i64, kMacID = "ptconvlstm__dense_layer__linear_t_output0_bwd_addn0", kName = "ptconvlstm__dense_layer__linear_t_output0_bwd_addn0", kPlacementHint = [0, 1, 1, 0], kSourceContext = "/usr/local/lib/python3.7/site-packages/torch/overrides.py:1202:0", kStageId = 0 : i64, kStageLatency = 1.060000e+02 : f64, kStageMultiplier = 1 : i64, kTemplateName = "addn_1_0_333", kUniqueId = 333 : i64, kUserCreated = true} : (tensor<1x4080xbf16>, tensor<1x4080xbf16>) -> tensor<1x4080xbf16>
          %52:2 = "tlir.Buffer"(%51) {DataAlignment0 = 1 : i64, DataAlignment0S = 2 : i64, DataAlignment1 = 1 : i64, DataAlignment1S = 2 : i64, DataAlignmentkLayoutCastOutputLayout = 1 : i64, DataAlignmentkLayoutCastOutputLayoutS = 2 : i64, DataAlignmentkLayoutCastRequiredLayout = 1 : i64, DataAlignmentkLayoutCastRequiredLayoutS = 2 : i64, VectorDimension0 = 0 : i64, VectorDimension0S = 2 : i64, VectorDimension1 = 0 : i64, VectorDimension1S = 2 : i64, VectorDimensionkLayoutCastOutputLayout = 0 : i64, VectorDimensionkLayoutCastOutputLayoutS = 2 : i64, VectorDimensionkLayoutCastRequiredLayout = 0 : i64, VectorDimensionkLayoutCastRequiredLayoutS = 2 : i64, VectorOrdering0 = 0 : i64, VectorOrdering0S = 2 : i64, VectorOrdering1 = 1 : i64, VectorOrdering1S = 2 : i64, VectorOrderingkLayoutCastOutputLayout = 0 : i64, VectorOrderingkLayoutCastOutputLayoutS = 2 : i64, VectorOrderingkLayoutCastRequiredLayout = 1 : i64, VectorOrderingkLayoutCastRequiredLayoutS = 2 : i64, kBufferType = 1 : i64, kChipID = 0 : i64, kDepth = 2 : i64, kHead0CtrlFlowEnable = false, kHead0Depth = 2 : i64, kHead1CtrlFlowEnable = true, kHead1Depth = 2 : i64, kHead1MultipleSample = true, kLayoutCastChecked = false, kLayoutCastEmbedded = false, kLinearGradAInputHint = 1 : i64, kName = "gbuf2u_1_0_236", kNbufHead = 1 : i64, kNumHead0RdEn = 0 : i64, kNumHead1RdEn = 4 : i64, kPlacementHint = [0, 1, 1, 0], kSourceContext = "/usr/local/lib/python3.7/site-packages/torch/overrides.py:1202:0", kStageId = 0 : i64, kStageMultiplier = 1 : i64, kUniqueId = 236 : i64, kUserCreated = true} : (tensor<1x4080xbf16>) -> (tensor<1x4080xbf16>, tensor<1x4080xbf16>)
          %53 = "tlir.LayoutCast"(%52#1) {DataAlignment0 = 1 : i64, DataAlignment0S = 2 : i64, DataAlignmentkOutputLayout = 1 : i64, DataAlignmentkOutputLayoutS = 2 : i64, DataAlignmentkRequiredLayout = 1 : i64, DataAlignmentkRequiredLayoutS = 2 : i64, VectorDimension0 = 0 : i64, VectorDimension0S = 2 : i64, VectorDimensionkOutputLayout = 0 : i64, VectorDimensionkOutputLayoutS = 2 : i64, VectorDimensionkRequiredLayout = 0 : i64, VectorDimensionkRequiredLayoutS = 2 : i64, VectorOrdering0 = 0 : i64, VectorOrdering0S = 2 : i64, VectorOrderingkOutputLayout = 0 : i64, VectorOrderingkOutputLayoutS = 2 : i64, VectorOrderingkRequiredLayout = 1 : i64, VectorOrderingkRequiredLayoutS = 2 : i64, kChecked = false, kLinearGradAInputHint = 1 : i64, kName = "layout_cast_1_0_414", kPlacementHint = [0, 1, 1, 0], kSourceContext = "/usr/local/lib/python3.7/site-packages/torch/overrides.py:1202:0", kStageId = 0 : i64, kStageMultiplier = 1 : i64, kTemplateName = "layout_cast_1_0_414", kUniqueId = 414 : i64} : (tensor<1x4080xbf16>) -> tensor<1x4080xbf16>
          %54 = "tlir.PermuteView"(%53) {DataAlignment0 = 1 : i64, DataAlignment0S = 2 : i64, VectorDimension0 = 1 : i64, VectorDimension0S = 2 : i64, VectorOrdering0 = 1 : i64, VectorOrdering0S = 2 : i64, kIsCriticalStage = false, kLatency = 0.000000e+00 : f64, kLinearGradAInputHint = 1 : i64, kMacID = "ptconvlstm__dense_layer__linear_t_output0_bwd", kName = "ptconvlstm__dense_layer__linear_t_output0_bwd", kPermutation = [1, 0], kPlacementHint = [0, 1, 1, 0], kSourceContext = "/usr/local/lib/python3.7/site-packages/torch/overrides.py:1202:0", kStageId = 0 : i64, kStageLatency = 0.000000e+00 : f64, kStageMultiplier = 1 : i64, kTemplateName = "permute_view_1_0_334", kUniqueId = 334 : i64, kUserCreated = true} : (tensor<1x4080xbf16>) -> tensor<4080x1xbf16>
          %55:2 = "tlir.Buffer"(%54) {DataAlignment0 = 1 : i64, DataAlignment0S = 2 : i64, DataAlignment1 = 1 : i64, DataAlignment1S = 2 : i64, VectorDimension0 = 1 : i64, VectorDimension0S = 2 : i64, VectorDimension1 = 1 : i64, VectorDimension1S = 2 : i64, VectorOrdering0 = 1 : i64, VectorOrdering0S = 2 : i64, VectorOrdering1 = 1 : i64, VectorOrdering1S = 2 : i64, kBufferType = 1 : i64, kChipID = 0 : i64, kDepth = 2 : i64, kHead0CtrlFlowEnable = false, kHead0Depth = 2 : i64, kHead1CtrlFlowEnable = true, kHead1Depth = 2 : i64, kHead1MultipleSample = false, kName = "gbuf2u_1_0_238", kNbufHead = 1 : i64, kNumHead0RdEn = 0 : i64, kNumHead1RdEn = 2 : i64, kPlacementHint = [0, 1, 1, 0], kSourceContext = "/usr/local/lib/python3.7/site-packages/torch/overrides.py:1202:0", kStageId = 0 : i64, kStageMultiplier = 1 : i64, kUniqueId = 238 : i64, kUserCreated = true} : (tensor<4080x1xbf16>) -> (tensor<4080x1xbf16>, tensor<4080x1xbf16>)
          %56 = "tlir.Load"(%5) {DataAlignment0 = 1 : i64, DataAlignment0S = 2 : i64, DataAlignmentkAddedAlignment = -2 : i64, DataAlignmentkAddedAlignmentS = 2 : i64, VectorDimension0 = 1 : i64, VectorDimension0S = 2 : i64, VectorOrdering0 = 1 : i64, VectorOrdering0S = 2 : i64, kBatchSize = 1 : i64, kChipID = 0 : i64, kGroup = 12 : i64, kIsGrouped = false, kName = "ptconvlstm__dense_layer__weight_1_0_335", kPlacementHint = [0, 1, 1, 0], kRequiresWBuf = false, kSourceContext = "software/compiler/mac/src/pybind/py_air.cpp:1503:0", kStageId = 0 : i64, kStageMultiplier = 1 : i64, kTemplateName = "load_1_0_335", kUniqueId = 335 : i64, kUseVectorTranspose = false, kUserCreated = true} : (tensor<4080x256xbf16>) -> tensor<4080x256xbf16>
          %57:2 = "tlir.Buffer"(%56) {DataAlignment0 = 1 : i64, DataAlignment0S = 2 : i64, DataAlignment1 = 1 : i64, DataAlignment1S = 2 : i64, VectorDimension0 = 1 : i64, VectorDimension0S = 2 : i64, VectorDimension1 = 1 : i64, VectorDimension1S = 2 : i64, VectorOrdering0 = 1 : i64, VectorOrdering0S = 2 : i64, VectorOrdering1 = 1 : i64, VectorOrdering1S = 2 : i64, kBufferType = 1 : i64, kDepth = 1 : i64, kHead0CtrlFlowEnable = false, kHead0Depth = 1 : i64, kHead1CtrlFlowEnable = false, kHead1Depth = 1 : i64, kHead1MultipleSample = false, kName = "gbuf1a_1_0_388", kNbufHead = 1 : i64, kNumHead0RdEn = 0 : i64, kNumHead1RdEn = 0 : i64, kPlacementHint = [0, 1, 1, 0], kSourceContext = "software/compiler/mac/src/pybind/py_air.cpp:1503:0", kStageId = 0 : i64, kStageMultiplier = 1 : i64, kTranspose = 2 : i64, kUniqueId = 388 : i64} : (tensor<4080x256xbf16>) -> (tensor<4080x256xbf16>, tensor<256x4080xbf16>)
          %58 = "tlir.Linear"(%57#1, %55#1) {DataAlignment0 = 1 : i64, DataAlignment0S = 2 : i64, VectorDimension0 = 1 : i64, VectorDimension0S = 2 : i64, VectorOrdering0 = 1 : i64, VectorOrdering0S = 2 : i64, kBoxLayout = true, kBoxPerPartition = true, kInputAIsWeight = true, kIsCriticalStage = false, kMacID = "ptconvlstm__dense_layer__linear_bwd_loss", kName = "ptconvlstm__dense_layer__linear_bwd_loss_grad_b", kNumColComputeUnits = 1 : i64, kNumPartitions = 1 : i64, kNumRowComputeUnits = 8 : i64, kPlacementHint = [0, 1, 1, 0], kReadAHead = 0 : i32, kReadBHead = 1 : i32, kSourceContext = "/usr/local/lib/python3.7/site-packages/torch/overrides.py:1202:0", kStageId = 0 : i64, kStageLatency = 4.367000e+03 : f64, kStageMultiplier = 1 : i64, kTemplateName = "biggemm_1_0_337", kUniqueId = 337 : i64, kUseBigGemm = true, kUserCreated = true, kWbufBlockInterleavedWrite = false, kWbufSplit = false} : (tensor<256x4080xbf16>, tensor<4080x1xbf16>) -> tensor<256x1xbf16>
          %59 = "tlir.Load"(%1) {DataAlignment0 = 1 : i64, DataAlignment0S = 2 : i64, DataAlignmentkAddedAlignment = -2 : i64, DataAlignmentkAddedAlignmentS = 2 : i64, VectorDimension0 = 0 : i64, VectorDimension0S = 2 : i64, VectorOrdering0 = 1 : i64, VectorOrdering0S = 2 : i64, kBatchSize = 1 : i64, kChipID = 0 : i64, kGroup = -38 : i64, kIsGrouped = false, kIsReverse = false, kKeepDim = false, kLoadSlice = true, kMultiLoadDepth = 2 : i64, kName = "inp_window_1_0_268", kPlacementHint = [0, 1, 1, 0], kRequiresWBuf = false, kSliceAxes = [0 : index], kSliceSize = 1 : i64, kSourceContext = "logreg_ts.py:191:0", kStageId = 0 : i64, kStageMultiplier = 1 : i64, kTemplateName = "load_1_0_268", kUniqueId = 268 : i64, kUseVectorTranspose = false, kUserCreated = true} : (tensor<1x60x136xbf16>) -> tensor<60x136xbf16>
          %60:2 = "tlir.Buffer"(%59) {DataAlignment0 = 1 : i64, DataAlignment0S = 2 : i64, DataAlignment1 = 1 : i64, DataAlignment1S = 2 : i64, VectorDimension0 = 0 : i64, VectorDimension0S = 2 : i64, VectorDimension1 = 0 : i64, VectorDimension1S = 2 : i64, VectorOrdering0 = 1 : i64, VectorOrdering0S = 2 : i64, VectorOrdering1 = 1 : i64, VectorOrdering1S = 2 : i64, kChipID = 0 : i64, kDepth = 2 : i64, kHead0CtrlFlowEnable = false, kHead0Depth = 2 : i64, kHead1CtrlFlowEnable = true, kHead1Depth = 2 : i64, kHead1MultipleSample = false, kName = "nbuf2u_1_0_241", kNbufHead = 1 : i64, kNumHead0RdEn = 0 : i64, kNumHead1RdEn = 2 : i64, kPlacementHint = [0, 1, 1, 0], kSourceContext = "logreg_ts.py:191:0", kStageId = 0 : i64, kStageMultiplier = 1 : i64, kUniqueId = 241 : i64, kUserCreated = true} : (tensor<60x136xbf16>) -> (tensor<60x136xbf16>, tensor<60x136xbf16>)
          %61:2 = "tlir.Buffer"(%22) {DataAlignment0 = 0 : i64, DataAlignment0S = 2 : i64, DataAlignment1 = 0 : i64, DataAlignment1S = 2 : i64, VectorDimension0 = 0 : i64, VectorDimension0S = 2 : i64, VectorDimension1 = 0 : i64, VectorDimension1S = 2 : i64, VectorOrdering0 = 1 : i64, VectorOrdering0S = 2 : i64, VectorOrdering1 = 1 : i64, VectorOrdering1S = 2 : i64, kChipID = 0 : i64, kDepth = 1 : i64, kHead0CtrlFlowEnable = false, kHead0Depth = 1 : i64, kHead1CtrlFlowEnable = true, kHead1Depth = 1 : i64, kHead1MultipleSample = false, kName = "nbuf1u_1_0_242", kNbufHead = 1 : i64, kNumHead0RdEn = 0 : i64, kNumHead1RdEn = 2 : i64, kPlacementHint = [0, 1, 1, 0], kRereads1 = 1 : i64, kSourceContext = "logreg_ts.py:191:0", kStageId = 7 : i64, kStageMultiplier = 1 : i64, kUniqueId = 242 : i64, kUserCreated = true} : (tensor<3xi32>) -> (tensor<3xi32>, tensor<3xi32>)
          %62 = "tlir.Index"(%60#1, %61#1) {DataAlignment0 = 1 : i64, DataAlignment0S = 2 : i64, VectorDimension0 = 0 : i64, VectorDimension0S = 2 : i64, VectorOrdering0 = 1 : i64, VectorOrdering0S = 2 : i64, kDim = 0 : i64, kIsCriticalStage = false, kLatency = 1.100000e+01 : f64, kMacID = "ptconvlstm__lambda_layer__indexselect_recompute_", kMicroBatch = 1 : i64, kName = "ptconvlstm__lambda_layer__indexselect_recompute_", kPlacementHint = [0, 1, 1, 0], kSourceContext = "logreg_ts.py:191:0", kStageId = 7 : i64, kStageLatency = 1.100000e+01 : f64, kStageMultiplier = 1 : i64, kTemplateName = "index_1_0_338", kUniqueId = 338 : i64, kUserCreated = true} : (tensor<60x136xbf16>, tensor<3xi32>) -> tensor<3x136xbf16>
          %63:2 = "tlir.Buffer"(%62) {DataAlignment0 = 1 : i64, DataAlignment0S = 2 : i64, DataAlignment1 = 1 : i64, DataAlignment1S = 2 : i64, VectorDimension0 = 0 : i64, VectorDimension0S = 2 : i64, VectorDimension1 = 0 : i64, VectorDimension1S = 2 : i64, VectorOrdering0 = 1 : i64, VectorOrdering0S = 2 : i64, VectorOrdering1 = 1 : i64, VectorOrdering1S = 2 : i64, kBufferType = 1 : i64, kChipID = 0 : i64, kDepth = 2 : i64, kHead0CtrlFlowEnable = false, kHead0Depth = 2 : i64, kHead1CtrlFlowEnable = true, kHead1Depth = 2 : i64, kHead1MultipleSample = true, kName = "gbuf2u_1_0_244", kNbufHead = 1 : i64, kNumHead0RdEn = 0 : i64, kNumHead1RdEn = 2 : i64, kPlacementHint = [0, 1, 1, 0], kSourceContext = "logreg_ts.py:212:0", kStageId = 7 : i64, kStageMultiplier = 1 : i64, kUniqueId = 244 : i64, kUserCreated = true} : (tensor<3x136xbf16>) -> (tensor<3x136xbf16>, tensor<3x136xbf16>)
          %64 = "tlir.PermuteView"(%63#1) {DataAlignment0 = 1 : i64, DataAlignment0S = 2 : i64, VectorDimension0 = 1 : i64, VectorDimension0S = 2 : i64, VectorOrdering0 = 0 : i64, VectorOrdering0S = 2 : i64, kIsCriticalStage = false, kLatency = 1.300000e+01 : f64, kMacID = "ptconvlstm__permute_recompute_", kName = "ptconvlstm__permute_recompute_", kPermutation = [1, 0], kPlacementHint = [0, 1, 1, 0], kSourceContext = "logreg_ts.py:212:0", kStageId = 7 : i64, kStageLatency = 1.300000e+01 : f64, kStageMultiplier = 1 : i64, kTemplateName = "permute_view_1_0_373", kUniqueId = 373 : i64, kUserCreated = true} : (tensor<3x136xbf16>) -> tensor<136x3xbf16>
          %65:2 = "tlir.Buffer"(%58) {DataAlignment0 = 1 : i64, DataAlignment0S = 2 : i64, DataAlignment1 = 1 : i64, DataAlignment1S = 2 : i64, VectorDimension0 = 1 : i64, VectorDimension0S = 2 : i64, VectorDimension1 = 1 : i64, VectorDimension1S = 2 : i64, VectorOrdering0 = 1 : i64, VectorOrdering0S = 2 : i64, VectorOrdering1 = 1 : i64, VectorOrdering1S = 2 : i64, kBufferType = 1 : i64, kChipID = 0 : i64, kDepth = 2 : i64, kHead0CtrlFlowEnable = false, kHead0Depth = 2 : i64, kHead1CtrlFlowEnable = true, kHead1Depth = 2 : i64, kHead1MultipleSample = true, kName = "gbuf2u_1_0_246", kNbufHead = 1 : i64, kNumHead0RdEn = 0 : i64, kNumHead1RdEn = 2 : i64, kPlacementHint = [0, 1, 1, 0], kSourceContext = "ptconvlstm__conv_layer__conv1d__squeeze_Reshape:0:0", kStageId = 0 : i64, kStageMultiplier = 1 : i64, kUniqueId = 246 : i64, kUserCreated = true} : (tensor<256x1xbf16>) -> (tensor<256x1xbf16>, tensor<256x1xbf16>)
          %66 = "tlir.Reshape"(%65#1) {DataAlignment0 = 1 : i64, DataAlignment0S = 2 : i64, VectorDimension0 = 2 : i64, VectorDimension0S = 2 : i64, VectorOrdering0 = 2 : i64, VectorOrdering0S = 2 : i64, kIsCriticalStage = false, kLatency = 1.300000e+01 : f64, kMacID = "ptconvlstm__conv_layer__conv1d__squeeze_Reshape_bwd", kName = "ptconvlstm__conv_layer__conv1d__squeeze_Reshape_bwd", kPlacementHint = [0, 1, 1, 0], kSourceContext = "ptconvlstm__conv_layer__conv1d__squeeze_Reshape:0:0", kStageId = 0 : i64, kStageLatency = 1.300000e+01 : f64, kStageMultiplier = 1 : i64, kTemplateName = "reshape_1_0_340", kUniqueId = 340 : i64, kUserCreated = true} : (tensor<256x1xbf16>) -> tensor<256x1x1xbf16>
          %67:2 = "tlir.Buffer"(%64) {DataAlignment0 = 1 : i64, DataAlignment0S = 2 : i64, DataAlignment1 = 1 : i64, DataAlignment1S = 2 : i64, VectorDimension0 = 1 : i64, VectorDimension0S = 2 : i64, VectorDimension1 = 1 : i64, VectorDimension1S = 2 : i64, VectorOrdering0 = 0 : i64, VectorOrdering0S = 2 : i64, VectorOrdering1 = 0 : i64, VectorOrdering1S = 2 : i64, kBufferType = 1 : i64, kChipID = 0 : i64, kDepth = 2 : i64, kHead0CtrlFlowEnable = false, kHead0Depth = 2 : i64, kHead1CtrlFlowEnable = true, kHead1Depth = 2 : i64, kHead1MultipleSample = true, kName = "gbuf2u_1_0_248", kNbufHead = 1 : i64, kNumHead0RdEn = 0 : i64, kNumHead1RdEn = 2 : i64, kPlacementHint = [0, 1, 1, 0], kSourceContext = "ptconvlstm__conv_layer__conv1d__unsqueeze_Reshape:0:0", kStageId = 7 : i64, kStageMultiplier = 1 : i64, kUniqueId = 248 : i64, kUserCreated = true} : (tensor<136x3xbf16>) -> (tensor<136x3xbf16>, tensor<136x3xbf16>)
          %68 = "tlir.Reshape"(%67#1) {DataAlignment0 = 1 : i64, DataAlignment0S = 2 : i64, VectorDimension0 = 2 : i64, VectorDimension0S = 2 : i64, VectorOrdering0 = 2 : i64, VectorOrdering0S = 2 : i64, kIsCriticalStage = false, kLatency = 1.300000e+01 : f64, kMacID = "ptconvlstm__conv_layer__conv1d__unsqueeze_Reshape_recompute_", kName = "ptconvlstm__conv_layer__conv1d__unsqueeze_Reshape_recompute_", kPlacementHint = [0, 1, 1, 0], kSourceContext = "ptconvlstm__conv_layer__conv1d__unsqueeze_Reshape:0:0", kStageId = 7 : i64, kStageLatency = 1.300000e+01 : f64, kStageMultiplier = 1 : i64, kTemplateName = "reshape_1_0_341", kUniqueId = 341 : i64, kUserCreated = true} : (tensor<136x3xbf16>) -> tensor<136x3x1xbf16>
          %69:2 = "tlir.Buffer"(%66) {DataAlignment0 = 1 : i64, DataAlignment0S = 2 : i64, DataAlignment1 = 1 : i64, DataAlignment1S = 2 : i64, VectorDimension0 = 2 : i64, VectorDimension0S = 2 : i64, VectorDimension1 = 2 : i64, VectorDimension1S = 2 : i64, VectorOrdering0 = 2 : i64, VectorOrdering0S = 2 : i64, VectorOrdering1 = 2 : i64, VectorOrdering1S = 2 : i64, kBufferType = 1 : i64, kDepth = 2 : i64, kHead0CtrlFlowEnable = true, kHead0Depth = 2 : i64, kHead0Hydra = 0 : i64, kHead0MultipleSample = true, kHead0ReadParFactor = 0 : i64, kHead1CtrlFlowEnable = true, kHead1Depth = 2 : i64, kHead1Hydra = 0 : i64, kHead1MultipleSample = true, kHead1ReadParFactor = 0 : i64, kIsImageBuffer = false, kIsSplitImageBuffer = false, kName = "gbuf2a_1_0_418", kNumHead0RdEn = 2 : i64, kNumHead1RdEn = 2 : i64, kPlacementHint = [0, 1, 1, 0], kReadVT = false, kSourceContext = "ptconvlstm__conv_layer__conv1d__conv2d_Conv2d:0:0", kStageId = 0 : i64, kStageMultiplier = 1 : i64, kTranspose = 0 : i64, kUniqueId = 418 : i64, kWriteVT = false} : (tensor<256x1x1xbf16>) -> (tensor<256x1x1xbf16>, tensor<256x1x1xbf16>)
          %70 = "tlir.StreamingPermute"(%69#0) {DataAlignment0 = 1 : i64, DataAlignment0S = 2 : i64, VectorDimension0 = 1 : i64, VectorDimension0S = 2 : i64, VectorOrdering0 = 1 : i64, VectorOrdering0S = 2 : i64, kMacID = "ptconvlstm__conv_layer__conv1d__conv2d_Conv2d_bwd", kName = "streaming_transpose_1_0_354", kPermuteType = 4 : i64, kPlacementHint = [0, 1, 1, 0], kSourceContext = "software/arc/src/lib/templates/ConvGradIm2Col.cpp:1022:0", kStageId = 0 : i64, kStageMultiplier = 1 : i64, kTemplateName = "streaming_transpose_1_0_354", kUniqueId = 354 : i64, kUserCreated = true} : (tensor<256x1x1xbf16>) -> tensor<1x256xbf16>
          %71:2 = "tlir.Buffer"(%68) {DataAlignment0 = 1 : i64, DataAlignment0S = 2 : i64, DataAlignment1 = 1 : i64, DataAlignment1S = 2 : i64, VectorDimension0 = 2 : i64, VectorDimension0S = 2 : i64, VectorDimension1 = 2 : i64, VectorDimension1S = 2 : i64, VectorOrdering0 = 2 : i64, VectorOrdering0S = 2 : i64, VectorOrdering1 = 2 : i64, VectorOrdering1S = 2 : i64, kBufferType = 1 : i64, kDepth = 2 : i64, kHead0CtrlFlowEnable = false, kHead0Depth = 2 : i64, kHead1CtrlFlowEnable = true, kHead1Depth = 2 : i64, kHead1MultipleSample = true, kIsImageBuffer = true, kIsReshapeBuffer = true, kIsSplitImageBuffer = false, kMacID = "ptconvlstm__conv_layer__conv1d__conv2d_Conv2d_bwd", kName = "gbuf2u_1_0_355", kNbufHead = 1 : i64, kNumHead0RdEn = 0 : i64, kNumHead1RdEn = 2 : i64, kPlacementHint = [0, 1, 1, 0], kReshapeBase = 0 : i64, kReshapeBound = 4 : i64, kReshapeInner = true, kReshapeVecInner = 5 : i64, kReshapeVecOuter = 3 : i64, kSourceContext = "software/arc/src/lib/templates/ConvGradIm2Col.cpp:1074:0", kStageId = 7 : i64, kStageMultiplier = 1 : i64, kUniqueId = 355 : i64, kUserCreated = true} : (tensor<136x3x1xbf16>) -> (tensor<136x3x1xbf16>, tensor<136x3x1xbf16>)
          %72 = "tlir.Region"() {DataAlignment0 = 1 : i64, DataAlignment0S = 2 : i64, DataAlignmentGatherInput = 1 : i64, DataAlignmentGatherInputS = 2 : i64, DataAlignmentGatherOutput = 1 : i64, DataAlignmentGatherOutputS = 2 : i64, DataPtrgather.list = [837888, 64], DataPtrgather.listS = 2 : i64, VectorDimension0 = 0 : i64, VectorDimension0S = 2 : i64, VectorDimensionGatherInput = 2 : i64, VectorDimensionGatherInputS = 2 : i64, VectorDimensionGatherOutput = 1 : i64, VectorDimensionGatherOutputS = 2 : i64, VectorOrdering0 = 1 : i64, VectorOrdering0S = 2 : i64, VectorOrderingGatherInput = 2 : i64, VectorOrderingGatherInputS = 2 : i64, VectorOrderingGatherOutput = 1 : i64, VectorOrderingGatherOutputS = 2 : i64, distribution = 9 : i32, gather.allow_oob = true, gather.allow_overflow = false, gather.base_list_tile_counters = 0 : i64, gather.base_max = [320, 3, 1], gather.base_mult = [1, 0, 0], gather.base_stride = [64, 1, 1], gather.crush_par = 1 : i64, gather.depth2col = false, gather.depth_base_at = 1 : i64, gather.depth_group = 1 : i64, gather.depth_offset_at = 2 : i64, gather.filter_area = 0 : i64, gather.fixed_length = 32 : i64, gather.group_packed = 15 : i64, gather.group_unpacked = 15 : i64, gather.input_vec_base = -1 : i64, gather.input_vec_bound = -1 : i64, gather.input_vec_inner = -1 : i64, gather.input_vec_outer = -1 : i64, gather.list_length = 3 : i64, gather.list_tiles = 1 : i64, gather.num_channels = 136 : i64, gather.offset_list_tile_counters = 0 : i64, gather.offset_max = [160, 3], gather.offset_mult = [0, 1], gather.offset_stride = [32, 1], gather.output_mode = 1 : i64, gather.output_shape = [480, 1], gather.pace_shape = [32, 1], gather.permute = false, gather.reread = 1 : i64, gather.seg_length = 1 : i64, gather.streaming = 1 : i64, gather.streaming_repeat = 0 : i64, gather.surface_output_vectors = 0 : i64, gather.surface_par = 1 : i64, gather.swarm_par = 1 : i64, gather.tile_shape = [], gather.total_bytes = 960 : i64, gather.total_unpacked = 15 : i64, gather.use_tile_counter = false, kGroup = 10 : i64, kHasShape = true, kIsDynamicLoadTable = false, kIsEmbeddingTable = false, kIsLoaded = true, kIsOneShotTransferred = true, kIsPlaceholder = false, kIsScatterNdTable = false, kIsScatterTable = false, kIsSliceLoaded = false, kIsSliceStored = false, kIsStored = false, kMacID = "ptconvlstm__conv_layer__conv1d__conv2d_Conv2d_bwd", kName = "ptconvlstm__conv_layer__conv1d__conv2d_Conv2d_bwd_conv_grad_stream0_kernel0__gather_list", kPlacementHint = [0, 1, 1, 0], kSourceContext = "software/arc/src/lib/templates/ConvGradIm2Col.cpp:419:0", kStageMultiplier = 1 : i64, kUniqueId = 356 : i64, kUserCreated = true} : () -> tensor<16xi32>
          %73 = "tlir.Load"(%72) {DataAlignment0 = 1 : i64, DataAlignment0S = 2 : i64, DataAlignmentkAddedAlignment = -2 : i64, DataAlignmentkAddedAlignmentS = 2 : i64, VectorDimension0 = 0 : i64, VectorDimension0S = 2 : i64, VectorOrdering0 = 1 : i64, VectorOrdering0S = 2 : i64, kBatchSize = 1 : i64, kGroup = 10 : i64, kIsGrouped = true, kName = "ptconvlstm__conv_layer__conv1d__conv2d_Conv2d_bwd_conv_grad_stream0_kernel0__gather_list_1_0_376", kPlacementHint = [0, 1, 1, 0], kRequiresWBuf = false, kSourceContext = "software/arc/src/lib/templates/ConvGradIm2Col.cpp:419:0", kStageId = 0 : i64, kStageMultiplier = 1 : i64, kTemplateName = "load_1_0_376", kUniqueId = 376 : i64, kUseVectorTranspose = false} : (tensor<16xi32>) -> tensor<16xi32>
          %74:2 = "tlir.Buffer"(%73) {DataAlignment0 = 1 : i64, DataAlignment0S = 2 : i64, DataAlignment1 = 1 : i64, DataAlignment1S = 2 : i64, VectorDimension0 = 0 : i64, VectorDimension0S = 2 : i64, VectorDimension1 = 0 : i64, VectorDimension1S = 2 : i64, VectorOrdering0 = 1 : i64, VectorOrdering0S = 2 : i64, VectorOrdering1 = 1 : i64, VectorOrdering1S = 2 : i64, kBufferType = 2 : i64, kDepth = 1 : i64, kHead0CtrlFlowEnable = false, kHead0Depth = 1 : i64, kHead1CtrlFlowEnable = false, kHead1Depth = 1 : i64, kMacID = "ptconvlstm__conv_layer__conv1d__conv2d_Conv2d_bwd", kName = "lbuf1a_1_0_391", kNbufHead = 1 : i64, kNumHead0RdEn = 0 : i64, kNumHead1RdEn = 0 : i64, kPlacementHint = [0, 1, 1, 0], kSourceContext = "software/arc/src/lib/templates/ConvGradIm2Col.cpp:419:0", kStageId = 0 : i64, kStageMultiplier = 1 : i64, kUniqueId = 391 : i64} : (tensor<16xi32>) -> (tensor<16xi32>, tensor<16xi32>)
          %75 = "tlir.Gather"(%71#1, %74#1) {DataAlignment0 = 1 : i64, DataAlignment0S = 4 : i64, DataAlignmentGatherInput = 1 : i64, DataAlignmentGatherInputS = 2 : i64, DataAlignmentGatherOutput = 1 : i64, DataAlignmentGatherOutputS = 2 : i64, DataPtrgather.list = [837952, 64], DataPtrgather.listS = 2 : i64, VectorDimension0 = 1 : i64, VectorDimension0S = 4 : i64, VectorDimensionGatherInput = 2 : i64, VectorDimensionGatherInputS = 2 : i64, VectorDimensionGatherOutput = 1 : i64, VectorDimensionGatherOutputS = 2 : i64, VectorOrdering0 = 1 : i64, VectorOrdering0S = 4 : i64, VectorOrderingGatherInput = 2 : i64, VectorOrderingGatherInputS = 2 : i64, VectorOrderingGatherOutput = 1 : i64, VectorOrderingGatherOutputS = 2 : i64, distribution = 9 : i32, gather.allow_oob = true, gather.allow_overflow = false, gather.base_list_tile_counters = 0 : i64, gather.base_max = [320, 3, 1], gather.base_mult = [1, 0, 0], gather.base_stride = [64, 1, 1], gather.crush_par = 1 : i64, gather.depth2col = false, gather.depth_base_at = 1 : i64, gather.depth_group = 1 : i64, gather.depth_offset_at = 2 : i64, gather.filter_area = 0 : i64, gather.fixed_length = 32 : i64, gather.group_packed = 15 : i64, gather.group_unpacked = 15 : i64, gather.input_vec_base = -1 : i64, gather.input_vec_bound = -1 : i64, gather.input_vec_inner = -1 : i64, gather.input_vec_outer = -1 : i64, gather.list_length = 3 : i64, gather.list_tiles = 1 : i64, gather.num_channels = 136 : i64, gather.offset_list_tile_counters = 0 : i64, gather.offset_max = [160, 3], gather.offset_mult = [0, 1], gather.offset_stride = [32, 1], gather.output_mode = 1 : i64, gather.output_shape = [480, 1], gather.pace_shape = [32, 1], gather.permute = false, gather.reread = 1 : i64, gather.seg_length = 1 : i64, gather.streaming = 1 : i64, gather.streaming_repeat = 0 : i64, gather.surface_output_vectors = 0 : i64, gather.surface_par = 1 : i64, gather.swarm_par = 1 : i64, gather.tile_shape = [], gather.total_bytes = 960 : i64, gather.total_unpacked = 15 : i64, gather.use_tile_counter = false, kDepth2Col = false, kDepth2ColPointwise = false, kDepth2ColPointwiseGrad = false, kMacID = "ptconvlstm__conv_layer__conv1d__conv2d_Conv2d_bwd", kName = "gather357", kPaceMultiplier = 15 : i64, kPlacementHint = [0, 1, 1, 0], kSourceContext = "software/arc/src/lib/templates/ConvGradIm2Col.cpp:419:0", kStageId = 7 : i64, kStageMultiplier = 1 : i64, kStageMultiplierBase = 1 : i64, kUniqueId = 357 : i64, kUserCreated = true} : (tensor<136x3x1xbf16>, tensor<16xi32>) -> tensor<480x1xbf16>
          %76:2 = "tlir.Buffer"(%75) {DataAlignment0 = 1 : i64, DataAlignment0S = 2 : i64, DataAlignment1 = 1 : i64, DataAlignment1S = 2 : i64, VectorDimension0 = 1 : i64, VectorDimension0S = 2 : i64, VectorDimension1 = 1 : i64, VectorDimension1S = 2 : i64, VectorOrdering0 = 1 : i64, VectorOrdering0S = 2 : i64, VectorOrdering1 = 1 : i64, VectorOrdering1S = 2 : i64, kBufferType = 6 : i64, kDepth = 2 : i64, kHead0CtrlFlowEnable = false, kHead0Depth = 2 : i64, kHead1CtrlFlowEnable = false, kHead1Depth = 2 : i64, kMacID = "ptconvlstm__conv_layer__conv1d__conv2d_Conv2d_bwd", kName = "sbuf2u_1_0_358", kNumHead0RdEn = 0 : i64, kNumHead1RdEn = 0 : i64, kPlacementHint = [0, 1, 1, 0], kSourceContext = "software/arc/src/lib/templates/ConvGradIm2Col.cpp:469:0", kStageId = 7 : i64, kStageMultiplier = 1 : i64, kStageMultiplierBase = 1 : i64, kUniqueId = 358 : i64, kUserCreated = true} : (tensor<480x1xbf16>) -> (tensor<480x1xbf16>, tensor<480x1xbf16>)
          %77:4 = "tlir.Split"(%70) {DataAlignment0 = 1 : i64, DataAlignment0S = 2 : i64, DataAlignment1 = 1 : i64, DataAlignment1S = 2 : i64, DataAlignment2 = 1 : i64, DataAlignment2S = 2 : i64, DataAlignment3 = 1 : i64, DataAlignment3S = 2 : i64, VectorDimension0 = 1 : i64, VectorDimension0S = 2 : i64, VectorDimension1 = 1 : i64, VectorDimension1S = 2 : i64, VectorDimension2 = 1 : i64, VectorDimension2S = 2 : i64, VectorDimension3 = 1 : i64, VectorDimension3S = 2 : i64, VectorOrdering0 = 1 : i64, VectorOrdering0S = 2 : i64, VectorOrdering1 = 1 : i64, VectorOrdering1S = 2 : i64, VectorOrdering2 = 1 : i64, VectorOrdering2S = 2 : i64, VectorOrdering3 = 1 : i64, VectorOrdering3S = 2 : i64, kAxis = 1 : i64, kBufferDepth = 2 : i64, kMacID = "ptconvlstm__conv_layer__conv1d__conv2d_Conv2d_bwd", kName = "split_kernel_gbuf_1_0_359", kPlacementHint = [0, 1, 1, 0], kPreferTBuffer = false, kSectionSizes = [72 : index, 72 : index, 72 : index, 40 : index], kSourceContext = "software/arc/src/lib/templates/BigLinearExternalColPar.cpp:40:0", kSplitGemmReread = false, kSplitType = 1 : i64, kStageId = 0 : i64, kStageMultiplier = 1 : i64, kTemplateName = "split_kernel_gbuf_1_0_359", kUniqueId = 359 : i64, kUserCreated = true} : (tensor<1x256xbf16>) -> (tensor<1x72xbf16>, tensor<1x72xbf16>, tensor<1x72xbf16>, tensor<1x40xbf16>)
          %78 = "tlir.Linear"(%76#1, %77#0) {DataAlignment0 = 1 : i64, DataAlignment0S = 2 : i64, VectorDimension0 = 1 : i64, VectorDimension0S = 2 : i64, VectorOrdering0 = 1 : i64, VectorOrdering0S = 2 : i64, kConcatGroup = 4 : i64, kHasWeight = false, kIgnoreLinearColParUpdate = true, kInputAIsWeight = false, kMacID = "ptconvlstm__conv_layer__conv1d__conv2d_Conv2d_bwd", kName = "biggemm_1_0_360", kNumColComputeUnits = 2 : i64, kNumPartitions = 1 : i64, kNumRowComputeUnits = 1 : i64, kPlacementHint = [0, 1, 1, 0], kReadAHead = 0 : i32, kReadBHead = 1 : i32, kSeqIdBase = 0 : i64, kSourceContext = "software/arc/src/lib/templates/BigLinearExternalColPar.cpp:80:0", kStageId = 7 : i64, kStageMultiplier = 15 : i64, kStageMultiplierBase = 15 : i64, kStreamingColPar = true, kTemplateName = "biggemm_1_0_360", kUniqueId = 360 : i64, kUseBigGemm = true, kUserCreated = true, kWbufBlockInterleavedWrite = false, kWbufRepeat = 0 : i64, kWbufRepeatClipAt = 0 : i64, kWbufRepeatInterleaveSize = 0 : i64} : (tensor<480x1xbf16>, tensor<1x72xbf16>) -> tensor<480x72xbf16>
          %79 = "tlir.Linear"(%76#1, %77#1) {DataAlignment0 = 1 : i64, DataAlignment0S = 2 : i64, VectorDimension0 = 1 : i64, VectorDimension0S = 2 : i64, VectorOrdering0 = 1 : i64, VectorOrdering0S = 2 : i64, kConcatGroup = 4 : i64, kHasWeight = false, kIgnoreLinearColParUpdate = true, kInputAIsWeight = false, kMacID = "ptconvlstm__conv_layer__conv1d__conv2d_Conv2d_bwd", kName = "biggemm_1_0_361", kNumColComputeUnits = 2 : i64, kNumPartitions = 1 : i64, kNumRowComputeUnits = 1 : i64, kPlacementHint = [0, 1, 1, 0], kReadAHead = 0 : i32, kReadBHead = 1 : i32, kSeqIdBase = 72 : i64, kSourceContext = "software/arc/src/lib/templates/BigLinearExternalColPar.cpp:80:0", kStageId = 7 : i64, kStageMultiplier = 15 : i64, kStageMultiplierBase = 15 : i64, kStreamingColPar = true, kTemplateName = "biggemm_1_0_361", kUniqueId = 361 : i64, kUseBigGemm = true, kUserCreated = true, kWbufBlockInterleavedWrite = false, kWbufRepeat = 0 : i64, kWbufRepeatClipAt = 0 : i64, kWbufRepeatInterleaveSize = 0 : i64} : (tensor<480x1xbf16>, tensor<1x72xbf16>) -> tensor<480x72xbf16>
          %80 = "tlir.Linear"(%76#1, %77#2) {DataAlignment0 = 1 : i64, DataAlignment0S = 2 : i64, VectorDimension0 = 1 : i64, VectorDimension0S = 2 : i64, VectorOrdering0 = 1 : i64, VectorOrdering0S = 2 : i64, kConcatGroup = 4 : i64, kHasWeight = false, kIgnoreLinearColParUpdate = true, kInputAIsWeight = false, kMacID = "ptconvlstm__conv_layer__conv1d__conv2d_Conv2d_bwd", kName = "biggemm_1_0_362", kNumColComputeUnits = 2 : i64, kNumPartitions = 1 : i64, kNumRowComputeUnits = 1 : i64, kPlacementHint = [0, 1, 1, 0], kReadAHead = 0 : i32, kReadBHead = 1 : i32, kSeqIdBase = 144 : i64, kSourceContext = "software/arc/src/lib/templates/BigLinearExternalColPar.cpp:80:0", kStageId = 7 : i64, kStageMultiplier = 15 : i64, kStageMultiplierBase = 15 : i64, kStreamingColPar = true, kTemplateName = "biggemm_1_0_362", kUniqueId = 362 : i64, kUseBigGemm = true, kUserCreated = true, kWbufBlockInterleavedWrite = false, kWbufRepeat = 0 : i64, kWbufRepeatClipAt = 0 : i64, kWbufRepeatInterleaveSize = 0 : i64} : (tensor<480x1xbf16>, tensor<1x72xbf16>) -> tensor<480x72xbf16>
          %81 = "tlir.Linear"(%76#1, %77#3) {DataAlignment0 = 1 : i64, DataAlignment0S = 2 : i64, VectorDimension0 = 1 : i64, VectorDimension0S = 2 : i64, VectorOrdering0 = 1 : i64, VectorOrdering0S = 2 : i64, kConcatGroup = 4 : i64, kHasWeight = false, kIgnoreLinearColParUpdate = true, kInputAIsWeight = false, kMacID = "ptconvlstm__conv_layer__conv1d__conv2d_Conv2d_bwd", kName = "biggemm_1_0_363", kNumColComputeUnits = 2 : i64, kNumPartitions = 1 : i64, kNumRowComputeUnits = 1 : i64, kPlacementHint = [0, 1, 1, 0], kReadAHead = 0 : i32, kReadBHead = 1 : i32, kSeqIdBase = 216 : i64, kSourceContext = "software/arc/src/lib/templates/BigLinearExternalColPar.cpp:80:0", kStageId = 7 : i64, kStageMultiplier = 15 : i64, kStageMultiplierBase = 15 : i64, kStreamingColPar = true, kTemplateName = "biggemm_1_0_363", kUniqueId = 363 : i64, kUseBigGemm = true, kUserCreated = true, kWbufBlockInterleavedWrite = false, kWbufRepeat = 0 : i64, kWbufRepeatClipAt = 0 : i64, kWbufRepeatInterleaveSize = 0 : i64} : (tensor<480x1xbf16>, tensor<1x40xbf16>) -> tensor<480x40xbf16>
          %82 = "tlir.ConcatView"(%78, %79, %80, %81) {DataAlignment0 = 1 : i64, DataAlignment0S = 2 : i64, DataAlignmentkPreserveLayout = -1 : i64, DataAlignmentkPreserveLayoutS = 2 : i64, VectorDimension0 = 1 : i64, VectorDimension0S = 2 : i64, VectorDimensionkPreserveLayout = -1 : i64, VectorDimensionkPreserveLayoutS = 2 : i64, VectorOrdering0 = 1 : i64, VectorOrdering0S = 2 : i64, VectorOrderingkPreserveLayout = -1 : i64, VectorOrderingkPreserveLayoutS = 2 : i64, kAxis = 1 : i64, kConcatCollapse = false, kConcatGroup = 4 : i64, kConcatType = 1 : i64, kForceM = 0 : i64, kIntColParVectors = 72 : i64, kName = "concatview409", kPlacementHint = [0, 1, 1, 0], kSourceContext = "software/arc/src/lib/templates/BigLinearExternalColPar.cpp:100:0", kStageId = 7 : i64, kStageMultiplier = 1 : i64, kTemplateName = "concat_view_1_0_409", kTimeSlices = [72, 72, 72, 40], kUniqueId = 409 : i64} : (tensor<480x72xbf16>, tensor<480x72xbf16>, tensor<480x72xbf16>, tensor<480x40xbf16>) -> tensor<480x256xbf16>
          %83:2 = "tlir.Buffer"(%82) {DataAlignment0 = 1 : i64, DataAlignment0S = 2 : i64, DataAlignment1 = 1 : i64, DataAlignment1S = 2 : i64, VectorDimension0 = 1 : i64, VectorDimension0S = 2 : i64, VectorDimension1 = 1 : i64, VectorDimension1S = 2 : i64, VectorOrdering0 = 1 : i64, VectorOrdering0S = 2 : i64, VectorOrdering1 = 1 : i64, VectorOrdering1S = 2 : i64, kBufferType = 1 : i64, kDepth = 2 : i64, kHead0CtrlFlowEnable = false, kHead0Depth = 1 : i64, kHead1CtrlFlowEnable = false, kHead1Depth = 2 : i64, kIsLowerForConcatView = true, kMacID = "ptconvlstm__conv_layer__conv1d__conv2d_Conv2d_bwd", kName = "gbuf2u_1_0_365", kNbufHead = 1 : i64, kNumHead0RdEn = 0 : i64, kNumHead1RdEn = 0 : i64, kPlacementHint = [0, 1, 1, 0], kSourceContext = "software/arc/src/lib/templates/BigLinearExternalColPar.cpp:110:0", kStageId = 7 : i64, kStageMultiplier = 1 : i64, kUniqueId = 365 : i64, kUserCreated = true} : (tensor<480x256xbf16>) -> (tensor<480x256xbf16>, tensor<480x256xbf16>)
          %84 = "tlir.ConcatView"(%83#1) {DataAlignment0 = 1 : i64, DataAlignment0S = 2 : i64, DataAlignmentkPreserveLayout = 1 : i64, DataAlignmentkPreserveLayoutS = 2 : i64, VectorDimension0 = 1 : i64, VectorDimension0S = 2 : i64, VectorDimensionkPreserveLayout = 1 : i64, VectorDimensionkPreserveLayoutS = 2 : i64, VectorOrdering0 = 1 : i64, VectorOrdering0S = 2 : i64, VectorOrderingkPreserveLayout = 1 : i64, VectorOrderingkPreserveLayoutS = 2 : i64, kAxis = 0 : i64, kMacID = "ptconvlstm__conv_layer__conv1d__conv2d_Conv2d_bwd", kName = "concatview366", kPlacementHint = [0, 1, 1, 0], kSourceContext = "software/arc/src/lib/templates/ConvGradIm2Col.cpp:1112:0", kStageId = 7 : i64, kStageMultiplier = 1 : i64, kTemplateName = "concat_view_1_0_366", kUniqueId = 366 : i64, kUserCreated = true} : (tensor<480x256xbf16>) -> tensor<480x256xbf16>
          %85 = "tlir.BiasTransposeGrad"(%69#1) {DataAlignment0 = 1 : i64, DataAlignment0S = 2 : i64, VectorDimension0 = 2 : i64, VectorDimension0S = 2 : i64, VectorOrdering0 = 2 : i64, VectorOrdering0S = 2 : i64, kMacID = "ptconvlstm__conv_layer__conv1d__conv2d_Conv2d_bwd", kName = "bias_transpose_grad_1_0_367", kSourceContext = "software/arc/src/lib/templates/ConvGradIm2Col.cpp:1118:0", kStageId = 0 : i64, kStageMultiplier = 1 : i64, kStreaming = true, kTemplateName = "bias_transpose_grad_1_0_367", kUniqueId = 367 : i64, kUserCreated = true} : (tensor<256x1x1xbf16>) -> tensor<256x1x1xbf16>
          %86:2 = "tlir.Buffer"(%85) {DataAlignment0 = 1 : i64, DataAlignment0S = 2 : i64, DataAlignment1 = 1 : i64, DataAlignment1S = 2 : i64, VectorDimension0 = 2 : i64, VectorDimension0S = 2 : i64, VectorDimension1 = 2 : i64, VectorDimension1S = 2 : i64, VectorOrdering0 = 2 : i64, VectorOrdering0S = 2 : i64, VectorOrdering1 = 2 : i64, VectorOrdering1S = 2 : i64, kBufferType = 1 : i64, kDepth = 2 : i64, kHead0CtrlFlowEnable = false, kHead0Depth = 2 : i64, kHead1CtrlFlowEnable = false, kHead1Depth = 2 : i64, kName = "gbuf2a_1_0_392", kNbufHead = 1 : i64, kNumHead0RdEn = 0 : i64, kNumHead1RdEn = 0 : i64, kSourceContext = "software/arc/src/lib/templates/ConvGradIm2Col.cpp:1118:0", kStageId = 0 : i64, kStageMultiplier = 1 : i64, kUniqueId = 392 : i64} : (tensor<256x1x1xbf16>) -> (tensor<256x1x1xbf16>, tensor<256x1x1xbf16>)
          %87 = "tlir.Reshape"(%86#1) {DataAlignment0 = 1 : i64, DataAlignment0S = 2 : i64, VectorDimension0 = 1 : i64, VectorDimension0S = 2 : i64, VectorOrdering0 = 1 : i64, VectorOrdering0S = 2 : i64, kMacID = "ptconvlstm__conv_layer__conv1d__conv2d_Conv2d_bwd", kName = "reshape_1_0_368", kSourceContext = "software/arc/src/lib/templates/ConvGradIm2Col.cpp:1120:0", kStageId = 0 : i64, kStageMultiplier = 1 : i64, kTemplateName = "reshape_1_0_368", kUniqueId = 368 : i64, kUserCreated = true} : (tensor<256x1x1xbf16>) -> tensor<256x1xbf16>
          %88 = "tlir.LayoutCast"(%87) {DataAlignment0 = 1 : i64, DataAlignment0S = 2 : i64, DataAlignmentkOutputLayout = 1 : i64, DataAlignmentkOutputLayoutS = 2 : i64, DataAlignmentkRequiredLayout = 1 : i64, DataAlignmentkRequiredLayoutS = 2 : i64, VectorDimension0 = 1 : i64, VectorDimension0S = 2 : i64, VectorDimensionkOutputLayout = 1 : i64, VectorDimensionkOutputLayoutS = 2 : i64, VectorDimensionkRequiredLayout = 1 : i64, VectorDimensionkRequiredLayoutS = 2 : i64, VectorOrdering0 = 1 : i64, VectorOrdering0S = 2 : i64, VectorOrderingkOutputLayout = 1 : i64, VectorOrderingkOutputLayoutS = 2 : i64, VectorOrderingkRequiredLayout = 1 : i64, VectorOrderingkRequiredLayoutS = 2 : i64, kChecked = false, kForced = true, kMacID = "ptconvlstm__conv_layer__conv1d__conv2d_Conv2d_bwd", kName = "layout_cast_1_0_369", kSourceContext = "software/arc/src/lib/templates/ConvGradIm2Col.cpp:1121:0", kStageId = 0 : i64, kStageMultiplier = 1 : i64, kTemplateName = "layout_cast_1_0_369", kUniqueId = 369 : i64, kUserCreated = true} : (tensor<256x1xbf16>) -> tensor<256x1xbf16>
          %89 = "tlir.Load"(%13) {DataAlignment0 = 1 : i64, DataAlignment0S = 2 : i64, DataAlignmentkAddedAlignment = -2 : i64, DataAlignmentkAddedAlignmentS = 2 : i64, VectorDimension0 = 1 : i64, VectorDimension0S = 2 : i64, VectorOrdering0 = 1 : i64, VectorOrdering0S = 2 : i64, kBatchSize = 1 : i64, kChipID = 0 : i64, kGroup = 13 : i64, kIsGrouped = false, kIsReverse = false, kKeepDim = false, kLinearGradBInputHint = 1 : i64, kLoadSlice = true, kMultiLoadDepth = 2 : i64, kName = "ptconvlstm__conv_layer__conv1d__squeeze_Reshape0_used_by_ptconvlstm__dense_layer__linear_bwd_weight_1_0_269", kRequiresWBuf = false, kSliceAxes = [0 : index], kSliceSize = 1 : i64, kSourceContext = "/usr/local/lib/python3.7/site-packages/torch/overrides.py:1202:0", kStageId = 0 : i64, kStageMultiplier = 1 : i64, kTemplateName = "load_1_0_269", kUniqueId = 269 : i64, kUseVectorTranspose = true, kUserCreated = true} : (tensor<1x256x1xbf16>) -> tensor<256x1xbf16>
          %90:2 = "tlir.Buffer"(%89) {DataAlignment0 = 1 : i64, DataAlignment0S = 2 : i64, DataAlignment1 = 1 : i64, DataAlignment1S = 2 : i64, VectorDimension0 = 1 : i64, VectorDimension0S = 2 : i64, VectorDimension1 = 1 : i64, VectorDimension1S = 2 : i64, VectorOrdering0 = 1 : i64, VectorOrdering0S = 2 : i64, VectorOrdering1 = 1 : i64, VectorOrdering1S = 2 : i64, kBufferType = 1 : i64, kChipID = 0 : i64, kDepth = 2 : i64, kHead0CtrlFlowEnable = false, kHead0Depth = 2 : i64, kHead1CtrlFlowEnable = false, kHead1Depth = 2 : i64, kHead1Hydra = 2 : i64, kHead1StageReversed = true, kLinearGradBInputHint = 1 : i64, kName = "gbuf2u_1_0_254", kNbufHead = 1 : i64, kNumHead0RdEn = 0 : i64, kNumHead1RdEn = 0 : i64, kSetWrParamNBufDepth = 2 : i64, kSetWrScratchpad = true, kSourceContext = "/usr/local/lib/python3.7/site-packages/torch/overrides.py:1202:0", kStageId = 0 : i64, kStageMultiplier = 1 : i64, kTranspose = 2 : i64, kUniqueId = 254 : i64, kUserCreated = true} : (tensor<256x1xbf16>) -> (tensor<256x1xbf16>, tensor<1x256xbf16>)
          %91:2 = "tlir.Buffer"(%54) {DataAlignment0 = 1 : i64, DataAlignment0S = 2 : i64, DataAlignment1 = 1 : i64, DataAlignment1S = 2 : i64, VectorDimension0 = 1 : i64, VectorDimension0S = 2 : i64, VectorDimension1 = 1 : i64, VectorDimension1S = 2 : i64, VectorOrdering0 = 1 : i64, VectorOrdering0S = 2 : i64, VectorOrdering1 = 1 : i64, VectorOrdering1S = 2 : i64, kBufferType = 1 : i64, kChipID = 0 : i64, kDepth = 2 : i64, kHead0CtrlFlowEnable = true, kHead0Depth = 2 : i64, kHead0MultipleSample = false, kHead1CtrlFlowEnable = true, kHead1Depth = 2 : i64, kHead1MultipleSample = false, kLinearGradAInputHint = 1 : i64, kName = "gbuf2u_1_0_255", kNumHead0RdEn = 1 : i64, kNumHead1RdEn = 1 : i64, kSourceContext = "/usr/local/lib/python3.7/site-packages/torch/overrides.py:1202:0", kStageId = 0 : i64, kStageMultiplier = 1 : i64, kUniqueId = 255 : i64, kUseBothHeads = true, kUserCreated = true} : (tensor<4080x1xbf16>) -> (tensor<4080x1xbf16>, tensor<4080x1xbf16>)
          %92:3 = "tlir.BigLinearGrad"(%91#1, %90#1, %91#0) {DataAlignment0 = 1 : i64, DataAlignment0S = 2 : i64, DataAlignment1 = 1 : i64, DataAlignment1S = 2 : i64, VectorDimension0 = 1 : i64, VectorDimension0S = 2 : i64, VectorDimension1 = 1 : i64, VectorDimension1S = 2 : i64, VectorOrdering0 = 1 : i64, VectorOrdering0S = 2 : i64, VectorOrdering1 = 1 : i64, VectorOrdering1S = 2 : i64, kColPar = 3 : i64, kEnableAccumulatorA = true, kEnableAccumulatorBias = true, kEnableBoxAccumTailPmu = true, kEnableBoxLayout = true, kEnableBoxOutput = true, kEnableBoxPerPartition = false, kEnableFusedGradientBias = false, kEnableLoopBuffer = false, kHasBias = true, kIsCriticalStage = false, kMacID = "ptconvlstm__dense_layer__linear_bwd_weight", kName = "ptconvlstm__dense_layer__linear_bwd_weight_grad_a", kNumPartitions = 16 : i64, kRowPar = 1 : i64, kSourceContext = "/usr/local/lib/python3.7/site-packages/torch/overrides.py:1202:0", kStageId = 0 : i64, kStageLatency = 3.928000e+03 : f64, kStageMultiplier = 1 : i64, kTemplateName = "big_gemm_grad_1_0_371", kUniqueId = 371 : i64, kUserCreated = true} : (tensor<4080x1xbf16>, tensor<1x256xbf16>, tensor<4080x1xbf16>) -> (tensor<4080x256xbf16>, tensor<4080x1xbf16>, tensor<4080x1xbf16>)
          "tlir.mutate.Accumulate"(%23, %84) {kAccumVersion = 3 : i64, kChipID = 0 : i64, kForceParAccum = true, kMacID = "ptconvlstm__conv_layer__conv1d__conv2d_Conv2d_bwd", kName = "ptconvlstm__conv_layer__conv1d__conv2d_Conv2d_bwd_accum", kNumPartitions = 1 : i64, kOpRWPattern0 = "kWriteOperand", kPlacementHint = [0, 1, 1, 0], kSourceContext = "ptconvlstm__conv_layer__conv1d__conv2d_Conv2d:0:0", kStageId = 7 : i64, kStageMultiplier = 1 : i64, kTemplateName = "par_accum_1_0_257", kUniqueId = 257 : i64} : (tensor<480x256xbf16>, tensor<480x256xbf16>) -> ()
          "tlir.mutate.Accumulate"(%24, %88) {kAccumVersion = 3 : i64, kChipID = 0 : i64, kForceParAccum = true, kMacID = "ptconvlstm__conv_layer__conv1d__conv2d_Conv2d_bwd", kName = "ptconvlstm__conv_layer__conv1d__conv2d_Conv2d_bwd_accum_1", kOpRWPattern0 = "kWriteOperand", kReadCredit = 1 : i64, kSourceContext = "ptconvlstm__conv_layer__conv1d__conv2d_Conv2d:0:0", kStageId = 0 : i64, kStageMultiplier = 1 : i64, kTemplateName = "par_accum_1_0_258", kUniqueId = 258 : i64} : (tensor<256x1xbf16>, tensor<256x1xbf16>) -> ()
          "tlir.mutate.Accumulate"(%25, %92#0) {kChipID = 0 : i64, kMacID = "ptconvlstm__dense_layer__linear_bwd_weight", kName = "ptconvlstm__dense_layer__linear_bwd_weight_accum", kOpRWPattern0 = "kWriteOperand", kSourceContext = "/usr/local/lib/python3.7/site-packages/torch/overrides.py:1202:0", kStageId = 0 : i64, kStageMultiplier = 1 : i64, kTemplateName = "accumulator_1_0_259", kUniqueId = 259 : i64} : (tensor<4080x256xbf16>, tensor<4080x256xbf16>) -> ()
          "tlir.mutate.Accumulate"(%26, %92#1) {kChipID = 0 : i64, kMacID = "ptconvlstm__dense_layer__linear_bwd_weight", kName = "ptconvlstm__dense_layer__linear_bwd_weight_accum_1", kOpRWPattern0 = "kWriteOperand", kSourceContext = "/usr/local/lib/python3.7/site-packages/torch/overrides.py:1202:0", kStageId = 0 : i64, kStageMultiplier = 1 : i64, kTemplateName = "accumulator_1_0_260", kUniqueId = 260 : i64} : (tensor<4080x1xbf16>, tensor<4080x1xbf16>) -> ()
          "tlir.terminator"() {kName = "terminator281", kSourceContext = "logreg_ts.py:220:0", kStageId = 0 : i64, kStageMultiplier = 1 : i64, kUniqueId = 281 : i64} : () -> ()
        }) {kName = "metapipeline280", kNumIterations = 1 : i64, kSourceContext = "logreg_ts.py:220:0", kStageId = 0 : i64, kUniqueId = 280 : i64, type = none} : () -> ()
        %27:2 = "tlir.Buffer"(%23) {DataAlignment0 = 1 : i64, DataAlignment0S = 2 : i64, DataAlignment1 = 1 : i64, DataAlignment1S = 2 : i64, VectorDimension0 = 1 : i64, VectorDimension0S = 2 : i64, VectorDimension1 = 1 : i64, VectorDimension1S = 2 : i64, VectorOrdering0 = 1 : i64, VectorOrdering0S = 2 : i64, VectorOrdering1 = 1 : i64, VectorOrdering1S = 2 : i64, kBufferType = 1 : i64, kChipID = 0 : i64, kDepth = 2 : i64, kHead0CtrlFlowEnable = false, kHead0Depth = 2 : i64, kHead1CtrlFlowEnable = false, kHead1Depth = 2 : i64, kIsImageBuffer = true, kName = "gbuf2u_1_0_131", kNbufHead = 1 : i64, kNumHead0RdEn = 0 : i64, kNumHead1RdEn = 0 : i64, kSourceContext = "ptconvlstm__conv_layer__conv1d__conv2d_Conv2d:0:0", kStageId = 0 : i64, kUniqueId = 131 : i64, kUserCreated = true} : (tensor<480x256xbf16>) -> (tensor<480x256xbf16>, tensor<480x256xbf16>)
        %28 = "tlir.Load"(%21) {DataAlignment0 = 1 : i64, DataAlignment0S = 2 : i64, DataAlignmentkAddedAlignment = -2 : i64, DataAlignmentkAddedAlignmentS = 2 : i64, VectorDimension0 = 0 : i64, VectorDimension0S = 2 : i64, VectorOrdering0 = 1 : i64, VectorOrdering0S = 2 : i64, kGroup = 10 : i64, kIsGrouped = true, kName = "gather_gradient_output_reshape_id1__gather_list_1_0_375", kRequiresWBuf = false, kSourceContext = "ptconvlstm__conv_layer__conv1d__conv2d_Conv2d:0:0", kStageId = 0 : i64, kTemplateName = "load_1_0_375", kUniqueId = 375 : i64, kUseVectorTranspose = false} : (tensor<96xi32>) -> tensor<96xi32>
        %29:2 = "tlir.Buffer"(%28) {DataAlignment0 = 1 : i64, DataAlignment0S = 2 : i64, DataAlignment1 = 1 : i64, DataAlignment1S = 2 : i64, VectorDimension0 = 0 : i64, VectorDimension0S = 2 : i64, VectorDimension1 = 0 : i64, VectorDimension1S = 2 : i64, VectorOrdering0 = 1 : i64, VectorOrdering0S = 2 : i64, VectorOrdering1 = 1 : i64, VectorOrdering1S = 2 : i64, kBufferType = 2 : i64, kDepth = 1 : i64, kHead0CtrlFlowEnable = false, kHead0Depth = 1 : i64, kHead1CtrlFlowEnable = false, kHead1Depth = 1 : i64, kMacID = "", kName = "lbuf1a_1_0_393", kNbufHead = 1 : i64, kNumHead0RdEn = 0 : i64, kNumHead1RdEn = 0 : i64, kSourceContext = "ptconvlstm__conv_layer__conv1d__conv2d_Conv2d:0:0", kStageId = 0 : i64, kUniqueId = 393 : i64} : (tensor<96xi32>) -> (tensor<96xi32>, tensor<96xi32>)
        %30 = "tlir.Gather"(%27#1, %29#1) {DataAlignment0 = 1 : i64, DataAlignment0S = 4 : i64, DataAlignmentGatherInput = 1 : i64, DataAlignmentGatherInputS = 2 : i64, DataAlignmentGatherOutput = 1 : i64, DataAlignmentGatherOutputS = 2 : i64, DataPtrgather.list = [384, 384], DataPtrgather.listS = 2 : i64, VectorDimension0 = 1 : i64, VectorDimension0S = 4 : i64, VectorDimensionGatherInput = 1 : i64, VectorDimensionGatherInputS = 2 : i64, VectorDimensionGatherOutput = 1 : i64, VectorDimensionGatherOutputS = 2 : i64, VectorOrdering0 = 1 : i64, VectorOrdering0S = 4 : i64, VectorOrderingGatherInput = 1 : i64, VectorOrderingGatherInputS = 2 : i64, VectorOrderingGatherOutput = 1 : i64, VectorOrderingGatherOutputS = 2 : i64, distribution = 9 : i32, gather.allow_oob = false, gather.allow_overflow = false, gather.base_list_tile_counters = 0 : i64, gather.base_max = [1, 13, 256, 3], gather.base_mult = [0, 0, 64, 0], gather.base_stride = [1, 1, 1, 1], gather.crush_par = 1 : i64, gather.depth2col = false, gather.depth_base_at = 1 : i64, gather.depth_group = 1 : i64, gather.depth_offset_at = 2 : i64, gather.filter_area = 0 : i64, gather.fixed_length = 0 : i64, gather.group_packed = 13 : i64, gather.group_unpacked = 39 : i64, gather.input_vec_base = -1 : i64, gather.input_vec_bound = -1 : i64, gather.input_vec_inner = -1 : i64, gather.input_vec_outer = -1 : i64, gather.list_length = 39 : i64, gather.list_tiles = 1 : i64, gather.num_channels = 136 : i64, gather.offset_list_tile_counters = 0 : i64, gather.offset_max = [1, 13, 256, 3], gather.offset_mult = [0, 3, 0, 1], gather.offset_stride = [1, 1, 1, 1], gather.output_mode = 0 : i64, gather.output_shape = [408, 256], gather.pace_shape = [], gather.permute = false, gather.reread = 1 : i64, gather.seg_length = 3 : i64, gather.streaming = 1 : i64, gather.streaming_repeat = 0 : i64, gather.surface_output_vectors = 0 : i64, gather.surface_par = 1 : i64, gather.swarm_par = 1 : i64, gather.tile_shape = [], gather.total_bytes = 212992 : i64, gather.total_unpacked = 9984 : i64, gather.use_tile_counter = false, kChipID = 0 : i64, kDisableReread = true, kName = "gather133", kSourceContext = "ptconvlstm__conv_layer__conv1d__conv2d_Conv2d:0:0", kStageId = 0 : i64, kUniqueId = 133 : i64, kUserCreated = true} : (tensor<480x256xbf16>, tensor<96xi32>) -> tensor<408x256xbf16>
        %31:2 = "tlir.Buffer"(%30) {DataAlignment0 = 1 : i64, DataAlignment0S = 2 : i64, DataAlignment1 = 1 : i64, DataAlignment1S = 2 : i64, VectorDimension0 = 1 : i64, VectorDimension0S = 2 : i64, VectorDimension1 = 1 : i64, VectorDimension1S = 2 : i64, VectorOrdering0 = 1 : i64, VectorOrdering0S = 2 : i64, VectorOrdering1 = 1 : i64, VectorOrdering1S = 2 : i64, kBufferType = 6 : i64, kDepth = 1 : i64, kHead0CtrlFlowEnable = false, kHead0Depth = 1 : i64, kHead1CtrlFlowEnable = false, kHead1Depth = 1 : i64, kName = "sbuf1a_1_0_394", kNbufHead = 1 : i64, kNumHead0RdEn = 0 : i64, kNumHead1RdEn = 0 : i64, kSourceContext = "ptconvlstm__conv_layer__conv1d__conv2d_Conv2d:0:0", kStageId = 0 : i64, kUniqueId = 394 : i64} : (tensor<408x256xbf16>) -> (tensor<408x256xbf16>, tensor<408x256xbf16>)
        "tlir.Store"(%17, %31#1) {kChipID = 0 : i64, kGroup = 14 : i64, kIsCheckPoint = false, kName = "ptconvlstm__conv_layer__conv1d__conv2d_Conv2d_bwd_tensor", kOpRWPattern0 = "kWriteOperand", kRemovesAlignment = false, kRequiresWBuf = false, kSliceAxes = [], kSourceContext = "ptconvlstm__conv_layer__conv1d__conv2d_Conv2d:0:0", kStageId = 0 : i64, kStoreSlice = false, kTemplateName = "store_1_0_134", kUniqueId = 134 : i64, kUseVectorTranspose = false, kUserCreated = true} : (tensor<408x256xbf16>, tensor<408x256xbf16>) -> ()
        "tlir.Store"(%18, %24) {kChipID = 0 : i64, kGroup = 15 : i64, kIsCheckPoint = false, kName = "ptconvlstm__conv_layer__conv1d__conv2d_Conv2d_bwd_tensor1", kOpRWPattern0 = "kWriteOperand", kRemovesAlignment = false, kRequiresWBuf = false, kSliceAxes = [], kSourceContext = "ptconvlstm__conv_layer__conv1d__conv2d_Conv2d:0:0", kStageId = 0 : i64, kStoreSlice = false, kTemplateName = "store_1_0_135", kUniqueId = 135 : i64, kUseVectorTranspose = false, kUserCreated = true} : (tensor<256x1xbf16>, tensor<256x1xbf16>) -> ()
        "tlir.Store"(%19, %25) {kChipID = 0 : i64, kGroup = -39 : i64, kIsCheckPoint = false, kName = "ptconvlstm__dense_layer__linear_bwd_weight_tensor", kOpRWPattern0 = "kWriteOperand", kRemovesAlignment = false, kRequiresWBuf = false, kSliceAxes = [], kSourceContext = "/usr/local/lib/python3.7/site-packages/torch/overrides.py:1202:0", kStageId = 0 : i64, kStoreSlice = false, kTemplateName = "store_1_0_138", kUniqueId = 138 : i64, kUseVectorTranspose = false, kUserCreated = true} : (tensor<4080x256xbf16>, tensor<4080x256xbf16>) -> ()
        "tlir.Store"(%20, %26) {kChipID = 0 : i64, kGroup = -40 : i64, kIsCheckPoint = false, kName = "ptconvlstm__dense_layer__linear_bwd_weight_tensor1", kOpRWPattern0 = "kWriteOperand", kRemovesAlignment = false, kRequiresWBuf = false, kSliceAxes = [], kSourceContext = "/usr/local/lib/python3.7/site-packages/torch/overrides.py:1202:0", kStageId = 0 : i64, kStoreSlice = false, kTemplateName = "store_1_0_139", kUniqueId = 139 : i64, kUseVectorTranspose = false, kUserCreated = true} : (tensor<4080x1xbf16>, tensor<4080x1xbf16>) -> ()
        "tlir.terminator"() {kName = "terminator279", kSourceContext = "software/arc/src/lib/pass/transform/AIRToTLIRLoweringSections.cpp:89:0", kStageId = 0 : i64, kUniqueId = 279 : i64} : () -> ()
      }) {kName = "chip1_0", kPartitionId = 0 : i64, kSourceContext = "software/arc/src/lib/pass/transform/AIRToTLIRLoweringSections.cpp:89:0", kStageId = 0 : i64, kUniqueId = 278 : i64, type = none} : () -> ()
      "tlir.terminator"() {kName = "terminator140", kSourceContext = "software/arc/src/lib/pass/transform/AIRToTLIRLoweringSections.cpp:89:0", kStageId = 0 : i64, kUniqueId = 140 : i64} : () -> ()
    }) {kGlobalId = 1 : i64, kIsHostSection = false, kName = "section1", kPartitionId = 1 : i64, kSectionLatency = 7.8274148108903319E-5 : f64, kSectionName = "$BCKWD", kSectionUniqueName = "ptconvlstm__reshape_1_recompute__as_initial", kSourceContext = "software/arc/src/lib/pass/transform/AIRToTLIRLoweringSections.cpp:89:0", kStageId = 0 : i64, kUniqueId = 107 : i64, type = none} : () -> ()
    "tlir.Section"() ( {
      "tlir.Chip"() ( {
        %21 = "tlir.Load"(%2) {DataAlignment0 = 1 : i64, DataAlignment0S = 2 : i64, DataAlignmentkAddedAlignment = -2 : i64, DataAlignmentkAddedAlignmentS = 2 : i64, VectorDimension0 = 1 : i64, VectorDimension0S = 2 : i64, VectorOrdering0 = 1 : i64, VectorOrdering0S = 2 : i64, kChipID = 0 : i64, kGroup = 0 : i64, kIsGrouped = false, kName = "ptconvlstm__conv_layer__bias_2_0_142", kRequiresWBuf = true, kSourceContext = "software/compiler/mac/src/pybind/py_air.cpp:1503:0", kStageId = 0 : i64, kTemplateName = "load_2_0_142", kUniqueId = 142 : i64, kUseVectorTranspose = false, kUserCreated = true} : (tensor<256x1xbf16>) -> tensor<256x1xbf16>
        %22 = "tlir.Load"(%18) {DataAlignment0 = 1 : i64, DataAlignment0S = 2 : i64, DataAlignmentkAddedAlignment = -2 : i64, DataAlignmentkAddedAlignmentS = 2 : i64, VectorDimension0 = 1 : i64, VectorDimension0S = 2 : i64, VectorOrdering0 = 1 : i64, VectorOrdering0S = 2 : i64, kChipID = 0 : i64, kGroup = 7 : i64, kIsGrouped = true, kName = "ptconvlstm__conv_layer__bias__grad_2_0_143", kRequiresWBuf = true, kSourceContext = "ptconvlstm__conv_layer__conv1d__conv2d_Conv2d:0:0", kStageId = 0 : i64, kTemplateName = "load_2_0_143", kUniqueId = 143 : i64, kUseVectorTranspose = false, kUserCreated = true} : (tensor<256x1xbf16>) -> tensor<256x1xbf16>
        %23 = "tlir.Load"(%9) {DataAlignment0 = 1 : i64, DataAlignment0S = 2 : i64, DataAlignmentkAddedAlignment = -2 : i64, DataAlignmentkAddedAlignmentS = 2 : i64, VectorDimension0 = 1 : i64, VectorDimension0S = 2 : i64, VectorOrdering0 = 1 : i64, VectorOrdering0S = 2 : i64, kChipID = 0 : i64, kGroup = 6 : i64, kIsGrouped = true, kName = "ptconvlstm__conv_layer__bias__sgd0__momentum_2_0_144", kRequiresWBuf = true, kSourceContext = "software/compiler/mac/src/pybind/py_air.cpp:1503:0", kStageId = 0 : i64, kTemplateName = "load_2_0_144", kUniqueId = 144 : i64, kUseVectorTranspose = false, kUserCreated = true} : (tensor<256x1xbf16>) -> tensor<256x1xbf16>
        %24:2 = "tlir.SGD"(%21, %23, %22) {DataAlignment0 = 1 : i64, DataAlignment0S = 2 : i64, DataAlignment1 = 1 : i64, DataAlignment1S = 2 : i64, VectorDimension0 = 1 : i64, VectorDimension0S = 2 : i64, VectorDimension1 = 1 : i64, VectorDimension1S = 2 : i64, VectorOrdering0 = 1 : i64, VectorOrdering0S = 2 : i64, VectorOrdering1 = 1 : i64, VectorOrdering1S = 2 : i64, kChipID = 0 : i64, kDecayArgInName = "weight_decay", kDecayRate = 3.0000001424923539E-4 : f64, kLrArgInName = "lr", kLrRate = 0.001500000013038516 : f64, kMacID = "ptconvlstm__conv_layer__bias__ptconvlstm__conv_layer__conv1d__conv2d_Conv2d_bwd_opt", kMixP = false, kMomentumArgInName = "momentum", kMomentumRate = 0.000000e+00 : f64, kName = "ptconvlstm__conv_layer__bias__ptconvlstm__conv_layer__conv1d__conv2d_Conv2d_bwd_opt", kSourceContext = "ptconvlstm__conv_layer__bias:0:0", kStageId = 0 : i64, kStrndSeed = 43690 : i64, kStrndSeedArgInName = "strnd_seed", kTemplateName = "optimizer_sgd_2_0_145", kUniqueId = 145 : i64, kUserCreated = true} : (tensor<256x1xbf16>, tensor<256x1xbf16>, tensor<256x1xbf16>) -> (tensor<256x1xbf16>, tensor<256x1xbf16>)
        "tlir.Store"(%2, %24#0) {kChipID = 0 : i64, kGroup = 0 : i64, kIsCheckPoint = false, kName = "ptconvlstm__conv_layer__bias_2_0_146", kOpRWPattern0 = "kWriteOperand", kRemovesAlignment = false, kRequiresWBuf = true, kSliceAxes = [], kSourceContext = "ptconvlstm__conv_layer__bias:0:0", kStageId = 0 : i64, kStoreSlice = false, kTemplateName = "store_2_0_146", kUniqueId = 146 : i64, kUseVectorTranspose = false, kUserCreated = true} : (tensor<256x1xbf16>, tensor<256x1xbf16>) -> ()
        "tlir.Store"(%9, %24#1) {kChipID = 0 : i64, kGroup = 6 : i64, kIsCheckPoint = false, kName = "ptconvlstm__conv_layer__bias__sgd0__momentum_2_0_147", kOpRWPattern0 = "kWriteOperand", kRemovesAlignment = false, kRequiresWBuf = true, kSliceAxes = [], kSourceContext = "ptconvlstm__conv_layer__bias:0:0", kStageId = 0 : i64, kStoreSlice = false, kTemplateName = "store_2_0_147", kUniqueId = 147 : i64, kUseVectorTranspose = false, kUserCreated = true} : (tensor<256x1xbf16>, tensor<256x1xbf16>) -> ()
        %25 = "tlir.Load"(%3) {DataAlignment0 = 1 : i64, DataAlignment0S = 2 : i64, DataAlignmentkAddedAlignment = -2 : i64, DataAlignmentkAddedAlignmentS = 2 : i64, VectorDimension0 = 1 : i64, VectorDimension0S = 2 : i64, VectorOrdering0 = 1 : i64, VectorOrdering0S = 2 : i64, kChipID = 0 : i64, kGroup = 1 : i64, kIsGrouped = false, kName = "ptconvlstm__conv_layer__weight_2_0_148", kRequiresWBuf = true, kSourceContext = "software/compiler/mac/src/pybind/py_air.cpp:1503:0", kStageId = 0 : i64, kTemplateName = "load_2_0_148", kUniqueId = 148 : i64, kUseVectorTranspose = false, kUserCreated = true} : (tensor<408x256xbf16>) -> tensor<408x256xbf16>
        %26 = "tlir.Load"(%17) {DataAlignment0 = 1 : i64, DataAlignment0S = 2 : i64, DataAlignmentkAddedAlignment = -2 : i64, DataAlignmentkAddedAlignmentS = 2 : i64, VectorDimension0 = 1 : i64, VectorDimension0S = 2 : i64, VectorOrdering0 = 1 : i64, VectorOrdering0S = 2 : i64, kChipID = 0 : i64, kGroup = 7 : i64, kIsGrouped = true, kName = "ptconvlstm__conv_layer__weight__grad_2_0_149", kRequiresWBuf = true, kSourceContext = "ptconvlstm__conv_layer__conv1d__conv2d_Conv2d:0:0", kStageId = 0 : i64, kTemplateName = "load_2_0_149", kUniqueId = 149 : i64, kUseVectorTranspose = false, kUserCreated = true} : (tensor<408x256xbf16>) -> tensor<408x256xbf16>
        %27 = "tlir.Load"(%10) {DataAlignment0 = 1 : i64, DataAlignment0S = 2 : i64, DataAlignmentkAddedAlignment = -2 : i64, DataAlignmentkAddedAlignmentS = 2 : i64, VectorDimension0 = 1 : i64, VectorDimension0S = 2 : i64, VectorOrdering0 = 1 : i64, VectorOrdering0S = 2 : i64, kChipID = 0 : i64, kGroup = 6 : i64, kIsGrouped = true, kName = "ptconvlstm__conv_layer__weight__sgd0__momentum_2_0_150", kRequiresWBuf = true, kSourceContext = "software/compiler/mac/src/pybind/py_air.cpp:1503:0", kStageId = 0 : i64, kTemplateName = "load_2_0_150", kUniqueId = 150 : i64, kUseVectorTranspose = false, kUserCreated = true} : (tensor<408x256xbf16>) -> tensor<408x256xbf16>
        %28:2 = "tlir.SGD"(%25, %27, %26) {DataAlignment0 = 1 : i64, DataAlignment0S = 2 : i64, DataAlignment1 = 1 : i64, DataAlignment1S = 2 : i64, VectorDimension0 = 1 : i64, VectorDimension0S = 2 : i64, VectorDimension1 = 1 : i64, VectorDimension1S = 2 : i64, VectorOrdering0 = 1 : i64, VectorOrdering0S = 2 : i64, VectorOrdering1 = 1 : i64, VectorOrdering1S = 2 : i64, kChipID = 0 : i64, kDecayArgInName = "weight_decay", kDecayRate = 3.0000001424923539E-4 : f64, kLrArgInName = "lr", kLrRate = 0.001500000013038516 : f64, kMacID = "ptconvlstm__conv_layer__weight__ptconvlstm__conv_layer__conv1d__conv2d_Conv2d_bwd_opt", kMixP = false, kMomentumArgInName = "momentum", kMomentumRate = 0.000000e+00 : f64, kName = "ptconvlstm__conv_layer__weight__ptconvlstm__conv_layer__conv1d__conv2d_Conv2d_bwd_opt", kSourceContext = "ptconvlstm__conv_layer__weight:0:0", kStageId = 0 : i64, kStrndSeed = 43690 : i64, kStrndSeedArgInName = "strnd_seed", kTemplateName = "optimizer_sgd_2_0_151", kUniqueId = 151 : i64, kUserCreated = true} : (tensor<408x256xbf16>, tensor<408x256xbf16>, tensor<408x256xbf16>) -> (tensor<408x256xbf16>, tensor<408x256xbf16>)
        "tlir.Store"(%3, %28#0) {kChipID = 0 : i64, kGroup = 1 : i64, kIsCheckPoint = false, kName = "ptconvlstm__conv_layer__weight_2_0_152", kOpRWPattern0 = "kWriteOperand", kRemovesAlignment = false, kRequiresWBuf = true, kSliceAxes = [], kSourceContext = "ptconvlstm__conv_layer__weight:0:0", kStageId = 0 : i64, kStoreSlice = false, kTemplateName = "store_2_0_152", kUniqueId = 152 : i64, kUseVectorTranspose = false, kUserCreated = true} : (tensor<408x256xbf16>, tensor<408x256xbf16>) -> ()
        "tlir.Store"(%10, %28#1) {kChipID = 0 : i64, kGroup = 6 : i64, kIsCheckPoint = false, kName = "ptconvlstm__conv_layer__weight__sgd0__momentum_2_0_153", kOpRWPattern0 = "kWriteOperand", kRemovesAlignment = false, kRequiresWBuf = true, kSliceAxes = [], kSourceContext = "ptconvlstm__conv_layer__weight:0:0", kStageId = 0 : i64, kStoreSlice = false, kTemplateName = "store_2_0_153", kUniqueId = 153 : i64, kUseVectorTranspose = false, kUserCreated = true} : (tensor<408x256xbf16>, tensor<408x256xbf16>) -> ()
        %29 = "tlir.Load"(%4) {DataAlignment0 = 1 : i64, DataAlignment0S = 2 : i64, DataAlignmentkAddedAlignment = -2 : i64, DataAlignmentkAddedAlignmentS = 2 : i64, VectorDimension0 = 1 : i64, VectorDimension0S = 2 : i64, VectorOrdering0 = 1 : i64, VectorOrdering0S = 2 : i64, kChipID = 0 : i64, kGroup = 5 : i64, kIsGrouped = false, kName = "ptconvlstm__dense_layer__bias_2_0_154", kRequiresWBuf = true, kSourceContext = "software/compiler/mac/src/pybind/py_air.cpp:1503:0", kStageId = 0 : i64, kTemplateName = "load_2_0_154", kUniqueId = 154 : i64, kUseVectorTranspose = false, kUserCreated = true} : (tensor<4080x1xbf16>) -> tensor<4080x1xbf16>
        %30 = "tlir.Load"(%20) {DataAlignment0 = 1 : i64, DataAlignment0S = 2 : i64, DataAlignmentkAddedAlignment = -2 : i64, DataAlignmentkAddedAlignmentS = 2 : i64, VectorDimension0 = 1 : i64, VectorDimension0S = 2 : i64, VectorOrdering0 = 1 : i64, VectorOrdering0S = 2 : i64, kChipID = 0 : i64, kGroup = 8 : i64, kIsGrouped = false, kName = "ptconvlstm__dense_layer__bias__grad_2_0_155", kRequiresWBuf = true, kSourceContext = "/usr/local/lib/python3.7/site-packages/torch/overrides.py:1202:0", kStageId = 0 : i64, kTemplateName = "load_2_0_155", kUniqueId = 155 : i64, kUseVectorTranspose = false, kUserCreated = true} : (tensor<4080x1xbf16>) -> tensor<4080x1xbf16>
        %31 = "tlir.Load"(%11) {DataAlignment0 = 1 : i64, DataAlignment0S = 2 : i64, DataAlignmentkAddedAlignment = -2 : i64, DataAlignmentkAddedAlignmentS = 2 : i64, VectorDimension0 = 1 : i64, VectorDimension0S = 2 : i64, VectorOrdering0 = 1 : i64, VectorOrdering0S = 2 : i64, kChipID = 0 : i64, kGroup = 6 : i64, kIsGrouped = true, kName = "ptconvlstm__dense_layer__bias__sgd0__momentum_2_0_156", kRequiresWBuf = true, kSourceContext = "software/compiler/mac/src/pybind/py_air.cpp:1503:0", kStageId = 0 : i64, kTemplateName = "load_2_0_156", kUniqueId = 156 : i64, kUseVectorTranspose = false, kUserCreated = true} : (tensor<4080x1xbf16>) -> tensor<4080x1xbf16>
        %32:2 = "tlir.SGD"(%29, %31, %30) {DataAlignment0 = 1 : i64, DataAlignment0S = 2 : i64, DataAlignment1 = 1 : i64, DataAlignment1S = 2 : i64, VectorDimension0 = 1 : i64, VectorDimension0S = 2 : i64, VectorDimension1 = 1 : i64, VectorDimension1S = 2 : i64, VectorOrdering0 = 1 : i64, VectorOrdering0S = 2 : i64, VectorOrdering1 = 1 : i64, VectorOrdering1S = 2 : i64, kChipID = 0 : i64, kDecayArgInName = "weight_decay", kDecayRate = 3.0000001424923539E-4 : f64, kLrArgInName = "lr", kLrRate = 0.001500000013038516 : f64, kMacID = "ptconvlstm__dense_layer__bias__ptconvlstm__dense_layer__linear_bwd_weight_opt", kMixP = false, kMomentumArgInName = "momentum", kMomentumRate = 0.000000e+00 : f64, kName = "ptconvlstm__dense_layer__bias__ptconvlstm__dense_layer__linear_bwd_weight_opt", kSourceContext = "ptconvlstm__dense_layer__bias:0:0", kStageId = 0 : i64, kStrndSeed = 43690 : i64, kStrndSeedArgInName = "strnd_seed", kTemplateName = "optimizer_sgd_2_0_157", kUniqueId = 157 : i64, kUserCreated = true} : (tensor<4080x1xbf16>, tensor<4080x1xbf16>, tensor<4080x1xbf16>) -> (tensor<4080x1xbf16>, tensor<4080x1xbf16>)
        "tlir.Store"(%4, %32#0) {kChipID = 0 : i64, kGroup = 5 : i64, kIsCheckPoint = false, kName = "ptconvlstm__dense_layer__bias_2_0_158", kOpRWPattern0 = "kWriteOperand", kRemovesAlignment = false, kRequiresWBuf = true, kSliceAxes = [], kSourceContext = "ptconvlstm__dense_layer__bias:0:0", kStageId = 0 : i64, kStoreSlice = false, kTemplateName = "store_2_0_158", kUniqueId = 158 : i64, kUseVectorTranspose = false, kUserCreated = true} : (tensor<4080x1xbf16>, tensor<4080x1xbf16>) -> ()
        "tlir.Store"(%11, %32#1) {kChipID = 0 : i64, kGroup = 6 : i64, kIsCheckPoint = false, kName = "ptconvlstm__dense_layer__bias__sgd0__momentum_2_0_159", kOpRWPattern0 = "kWriteOperand", kRemovesAlignment = false, kRequiresWBuf = true, kSliceAxes = [], kSourceContext = "ptconvlstm__dense_layer__bias:0:0", kStageId = 0 : i64, kStoreSlice = false, kTemplateName = "store_2_0_159", kUniqueId = 159 : i64, kUseVectorTranspose = false, kUserCreated = true} : (tensor<4080x1xbf16>, tensor<4080x1xbf16>) -> ()
        %33 = "tlir.Load"(%5) {DataAlignment0 = 1 : i64, DataAlignment0S = 2 : i64, DataAlignmentkAddedAlignment = -2 : i64, DataAlignmentkAddedAlignmentS = 2 : i64, VectorDimension0 = 1 : i64, VectorDimension0S = 2 : i64, VectorOrdering0 = 1 : i64, VectorOrdering0S = 2 : i64, kChipID = 0 : i64, kGroup = 2 : i64, kIsGrouped = false, kName = "ptconvlstm__dense_layer__weight_2_0_160", kRequiresWBuf = true, kSourceContext = "software/compiler/mac/src/pybind/py_air.cpp:1503:0", kStageId = 0 : i64, kTemplateName = "load_2_0_160", kUniqueId = 160 : i64, kUseVectorTranspose = false, kUserCreated = true} : (tensor<4080x256xbf16>) -> tensor<4080x256xbf16>
        %34 = "tlir.Load"(%19) {DataAlignment0 = 1 : i64, DataAlignment0S = 2 : i64, DataAlignmentkAddedAlignment = -2 : i64, DataAlignmentkAddedAlignmentS = 2 : i64, VectorDimension0 = 1 : i64, VectorDimension0S = 2 : i64, VectorOrdering0 = 1 : i64, VectorOrdering0S = 2 : i64, kChipID = 0 : i64, kGroup = 7 : i64, kIsGrouped = true, kName = "ptconvlstm__dense_layer__weight__grad_2_0_161", kRequiresWBuf = true, kSourceContext = "/usr/local/lib/python3.7/site-packages/torch/overrides.py:1202:0", kStageId = 0 : i64, kTemplateName = "load_2_0_161", kUniqueId = 161 : i64, kUseVectorTranspose = false, kUserCreated = true} : (tensor<4080x256xbf16>) -> tensor<4080x256xbf16>
        %35 = "tlir.Load"(%12) {DataAlignment0 = 1 : i64, DataAlignment0S = 2 : i64, DataAlignmentkAddedAlignment = -2 : i64, DataAlignmentkAddedAlignmentS = 2 : i64, VectorDimension0 = 1 : i64, VectorDimension0S = 2 : i64, VectorOrdering0 = 1 : i64, VectorOrdering0S = 2 : i64, kChipID = 0 : i64, kGroup = 6 : i64, kIsGrouped = true, kName = "ptconvlstm__dense_layer__weight__sgd0__momentum_2_0_162", kRequiresWBuf = true, kSourceContext = "software/compiler/mac/src/pybind/py_air.cpp:1503:0", kStageId = 0 : i64, kTemplateName = "load_2_0_162", kUniqueId = 162 : i64, kUseVectorTranspose = false, kUserCreated = true} : (tensor<4080x256xbf16>) -> tensor<4080x256xbf16>
        %36:2 = "tlir.SGD"(%33, %35, %34) {DataAlignment0 = 1 : i64, DataAlignment0S = 2 : i64, DataAlignment1 = 1 : i64, DataAlignment1S = 2 : i64, VectorDimension0 = 1 : i64, VectorDimension0S = 2 : i64, VectorDimension1 = 1 : i64, VectorDimension1S = 2 : i64, VectorOrdering0 = 1 : i64, VectorOrdering0S = 2 : i64, VectorOrdering1 = 1 : i64, VectorOrdering1S = 2 : i64, kChipID = 0 : i64, kDecayArgInName = "weight_decay", kDecayRate = 3.0000001424923539E-4 : f64, kLrArgInName = "lr", kLrRate = 0.001500000013038516 : f64, kMacID = "ptconvlstm__dense_layer__weight__ptconvlstm__dense_layer__linear_bwd_weight_opt", kMixP = false, kMomentumArgInName = "momentum", kMomentumRate = 0.000000e+00 : f64, kName = "ptconvlstm__dense_layer__weight__ptconvlstm__dense_layer__linear_bwd_weight_opt", kSourceContext = "ptconvlstm__dense_layer__weight:0:0", kStageId = 0 : i64, kStrndSeed = 43690 : i64, kStrndSeedArgInName = "strnd_seed", kTemplateName = "optimizer_sgd_2_0_163", kUniqueId = 163 : i64, kUserCreated = true} : (tensor<4080x256xbf16>, tensor<4080x256xbf16>, tensor<4080x256xbf16>) -> (tensor<4080x256xbf16>, tensor<4080x256xbf16>)
        "tlir.Store"(%5, %36#0) {kChipID = 0 : i64, kGroup = 2 : i64, kIsCheckPoint = false, kName = "ptconvlstm__dense_layer__weight_2_0_164", kOpRWPattern0 = "kWriteOperand", kRemovesAlignment = false, kRequiresWBuf = true, kSliceAxes = [], kSourceContext = "ptconvlstm__dense_layer__weight:0:0", kStageId = 0 : i64, kStoreSlice = false, kTemplateName = "store_2_0_164", kUniqueId = 164 : i64, kUseVectorTranspose = false, kUserCreated = true} : (tensor<4080x256xbf16>, tensor<4080x256xbf16>) -> ()
        "tlir.Store"(%12, %36#1) {kChipID = 0 : i64, kGroup = 6 : i64, kIsCheckPoint = false, kName = "ptconvlstm__dense_layer__weight__sgd0__momentum_2_0_165", kOpRWPattern0 = "kWriteOperand", kRemovesAlignment = false, kRequiresWBuf = true, kSliceAxes = [], kSourceContext = "ptconvlstm__dense_layer__weight:0:0", kStageId = 0 : i64, kStoreSlice = false, kTemplateName = "store_2_0_165", kUniqueId = 165 : i64, kUseVectorTranspose = false, kUserCreated = true} : (tensor<4080x256xbf16>, tensor<4080x256xbf16>) -> ()
        "tlir.terminator"() {kName = "terminator283", kSourceContext = "software/arc/src/lib/pass/transform/AIRToTLIRLoweringSections.cpp:89:0", kStageId = 0 : i64, kUniqueId = 283 : i64} : () -> ()
      }) {kName = "chip2_0", kPartitionId = 0 : i64, kSourceContext = "software/arc/src/lib/pass/transform/AIRToTLIRLoweringSections.cpp:89:0", kStageId = 0 : i64, kUniqueId = 282 : i64, type = none} : () -> ()
      "tlir.terminator"() {kName = "terminator166", kSourceContext = "software/arc/src/lib/pass/transform/AIRToTLIRLoweringSections.cpp:89:0", kStageId = 0 : i64, kUniqueId = 166 : i64} : () -> ()
    }) {kGlobalId = 2 : i64, kIsHostSection = false, kName = "section2", kPartitionId = 2 : i64, kSectionLatency = 1.2092486576875672E-4 : f64, kSectionName = "$OPT", kSectionUniqueName = "ptconvlstm__dense_layer__weight__ptconvlstm__dense_layer__linear_bwd_weight_opt_as_initial", kSourceContext = "software/arc/src/lib/pass/transform/AIRToTLIRLoweringSections.cpp:89:0", kStageId = 0 : i64, kUniqueId = 141 : i64, type = none} : () -> ()
    module_terminator {kSourceContext = "Unknown File:"}
  }
  module @schedule  {
    module_terminator {kSourceContext = "Unknown File:"}
  }
  module @rnn_function  {
    module_terminator {kSourceContext = "Unknown File:"}
  }
  module_terminator {kSourceContext = "Unknown File:"}
}

