module @program attributes {arc.AIRMappingDecisionIsSpatial = false, arc.kAIRAddnOpt = true, arc.kAIRBufferBeforeConcatAddn = false, arc.kAIRBufferNonRedundancy = false, arc.kAIRDDRBoundSections = [], arc.kAIRDPTilingOptimization = false, arc.kAIRDisableConcatStoreOpt = false, arc.kAIRDisableOptimizeRereadBuffer = false, arc.kAIRMappingDecisionGlobalNumBatches = 1 : i64, arc.kAIRMappingDecisionSectionDRAMTransferSize = [2347854, 4646526, 9226112], arc.kAIRMappingDecisionSectionDRAMTransferTime = [0.021866094321012497, 0.043274145573377609, 0.085924863815307617], arc.kAIRMappingDecisionSectionLatencies = [5.6866094382712618E-5, 7.8274148108903319E-5, 1.2092486576875672E-4], arc.kAIRMappingDecisionSectionNames = ["$FWD", "$BCKWD", "$OPT"], arc.kAIRMappingDecisionSectionPCUs = [1.840000e+02, 1.030000e+02, 4.000000e+00], arc.kAIRMappingDecisionSectionPMUs = [[186, 4, 6, 24, 8, 14, 7], [98, 4, 14, 23, 12, 18, 5], [0, 4, 0, 33, 0, 0, 0]], arc.kAIRMappingDecisionSectionResourceScales = [1.1000000238418579, 1.2000000476837158, 0.89999997615814208], arc.kAIRMappingDecisionSectionTypes = ["Forward", "Backward", "Optimizer"], arc.kAIRMappingDecisionSectionUniqueNames = ["ptconvlstm__lambda_layer__indexselect_as_initial", "ptconvlstm__reshape_1_recompute__as_initial", "ptconvlstm__dense_layer__weight__ptconvlstm__dense_layer__linear_bwd_weight_opt_as_initial"], arc.kAIRMetaPipeWithOneIterationRemoval = false, arc.kAIRTransposeMatMulTransformation = false, arc.kAddStreamingBuffers = false, arc.kAppName = "logreg_torch_samba", arc.kArchMajor = 1 : i64, arc.kArchMinor = 0 : i64, arc.kConcisePrinting = false, arc.kDataParallelFactor = 1 : i64, arc.kDataParallelInHostMemory = false, arc.kDataParallelReduceOnlyMode = false, arc.kDebugMode = false, arc.kDisableFuseToTwoHeadBuffers = false, arc.kEliminateBufferTimeout = 100 : i64, arc.kEnableAutoGrouping = true, arc.kEnableBufferBarriers = true, arc.kEnableFuseToLinearTraining = false, arc.kEnablePcuHeartBeat = false, arc.kEnableWrDoneInstrument = false, arc.kExperimentalBufferDepth = false, arc.kExperimentalOptimization = true, arc.kExperimentalRAILCrossEntropy = false, arc.kExperimentalRAILCrossEntropyGrad = false, arc.kGenerateReference = false, arc.kGenerateTensorboard = false, arc.kHasGraphData = true, arc.kLayoutTimeout = 1000 : i64, arc.kLegalizeDataflow = true, arc.kLegalizeSamples = false, arc.kLowered = true, arc.kMacAutogen = true, arc.kMaximumGroupLatencyFactor = 5.000000e-02 : f32, arc.kMoveViews = false, arc.kOutputFolder = "/qfs/people/jain432/pacer_saudade/code/sample_scripts/models", arc.kOverrideMaxFanout = 0 : i64, arc.kPefMetadataacc_test = "False", arc.kPefMetadataarc_debug_mode = "False", arc.kPefMetadatabatch_size = "1", arc.kPefMetadatacompiled_stats_json = "None", arc.kPefMetadatacompiler_configs_file = "", arc.kPefMetadatadata_folder = "mnist_data", arc.kPefMetadatadata_parallel = "False", arc.kPefMetadatadata_parallel_mode = "normal", arc.kPefMetadatadebug = "False", arc.kPefMetadatadev_mode = "False", arc.kPefMetadatadisable_mac_tiling = "False", arc.kPefMetadatadisable_retry_lower_visible_resources = "False", arc.kPefMetadatadistlearn_config = "", arc.kPefMetadatadump_accuracy_debug_info = "False", arc.kPefMetadataenable_conv2d_conversion = "False", arc.kPefMetadataenable_conv_tiling = "False", arc.kPefMetadataenable_hd_retry_lower_visible_resources = "False", arc.kPefMetadataforce_node_proximity = "False", arc.kPefMetadatafp32_params = "False", arc.kPefMetadatafuse_fwd_bwd = "False", arc.kPefMetadatagen_tensorboard = "False", arc.kPefMetadatagrad_accumulation_steps = "1", arc.kPefMetadatahost_fifo = "False", arc.kPefMetadatahypersection_arc = "False", arc.kPefMetadatainclude_read_stall_cycles = "False", arc.kPefMetadatainference = "False", arc.kPefMetadatajson = "None", arc.kPefMetadatalatency_budget_bwd = "None", arc.kPefMetadatalatency_budget_fwd = "None", arc.kPefMetadatalisten_for_input = "False", arc.kPefMetadatalocal_rank = "-1", arc.kPefMetadatalog_dir = "None", arc.kPefMetadatalog_level = "warning", arc.kPefMetadatalr = "0.0015", arc.kPefMetadatamac_human_decision = "None", arc.kPefMetadatamac_only = "False", arc.kPefMetadatamac_v1 = "False", arc.kPefMetadatamapping = "section", arc.kPefMetadatamax_expected_mac_latency = "-1.0", arc.kPefMetadatamax_mac_loop_attempt = "35", arc.kPefMetadatametapipe_disable = "False", arc.kPefMetadatamicrobatch_size = "None", arc.kPefMetadatamin_duration = "0.0", arc.kPefMetadatamlir_file_name = "None", arc.kPefMetadatamock_inference = "False", arc.kPefMetadatamodel = "PTConvLSTM(\0A  (lambda_layer): Lambda()\0A  (conv_layer): Conv1d(136, 256, kernel_size=(3,), stride=(1,))\0A  (dense_layer): Linear(in_features=256, out_features=4080, bias=True)\0A  (criterion): MSELoss()\0A)", arc.kPefMetadatamodel_parallel = "False", arc.kPefMetadatamomentum = "0.0", arc.kPefMetadatan_chips = "1", arc.kPefMetadatandtest = "False", arc.kPefMetadatandtest_mp = "False", arc.kPefMetadatanum_classes = "10", arc.kPefMetadatanum_epochs = "1", arc.kPefMetadatanum_features = "784", arc.kPefMetadatanum_iterations = "100", arc.kPefMetadatanum_sections = "None", arc.kPefMetadatanum_spatial_batches = "1", arc.kPefMetadatanum_tiles = "4", arc.kPefMetadatapef = "None", arc.kPefMetadataplot = "None", arc.kPefMetadatarecompute_ratio = "-1.0", arc.kPefMetadatareduce_on_rdu = "False", arc.kPefMetadataresources_scaling_factors = "['-1.0', '-1.0', '-1.0', '-1.0']", arc.kPefMetadatarun_analysis_pass = "False", arc.kPefMetadatarun_graph_only = "False", arc.kPefMetadatasamba_plot = "False", arc.kPefMetadatasamba_version = "1.11.2", arc.kPefMetadatasection_cut_beam_search = "['2', '2']", arc.kPefMetadatasection_cut_sort_order = "3", arc.kPefMetadatasingle_opt_sec = "False", arc.kPefMetadataskip_instrumentation_on_read0 = "False", arc.kPefMetadataskip_instrumentation_on_read1 = "False", arc.kPefMetadatastage_instrumentation = "none", "arc.kPefMetadatastop_mac_c++" = "False", arc.kPefMetadatatensor_parallel = "none", arc.kPefMetadatatile_orientation = "auto", arc.kPefMetadatavalidate_mac_resource_prediction = "False", arc.kPefMetadataverbose = "0", arc.kPefMetadatavisualize = "False", arc.kPefMetadataweight_decay = "0.0003", arc.kPefMetadataweight_norm = "False", arc.kPefMetadataworld_size = "1", arc.kPefMetadatayaml_config = "None", arc.kPefName = "cnn", arc.kPlasmaAStarConnect = true, arc.kPlasmaIncludeReadStallCycles = false, arc.kPlasmaSkipInstrumentationOnRead0 = false, arc.kPlasmaSkipInstrumentationOnRead1 = false, arc.kPlasmaStageInstrumentation = "none", arc.kPrintSrcs = [], arc.kResourceAwareBuffers = false, arc.kSkipBufferBandwidthWeight = 1 : i64, arc.kSkipBufferMaxDepth = 4096 : i64, arc.kSkipBufferMaxFanin = 8 : i64, arc.kSkipBufferPmuWeight = 1 : i64, arc.kSplitSkipBuffer = true, arc.kTileSize = 5 : i64, arc.kUniqueIdCounter = 374 : i64, arc.kVerbose = false, mac.kMacConvTiling = false, mac.kMacDisableAutoSpatialSplit = true, mac.kMacDisableRetryLowerScalingFactor = false, mac.kMacEnableHDRetryLowerVisibleResources = false, mac.kMacEnableHyperSection = 0 : i64, mac.kMacExpectedMaxLatency = -1.000000e+00 : f64, mac.kMacForceNodeProximity = false, mac.kMacFuseFwdBwd = false, mac.kMacInference = false, mac.kMacIsIterativeMapping = false, mac.kMacModelParallel = false, mac.kMacNumChips = 1 : i64, mac.kMacNumTiles = 4 : i64, mac.kMacOnlyCompileMac = false, mac.kMacPlot = false, mac.kMacResourceSetupTraceScaleBwd = 1.200000e+00 : f64, mac.kMacResourceSetupTraceScaleFwd = 1.100000e+00 : f64, mac.kMacResourceSetupTraceScaleGradnorm = 9.000000e-01 : f64, mac.kMacResourceSetupTraceScaleOpt = 9.000000e-01 : f64, mac.kMacSectionCutBeamSearch = [2, 2], mac.kMacSectionCutSortOrder = 3 : i64, mac.kMacSingleOptSec = false, mac.kMacUseHostFIFO = false}  {
  module @templates  {
    module_terminator {kSourceContext = "Unknown File:"}
  }
  module @sections  {
    %0 = "tlir.Region"() {distribution = 6 : i32, distribution_max = 1.000000e-01 : f64, distribution_min = -1.000000e-01 : f64, kFromDeviceTransform = "", kHasShape = true, kIsHostFifoInput = false, kIsInputOnly = true, kIsMask = false, kIsPlaceholder = false, kIsRngSeed = false, kIsUserFacing = true, kMemoryType = 2 : i64, kName = "inp_window_slice_1", kSourceContext = "UnknownFileName:0:0", kToDeviceTransform = ".int().int()", kUniqueId = 60 : i64, kUserCreated = true, kZeroFillDram = false} : () -> tensor<3xi32>
    %1 = "tlir.Region"() {distribution = 6 : i32, distribution_max = 1.000000e-01 : f64, distribution_min = -1.000000e-01 : f64, kFromDeviceTransform = "", kHasShape = true, kIsHostFifoInput = false, kIsInputOnly = true, kIsMask = false, kIsPlaceholder = false, kIsRngSeed = false, kIsUserFacing = true, kMemoryType = 0 : i64, kName = "inp_window", kSourceContext = "UnknownFileName:0:0", kToDeviceTransform = "", kUniqueId = 61 : i64, kUserCreated = true, kZeroFillDram = false} : () -> tensor<1x60x136xbf16>
    %2 = "tlir.Region"() {distribution = 7 : i32, distribution_gain = 1.000000e+00 : f64, kFromDeviceTransform = ".squeeze(1)", kHasShape = true, kIsHostFifoInput = false, kIsMask = false, kIsPlaceholder = false, kIsRngSeed = false, kIsUserFacing = true, kIsWeight = true, kMemoryType = 0 : i64, kName = "ptconvlstm__conv_layer__bias", kSourceContext = "software/compiler/mac/src/pybind/py_air.cpp:1503:0", kToDeviceTransform = ".unsqueeze(1)", kUniqueId = 62 : i64, kUserCreated = true, kZeroFillDram = false} : () -> tensor<256x1xbf16>
    %3 = "tlir.Region"() {distribution = 7 : i32, distribution_gain = 1.000000e+00 : f64, kFromDeviceTransform = ".reshape(3, 136,256).permute(2, 1, 0)", kHasShape = true, kIsHostFifoInput = false, kIsMask = false, kIsPlaceholder = false, kIsRngSeed = false, kIsUserFacing = true, kIsWeight = true, kMemoryType = 0 : i64, kName = "ptconvlstm__conv_layer__weight", kSourceContext = "software/compiler/mac/src/pybind/py_air.cpp:1503:0", kToDeviceTransform = ".permute(2, 1, 0).reshape(-1, 256)", kUniqueId = 63 : i64, kUserCreated = true, kZeroFillDram = false} : () -> tensor<408x256xbf16>
    %4 = "tlir.Region"() {distribution = 6 : i32, distribution_max = 1.000000e-01 : f64, distribution_min = -1.000000e-01 : f64, kFromDeviceTransform = ".squeeze(1)", kHasShape = true, kIsHostFifoInput = false, kIsMask = false, kIsPlaceholder = false, kIsRngSeed = false, kIsUserFacing = true, kIsWeight = true, kMemoryType = 0 : i64, kName = "ptconvlstm__dense_layer__bias", kSourceContext = "software/compiler/mac/src/pybind/py_air.cpp:1503:0", kToDeviceTransform = ".unsqueeze(1)", kUniqueId = 64 : i64, kUserCreated = true, kZeroFillDram = false} : () -> tensor<4080x1xbf16>
    %5 = "tlir.Region"() {distribution = 7 : i32, distribution_gain = 1.000000e+00 : f64, kFromDeviceTransform = "", kHasShape = true, kIsHostFifoInput = false, kIsMask = false, kIsPlaceholder = false, kIsRngSeed = false, kIsUserFacing = true, kIsWeight = true, kMemoryType = 0 : i64, kName = "ptconvlstm__dense_layer__weight", kSourceContext = "software/compiler/mac/src/pybind/py_air.cpp:1503:0", kToDeviceTransform = "", kUniqueId = 65 : i64, kUserCreated = true, kZeroFillDram = false} : () -> tensor<4080x256xbf16>
    %6 = "tlir.Region"() {distribution = 6 : i32, distribution_max = 1.000000e-01 : f64, distribution_min = -1.000000e-01 : f64, kFromDeviceTransform = "", kHasShape = true, kIsHostFifoInput = false, kIsInputOnly = true, kIsMask = false, kIsPlaceholder = false, kIsRngSeed = false, kIsUserFacing = true, kMemoryType = 0 : i64, kName = "out_window", kSourceContext = "UnknownFileName:0:0", kToDeviceTransform = "", kUniqueId = 66 : i64, kUserCreated = true, kZeroFillDram = false} : () -> tensor<1x30x136xbf16>
    %7 = "tlir.Region"() {distribution = 6 : i32, distribution_max = 1.000000e+00 : f64, distribution_min = 1.000000e+00 : f64, kFromDeviceTransform = "", kHasShape = true, kIsHostFifoInput = false, kIsInputOnly = true, kIsMask = false, kIsPlaceholder = false, kIsRngSeed = false, kIsUserFacing = true, kMemoryType = 0 : i64, kName = "ptconvlstm__criterion__mseloss__outputs__0__grad", kSourceContext = "UnknownFileName:0:0", kToDeviceTransform = "", kUniqueId = 67 : i64, kUserCreated = true, kZeroFillDram = false} : () -> tensor<1xbf16>
    %8 = "tlir.Region"() {distribution = 6 : i32, distribution_max = 1.000000e+00 : f64, distribution_min = 1.000000e+00 : f64, kFromDeviceTransform = "", kHasShape = true, kIsHostFifoInput = false, kIsInputOnly = true, kIsMask = false, kIsPlaceholder = false, kIsRngSeed = false, kIsUserFacing = true, kMemoryType = 0 : i64, kName = "ptconvlstm__view__outputs__0__grad", kSourceContext = "UnknownFileName:0:0", kToDeviceTransform = "", kUniqueId = 68 : i64, kUserCreated = true, kZeroFillDram = false} : () -> tensor<1x30x136xbf16>
    %9 = "tlir.Region"() {distribution = 7 : i32, distribution_gain = 1.000000e+00 : f64, kFromDeviceTransform = "", kHasShape = true, kIsHostFifoInput = false, kIsMask = false, kIsPlaceholder = false, kIsRngSeed = false, kIsUserFacing = true, kIsWeight = true, kMemoryType = 0 : i64, kName = "ptconvlstm__conv_layer__bias__sgd0__momentum", kSourceContext = "software/compiler/mac/src/pybind/py_air.cpp:1503:0", kToDeviceTransform = "", kUniqueId = 69 : i64, kUserCreated = true, kZeroFillDram = false} : () -> tensor<256x1xbf16>
    %10 = "tlir.Region"() {distribution = 7 : i32, distribution_gain = 1.000000e+00 : f64, kFromDeviceTransform = "", kHasShape = true, kIsHostFifoInput = false, kIsMask = false, kIsPlaceholder = false, kIsRngSeed = false, kIsUserFacing = true, kIsWeight = true, kMemoryType = 0 : i64, kName = "ptconvlstm__conv_layer__weight__sgd0__momentum", kSourceContext = "software/compiler/mac/src/pybind/py_air.cpp:1503:0", kToDeviceTransform = "", kUniqueId = 70 : i64, kUserCreated = true, kZeroFillDram = false} : () -> tensor<408x256xbf16>
    %11 = "tlir.Region"() {distribution = 7 : i32, distribution_gain = 1.000000e+00 : f64, kFromDeviceTransform = "", kHasShape = true, kIsHostFifoInput = false, kIsMask = false, kIsPlaceholder = false, kIsRngSeed = false, kIsUserFacing = true, kIsWeight = true, kMemoryType = 0 : i64, kName = "ptconvlstm__dense_layer__bias__sgd0__momentum", kSourceContext = "software/compiler/mac/src/pybind/py_air.cpp:1503:0", kToDeviceTransform = "", kUniqueId = 71 : i64, kUserCreated = true, kZeroFillDram = false} : () -> tensor<4080x1xbf16>
    %12 = "tlir.Region"() {distribution = 7 : i32, distribution_gain = 1.000000e+00 : f64, kFromDeviceTransform = "", kHasShape = true, kIsHostFifoInput = false, kIsMask = false, kIsPlaceholder = false, kIsRngSeed = false, kIsUserFacing = true, kIsWeight = true, kMemoryType = 0 : i64, kName = "ptconvlstm__dense_layer__weight__sgd0__momentum", kSourceContext = "software/compiler/mac/src/pybind/py_air.cpp:1503:0", kToDeviceTransform = "", kUniqueId = 72 : i64, kUserCreated = true, kZeroFillDram = false} : () -> tensor<4080x256xbf16>
    %13 = "tlir.Region"() {kHasShape = true, kIsPlaceholder = false, kName = "ptconvlstm__conv_layer__conv1d__squeeze_Reshape0_used_by_ptconvlstm__dense_layer__linear_bwd_weight", kSourceContext = "ptconvlstm__conv_layer__conv1d__squeeze_Reshape:0:0", kUniqueId = 73 : i64, kUserCreated = true} : () -> tensor<1x256x1xbf16>
    %14 = "tlir.Region"() {kHasShape = true, kIsPlaceholder = false, kName = "ptconvlstm__reshape0_used_by_ptconvlstm__criterion__mseloss_bwd_sub", kSourceContext = "logreg_ts.py:219:0", kUniqueId = 74 : i64, kUserCreated = true} : () -> tensor<1x4080xbf16>
    %15 = "tlir.Region"() {kChipID = 0 : i64, kFromDeviceTransform = "", kHasShape = true, kIsDataParallelAccumBuf = false, kIsHostFifoOutput = false, kIsPlaceholder = false, kIsUserFacing = true, kMemoryType = 2 : i64, kName = "ptconvlstm__criterion__mseloss__outputs__0", kSourceContext = "software/compiler/mac/src/pybind/py_air.cpp:1677:0", kToDeviceTransform = "", kUniqueId = 75 : i64, kUserCreated = true, kZeroFillDram = false} : () -> tensor<1xbf16>
    %16 = "tlir.Region"() {kChipID = 0 : i64, kFromDeviceTransform = "", kHasShape = true, kIsDataParallelAccumBuf = false, kIsHostFifoOutput = false, kIsPlaceholder = false, kIsUserFacing = true, kMemoryType = 2 : i64, kName = "ptconvlstm__view__outputs__0", kSourceContext = "software/compiler/mac/src/pybind/py_air.cpp:1677:0", kToDeviceTransform = "", kUniqueId = 76 : i64, kUserCreated = true, kZeroFillDram = false} : () -> tensor<1x30x136xbf16>
    %17 = "tlir.Region"() {kChipID = 0 : i64, kFromDeviceTransform = ".reshape(3, 136,256).permute(2, 1, 0)", kHasShape = true, kIsDataParallelAccumBuf = false, kIsHostFifoOutput = false, kIsPlaceholder = false, kIsUserFacing = true, kMemoryType = 0 : i64, kName = "ptconvlstm__conv_layer__weight__grad", kSourceContext = "software/compiler/mac/src/pybind/py_air.cpp:1677:0", kToDeviceTransform = ".permute(2, 1, 0).reshape(-1, 256)", kUniqueId = 77 : i64, kUserCreated = true, kZeroFillDram = false} : () -> tensor<408x256xbf16>
    %18 = "tlir.Region"() {kChipID = 0 : i64, kFromDeviceTransform = ".squeeze(1)", kHasShape = true, kIsDataParallelAccumBuf = false, kIsHostFifoOutput = false, kIsPlaceholder = false, kIsUserFacing = true, kMemoryType = 0 : i64, kName = "ptconvlstm__conv_layer__bias__grad", kSourceContext = "software/compiler/mac/src/pybind/py_air.cpp:1677:0", kToDeviceTransform = ".unsqueeze(1)", kUniqueId = 78 : i64, kUserCreated = true, kZeroFillDram = false} : () -> tensor<256x1xbf16>
    %19 = "tlir.Region"() {kChipID = 0 : i64, kFromDeviceTransform = "", kHasShape = true, kIsDataParallelAccumBuf = false, kIsHostFifoOutput = false, kIsPlaceholder = false, kIsUserFacing = true, kMemoryType = 0 : i64, kName = "ptconvlstm__dense_layer__weight__grad", kSourceContext = "software/compiler/mac/src/pybind/py_air.cpp:1677:0", kToDeviceTransform = "", kUniqueId = 79 : i64, kUserCreated = true, kZeroFillDram = false} : () -> tensor<4080x256xbf16>
    %20 = "tlir.Region"() {kChipID = 0 : i64, kFromDeviceTransform = ".squeeze(1)", kHasShape = true, kIsDataParallelAccumBuf = false, kIsHostFifoOutput = false, kIsPlaceholder = false, kIsUserFacing = true, kMemoryType = 0 : i64, kName = "ptconvlstm__dense_layer__bias__grad", kSourceContext = "software/compiler/mac/src/pybind/py_air.cpp:1677:0", kToDeviceTransform = ".unsqueeze(1)", kUniqueId = 80 : i64, kUserCreated = true, kZeroFillDram = false} : () -> tensor<4080x1xbf16>
    "tlir.Section"() ( {
      "tlir.Chip"() ( {
        %21 = "tlir.Load"(%0) {kChipID = 0 : i64, kSourceContext = "UnknownFileName:0:0", kStageId = -2 : i64, kUniqueId = 83 : i64, kUserCreated = true} : (tensor<3xi32>) -> tensor<3xi32>
        %22 = "tlir.Load"(%3) {kChipID = 0 : i64, kSourceContext = "software/compiler/mac/src/pybind/py_air.cpp:1503:0", kUniqueId = 87 : i64, kUserCreated = true} : (tensor<408x256xbf16>) -> tensor<408x256xbf16>
        %23 = "tlir.Load"(%2) {kChipID = 0 : i64, kSourceContext = "software/compiler/mac/src/pybind/py_air.cpp:1503:0", kUniqueId = 88 : i64, kUserCreated = true} : (tensor<256x1xbf16>) -> tensor<256x1xbf16>
        %24 = "tlir.Load"(%5) {kChipID = 0 : i64, kSourceContext = "software/compiler/mac/src/pybind/py_air.cpp:1503:0", kUniqueId = 92 : i64, kUserCreated = true} : (tensor<4080x256xbf16>) -> tensor<4080x256xbf16>
        %25 = "tlir.Load"(%4) {kChipID = 0 : i64, kSourceContext = "software/compiler/mac/src/pybind/py_air.cpp:1503:0", kUniqueId = 93 : i64, kUserCreated = true} : (tensor<4080x1xbf16>) -> tensor<4080x1xbf16>
        "tlir.iter_loop.MetaPipeline"() ( {
          %26 = "tlir.Load"(%1) {kChipID = 0 : i64, kIsReverse = false, kKeepDim = false, kLoadSlice = true, kSliceAxes = [0 : index], kSliceSize = 1 : i64, kSourceContext = "logreg_ts.py:191:0", kUniqueId = 262 : i64, kUserCreated = true} : (tensor<1x60x136xbf16>) -> tensor<60x136xbf16>
          %27:2 = "tlir.Buffer"(%26) {kChipID = 0 : i64, kDepth = 2 : i64, kHead0Depth = 2 : i64, kHead1Depth = 2 : i64, kSourceContext = "logreg_ts.py:191:0", kUniqueId = 173 : i64, kUserCreated = true} : (tensor<60x136xbf16>) -> (tensor<60x136xbf16>, tensor<60x136xbf16>)
          %28:2 = "tlir.Buffer"(%21) {kChipID = 0 : i64, kDepth = 1 : i64, kHead0Depth = 1 : i64, kHead1Depth = 1 : i64, kRereads1 = 1 : i64, kSourceContext = "logreg_ts.py:191:0", kStageId = 0 : i64, kUniqueId = 174 : i64, kUserCreated = true} : (tensor<3xi32>) -> (tensor<3xi32>, tensor<3xi32>)
          %29 = "tlir.Index"(%27#1, %28#1) {kDim = 0 : i64, kIsCriticalStage = false, kLatency = 1.100000e+01 : f64, kMacID = "ptconvlstm__lambda_layer__indexselect", kMicroBatch = 1 : i64, kName = "ptconvlstm__lambda_layer__indexselect", kSourceContext = "logreg_ts.py:191:0", kStageId = -1 : i64, kStageLatency = 1.100000e+01 : f64, kUniqueId = 284 : i64, kUserCreated = true} : (tensor<60x136xbf16>, tensor<3xi32>) -> tensor<3x136xbf16>
          %30:2 = "tlir.Buffer"(%29) {kChipID = 0 : i64, kDepth = 2 : i64, kHead0Depth = 2 : i64, kHead1Depth = 2 : i64, kSourceContext = "logreg_ts.py:212:0", kUniqueId = 176 : i64, kUserCreated = true} : (tensor<3x136xbf16>) -> (tensor<3x136xbf16>, tensor<3x136xbf16>)
          %31 = "tlir.PermuteView"(%30#1) {kIsCriticalStage = false, kLatency = 1.300000e+01 : f64, kMacID = "ptconvlstm__permute", kName = "ptconvlstm__permute", kPermutation = [1, 0], kSourceContext = "logreg_ts.py:212:0", kStageId = -1 : i64, kStageLatency = 1.300000e+01 : f64, kUniqueId = 372 : i64, kUserCreated = true} : (tensor<3x136xbf16>) -> tensor<136x3xbf16>
          %32:2 = "tlir.Buffer"(%31) {kChipID = 0 : i64, kDepth = 2 : i64, kHead0Depth = 2 : i64, kHead1Depth = 2 : i64, kSourceContext = "ptconvlstm__conv_layer__conv1d__unsqueeze_Reshape:0:0", kUniqueId = 178 : i64, kUserCreated = true} : (tensor<136x3xbf16>) -> (tensor<136x3xbf16>, tensor<136x3xbf16>)
          %33 = "tlir.Reshape"(%32#1) {kIsCriticalStage = false, kLatency = 1.300000e+01 : f64, kMacID = "ptconvlstm__conv_layer__conv1d__unsqueeze_Reshape", kName = "ptconvlstm__conv_layer__conv1d__unsqueeze_Reshape", kSourceContext = "ptconvlstm__conv_layer__conv1d__unsqueeze_Reshape:0:0", kStageId = -1 : i64, kStageLatency = 1.300000e+01 : f64, kUniqueId = 286 : i64, kUserCreated = true} : (tensor<136x3xbf16>) -> tensor<136x3x1xbf16>
          %34:2 = "tlir.Buffer"(%33) {kChipID = 0 : i64, kDepth = 2 : i64, kHead0Depth = 2 : i64, kHead1Depth = 2 : i64, kSourceContext = "ptconvlstm__conv_layer__conv1d__conv2d_Conv2d:0:0", kUniqueId = 180 : i64, kUserCreated = true} : (tensor<136x3x1xbf16>) -> (tensor<136x3x1xbf16>, tensor<136x3x1xbf16>)
          %35 = "tlir.Region"() {DataAlignmentGatherInput = 1 : i64, DataAlignmentGatherInputS = 2 : i64, DataAlignmentGatherOutput = 1 : i64, DataAlignmentGatherOutputS = 2 : i64, DataPtrgather.list = [768, 384], DataPtrgather.listS = 2 : i64, VectorDimensionGatherInput = 2 : i64, VectorDimensionGatherInputS = 2 : i64, VectorDimensionGatherOutput = 0 : i64, VectorDimensionGatherOutputS = 2 : i64, VectorOrderingGatherInput = 2 : i64, VectorOrderingGatherInputS = 2 : i64, VectorOrderingGatherOutput = 0 : i64, VectorOrderingGatherOutputS = 2 : i64, distribution = 9 : i32, gather.allow_oob = false, gather.allow_overflow = false, gather.base_list_tile_counters = 0 : i64, gather.base_max = [1, 96, 5, 32], gather.base_mult = [0, 0, 64, 0], gather.base_stride = [1, 32, 1, 1], gather.crush_par = 1 : i64, gather.depth2col = true, gather.depth_base_at = 1 : i64, gather.depth_group = 1 : i64, gather.depth_offset_at = 2 : i64, gather.filter_area = 3 : i64, gather.fixed_length = 32 : i64, gather.group_packed = 480 : i64, gather.group_unpacked = 480 : i64, gather.input_vec_base = 0 : i64, gather.input_vec_bound = 14 : i64, gather.input_vec_inner = -1 : i64, gather.input_vec_outer = -1 : i64, gather.list_length = 96 : i64, gather.list_tiles = 1 : i64, gather.num_channels = 136 : i64, gather.offset_list_tile_counters = 0 : i64, gather.offset_max = [1, 96, 5, 32], gather.offset_mult = [0, 1, 0, 1], gather.offset_stride = [1, 32, 1, 1], gather.output_mode = 1 : i64, gather.output_shape = [1, 408], gather.pace_shape = [32, 408], gather.permute = true, gather.reread = 43 : i64, gather.seg_length = 32 : i64, gather.streaming = 1 : i64, gather.streaming_repeat = 0 : i64, gather.surface_output_vectors = 1 : i64, gather.surface_par = 1 : i64, gather.swarm_par = 1 : i64, gather.tile_shape = [], gather.total_bytes = 30720 : i64, gather.total_unpacked = 480 : i64, gather.use_tile_counter = false, kHasShape = true, kIsPlaceholder = false, kMacID = "ptconvlstm__conv_layer__conv1d__conv2d_Conv2d", kName = "ptconvlstm__conv_layer__conv1d__conv2d_Conv2d_conv_fwd_stream0__gather_list", kSourceContext = "software/arc/src/lib/templates/ConvIm2Col.cpp:200:0", kUniqueId = 287 : i64, kUserCreated = true} : () -> tensor<96xi32>
          %36 = "tlir.Gather"(%34#1, %35) {DataAlignment0 = 1 : i64, DataAlignment0S = 4 : i64, DataAlignmentGatherInput = 1 : i64, DataAlignmentGatherInputS = 2 : i64, DataAlignmentGatherOutput = 1 : i64, DataAlignmentGatherOutputS = 2 : i64, DataPtrgather.list = [1152, 384], DataPtrgather.listS = 2 : i64, VectorDimension0 = 0 : i64, VectorDimension0S = 4 : i64, VectorDimensionGatherInput = 2 : i64, VectorDimensionGatherInputS = 2 : i64, VectorDimensionGatherOutput = 0 : i64, VectorDimensionGatherOutputS = 2 : i64, VectorOrdering0 = 0 : i64, VectorOrdering0S = 4 : i64, VectorOrderingGatherInput = 2 : i64, VectorOrderingGatherInputS = 2 : i64, VectorOrderingGatherOutput = 0 : i64, VectorOrderingGatherOutputS = 2 : i64, distribution = 9 : i32, gather.allow_oob = false, gather.allow_overflow = false, gather.base_list_tile_counters = 0 : i64, gather.base_max = [1, 96, 5, 32], gather.base_mult = [0, 0, 64, 0], gather.base_stride = [1, 32, 1, 1], gather.crush_par = 1 : i64, gather.depth2col = true, gather.depth_base_at = 1 : i64, gather.depth_group = 1 : i64, gather.depth_offset_at = 2 : i64, gather.filter_area = 3 : i64, gather.fixed_length = 32 : i64, gather.group_packed = 480 : i64, gather.group_unpacked = 480 : i64, gather.input_vec_base = 0 : i64, gather.input_vec_bound = 14 : i64, gather.input_vec_inner = -1 : i64, gather.input_vec_outer = -1 : i64, gather.list_length = 96 : i64, gather.list_tiles = 1 : i64, gather.num_channels = 136 : i64, gather.offset_list_tile_counters = 0 : i64, gather.offset_max = [1, 96, 5, 32], gather.offset_mult = [0, 1, 0, 1], gather.offset_stride = [1, 32, 1, 1], gather.output_mode = 1 : i64, gather.output_shape = [1, 408], gather.pace_shape = [32, 408], gather.permute = true, gather.reread = 43 : i64, gather.seg_length = 32 : i64, gather.streaming = 1 : i64, gather.streaming_repeat = 0 : i64, gather.surface_output_vectors = 1 : i64, gather.surface_par = 1 : i64, gather.swarm_par = 1 : i64, gather.tile_shape = [], gather.total_bytes = 30720 : i64, gather.total_unpacked = 480 : i64, gather.use_tile_counter = false, kDepth2Col = false, kDepth2ColPointwise = false, kMacID = "ptconvlstm__conv_layer__conv1d__conv2d_Conv2d", kPaceMultiplier = 1 : i64, kSourceContext = "software/arc/src/lib/templates/ConvIm2Col.cpp:200:0", kStageMultiplierBase = 1 : i64, kStreamingTransposeShape = [136, 96], kUniqueId = 288 : i64, kUserCreated = true} : (tensor<136x3x1xbf16>, tensor<96xi32>) -> tensor<1x408xbf16>
          %37:2 = "tlir.Buffer"(%36) {kBufferType = 6 : i64, kDepth = 2 : i64, kHead0Depth = 2 : i64, kHead1Depth = 2 : i64, kMacID = "ptconvlstm__conv_layer__conv1d__conv2d_Conv2d", kPlacementHint = [1, 0], kSourceContext = "software/arc/src/lib/templates/ConvIm2Col.cpp:205:0", kStageMultiplierBase = 1 : i64, kUniqueId = 289 : i64, kUserCreated = true} : (tensor<1x408xbf16>) -> (tensor<1x408xbf16>, tensor<1x408xbf16>)
          %38:22 = "tlir.Split"(%22) {kAxis = 1 : i64, kMacID = "ptconvlstm__conv_layer__conv1d__conv2d_Conv2d", kSectionSizes = [12 : index, 12 : index, 12 : index, 12 : index, 12 : index, 12 : index, 12 : index, 12 : index, 12 : index, 12 : index, 12 : index, 12 : index, 12 : index, 12 : index, 12 : index, 12 : index, 12 : index, 12 : index, 12 : index, 12 : index, 12 : index, 4 : index], kSourceContext = "software/arc/src/lib/templates/BigLinearExternalColPar.cpp:40:0", kSplitGemmReread = true, kSplitType = 1 : i64, kUniqueId = 290 : i64, kUserCreated = true} : (tensor<408x256xbf16>) -> (tensor<408x12xbf16>, tensor<408x12xbf16>, tensor<408x12xbf16>, tensor<408x12xbf16>, tensor<408x12xbf16>, tensor<408x12xbf16>, tensor<408x12xbf16>, tensor<408x12xbf16>, tensor<408x12xbf16>, tensor<408x12xbf16>, tensor<408x12xbf16>, tensor<408x12xbf16>, tensor<408x12xbf16>, tensor<408x12xbf16>, tensor<408x12xbf16>, tensor<408x12xbf16>, tensor<408x12xbf16>, tensor<408x12xbf16>, tensor<408x12xbf16>, tensor<408x12xbf16>, tensor<408x12xbf16>, tensor<408x4xbf16>)
          %39 = "tlir.Linear"(%37#1, %38#0) {kConcatGroup = 4 : i64, kHasWeight = false, kIgnoreLinearColParUpdate = true, kInputAIsWeight = false, kMacID = "ptconvlstm__conv_layer__conv1d__conv2d_Conv2d", kNumColComputeUnits = 2 : i64, kNumPartitions = 1 : i64, kNumRowComputeUnits = 1 : i64, kReadAHead = 0 : i32, kReadBHead = 1 : i32, kSeqIdBase = 0 : i64, kSourceContext = "software/arc/src/lib/templates/BigLinearExternalColPar.cpp:80:0", kStageMultiplierBase = 1 : i64, kStreamingColPar = true, kUniqueId = 291 : i64, kUseBigGemm = true, kUserCreated = true, kWbufRepeat = 0 : i64, kWbufRepeatClipAt = 0 : i64, kWbufRepeatInterleaveSize = 0 : i64} : (tensor<1x408xbf16>, tensor<408x12xbf16>) -> tensor<1x12xbf16>
          %40 = "tlir.Linear"(%37#1, %38#1) {kConcatGroup = 4 : i64, kHasWeight = false, kIgnoreLinearColParUpdate = true, kInputAIsWeight = false, kMacID = "ptconvlstm__conv_layer__conv1d__conv2d_Conv2d", kNumColComputeUnits = 2 : i64, kNumPartitions = 1 : i64, kNumRowComputeUnits = 1 : i64, kReadAHead = 0 : i32, kReadBHead = 1 : i32, kSeqIdBase = 12 : i64, kSourceContext = "software/arc/src/lib/templates/BigLinearExternalColPar.cpp:80:0", kStageMultiplierBase = 1 : i64, kStreamingColPar = true, kUniqueId = 292 : i64, kUseBigGemm = true, kUserCreated = true, kWbufRepeat = 0 : i64, kWbufRepeatClipAt = 0 : i64, kWbufRepeatInterleaveSize = 0 : i64} : (tensor<1x408xbf16>, tensor<408x12xbf16>) -> tensor<1x12xbf16>
          %41 = "tlir.Linear"(%37#1, %38#2) {kConcatGroup = 4 : i64, kHasWeight = false, kIgnoreLinearColParUpdate = true, kInputAIsWeight = false, kMacID = "ptconvlstm__conv_layer__conv1d__conv2d_Conv2d", kNumColComputeUnits = 2 : i64, kNumPartitions = 1 : i64, kNumRowComputeUnits = 1 : i64, kReadAHead = 0 : i32, kReadBHead = 1 : i32, kSeqIdBase = 24 : i64, kSourceContext = "software/arc/src/lib/templates/BigLinearExternalColPar.cpp:80:0", kStageMultiplierBase = 1 : i64, kStreamingColPar = true, kUniqueId = 293 : i64, kUseBigGemm = true, kUserCreated = true, kWbufRepeat = 0 : i64, kWbufRepeatClipAt = 0 : i64, kWbufRepeatInterleaveSize = 0 : i64} : (tensor<1x408xbf16>, tensor<408x12xbf16>) -> tensor<1x12xbf16>
          %42 = "tlir.Linear"(%37#1, %38#3) {kConcatGroup = 4 : i64, kHasWeight = false, kIgnoreLinearColParUpdate = true, kInputAIsWeight = false, kMacID = "ptconvlstm__conv_layer__conv1d__conv2d_Conv2d", kNumColComputeUnits = 2 : i64, kNumPartitions = 1 : i64, kNumRowComputeUnits = 1 : i64, kReadAHead = 0 : i32, kReadBHead = 1 : i32, kSeqIdBase = 36 : i64, kSourceContext = "software/arc/src/lib/templates/BigLinearExternalColPar.cpp:80:0", kStageMultiplierBase = 1 : i64, kStreamingColPar = true, kUniqueId = 294 : i64, kUseBigGemm = true, kUserCreated = true, kWbufRepeat = 0 : i64, kWbufRepeatClipAt = 0 : i64, kWbufRepeatInterleaveSize = 0 : i64} : (tensor<1x408xbf16>, tensor<408x12xbf16>) -> tensor<1x12xbf16>
          %43 = "tlir.Linear"(%37#1, %38#4) {kConcatGroup = 4 : i64, kHasWeight = false, kIgnoreLinearColParUpdate = true, kInputAIsWeight = false, kMacID = "ptconvlstm__conv_layer__conv1d__conv2d_Conv2d", kNumColComputeUnits = 2 : i64, kNumPartitions = 1 : i64, kNumRowComputeUnits = 1 : i64, kReadAHead = 0 : i32, kReadBHead = 1 : i32, kSeqIdBase = 0 : i64, kSourceContext = "software/arc/src/lib/templates/BigLinearExternalColPar.cpp:80:0", kStageMultiplierBase = 1 : i64, kStreamingColPar = true, kUniqueId = 295 : i64, kUseBigGemm = true, kUserCreated = true, kWbufRepeat = 0 : i64, kWbufRepeatClipAt = 0 : i64, kWbufRepeatInterleaveSize = 0 : i64} : (tensor<1x408xbf16>, tensor<408x12xbf16>) -> tensor<1x12xbf16>
          %44 = "tlir.Linear"(%37#1, %38#5) {kConcatGroup = 4 : i64, kHasWeight = false, kIgnoreLinearColParUpdate = true, kInputAIsWeight = false, kMacID = "ptconvlstm__conv_layer__conv1d__conv2d_Conv2d", kNumColComputeUnits = 2 : i64, kNumPartitions = 1 : i64, kNumRowComputeUnits = 1 : i64, kReadAHead = 0 : i32, kReadBHead = 1 : i32, kSeqIdBase = 12 : i64, kSourceContext = "software/arc/src/lib/templates/BigLinearExternalColPar.cpp:80:0", kStageMultiplierBase = 1 : i64, kStreamingColPar = true, kUniqueId = 296 : i64, kUseBigGemm = true, kUserCreated = true, kWbufRepeat = 0 : i64, kWbufRepeatClipAt = 0 : i64, kWbufRepeatInterleaveSize = 0 : i64} : (tensor<1x408xbf16>, tensor<408x12xbf16>) -> tensor<1x12xbf16>
          %45 = "tlir.Linear"(%37#1, %38#6) {kConcatGroup = 4 : i64, kHasWeight = false, kIgnoreLinearColParUpdate = true, kInputAIsWeight = false, kMacID = "ptconvlstm__conv_layer__conv1d__conv2d_Conv2d", kNumColComputeUnits = 2 : i64, kNumPartitions = 1 : i64, kNumRowComputeUnits = 1 : i64, kReadAHead = 0 : i32, kReadBHead = 1 : i32, kSeqIdBase = 24 : i64, kSourceContext = "software/arc/src/lib/templates/BigLinearExternalColPar.cpp:80:0", kStageMultiplierBase = 1 : i64, kStreamingColPar = true, kUniqueId = 297 : i64, kUseBigGemm = true, kUserCreated = true, kWbufRepeat = 0 : i64, kWbufRepeatClipAt = 0 : i64, kWbufRepeatInterleaveSize = 0 : i64} : (tensor<1x408xbf16>, tensor<408x12xbf16>) -> tensor<1x12xbf16>
          %46 = "tlir.Linear"(%37#1, %38#7) {kConcatGroup = 4 : i64, kHasWeight = false, kIgnoreLinearColParUpdate = true, kInputAIsWeight = false, kMacID = "ptconvlstm__conv_layer__conv1d__conv2d_Conv2d", kNumColComputeUnits = 2 : i64, kNumPartitions = 1 : i64, kNumRowComputeUnits = 1 : i64, kReadAHead = 0 : i32, kReadBHead = 1 : i32, kSeqIdBase = 36 : i64, kSourceContext = "software/arc/src/lib/templates/BigLinearExternalColPar.cpp:80:0", kStageMultiplierBase = 1 : i64, kStreamingColPar = true, kUniqueId = 298 : i64, kUseBigGemm = true, kUserCreated = true, kWbufRepeat = 0 : i64, kWbufRepeatClipAt = 0 : i64, kWbufRepeatInterleaveSize = 0 : i64} : (tensor<1x408xbf16>, tensor<408x12xbf16>) -> tensor<1x12xbf16>
          %47 = "tlir.Linear"(%37#1, %38#8) {kConcatGroup = 4 : i64, kHasWeight = false, kIgnoreLinearColParUpdate = true, kInputAIsWeight = false, kMacID = "ptconvlstm__conv_layer__conv1d__conv2d_Conv2d", kNumColComputeUnits = 2 : i64, kNumPartitions = 1 : i64, kNumRowComputeUnits = 1 : i64, kReadAHead = 0 : i32, kReadBHead = 1 : i32, kSeqIdBase = 0 : i64, kSourceContext = "software/arc/src/lib/templates/BigLinearExternalColPar.cpp:80:0", kStageMultiplierBase = 1 : i64, kStreamingColPar = true, kUniqueId = 299 : i64, kUseBigGemm = true, kUserCreated = true, kWbufRepeat = 0 : i64, kWbufRepeatClipAt = 0 : i64, kWbufRepeatInterleaveSize = 0 : i64} : (tensor<1x408xbf16>, tensor<408x12xbf16>) -> tensor<1x12xbf16>
          %48 = "tlir.Linear"(%37#1, %38#9) {kConcatGroup = 4 : i64, kHasWeight = false, kIgnoreLinearColParUpdate = true, kInputAIsWeight = false, kMacID = "ptconvlstm__conv_layer__conv1d__conv2d_Conv2d", kNumColComputeUnits = 2 : i64, kNumPartitions = 1 : i64, kNumRowComputeUnits = 1 : i64, kReadAHead = 0 : i32, kReadBHead = 1 : i32, kSeqIdBase = 12 : i64, kSourceContext = "software/arc/src/lib/templates/BigLinearExternalColPar.cpp:80:0", kStageMultiplierBase = 1 : i64, kStreamingColPar = true, kUniqueId = 300 : i64, kUseBigGemm = true, kUserCreated = true, kWbufRepeat = 0 : i64, kWbufRepeatClipAt = 0 : i64, kWbufRepeatInterleaveSize = 0 : i64} : (tensor<1x408xbf16>, tensor<408x12xbf16>) -> tensor<1x12xbf16>
          %49 = "tlir.Linear"(%37#1, %38#10) {kConcatGroup = 4 : i64, kHasWeight = false, kIgnoreLinearColParUpdate = true, kInputAIsWeight = false, kMacID = "ptconvlstm__conv_layer__conv1d__conv2d_Conv2d", kNumColComputeUnits = 2 : i64, kNumPartitions = 1 : i64, kNumRowComputeUnits = 1 : i64, kReadAHead = 0 : i32, kReadBHead = 1 : i32, kSeqIdBase = 24 : i64, kSourceContext = "software/arc/src/lib/templates/BigLinearExternalColPar.cpp:80:0", kStageMultiplierBase = 1 : i64, kStreamingColPar = true, kUniqueId = 301 : i64, kUseBigGemm = true, kUserCreated = true, kWbufRepeat = 0 : i64, kWbufRepeatClipAt = 0 : i64, kWbufRepeatInterleaveSize = 0 : i64} : (tensor<1x408xbf16>, tensor<408x12xbf16>) -> tensor<1x12xbf16>
          %50 = "tlir.Linear"(%37#1, %38#11) {kConcatGroup = 4 : i64, kHasWeight = false, kIgnoreLinearColParUpdate = true, kInputAIsWeight = false, kMacID = "ptconvlstm__conv_layer__conv1d__conv2d_Conv2d", kNumColComputeUnits = 2 : i64, kNumPartitions = 1 : i64, kNumRowComputeUnits = 1 : i64, kReadAHead = 0 : i32, kReadBHead = 1 : i32, kSeqIdBase = 36 : i64, kSourceContext = "software/arc/src/lib/templates/BigLinearExternalColPar.cpp:80:0", kStageMultiplierBase = 1 : i64, kStreamingColPar = true, kUniqueId = 302 : i64, kUseBigGemm = true, kUserCreated = true, kWbufRepeat = 0 : i64, kWbufRepeatClipAt = 0 : i64, kWbufRepeatInterleaveSize = 0 : i64} : (tensor<1x408xbf16>, tensor<408x12xbf16>) -> tensor<1x12xbf16>
          %51 = "tlir.Linear"(%37#1, %38#12) {kConcatGroup = 4 : i64, kHasWeight = false, kIgnoreLinearColParUpdate = true, kInputAIsWeight = false, kMacID = "ptconvlstm__conv_layer__conv1d__conv2d_Conv2d", kNumColComputeUnits = 2 : i64, kNumPartitions = 1 : i64, kNumRowComputeUnits = 1 : i64, kReadAHead = 0 : i32, kReadBHead = 1 : i32, kSeqIdBase = 0 : i64, kSourceContext = "software/arc/src/lib/templates/BigLinearExternalColPar.cpp:80:0", kStageMultiplierBase = 1 : i64, kStreamingColPar = true, kUniqueId = 303 : i64, kUseBigGemm = true, kUserCreated = true, kWbufRepeat = 0 : i64, kWbufRepeatClipAt = 0 : i64, kWbufRepeatInterleaveSize = 0 : i64} : (tensor<1x408xbf16>, tensor<408x12xbf16>) -> tensor<1x12xbf16>
          %52 = "tlir.Linear"(%37#1, %38#13) {kConcatGroup = 4 : i64, kHasWeight = false, kIgnoreLinearColParUpdate = true, kInputAIsWeight = false, kMacID = "ptconvlstm__conv_layer__conv1d__conv2d_Conv2d", kNumColComputeUnits = 2 : i64, kNumPartitions = 1 : i64, kNumRowComputeUnits = 1 : i64, kReadAHead = 0 : i32, kReadBHead = 1 : i32, kSeqIdBase = 12 : i64, kSourceContext = "software/arc/src/lib/templates/BigLinearExternalColPar.cpp:80:0", kStageMultiplierBase = 1 : i64, kStreamingColPar = true, kUniqueId = 304 : i64, kUseBigGemm = true, kUserCreated = true, kWbufRepeat = 0 : i64, kWbufRepeatClipAt = 0 : i64, kWbufRepeatInterleaveSize = 0 : i64} : (tensor<1x408xbf16>, tensor<408x12xbf16>) -> tensor<1x12xbf16>
          %53 = "tlir.Linear"(%37#1, %38#14) {kConcatGroup = 4 : i64, kHasWeight = false, kIgnoreLinearColParUpdate = true, kInputAIsWeight = false, kMacID = "ptconvlstm__conv_layer__conv1d__conv2d_Conv2d", kNumColComputeUnits = 2 : i64, kNumPartitions = 1 : i64, kNumRowComputeUnits = 1 : i64, kReadAHead = 0 : i32, kReadBHead = 1 : i32, kSeqIdBase = 24 : i64, kSourceContext = "software/arc/src/lib/templates/BigLinearExternalColPar.cpp:80:0", kStageMultiplierBase = 1 : i64, kStreamingColPar = true, kUniqueId = 305 : i64, kUseBigGemm = true, kUserCreated = true, kWbufRepeat = 0 : i64, kWbufRepeatClipAt = 0 : i64, kWbufRepeatInterleaveSize = 0 : i64} : (tensor<1x408xbf16>, tensor<408x12xbf16>) -> tensor<1x12xbf16>
          %54 = "tlir.Linear"(%37#1, %38#15) {kConcatGroup = 4 : i64, kHasWeight = false, kIgnoreLinearColParUpdate = true, kInputAIsWeight = false, kMacID = "ptconvlstm__conv_layer__conv1d__conv2d_Conv2d", kNumColComputeUnits = 2 : i64, kNumPartitions = 1 : i64, kNumRowComputeUnits = 1 : i64, kReadAHead = 0 : i32, kReadBHead = 1 : i32, kSeqIdBase = 36 : i64, kSourceContext = "software/arc/src/lib/templates/BigLinearExternalColPar.cpp:80:0", kStageMultiplierBase = 1 : i64, kStreamingColPar = true, kUniqueId = 306 : i64, kUseBigGemm = true, kUserCreated = true, kWbufRepeat = 0 : i64, kWbufRepeatClipAt = 0 : i64, kWbufRepeatInterleaveSize = 0 : i64} : (tensor<1x408xbf16>, tensor<408x12xbf16>) -> tensor<1x12xbf16>
          %55 = "tlir.Linear"(%37#1, %38#16) {kConcatGroup = 4 : i64, kHasWeight = false, kIgnoreLinearColParUpdate = true, kInputAIsWeight = false, kMacID = "ptconvlstm__conv_layer__conv1d__conv2d_Conv2d", kNumColComputeUnits = 2 : i64, kNumPartitions = 1 : i64, kNumRowComputeUnits = 1 : i64, kReadAHead = 0 : i32, kReadBHead = 1 : i32, kSeqIdBase = 0 : i64, kSourceContext = "software/arc/src/lib/templates/BigLinearExternalColPar.cpp:80:0", kStageMultiplierBase = 1 : i64, kStreamingColPar = true, kUniqueId = 307 : i64, kUseBigGemm = true, kUserCreated = true, kWbufRepeat = 0 : i64, kWbufRepeatClipAt = 0 : i64, kWbufRepeatInterleaveSize = 0 : i64} : (tensor<1x408xbf16>, tensor<408x12xbf16>) -> tensor<1x12xbf16>
          %56 = "tlir.Linear"(%37#1, %38#17) {kConcatGroup = 4 : i64, kHasWeight = false, kIgnoreLinearColParUpdate = true, kInputAIsWeight = false, kMacID = "ptconvlstm__conv_layer__conv1d__conv2d_Conv2d", kNumColComputeUnits = 2 : i64, kNumPartitions = 1 : i64, kNumRowComputeUnits = 1 : i64, kReadAHead = 0 : i32, kReadBHead = 1 : i32, kSeqIdBase = 12 : i64, kSourceContext = "software/arc/src/lib/templates/BigLinearExternalColPar.cpp:80:0", kStageMultiplierBase = 1 : i64, kStreamingColPar = true, kUniqueId = 308 : i64, kUseBigGemm = true, kUserCreated = true, kWbufRepeat = 0 : i64, kWbufRepeatClipAt = 0 : i64, kWbufRepeatInterleaveSize = 0 : i64} : (tensor<1x408xbf16>, tensor<408x12xbf16>) -> tensor<1x12xbf16>
          %57 = "tlir.Linear"(%37#1, %38#18) {kConcatGroup = 4 : i64, kHasWeight = false, kIgnoreLinearColParUpdate = true, kInputAIsWeight = false, kMacID = "ptconvlstm__conv_layer__conv1d__conv2d_Conv2d", kNumColComputeUnits = 2 : i64, kNumPartitions = 1 : i64, kNumRowComputeUnits = 1 : i64, kReadAHead = 0 : i32, kReadBHead = 1 : i32, kSeqIdBase = 24 : i64, kSourceContext = "software/arc/src/lib/templates/BigLinearExternalColPar.cpp:80:0", kStageMultiplierBase = 1 : i64, kStreamingColPar = true, kUniqueId = 309 : i64, kUseBigGemm = true, kUserCreated = true, kWbufRepeat = 0 : i64, kWbufRepeatClipAt = 0 : i64, kWbufRepeatInterleaveSize = 0 : i64} : (tensor<1x408xbf16>, tensor<408x12xbf16>) -> tensor<1x12xbf16>
          %58 = "tlir.Linear"(%37#1, %38#19) {kConcatGroup = 4 : i64, kHasWeight = false, kIgnoreLinearColParUpdate = true, kInputAIsWeight = false, kMacID = "ptconvlstm__conv_layer__conv1d__conv2d_Conv2d", kNumColComputeUnits = 2 : i64, kNumPartitions = 1 : i64, kNumRowComputeUnits = 1 : i64, kReadAHead = 0 : i32, kReadBHead = 1 : i32, kSeqIdBase = 36 : i64, kSourceContext = "software/arc/src/lib/templates/BigLinearExternalColPar.cpp:80:0", kStageMultiplierBase = 1 : i64, kStreamingColPar = true, kUniqueId = 310 : i64, kUseBigGemm = true, kUserCreated = true, kWbufRepeat = 0 : i64, kWbufRepeatClipAt = 0 : i64, kWbufRepeatInterleaveSize = 0 : i64} : (tensor<1x408xbf16>, tensor<408x12xbf16>) -> tensor<1x12xbf16>
          %59 = "tlir.Linear"(%37#1, %38#20) {kConcatGroup = 2 : i64, kHasWeight = false, kIgnoreLinearColParUpdate = true, kInputAIsWeight = false, kMacID = "ptconvlstm__conv_layer__conv1d__conv2d_Conv2d", kNumColComputeUnits = 2 : i64, kNumPartitions = 1 : i64, kNumRowComputeUnits = 1 : i64, kReadAHead = 0 : i32, kReadBHead = 1 : i32, kSeqIdBase = 0 : i64, kSourceContext = "software/arc/src/lib/templates/BigLinearExternalColPar.cpp:80:0", kStageMultiplierBase = 1 : i64, kStreamingColPar = true, kUniqueId = 311 : i64, kUseBigGemm = true, kUserCreated = true, kWbufRepeat = 0 : i64, kWbufRepeatClipAt = 0 : i64, kWbufRepeatInterleaveSize = 0 : i64} : (tensor<1x408xbf16>, tensor<408x12xbf16>) -> tensor<1x12xbf16>
          %60 = "tlir.Linear"(%37#1, %38#21) {kConcatGroup = 2 : i64, kHasWeight = false, kIgnoreLinearColParUpdate = true, kInputAIsWeight = false, kMacID = "ptconvlstm__conv_layer__conv1d__conv2d_Conv2d", kNumColComputeUnits = 2 : i64, kNumPartitions = 1 : i64, kNumRowComputeUnits = 1 : i64, kReadAHead = 0 : i32, kReadBHead = 1 : i32, kSeqIdBase = 12 : i64, kSourceContext = "software/arc/src/lib/templates/BigLinearExternalColPar.cpp:80:0", kStageMultiplierBase = 1 : i64, kStreamingColPar = true, kUniqueId = 312 : i64, kUseBigGemm = true, kUserCreated = true, kWbufRepeat = 0 : i64, kWbufRepeatClipAt = 0 : i64, kWbufRepeatInterleaveSize = 0 : i64} : (tensor<1x408xbf16>, tensor<408x4xbf16>) -> tensor<1x4xbf16>
          %61 = "tlir.Concat"(%39, %40, %41, %42, %43, %44, %45, %46, %47, %48, %49, %50, %51, %52, %53, %54, %55, %56, %57, %58, %59, %60) {kAxis = 1 : i64, kConcatGroup = 4 : i64, kConcatType = 1 : i64, kIntColParVectors = 12 : i64, kMacID = "ptconvlstm__conv_layer__conv1d__conv2d_Conv2d", kSourceContext = "software/arc/src/lib/templates/BigLinearExternalColPar.cpp:100:0", kTimeSlices = [12, 12, 12, 12, 12, 12, 12, 12, 12, 12, 12, 12, 12, 12, 12, 12, 12, 12, 12, 12, 12, 4], kUniqueId = 313 : i64, kUserCreated = true} : (tensor<1x12xbf16>, tensor<1x12xbf16>, tensor<1x12xbf16>, tensor<1x12xbf16>, tensor<1x12xbf16>, tensor<1x12xbf16>, tensor<1x12xbf16>, tensor<1x12xbf16>, tensor<1x12xbf16>, tensor<1x12xbf16>, tensor<1x12xbf16>, tensor<1x12xbf16>, tensor<1x12xbf16>, tensor<1x12xbf16>, tensor<1x12xbf16>, tensor<1x12xbf16>, tensor<1x12xbf16>, tensor<1x12xbf16>, tensor<1x12xbf16>, tensor<1x12xbf16>, tensor<1x12xbf16>, tensor<1x4xbf16>) -> tensor<1x256xbf16>
          %62:2 = "tlir.Buffer"(%61) {kBufferType = 1 : i64, kDepth = 2 : i64, kHead0Depth = 2 : i64, kHead1Depth = 2 : i64, kMacID = "ptconvlstm__conv_layer__conv1d__conv2d_Conv2d", kSourceContext = "software/arc/src/lib/templates/BigLinearExternalColPar.cpp:110:0", kUniqueId = 314 : i64, kUserCreated = true} : (tensor<1x256xbf16>) -> (tensor<1x256xbf16>, tensor<1x256xbf16>)
          %63:2 = "tlir.Buffer"(%62#1) {kDepth = 2 : i64, kHead0Depth = 2 : i64, kHead1Depth = 2 : i64, kMacID = "ptconvlstm__conv_layer__conv1d__conv2d_Conv2d", kSourceContext = "software/arc/src/lib/templates/ConvIm2Col.cpp:295:0", kUniqueId = 315 : i64, kUserCreated = true} : (tensor<1x256xbf16>) -> (tensor<1x256xbf16>, tensor<1x256xbf16>)
          %64 = "tlir.BiasTransposeAdd"(%63#1, %23) {kMacID = "ptconvlstm__conv_layer__conv1d__conv2d_Conv2d", kSourceContext = "software/arc/src/lib/templates/ConvIm2Col.cpp:296:0", kStreaming = false, kUniqueId = 316 : i64, kUserCreated = true} : (tensor<1x256xbf16>, tensor<256x1xbf16>) -> tensor<1x256xbf16>
          %65 = "tlir.StreamingPermute"(%64) {kMacID = "ptconvlstm__conv_layer__conv1d__conv2d_Conv2d", kOutputReshape = [256 : index, 1 : index, 1 : index], kPermuteType = 7 : i64, kSourceContext = "software/arc/src/lib/templates/ConvIm2Col.cpp:368:0", kUniqueId = 317 : i64, kUserCreated = true} : (tensor<1x256xbf16>) -> tensor<256x1x1xbf16>
          %66:2 = "tlir.Buffer"(%65) {kChipID = 0 : i64, kDepth = 2 : i64, kHead0Depth = 2 : i64, kHead1Depth = 2 : i64, kSourceContext = "ptconvlstm__conv_layer__conv1d__squeeze_Reshape:0:0", kUniqueId = 182 : i64, kUserCreated = true} : (tensor<256x1x1xbf16>) -> (tensor<256x1x1xbf16>, tensor<256x1x1xbf16>)
          %67 = "tlir.Reshape"(%66#1) {kIsCriticalStage = false, kLatency = 1.300000e+01 : f64, kMacID = "ptconvlstm__conv_layer__conv1d__squeeze_Reshape", kName = "ptconvlstm__conv_layer__conv1d__squeeze_Reshape", kSourceContext = "ptconvlstm__conv_layer__conv1d__squeeze_Reshape:0:0", kStageId = -1 : i64, kStageLatency = 1.300000e+01 : f64, kUniqueId = 318 : i64, kUserCreated = true} : (tensor<256x1x1xbf16>) -> tensor<256x1xbf16>
          %68:2 = "tlir.Buffer"(%67) {kChipID = 0 : i64, kDepth = 2 : i64, kHead0Depth = 2 : i64, kHead1Depth = 2 : i64, kSourceContext = "/usr/local/lib/python3.7/site-packages/torch/overrides.py:1202:0", kUniqueId = 184 : i64, kUserCreated = true} : (tensor<256x1xbf16>) -> (tensor<256x1xbf16>, tensor<256x1xbf16>)
          %69 = "tlir.Linear"(%24, %68#1, %25) {kBoxLayout = false, kBoxLayoutAnchor = [], kBoxPerPartition = true, kBoxPerWbufSplit = false, kExclusiveRoutes = false, kExclusiveVCA = false, kInputAIsWeight = true, kIsCriticalStage = false, kIsFromConv1x1 = false, kLatency = 4.570000e+02 : f64, kMacID = "ptconvlstm__dense_layer__linear", kName = "ptconvlstm__dense_layer__linear", kNumColComputeUnits = 1 : i64, kNumPartitions = 4 : i64, kNumRowComputeUnits = 32 : i64, kReadAHead = 0 : i32, kReadBHead = 1 : i32, kSourceContext = "/usr/local/lib/python3.7/site-packages/torch/overrides.py:1202:0", kStageId = -1 : i64, kStageLatency = 4.570000e+02 : f64, kStagingBias = false, kUniqueId = 319 : i64, kUseBigGemm = false, kUserCreated = true, kWbufSplit = false} : (tensor<4080x256xbf16>, tensor<256x1xbf16>, tensor<4080x1xbf16>) -> tensor<4080x1xbf16>
          %70:2 = "tlir.Buffer"(%69) {kChipID = 0 : i64, kDepth = 2 : i64, kHead0Depth = 2 : i64, kHead1Depth = 2 : i64, kSourceContext = "/usr/local/lib/python3.7/site-packages/torch/overrides.py:1202:0", kUniqueId = 186 : i64, kUserCreated = true} : (tensor<4080x1xbf16>) -> (tensor<4080x1xbf16>, tensor<4080x1xbf16>)
          %71 = "tlir.PermuteView"(%70#1) {kIsCriticalStage = false, kLatency = 0.000000e+00 : f64, kMacID = "ptconvlstm__dense_layer__linear_t_output0", kName = "ptconvlstm__dense_layer__linear_t_output0", kPermutation = [1, 0], kSourceContext = "/usr/local/lib/python3.7/site-packages/torch/overrides.py:1202:0", kStageId = -1 : i64, kStageLatency = 0.000000e+00 : f64, kUniqueId = 320 : i64, kUserCreated = true} : (tensor<4080x1xbf16>) -> tensor<1x4080xbf16>
          %72:2 = "tlir.Buffer"(%71) {kChipID = 0 : i64, kDepth = 2 : i64, kHead0Depth = 2 : i64, kHead1Depth = 2 : i64, kSourceContext = "logreg_ts.py:219:0", kUniqueId = 188 : i64, kUserCreated = true} : (tensor<1x4080xbf16>) -> (tensor<1x4080xbf16>, tensor<1x4080xbf16>)
          %73 = "tlir.Reshape"(%72#1) {kIsCriticalStage = false, kLatency = 1.300000e+01 : f64, kMacID = "ptconvlstm__reshape", kName = "ptconvlstm__reshape", kSourceContext = "logreg_ts.py:219:0", kStageId = -1 : i64, kStageLatency = 1.300000e+01 : f64, kUniqueId = 321 : i64, kUserCreated = true} : (tensor<1x4080xbf16>) -> tensor<4080xbf16>
          %74 = "tlir.Load"(%6) {kChipID = 0 : i64, kIsReverse = false, kKeepDim = false, kLoadSlice = true, kSliceAxes = [0 : index], kSliceSize = 1 : i64, kSourceContext = "logreg_ts.py:220:0", kUniqueId = 263 : i64, kUserCreated = true} : (tensor<1x30x136xbf16>) -> tensor<30x136xbf16>
          %75:2 = "tlir.Buffer"(%74) {kChipID = 0 : i64, kDepth = 2 : i64, kHead0Depth = 2 : i64, kHead1Depth = 2 : i64, kSourceContext = "logreg_ts.py:220:0", kUniqueId = 191 : i64, kUserCreated = true} : (tensor<30x136xbf16>) -> (tensor<30x136xbf16>, tensor<30x136xbf16>)
          %76:2 = "tlir.Buffer"(%72#1) {kChipID = 0 : i64, kDepth = 2 : i64, kHead0Depth = 2 : i64, kHead1Depth = 2 : i64, kSourceContext = "/usr/local/lib/python3.7/site-packages/torch/overrides.py:1202:0", kUniqueId = 194 : i64, kUserCreated = true} : (tensor<1x4080xbf16>) -> (tensor<1x4080xbf16>, tensor<1x4080xbf16>)
          %77 = "tlir.Reshape"(%75#1) {kIsCriticalStage = false, kLatency = -1.000000e+00 : f64, kMacID = "", kName = "", kSourceContext = "/usr/local/lib/python3.7/site-packages/torch/overrides.py:1202:0", kStageId = -1 : i64, kStageLatency = -1.000000e+00 : f64, kUniqueId = 322 : i64, kUserCreated = true} : (tensor<30x136xbf16>) -> tensor<1x4080xbf16>
          %78:2 = "tlir.Buffer"(%77) {kChipID = 0 : i64, kDepth = 2 : i64, kHead0Depth = 2 : i64, kHead1Depth = 2 : i64, kSourceContext = "/usr/local/lib/python3.7/site-packages/torch/overrides.py:1202:0", kUniqueId = 196 : i64, kUserCreated = true} : (tensor<1x4080xbf16>) -> (tensor<1x4080xbf16>, tensor<1x4080xbf16>)
          %79 = "tlir.Sub"(%76#1, %78#1) {kBinaryOp = true, kIsCriticalStage = false, kLatency = 3.190000e+02 : f64, kMacID = "", kName = "", kSourceContext = "/usr/local/lib/python3.7/site-packages/torch/overrides.py:1202:0", kStageId = -1 : i64, kStageLatency = 3.190000e+02 : f64, kUniqueId = 323 : i64, kUserCreated = true} : (tensor<1x4080xbf16>, tensor<1x4080xbf16>) -> tensor<1x4080xbf16>
          %80 = "tlir.Mul"(%79, %79) {kBinaryOp = true, kIsCriticalStage = false, kLatency = 3.190000e+02 : f64, kMacID = "", kName = "", kSourceContext = "/usr/local/lib/python3.7/site-packages/torch/overrides.py:1202:0", kStageId = -1 : i64, kStageLatency = 3.190000e+02 : f64, kUniqueId = 324 : i64, kUserCreated = true} : (tensor<1x4080xbf16>, tensor<1x4080xbf16>) -> tensor<1x4080xbf16>
          %81 = "tlir.Mean"(%80) {kAxis = [1 : index], kIsCriticalStage = false, kKeepDims = false, kLatency = 3.190000e+02 : f64, kMacID = "", kName = "", kPreferRail = false, kSourceContext = "/usr/local/lib/python3.7/site-packages/torch/overrides.py:1202:0", kStageId = -1 : i64, kStageLatency = 3.190000e+02 : f64, kUniqueId = 325 : i64, kUserCreated = true} : (tensor<1x4080xbf16>) -> tensor<1xbf16>
          %82:2 = "tlir.Buffer"(%71) {kChipID = 0 : i64, kDepth = 2 : i64, kHead0Depth = 2 : i64, kHead1Depth = 2 : i64, kSourceContext = "logreg_ts.py:226:0", kUniqueId = 200 : i64, kUserCreated = true} : (tensor<1x4080xbf16>) -> (tensor<1x4080xbf16>, tensor<1x4080xbf16>)
          %83 = "tlir.Reshape"(%82#1) {kIsCriticalStage = false, kLatency = 1.300000e+01 : f64, kMacID = "ptconvlstm__view", kName = "ptconvlstm__view", kSourceContext = "logreg_ts.py:226:0", kStageId = -1 : i64, kStageLatency = 1.300000e+01 : f64, kUniqueId = 326 : i64, kUserCreated = true} : (tensor<1x4080xbf16>) -> tensor<30x136xbf16>
          "tlir.Store"(%13, %67) {kChipID = 0 : i64, kIsCheckPoint = false, kIsReverse = false, kOpRWPattern0 = "kWriteOperand", kSliceAxes = [0 : index], kSliceSize = 1 : i64, kSourceContext = "ptconvlstm__conv_layer__conv1d__squeeze_Reshape:0:0", kStoreSlice = true, kUniqueId = 270 : i64, kUserCreated = true} : (tensor<1x256x1xbf16>, tensor<256x1xbf16>) -> ()
          "tlir.Store"(%14, %73) {kChipID = 0 : i64, kIsCheckPoint = false, kIsReverse = false, kOpRWPattern0 = "kWriteOperand", kSliceAxes = [0 : index], kSliceSize = 1 : i64, kSourceContext = "logreg_ts.py:219:0", kStoreSlice = true, kUniqueId = 271 : i64, kUserCreated = true} : (tensor<1x4080xbf16>, tensor<4080xbf16>) -> ()
          "tlir.Store"(%15, %81) {kChipID = 0 : i64, kIsCheckPoint = false, kIsReverse = false, kOpRWPattern0 = "kWriteOperand", kSliceAxes = [0 : index], kSliceSize = 1 : i64, kSourceContext = "/usr/local/lib/python3.7/site-packages/torch/overrides.py:1202:0", kStoreSlice = true, kUniqueId = 272 : i64, kUserCreated = true} : (tensor<1xbf16>, tensor<1xbf16>) -> ()
          "tlir.Store"(%16, %83) {kChipID = 0 : i64, kIsCheckPoint = false, kIsReverse = false, kOpRWPattern0 = "kWriteOperand", kSliceAxes = [0 : index], kSliceSize = 1 : i64, kSourceContext = "logreg_ts.py:226:0", kStoreSlice = true, kUniqueId = 273 : i64, kUserCreated = true} : (tensor<1x30x136xbf16>, tensor<30x136xbf16>) -> ()
          "tlir.terminator"() {kSourceContext = "logreg_ts.py:191:0", kUniqueId = 277 : i64} : () -> ()
        }) {kNumIterations = 1 : i64, kSourceContext = "logreg_ts.py:191:0", kUniqueId = 276 : i64, type = none} : () -> ()
        "tlir.terminator"() {kSourceContext = "software/arc/src/lib/pass/transform/AIRToTLIRLoweringSections.cpp:89:0", kUniqueId = 275 : i64} : () -> ()
      }) {kPartitionId = 0 : i64, kSourceContext = "software/arc/src/lib/pass/transform/AIRToTLIRLoweringSections.cpp:89:0", kUniqueId = 274 : i64, type = none} : () -> ()
      "tlir.terminator"() {kSourceContext = "software/arc/src/lib/pass/transform/AIRToTLIRLoweringSections.cpp:89:0", kUniqueId = 106 : i64} : () -> ()
    }) {kGlobalId = 0 : i64, kPartitionId = 0 : i64, kSectionLatency = 5.6866094382712618E-5 : f64, kSectionName = "$FWD", kSectionUniqueName = "ptconvlstm__lambda_layer__indexselect_as_initial", kSourceContext = "software/arc/src/lib/pass/transform/AIRToTLIRLoweringSections.cpp:89:0", kUniqueId = 81 : i64, type = none} : () -> ()
    "tlir.Section"() ( {
      %21 = "tlir.Region"() {DataAlignmentGatherInput = 1 : i64, DataAlignmentGatherInputS = 2 : i64, DataAlignmentGatherOutput = 1 : i64, DataAlignmentGatherOutputS = 2 : i64, DataPtrgather.list = [0, 384], DataPtrgather.listS = 2 : i64, VectorDimensionGatherInput = 1 : i64, VectorDimensionGatherInputS = 2 : i64, VectorDimensionGatherOutput = 1 : i64, VectorDimensionGatherOutputS = 2 : i64, VectorOrderingGatherInput = 1 : i64, VectorOrderingGatherInputS = 2 : i64, VectorOrderingGatherOutput = 1 : i64, VectorOrderingGatherOutputS = 2 : i64, distribution = 9 : i32, gather.allow_oob = false, gather.allow_overflow = false, gather.base_list_tile_counters = 0 : i64, gather.base_max = [1, 13, 256, 3], gather.base_mult = [0, 0, 64, 0], gather.base_stride = [1, 1, 1, 1], gather.crush_par = 1 : i64, gather.depth2col = false, gather.depth_base_at = 1 : i64, gather.depth_group = 1 : i64, gather.depth_offset_at = 2 : i64, gather.filter_area = 0 : i64, gather.fixed_length = 0 : i64, gather.group_packed = 13 : i64, gather.group_unpacked = 39 : i64, gather.input_vec_base = -1 : i64, gather.input_vec_bound = -1 : i64, gather.input_vec_inner = -1 : i64, gather.input_vec_outer = -1 : i64, gather.list_length = 39 : i64, gather.list_tiles = 1 : i64, gather.num_channels = 136 : i64, gather.offset_list_tile_counters = 0 : i64, gather.offset_max = [1, 13, 256, 3], gather.offset_mult = [0, 3, 0, 1], gather.offset_stride = [1, 1, 1, 1], gather.output_mode = 0 : i64, gather.output_shape = [408, 256], gather.pace_shape = [], gather.permute = false, gather.reread = 1 : i64, gather.seg_length = 3 : i64, gather.streaming = 1 : i64, gather.streaming_repeat = 0 : i64, gather.surface_output_vectors = 0 : i64, gather.surface_par = 1 : i64, gather.swarm_par = 1 : i64, gather.tile_shape = [], gather.total_bytes = 212992 : i64, gather.total_unpacked = 9984 : i64, gather.use_tile_counter = false, kChipID = 0 : i64, kHasShape = true, kIsPlaceholder = false, kName = "gather_gradient_output_reshape_id1__gather_list", kSourceContext = "ptconvlstm__conv_layer__conv1d__conv2d_Conv2d:0:0", kUniqueId = 132 : i64, kUserCreated = true} : () -> tensor<96xi32>
      "tlir.Chip"() ( {
        %22 = "tlir.Load"(%0) {kChipID = 0 : i64, kSourceContext = "UnknownFileName:0:0", kStageId = -2 : i64, kUniqueId = 124 : i64, kUserCreated = true} : (tensor<3xi32>) -> tensor<3xi32>
        %23 = "tlir.AccumBuffer"() {kChipID = 0 : i64, kHasShape = true, kIsPlaceholder = false, kName = "ptconvlstm__conv_layer__conv1d__conv2d_Conv2d_bwd_accum_buffer", kSourceContext = "ptconvlstm__conv_layer__conv1d__conv2d_Conv2d:0:0", kUniqueId = 207 : i64, kUserCreated = true} : () -> tensor<480x256xbf16>
        %24 = "tlir.AccumBuffer"() {kChipID = 0 : i64, kHasShape = true, kIsPlaceholder = false, kName = "ptconvlstm__conv_layer__conv1d__conv2d_Conv2d_bwd_accum_buffer_1", kSourceContext = "ptconvlstm__conv_layer__conv1d__conv2d_Conv2d:0:0", kUniqueId = 208 : i64, kUserCreated = true} : () -> tensor<256x1xbf16>
        %25 = "tlir.AccumBuffer"() {kChipID = 0 : i64, kHasShape = true, kIsPlaceholder = false, kName = "ptconvlstm__dense_layer__linear_bwd_weight_accum_buffer", kSourceContext = "/usr/local/lib/python3.7/site-packages/torch/overrides.py:1202:0", kUniqueId = 209 : i64, kUserCreated = true} : () -> tensor<4080x256xbf16>
        %26 = "tlir.AccumBuffer"() {kChipID = 0 : i64, kHasShape = true, kIsPlaceholder = false, kName = "ptconvlstm__dense_layer__linear_bwd_weight_accum_buffer_1", kSourceContext = "/usr/local/lib/python3.7/site-packages/torch/overrides.py:1202:0", kUniqueId = 210 : i64, kUserCreated = true} : () -> tensor<4080x1xbf16>
        "tlir.iter_loop.MetaPipeline"() ( {
          %29 = "tlir.Load"(%6) {kChipID = 0 : i64, kIsReverse = false, kKeepDim = false, kLoadSlice = true, kSliceAxes = [0 : index], kSliceSize = 1 : i64, kSourceContext = "logreg_ts.py:220:0", kUniqueId = 264 : i64, kUserCreated = true} : (tensor<1x30x136xbf16>) -> tensor<30x136xbf16>
          %30:2 = "tlir.Buffer"(%29) {kChipID = 0 : i64, kDepth = 2 : i64, kHead0Depth = 2 : i64, kHead1Depth = 2 : i64, kSourceContext = "logreg_ts.py:220:0", kUniqueId = 213 : i64, kUserCreated = true} : (tensor<30x136xbf16>) -> (tensor<30x136xbf16>, tensor<30x136xbf16>)
          %31 = "tlir.Load"(%7) {kChipID = 0 : i64, kIsReverse = false, kKeepDim = true, kLoadSlice = true, kSliceAxes = [0 : index], kSliceSize = 1 : i64, kSourceContext = "/usr/local/lib/python3.7/site-packages/torch/overrides.py:1202:0", kUniqueId = 265 : i64, kUserCreated = true} : (tensor<1xbf16>) -> tensor<1xbf16>
          %32:2 = "tlir.Buffer"(%31) {kChipID = 0 : i64, kDepth = 2 : i64, kHead0Depth = 2 : i64, kHead1Depth = 2 : i64, kSourceContext = "/usr/local/lib/python3.7/site-packages/torch/overrides.py:1202:0", kUniqueId = 216 : i64, kUserCreated = true} : (tensor<1xbf16>) -> (tensor<1xbf16>, tensor<1xbf16>)
          %33 = "tlir.SumGrad"(%32#1) {kAxis = 1 : i64, kIsCriticalStage = false, kLatency = 0.000000e+00 : f64, kMacID = "ptconvlstm__criterion__mseloss_bwd_expand", kName = "ptconvlstm__criterion__mseloss_bwd_expand", kSourceContext = "/usr/local/lib/python3.7/site-packages/torch/overrides.py:1202:0", kStageId = -1 : i64, kStageLatency = 0.000000e+00 : f64, kUniqueId = 327 : i64, kUserCreated = true} : (tensor<1xbf16>) -> tensor<1x4080xbf16>
          %34 = "tlir.Load"(%14) {kChipID = 0 : i64, kIsReverse = false, kKeepDim = true, kLoadSlice = true, kSliceAxes = [0 : index], kSliceSize = 1 : i64, kSourceContext = "/usr/local/lib/python3.7/site-packages/torch/overrides.py:1202:0", kUniqueId = 266 : i64, kUserCreated = true} : (tensor<1x4080xbf16>) -> tensor<1x4080xbf16>
          %35:2 = "tlir.Buffer"(%34) {kChipID = 0 : i64, kDepth = 2 : i64, kHead0Depth = 2 : i64, kHead1Depth = 2 : i64, kSourceContext = "/usr/local/lib/python3.7/site-packages/torch/overrides.py:1202:0", kUniqueId = 219 : i64, kUserCreated = true} : (tensor<1x4080xbf16>) -> (tensor<1x4080xbf16>, tensor<1x4080xbf16>)
          %36 = "tlir.Reshape"(%30#1) {kIsCriticalStage = false, kLatency = -1.000000e+00 : f64, kMacID = "", kName = "", kSourceContext = "/usr/local/lib/python3.7/site-packages/torch/overrides.py:1202:0", kStageId = -1 : i64, kStageLatency = -1.000000e+00 : f64, kUniqueId = 328 : i64, kUserCreated = true} : (tensor<30x136xbf16>) -> tensor<1x4080xbf16>
          %37:2 = "tlir.Buffer"(%36) {kChipID = 0 : i64, kDepth = 2 : i64, kHead0Depth = 2 : i64, kHead1Depth = 2 : i64, kSourceContext = "/usr/local/lib/python3.7/site-packages/torch/overrides.py:1202:0", kUniqueId = 221 : i64, kUserCreated = true} : (tensor<1x4080xbf16>) -> (tensor<1x4080xbf16>, tensor<1x4080xbf16>)
          %38 = "tlir.Sub"(%35#1, %37#1) {kBinaryOp = true, kIsCriticalStage = false, kLatency = 1.060000e+02 : f64, kMacID = "ptconvlstm__criterion__mseloss_bwd", kName = "ptconvlstm__criterion__mseloss_bwd_sub", kSourceContext = "/usr/local/lib/python3.7/site-packages/torch/overrides.py:1202:0", kStageId = -1 : i64, kStageLatency = 1.060000e+02 : f64, kUniqueId = 329 : i64, kUserCreated = true} : (tensor<1x4080xbf16>, tensor<1x4080xbf16>) -> tensor<1x4080xbf16>
          %39 = "tlir.Scale"(%38) {kConditionalScaling = false, kIsCriticalStage = false, kLatency = 1.060000e+02 : f64, kMacID = "ptconvlstm__criterion__mseloss_bwd", kName = "ptconvlstm__criterion__mseloss_bwd_scale", kScaleFactorFloat = 4.920960e-04 : bf16, kSourceContext = "/usr/local/lib/python3.7/site-packages/torch/overrides.py:1202:0", kStageId = -1 : i64, kStageLatency = 1.060000e+02 : f64, kUniqueId = 330 : i64, kUserCreated = true, kUsingInputB = false} : (tensor<1x4080xbf16>) -> tensor<1x4080xbf16>
          %40:2 = "tlir.Buffer"(%39) {kChipID = 0 : i64, kDepth = 2 : i64, kHead0Depth = 2 : i64, kHead1Depth = 2 : i64, kSourceContext = "/usr/local/lib/python3.7/site-packages/torch/overrides.py:1202:0", kUniqueId = 224 : i64, kUserCreated = true} : (tensor<1x4080xbf16>) -> (tensor<1x4080xbf16>, tensor<1x4080xbf16>)
          %41:2 = "tlir.Buffer"(%33) {kChipID = 0 : i64, kDepth = 2 : i64, kHead0Depth = 2 : i64, kHead1Depth = 2 : i64, kSourceContext = "/usr/local/lib/python3.7/site-packages/torch/overrides.py:1202:0", kUniqueId = 225 : i64, kUserCreated = true} : (tensor<1x4080xbf16>) -> (tensor<1x4080xbf16>, tensor<1x4080xbf16>)
          %42 = "tlir.Mul"(%40#1, %41#1) {kBinaryOp = true, kIsCriticalStage = false, kLatency = 1.360000e+02 : f64, kMacID = "ptconvlstm__criterion__mseloss_bwd_mul", kName = "ptconvlstm__criterion__mseloss_bwd_mul", kSourceContext = "/usr/local/lib/python3.7/site-packages/torch/overrides.py:1202:0", kStageId = -1 : i64, kStageLatency = 1.360000e+02 : f64, kUniqueId = 331 : i64, kUserCreated = true} : (tensor<1x4080xbf16>, tensor<1x4080xbf16>) -> tensor<1x4080xbf16>
          %43 = "tlir.Load"(%8) {kChipID = 0 : i64, kIsReverse = false, kKeepDim = false, kLoadSlice = true, kSliceAxes = [0 : index], kSliceSize = 1 : i64, kSourceContext = "logreg_ts.py:226:0", kUniqueId = 267 : i64, kUserCreated = true} : (tensor<1x30x136xbf16>) -> tensor<30x136xbf16>
          %44:2 = "tlir.Buffer"(%43) {kChipID = 0 : i64, kDepth = 2 : i64, kHead0Depth = 2 : i64, kHead1Depth = 2 : i64, kSourceContext = "logreg_ts.py:226:0", kUniqueId = 228 : i64, kUserCreated = true} : (tensor<30x136xbf16>) -> (tensor<30x136xbf16>, tensor<30x136xbf16>)
          %45 = "tlir.Reshape"(%44#1) {kIsCriticalStage = false, kLatency = 1.300000e+01 : f64, kMacID = "ptconvlstm__view_bwd", kName = "ptconvlstm__view_bwd", kSourceContext = "logreg_ts.py:226:0", kStageId = -1 : i64, kStageLatency = 1.300000e+01 : f64, kUniqueId = 332 : i64, kUserCreated = true} : (tensor<30x136xbf16>) -> tensor<1x4080xbf16>
          %46:2 = "tlir.Buffer"(%42) {kChipID = 0 : i64, kDepth = 2 : i64, kHead0Depth = 2 : i64, kHead1Depth = 2 : i64, kSourceContext = "logreg_ts.py:219:0", kUniqueId = 231 : i64, kUserCreated = true} : (tensor<1x4080xbf16>) -> (tensor<1x4080xbf16>, tensor<1x4080xbf16>)
          %47:2 = "tlir.Buffer"(%46#1) {kChipID = 0 : i64, kDepth = 2 : i64, kHead0Depth = 2 : i64, kHead1Depth = 2 : i64, kSourceContext = "/usr/local/lib/python3.7/site-packages/torch/overrides.py:1202:0", kUniqueId = 233 : i64, kUserCreated = true} : (tensor<1x4080xbf16>) -> (tensor<1x4080xbf16>, tensor<1x4080xbf16>)
          %48:2 = "tlir.Buffer"(%45) {kChipID = 0 : i64, kDepth = 2 : i64, kHead0Depth = 2 : i64, kHead1Depth = 2 : i64, kSourceContext = "/usr/local/lib/python3.7/site-packages/torch/overrides.py:1202:0", kUniqueId = 234 : i64, kUserCreated = true} : (tensor<1x4080xbf16>) -> (tensor<1x4080xbf16>, tensor<1x4080xbf16>)
          %49 = "tlir.AddN"(%47#1, %48#1) {kIsCriticalStage = false, kLatency = 1.060000e+02 : f64, kMacID = "ptconvlstm__dense_layer__linear_t_output0_bwd_addn0", kName = "ptconvlstm__dense_layer__linear_t_output0_bwd_addn0", kSourceContext = "/usr/local/lib/python3.7/site-packages/torch/overrides.py:1202:0", kStageId = -1 : i64, kStageLatency = 1.060000e+02 : f64, kUniqueId = 333 : i64, kUserCreated = true} : (tensor<1x4080xbf16>, tensor<1x4080xbf16>) -> tensor<1x4080xbf16>
          %50:2 = "tlir.Buffer"(%49) {kChipID = 0 : i64, kDepth = 2 : i64, kHead0Depth = 2 : i64, kHead1Depth = 2 : i64, kSourceContext = "/usr/local/lib/python3.7/site-packages/torch/overrides.py:1202:0", kUniqueId = 236 : i64, kUserCreated = true} : (tensor<1x4080xbf16>) -> (tensor<1x4080xbf16>, tensor<1x4080xbf16>)
          %51 = "tlir.PermuteView"(%50#1) {kIsCriticalStage = false, kLatency = 0.000000e+00 : f64, kMacID = "ptconvlstm__dense_layer__linear_t_output0_bwd", kName = "ptconvlstm__dense_layer__linear_t_output0_bwd", kPermutation = [1, 0], kSourceContext = "/usr/local/lib/python3.7/site-packages/torch/overrides.py:1202:0", kStageId = -1 : i64, kStageLatency = 0.000000e+00 : f64, kUniqueId = 334 : i64, kUserCreated = true} : (tensor<1x4080xbf16>) -> tensor<4080x1xbf16>
          %52:2 = "tlir.Buffer"(%51) {kChipID = 0 : i64, kDepth = 2 : i64, kHead0Depth = 2 : i64, kHead1Depth = 2 : i64, kSourceContext = "/usr/local/lib/python3.7/site-packages/torch/overrides.py:1202:0", kUniqueId = 238 : i64, kUserCreated = true} : (tensor<4080x1xbf16>) -> (tensor<4080x1xbf16>, tensor<4080x1xbf16>)
          %53 = "tlir.Load"(%5) {kChipID = 0 : i64, kSourceContext = "software/compiler/mac/src/pybind/py_air.cpp:1503:0", kUniqueId = 335 : i64, kUserCreated = true} : (tensor<4080x256xbf16>) -> tensor<4080x256xbf16>
          %54 = "tlir.Transpose"(%53) {kMacID = "ptconvlstm__dense_layer__linear_bwd_loss", kSourceContext = "/usr/local/lib/python3.7/site-packages/torch/overrides.py:1202:0", kTransposeType = 2 : i64, kUniqueId = 336 : i64, kUserCreated = true} : (tensor<4080x256xbf16>) -> tensor<256x4080xbf16>
          %55 = "tlir.Linear"(%54, %52#1) {kBoxLayout = true, kBoxPerPartition = true, kInputAIsWeight = true, kIsCriticalStage = false, kMacID = "ptconvlstm__dense_layer__linear_bwd_loss", kName = "ptconvlstm__dense_layer__linear_bwd_loss_grad_b", kNumColComputeUnits = 1 : i64, kNumPartitions = 1 : i64, kNumRowComputeUnits = 8 : i64, kReadAHead = 0 : i32, kReadBHead = 1 : i32, kSourceContext = "/usr/local/lib/python3.7/site-packages/torch/overrides.py:1202:0", kStageId = -1 : i64, kStageLatency = 4.367000e+03 : f64, kUniqueId = 337 : i64, kUseBigGemm = true, kUserCreated = true, kWbufSplit = false} : (tensor<256x4080xbf16>, tensor<4080x1xbf16>) -> tensor<256x1xbf16>
          %56 = "tlir.Load"(%1) {kChipID = 0 : i64, kIsReverse = false, kKeepDim = false, kLoadSlice = true, kSliceAxes = [0 : index], kSliceSize = 1 : i64, kSourceContext = "logreg_ts.py:191:0", kUniqueId = 268 : i64, kUserCreated = true} : (tensor<1x60x136xbf16>) -> tensor<60x136xbf16>
          %57:2 = "tlir.Buffer"(%56) {kChipID = 0 : i64, kDepth = 2 : i64, kHead0Depth = 2 : i64, kHead1Depth = 2 : i64, kSourceContext = "logreg_ts.py:191:0", kUniqueId = 241 : i64, kUserCreated = true} : (tensor<60x136xbf16>) -> (tensor<60x136xbf16>, tensor<60x136xbf16>)
          %58:2 = "tlir.Buffer"(%22) {kChipID = 0 : i64, kDepth = 1 : i64, kHead0Depth = 1 : i64, kHead1Depth = 1 : i64, kRereads1 = 1 : i64, kSourceContext = "logreg_ts.py:191:0", kStageId = 7 : i64, kUniqueId = 242 : i64, kUserCreated = true} : (tensor<3xi32>) -> (tensor<3xi32>, tensor<3xi32>)
          %59 = "tlir.Index"(%57#1, %58#1) {kDim = 0 : i64, kIsCriticalStage = false, kLatency = 1.100000e+01 : f64, kMacID = "ptconvlstm__lambda_layer__indexselect_recompute_", kMicroBatch = 1 : i64, kName = "ptconvlstm__lambda_layer__indexselect_recompute_", kSourceContext = "logreg_ts.py:191:0", kStageId = -1 : i64, kStageLatency = 1.100000e+01 : f64, kUniqueId = 338 : i64, kUserCreated = true} : (tensor<60x136xbf16>, tensor<3xi32>) -> tensor<3x136xbf16>
          %60:2 = "tlir.Buffer"(%59) {kChipID = 0 : i64, kDepth = 2 : i64, kHead0Depth = 2 : i64, kHead1Depth = 2 : i64, kSourceContext = "logreg_ts.py:212:0", kUniqueId = 244 : i64, kUserCreated = true} : (tensor<3x136xbf16>) -> (tensor<3x136xbf16>, tensor<3x136xbf16>)
          %61 = "tlir.PermuteView"(%60#1) {kIsCriticalStage = false, kLatency = 1.300000e+01 : f64, kMacID = "ptconvlstm__permute_recompute_", kName = "ptconvlstm__permute_recompute_", kPermutation = [1, 0], kSourceContext = "logreg_ts.py:212:0", kStageId = -1 : i64, kStageLatency = 1.300000e+01 : f64, kUniqueId = 373 : i64, kUserCreated = true} : (tensor<3x136xbf16>) -> tensor<136x3xbf16>
          %62:2 = "tlir.Buffer"(%55) {kChipID = 0 : i64, kDepth = 2 : i64, kHead0Depth = 2 : i64, kHead1Depth = 2 : i64, kSourceContext = "ptconvlstm__conv_layer__conv1d__squeeze_Reshape:0:0", kUniqueId = 246 : i64, kUserCreated = true} : (tensor<256x1xbf16>) -> (tensor<256x1xbf16>, tensor<256x1xbf16>)
          %63 = "tlir.Reshape"(%62#1) {kIsCriticalStage = false, kLatency = 1.300000e+01 : f64, kMacID = "ptconvlstm__conv_layer__conv1d__squeeze_Reshape_bwd", kName = "ptconvlstm__conv_layer__conv1d__squeeze_Reshape_bwd", kSourceContext = "ptconvlstm__conv_layer__conv1d__squeeze_Reshape:0:0", kStageId = -1 : i64, kStageLatency = 1.300000e+01 : f64, kUniqueId = 340 : i64, kUserCreated = true} : (tensor<256x1xbf16>) -> tensor<256x1x1xbf16>
          %64:2 = "tlir.Buffer"(%61) {kChipID = 0 : i64, kDepth = 2 : i64, kHead0Depth = 2 : i64, kHead1Depth = 2 : i64, kSourceContext = "ptconvlstm__conv_layer__conv1d__unsqueeze_Reshape:0:0", kUniqueId = 248 : i64, kUserCreated = true} : (tensor<136x3xbf16>) -> (tensor<136x3xbf16>, tensor<136x3xbf16>)
          %65 = "tlir.Reshape"(%64#1) {kIsCriticalStage = false, kLatency = 1.300000e+01 : f64, kMacID = "ptconvlstm__conv_layer__conv1d__unsqueeze_Reshape_recompute_", kName = "ptconvlstm__conv_layer__conv1d__unsqueeze_Reshape_recompute_", kSourceContext = "ptconvlstm__conv_layer__conv1d__unsqueeze_Reshape:0:0", kStageId = -1 : i64, kStageLatency = 1.300000e+01 : f64, kUniqueId = 341 : i64, kUserCreated = true} : (tensor<136x3xbf16>) -> tensor<136x3x1xbf16>
          %66:2 = "tlir.Buffer"(%65) {kChipID = 0 : i64, kDepth = 2 : i64, kHead0Depth = 2 : i64, kHead1Depth = 2 : i64, kSourceContext = "ptconvlstm__conv_layer__conv1d__conv2d_Conv2d:0:0", kUniqueId = 250 : i64, kUserCreated = true} : (tensor<136x3x1xbf16>) -> (tensor<136x3x1xbf16>, tensor<136x3x1xbf16>)
          %67:2 = "tlir.Buffer"(%63) {kChipID = 0 : i64, kDepth = 2 : i64, kHead0Depth = 2 : i64, kHead1Depth = 2 : i64, kSourceContext = "ptconvlstm__conv_layer__conv1d__conv2d_Conv2d:0:0", kUniqueId = 251 : i64, kUserCreated = true} : (tensor<256x1x1xbf16>) -> (tensor<256x1x1xbf16>, tensor<256x1x1xbf16>)
          %68 = "tlir.StreamingPermute"(%67#1) {kMacID = "ptconvlstm__conv_layer__conv1d__conv2d_Conv2d_bwd", kPermuteType = 4 : i64, kSourceContext = "software/arc/src/lib/templates/ConvGradIm2Col.cpp:1022:0", kUniqueId = 354 : i64, kUserCreated = true} : (tensor<256x1x1xbf16>) -> tensor<1x256xbf16>
          %69:2 = "tlir.Buffer"(%66#1) {kBufferType = 1 : i64, kDepth = 2 : i64, kHead0Depth = 2 : i64, kHead1Depth = 2 : i64, kIsReshapeBuffer = true, kIsSplitImageBuffer = false, kMacID = "ptconvlstm__conv_layer__conv1d__conv2d_Conv2d_bwd", kReshapeBase = 0 : i64, kReshapeBound = 4 : i64, kReshapeInner = true, kReshapeVecInner = 5 : i64, kReshapeVecOuter = 3 : i64, kSourceContext = "software/arc/src/lib/templates/ConvGradIm2Col.cpp:1074:0", kUniqueId = 355 : i64, kUserCreated = true} : (tensor<136x3x1xbf16>) -> (tensor<136x3x1xbf16>, tensor<136x3x1xbf16>)
          %70 = "tlir.Region"() {DataAlignmentGatherInput = 1 : i64, DataAlignmentGatherInputS = 2 : i64, DataAlignmentGatherOutput = 1 : i64, DataAlignmentGatherOutputS = 2 : i64, DataPtrgather.list = [837888, 64], DataPtrgather.listS = 2 : i64, VectorDimensionGatherInput = 2 : i64, VectorDimensionGatherInputS = 2 : i64, VectorDimensionGatherOutput = 1 : i64, VectorDimensionGatherOutputS = 2 : i64, VectorOrderingGatherInput = 2 : i64, VectorOrderingGatherInputS = 2 : i64, VectorOrderingGatherOutput = 1 : i64, VectorOrderingGatherOutputS = 2 : i64, distribution = 9 : i32, gather.allow_oob = true, gather.allow_overflow = false, gather.base_list_tile_counters = 0 : i64, gather.base_max = [320, 3, 1], gather.base_mult = [1, 0, 0], gather.base_stride = [64, 1, 1], gather.crush_par = 1 : i64, gather.depth2col = false, gather.depth_base_at = 1 : i64, gather.depth_group = 1 : i64, gather.depth_offset_at = 2 : i64, gather.filter_area = 0 : i64, gather.fixed_length = 32 : i64, gather.group_packed = 15 : i64, gather.group_unpacked = 15 : i64, gather.input_vec_base = -1 : i64, gather.input_vec_bound = -1 : i64, gather.input_vec_inner = -1 : i64, gather.input_vec_outer = -1 : i64, gather.list_length = 3 : i64, gather.list_tiles = 1 : i64, gather.num_channels = 136 : i64, gather.offset_list_tile_counters = 0 : i64, gather.offset_max = [160, 3], gather.offset_mult = [0, 1], gather.offset_stride = [32, 1], gather.output_mode = 1 : i64, gather.output_shape = [480, 1], gather.pace_shape = [32, 1], gather.permute = false, gather.reread = 1 : i64, gather.seg_length = 1 : i64, gather.streaming = 1 : i64, gather.streaming_repeat = 0 : i64, gather.surface_output_vectors = 0 : i64, gather.surface_par = 1 : i64, gather.swarm_par = 1 : i64, gather.tile_shape = [], gather.total_bytes = 960 : i64, gather.total_unpacked = 15 : i64, gather.use_tile_counter = false, kHasShape = true, kIsPlaceholder = false, kMacID = "ptconvlstm__conv_layer__conv1d__conv2d_Conv2d_bwd", kName = "ptconvlstm__conv_layer__conv1d__conv2d_Conv2d_bwd_conv_grad_stream0_kernel0__gather_list", kPlacementHint = [0, 1, 1, 0], kSourceContext = "software/arc/src/lib/templates/ConvGradIm2Col.cpp:419:0", kUniqueId = 356 : i64, kUserCreated = true} : () -> tensor<16xi32>
          %71 = "tlir.Gather"(%69#1, %70) {DataAlignment0 = 1 : i64, DataAlignment0S = 4 : i64, DataAlignmentGatherInput = 1 : i64, DataAlignmentGatherInputS = 2 : i64, DataAlignmentGatherOutput = 1 : i64, DataAlignmentGatherOutputS = 2 : i64, DataPtrgather.list = [837952, 64], DataPtrgather.listS = 2 : i64, VectorDimension0 = 1 : i64, VectorDimension0S = 4 : i64, VectorDimensionGatherInput = 2 : i64, VectorDimensionGatherInputS = 2 : i64, VectorDimensionGatherOutput = 1 : i64, VectorDimensionGatherOutputS = 2 : i64, VectorOrdering0 = 1 : i64, VectorOrdering0S = 4 : i64, VectorOrderingGatherInput = 2 : i64, VectorOrderingGatherInputS = 2 : i64, VectorOrderingGatherOutput = 1 : i64, VectorOrderingGatherOutputS = 2 : i64, distribution = 9 : i32, gather.allow_oob = true, gather.allow_overflow = false, gather.base_list_tile_counters = 0 : i64, gather.base_max = [320, 3, 1], gather.base_mult = [1, 0, 0], gather.base_stride = [64, 1, 1], gather.crush_par = 1 : i64, gather.depth2col = false, gather.depth_base_at = 1 : i64, gather.depth_group = 1 : i64, gather.depth_offset_at = 2 : i64, gather.filter_area = 0 : i64, gather.fixed_length = 32 : i64, gather.group_packed = 15 : i64, gather.group_unpacked = 15 : i64, gather.input_vec_base = -1 : i64, gather.input_vec_bound = -1 : i64, gather.input_vec_inner = -1 : i64, gather.input_vec_outer = -1 : i64, gather.list_length = 3 : i64, gather.list_tiles = 1 : i64, gather.num_channels = 136 : i64, gather.offset_list_tile_counters = 0 : i64, gather.offset_max = [160, 3], gather.offset_mult = [0, 1], gather.offset_stride = [32, 1], gather.output_mode = 1 : i64, gather.output_shape = [480, 1], gather.pace_shape = [32, 1], gather.permute = false, gather.reread = 1 : i64, gather.seg_length = 1 : i64, gather.streaming = 1 : i64, gather.streaming_repeat = 0 : i64, gather.surface_output_vectors = 0 : i64, gather.surface_par = 1 : i64, gather.swarm_par = 1 : i64, gather.tile_shape = [], gather.total_bytes = 960 : i64, gather.total_unpacked = 15 : i64, gather.use_tile_counter = false, kDepth2Col = false, kDepth2ColPointwise = false, kDepth2ColPointwiseGrad = false, kMacID = "ptconvlstm__conv_layer__conv1d__conv2d_Conv2d_bwd", kPaceMultiplier = 15 : i64, kPlacementHint = [0, 1, 1, 0], kSourceContext = "software/arc/src/lib/templates/ConvGradIm2Col.cpp:419:0", kStageMultiplierBase = 1 : i64, kUniqueId = 357 : i64, kUserCreated = true} : (tensor<136x3x1xbf16>, tensor<16xi32>) -> tensor<480x1xbf16>
          %72:2 = "tlir.Buffer"(%71) {kDepth = 2 : i64, kHead0Depth = 2 : i64, kHead1Depth = 2 : i64, kMacID = "ptconvlstm__conv_layer__conv1d__conv2d_Conv2d_bwd", kSourceContext = "software/arc/src/lib/templates/ConvGradIm2Col.cpp:469:0", kStageMultiplierBase = 1 : i64, kUniqueId = 358 : i64, kUserCreated = true} : (tensor<480x1xbf16>) -> (tensor<480x1xbf16>, tensor<480x1xbf16>)
          %73:4 = "tlir.Split"(%68) {kAxis = 1 : i64, kBufferDepth = 2 : i64, kMacID = "ptconvlstm__conv_layer__conv1d__conv2d_Conv2d_bwd", kSectionSizes = [72 : index, 72 : index, 72 : index, 40 : index], kSourceContext = "software/arc/src/lib/templates/BigLinearExternalColPar.cpp:40:0", kSplitGemmReread = false, kSplitType = 1 : i64, kUniqueId = 359 : i64, kUserCreated = true} : (tensor<1x256xbf16>) -> (tensor<1x72xbf16>, tensor<1x72xbf16>, tensor<1x72xbf16>, tensor<1x40xbf16>)
          %74 = "tlir.Linear"(%72#1, %73#0) {kConcatGroup = 4 : i64, kHasWeight = false, kIgnoreLinearColParUpdate = true, kInputAIsWeight = false, kMacID = "ptconvlstm__conv_layer__conv1d__conv2d_Conv2d_bwd", kNumColComputeUnits = 2 : i64, kNumPartitions = 1 : i64, kNumRowComputeUnits = 1 : i64, kReadAHead = 0 : i32, kReadBHead = 1 : i32, kSeqIdBase = 0 : i64, kSourceContext = "software/arc/src/lib/templates/BigLinearExternalColPar.cpp:80:0", kStageMultiplierBase = 15 : i64, kStreamingColPar = true, kUniqueId = 360 : i64, kUseBigGemm = true, kUserCreated = true, kWbufRepeat = 0 : i64, kWbufRepeatClipAt = 0 : i64, kWbufRepeatInterleaveSize = 0 : i64} : (tensor<480x1xbf16>, tensor<1x72xbf16>) -> tensor<480x72xbf16>
          %75 = "tlir.Linear"(%72#1, %73#1) {kConcatGroup = 4 : i64, kHasWeight = false, kIgnoreLinearColParUpdate = true, kInputAIsWeight = false, kMacID = "ptconvlstm__conv_layer__conv1d__conv2d_Conv2d_bwd", kNumColComputeUnits = 2 : i64, kNumPartitions = 1 : i64, kNumRowComputeUnits = 1 : i64, kReadAHead = 0 : i32, kReadBHead = 1 : i32, kSeqIdBase = 72 : i64, kSourceContext = "software/arc/src/lib/templates/BigLinearExternalColPar.cpp:80:0", kStageMultiplierBase = 15 : i64, kStreamingColPar = true, kUniqueId = 361 : i64, kUseBigGemm = true, kUserCreated = true, kWbufRepeat = 0 : i64, kWbufRepeatClipAt = 0 : i64, kWbufRepeatInterleaveSize = 0 : i64} : (tensor<480x1xbf16>, tensor<1x72xbf16>) -> tensor<480x72xbf16>
          %76 = "tlir.Linear"(%72#1, %73#2) {kConcatGroup = 4 : i64, kHasWeight = false, kIgnoreLinearColParUpdate = true, kInputAIsWeight = false, kMacID = "ptconvlstm__conv_layer__conv1d__conv2d_Conv2d_bwd", kNumColComputeUnits = 2 : i64, kNumPartitions = 1 : i64, kNumRowComputeUnits = 1 : i64, kReadAHead = 0 : i32, kReadBHead = 1 : i32, kSeqIdBase = 144 : i64, kSourceContext = "software/arc/src/lib/templates/BigLinearExternalColPar.cpp:80:0", kStageMultiplierBase = 15 : i64, kStreamingColPar = true, kUniqueId = 362 : i64, kUseBigGemm = true, kUserCreated = true, kWbufRepeat = 0 : i64, kWbufRepeatClipAt = 0 : i64, kWbufRepeatInterleaveSize = 0 : i64} : (tensor<480x1xbf16>, tensor<1x72xbf16>) -> tensor<480x72xbf16>
          %77 = "tlir.Linear"(%72#1, %73#3) {kConcatGroup = 4 : i64, kHasWeight = false, kIgnoreLinearColParUpdate = true, kInputAIsWeight = false, kMacID = "ptconvlstm__conv_layer__conv1d__conv2d_Conv2d_bwd", kNumColComputeUnits = 2 : i64, kNumPartitions = 1 : i64, kNumRowComputeUnits = 1 : i64, kReadAHead = 0 : i32, kReadBHead = 1 : i32, kSeqIdBase = 216 : i64, kSourceContext = "software/arc/src/lib/templates/BigLinearExternalColPar.cpp:80:0", kStageMultiplierBase = 15 : i64, kStreamingColPar = true, kUniqueId = 363 : i64, kUseBigGemm = true, kUserCreated = true, kWbufRepeat = 0 : i64, kWbufRepeatClipAt = 0 : i64, kWbufRepeatInterleaveSize = 0 : i64} : (tensor<480x1xbf16>, tensor<1x40xbf16>) -> tensor<480x40xbf16>
          %78 = "tlir.Concat"(%74, %75, %76, %77) {kAxis = 1 : i64, kConcatGroup = 4 : i64, kConcatType = 1 : i64, kIntColParVectors = 72 : i64, kMacID = "ptconvlstm__conv_layer__conv1d__conv2d_Conv2d_bwd", kSourceContext = "software/arc/src/lib/templates/BigLinearExternalColPar.cpp:100:0", kTimeSlices = [72, 72, 72, 40], kUniqueId = 364 : i64, kUserCreated = true} : (tensor<480x72xbf16>, tensor<480x72xbf16>, tensor<480x72xbf16>, tensor<480x40xbf16>) -> tensor<480x256xbf16>
          %79:2 = "tlir.Buffer"(%78) {kBufferType = 1 : i64, kDepth = 2 : i64, kHead0Depth = 2 : i64, kHead1Depth = 2 : i64, kMacID = "ptconvlstm__conv_layer__conv1d__conv2d_Conv2d_bwd", kSourceContext = "software/arc/src/lib/templates/BigLinearExternalColPar.cpp:110:0", kUniqueId = 365 : i64, kUserCreated = true} : (tensor<480x256xbf16>) -> (tensor<480x256xbf16>, tensor<480x256xbf16>)
          %80 = "tlir.ConcatView"(%79#1) {DataAlignmentkPreserveLayout = 1 : i64, DataAlignmentkPreserveLayoutS = 2 : i64, VectorDimensionkPreserveLayout = 1 : i64, VectorDimensionkPreserveLayoutS = 2 : i64, VectorOrderingkPreserveLayout = 1 : i64, VectorOrderingkPreserveLayoutS = 2 : i64, kAxis = 0 : i64, kMacID = "ptconvlstm__conv_layer__conv1d__conv2d_Conv2d_bwd", kSourceContext = "software/arc/src/lib/templates/ConvGradIm2Col.cpp:1112:0", kUniqueId = 366 : i64, kUserCreated = true} : (tensor<480x256xbf16>) -> tensor<480x256xbf16>
          %81 = "tlir.BiasTransposeGrad"(%67#1) {kMacID = "ptconvlstm__conv_layer__conv1d__conv2d_Conv2d_bwd", kSourceContext = "software/arc/src/lib/templates/ConvGradIm2Col.cpp:1118:0", kStreaming = true, kUniqueId = 367 : i64, kUserCreated = true} : (tensor<256x1x1xbf16>) -> tensor<256x1x1xbf16>
          %82 = "tlir.Reshape"(%81) {kMacID = "ptconvlstm__conv_layer__conv1d__conv2d_Conv2d_bwd", kSourceContext = "software/arc/src/lib/templates/ConvGradIm2Col.cpp:1120:0", kUniqueId = 368 : i64, kUserCreated = true} : (tensor<256x1x1xbf16>) -> tensor<256x1xbf16>
          %83 = "tlir.LayoutCast"(%82) {DataAlignmentkOutputLayout = 1 : i64, DataAlignmentkOutputLayoutS = 2 : i64, DataAlignmentkRequiredLayout = 1 : i64, DataAlignmentkRequiredLayoutS = 2 : i64, VectorDimensionkOutputLayout = 1 : i64, VectorDimensionkOutputLayoutS = 2 : i64, VectorDimensionkRequiredLayout = 1 : i64, VectorDimensionkRequiredLayoutS = 2 : i64, VectorOrderingkOutputLayout = 1 : i64, VectorOrderingkOutputLayoutS = 2 : i64, VectorOrderingkRequiredLayout = 1 : i64, VectorOrderingkRequiredLayoutS = 2 : i64, kChecked = false, kForced = true, kMacID = "ptconvlstm__conv_layer__conv1d__conv2d_Conv2d_bwd", kSourceContext = "software/arc/src/lib/templates/ConvGradIm2Col.cpp:1121:0", kUniqueId = 369 : i64, kUserCreated = true} : (tensor<256x1xbf16>) -> tensor<256x1xbf16>
          %84 = "tlir.Load"(%13) {kChipID = 0 : i64, kIsReverse = false, kKeepDim = false, kLoadSlice = true, kSliceAxes = [0 : index], kSliceSize = 1 : i64, kSourceContext = "/usr/local/lib/python3.7/site-packages/torch/overrides.py:1202:0", kUniqueId = 269 : i64, kUserCreated = true} : (tensor<1x256x1xbf16>) -> tensor<256x1xbf16>
          %85:2 = "tlir.Buffer"(%84) {kChipID = 0 : i64, kDepth = 2 : i64, kHead0Depth = 2 : i64, kHead1Depth = 2 : i64, kSourceContext = "/usr/local/lib/python3.7/site-packages/torch/overrides.py:1202:0", kUniqueId = 254 : i64, kUserCreated = true} : (tensor<256x1xbf16>) -> (tensor<256x1xbf16>, tensor<256x1xbf16>)
          %86:2 = "tlir.Buffer"(%51) {kChipID = 0 : i64, kDepth = 2 : i64, kHead0Depth = 2 : i64, kHead1Depth = 2 : i64, kSourceContext = "/usr/local/lib/python3.7/site-packages/torch/overrides.py:1202:0", kUniqueId = 255 : i64, kUserCreated = true} : (tensor<4080x1xbf16>) -> (tensor<4080x1xbf16>, tensor<4080x1xbf16>)
          %87 = "tlir.Placeholder"() {kMacID = "ptconvlstm__dense_layer__linear_bwd_weight", kSourceContext = "/usr/local/lib/python3.7/site-packages/torch/overrides.py:1202:0", kUniqueId = 370 : i64, kUserCreated = true} : () -> none
          %88:3 = "tlir.BigLinearGrad"(%86#1, %85#1, %87) {kColPar = 3 : i64, kEnableBoxAccumTailPmu = true, kEnableBoxLayout = true, kEnableBoxOutput = true, kEnableBoxPerPartition = false, kEnableFusedGradientBias = false, kEnableLoopBuffer = false, kHasBias = true, kIsCriticalStage = false, kMacID = "ptconvlstm__dense_layer__linear_bwd_weight", kName = "ptconvlstm__dense_layer__linear_bwd_weight_grad_a", kNumPartitions = 16 : i64, kRowPar = 1 : i64, kSourceContext = "/usr/local/lib/python3.7/site-packages/torch/overrides.py:1202:0", kStageId = -1 : i64, kStageLatency = 3.928000e+03 : f64, kUniqueId = 371 : i64, kUserCreated = true} : (tensor<4080x1xbf16>, tensor<256x1xbf16>, none) -> (tensor<4080x256xbf16>, tensor<4080x1xbf16>, tensor<4080x1xbf16>)
          "tlir.mutate.Accumulate"(%23, %80) {kAccumVersion = 3 : i64, kChipID = 0 : i64, kForceParAccum = true, kMacID = "ptconvlstm__conv_layer__conv1d__conv2d_Conv2d_bwd", kName = "ptconvlstm__conv_layer__conv1d__conv2d_Conv2d_bwd_accum", kOpRWPattern0 = "kWriteOperand", kSourceContext = "ptconvlstm__conv_layer__conv1d__conv2d_Conv2d:0:0", kUniqueId = 257 : i64} : (tensor<480x256xbf16>, tensor<480x256xbf16>) -> ()
          "tlir.mutate.Accumulate"(%24, %83) {kAccumVersion = 3 : i64, kChipID = 0 : i64, kForceParAccum = true, kMacID = "ptconvlstm__conv_layer__conv1d__conv2d_Conv2d_bwd", kName = "ptconvlstm__conv_layer__conv1d__conv2d_Conv2d_bwd_accum_1", kOpRWPattern0 = "kWriteOperand", kSourceContext = "ptconvlstm__conv_layer__conv1d__conv2d_Conv2d:0:0", kUniqueId = 258 : i64} : (tensor<256x1xbf16>, tensor<256x1xbf16>) -> ()
          "tlir.mutate.Accumulate"(%25, %88#0) {kChipID = 0 : i64, kMacID = "ptconvlstm__dense_layer__linear_bwd_weight", kName = "ptconvlstm__dense_layer__linear_bwd_weight_accum", kOpRWPattern0 = "kWriteOperand", kSourceContext = "/usr/local/lib/python3.7/site-packages/torch/overrides.py:1202:0", kUniqueId = 259 : i64} : (tensor<4080x256xbf16>, tensor<4080x256xbf16>) -> ()
          "tlir.mutate.Accumulate"(%26, %88#1) {kChipID = 0 : i64, kMacID = "ptconvlstm__dense_layer__linear_bwd_weight", kName = "ptconvlstm__dense_layer__linear_bwd_weight_accum_1", kOpRWPattern0 = "kWriteOperand", kSourceContext = "/usr/local/lib/python3.7/site-packages/torch/overrides.py:1202:0", kUniqueId = 260 : i64} : (tensor<4080x1xbf16>, tensor<4080x1xbf16>) -> ()
          "tlir.terminator"() {kSourceContext = "logreg_ts.py:220:0", kUniqueId = 281 : i64} : () -> ()
        }) {kNumIterations = 1 : i64, kSourceContext = "logreg_ts.py:220:0", kUniqueId = 280 : i64, type = none} : () -> ()
        %27:2 = "tlir.Buffer"(%23) {kChipID = 0 : i64, kDepth = 2 : i64, kHead0Depth = 2 : i64, kHead1Depth = 2 : i64, kSourceContext = "ptconvlstm__conv_layer__conv1d__conv2d_Conv2d:0:0", kUniqueId = 131 : i64, kUserCreated = true} : (tensor<480x256xbf16>) -> (tensor<480x256xbf16>, tensor<480x256xbf16>)
        %28 = "tlir.Gather"(%27#1, %21) {DataAlignment0 = 1 : i64, DataAlignment0S = 4 : i64, DataAlignmentGatherInput = 1 : i64, DataAlignmentGatherInputS = 2 : i64, DataAlignmentGatherOutput = 1 : i64, DataAlignmentGatherOutputS = 2 : i64, DataPtrgather.list = [384, 384], DataPtrgather.listS = 2 : i64, VectorDimension0 = 1 : i64, VectorDimension0S = 4 : i64, VectorDimensionGatherInput = 1 : i64, VectorDimensionGatherInputS = 2 : i64, VectorDimensionGatherOutput = 1 : i64, VectorDimensionGatherOutputS = 2 : i64, VectorOrdering0 = 1 : i64, VectorOrdering0S = 4 : i64, VectorOrderingGatherInput = 1 : i64, VectorOrderingGatherInputS = 2 : i64, VectorOrderingGatherOutput = 1 : i64, VectorOrderingGatherOutputS = 2 : i64, distribution = 9 : i32, gather.allow_oob = false, gather.allow_overflow = false, gather.base_list_tile_counters = 0 : i64, gather.base_max = [1, 13, 256, 3], gather.base_mult = [0, 0, 64, 0], gather.base_stride = [1, 1, 1, 1], gather.crush_par = 1 : i64, gather.depth2col = false, gather.depth_base_at = 1 : i64, gather.depth_group = 1 : i64, gather.depth_offset_at = 2 : i64, gather.filter_area = 0 : i64, gather.fixed_length = 0 : i64, gather.group_packed = 13 : i64, gather.group_unpacked = 39 : i64, gather.input_vec_base = -1 : i64, gather.input_vec_bound = -1 : i64, gather.input_vec_inner = -1 : i64, gather.input_vec_outer = -1 : i64, gather.list_length = 39 : i64, gather.list_tiles = 1 : i64, gather.num_channels = 136 : i64, gather.offset_list_tile_counters = 0 : i64, gather.offset_max = [1, 13, 256, 3], gather.offset_mult = [0, 3, 0, 1], gather.offset_stride = [1, 1, 1, 1], gather.output_mode = 0 : i64, gather.output_shape = [408, 256], gather.pace_shape = [], gather.permute = false, gather.reread = 1 : i64, gather.seg_length = 3 : i64, gather.streaming = 1 : i64, gather.streaming_repeat = 0 : i64, gather.surface_output_vectors = 0 : i64, gather.surface_par = 1 : i64, gather.swarm_par = 1 : i64, gather.tile_shape = [], gather.total_bytes = 212992 : i64, gather.total_unpacked = 9984 : i64, gather.use_tile_counter = false, kChipID = 0 : i64, kDisableReread = true, kSourceContext = "ptconvlstm__conv_layer__conv1d__conv2d_Conv2d:0:0", kUniqueId = 133 : i64, kUserCreated = true} : (tensor<480x256xbf16>, tensor<96xi32>) -> tensor<408x256xbf16>
        "tlir.Store"(%17, %28) {kChipID = 0 : i64, kIsCheckPoint = false, kName = "ptconvlstm__conv_layer__conv1d__conv2d_Conv2d_bwd_tensor", kOpRWPattern0 = "kWriteOperand", kSliceAxes = [], kSourceContext = "ptconvlstm__conv_layer__conv1d__conv2d_Conv2d:0:0", kStoreSlice = false, kUniqueId = 134 : i64, kUserCreated = true} : (tensor<408x256xbf16>, tensor<408x256xbf16>) -> ()
        "tlir.Store"(%18, %24) {kChipID = 0 : i64, kIsCheckPoint = false, kName = "ptconvlstm__conv_layer__conv1d__conv2d_Conv2d_bwd_tensor1", kOpRWPattern0 = "kWriteOperand", kSliceAxes = [], kSourceContext = "ptconvlstm__conv_layer__conv1d__conv2d_Conv2d:0:0", kStoreSlice = false, kUniqueId = 135 : i64, kUserCreated = true} : (tensor<256x1xbf16>, tensor<256x1xbf16>) -> ()
        "tlir.Store"(%19, %25) {kChipID = 0 : i64, kIsCheckPoint = false, kName = "ptconvlstm__dense_layer__linear_bwd_weight_tensor", kOpRWPattern0 = "kWriteOperand", kSliceAxes = [], kSourceContext = "/usr/local/lib/python3.7/site-packages/torch/overrides.py:1202:0", kStoreSlice = false, kUniqueId = 138 : i64, kUserCreated = true} : (tensor<4080x256xbf16>, tensor<4080x256xbf16>) -> ()
        "tlir.Store"(%20, %26) {kChipID = 0 : i64, kIsCheckPoint = false, kName = "ptconvlstm__dense_layer__linear_bwd_weight_tensor1", kOpRWPattern0 = "kWriteOperand", kSliceAxes = [], kSourceContext = "/usr/local/lib/python3.7/site-packages/torch/overrides.py:1202:0", kStoreSlice = false, kUniqueId = 139 : i64, kUserCreated = true} : (tensor<4080x1xbf16>, tensor<4080x1xbf16>) -> ()
        "tlir.terminator"() {kSourceContext = "software/arc/src/lib/pass/transform/AIRToTLIRLoweringSections.cpp:89:0", kUniqueId = 279 : i64} : () -> ()
      }) {kPartitionId = 0 : i64, kSourceContext = "software/arc/src/lib/pass/transform/AIRToTLIRLoweringSections.cpp:89:0", kUniqueId = 278 : i64, type = none} : () -> ()
      "tlir.terminator"() {kSourceContext = "software/arc/src/lib/pass/transform/AIRToTLIRLoweringSections.cpp:89:0", kUniqueId = 140 : i64} : () -> ()
    }) {kGlobalId = 1 : i64, kPartitionId = 1 : i64, kSectionLatency = 7.8274148108903319E-5 : f64, kSectionName = "$BCKWD", kSectionUniqueName = "ptconvlstm__reshape_1_recompute__as_initial", kSourceContext = "software/arc/src/lib/pass/transform/AIRToTLIRLoweringSections.cpp:89:0", kUniqueId = 107 : i64, type = none} : () -> ()
    "tlir.Section"() ( {
      "tlir.Chip"() ( {
        %21 = "tlir.Load"(%2) {kChipID = 0 : i64, kSourceContext = "software/compiler/mac/src/pybind/py_air.cpp:1503:0", kUniqueId = 142 : i64, kUserCreated = true} : (tensor<256x1xbf16>) -> tensor<256x1xbf16>
        %22 = "tlir.Load"(%18) {kChipID = 0 : i64, kSourceContext = "ptconvlstm__conv_layer__conv1d__conv2d_Conv2d:0:0", kStageId = -2 : i64, kUniqueId = 143 : i64, kUserCreated = true} : (tensor<256x1xbf16>) -> tensor<256x1xbf16>
        %23 = "tlir.Load"(%9) {kChipID = 0 : i64, kSourceContext = "software/compiler/mac/src/pybind/py_air.cpp:1503:0", kUniqueId = 144 : i64, kUserCreated = true} : (tensor<256x1xbf16>) -> tensor<256x1xbf16>
        %24:2 = "tlir.SGD"(%21, %23, %22) {kChipID = 0 : i64, kDecayArgInName = "weight_decay", kDecayRate = 3.0000001424923539E-4 : f64, kLrArgInName = "lr", kLrRate = 0.001500000013038516 : f64, kMacID = "ptconvlstm__conv_layer__bias__ptconvlstm__conv_layer__conv1d__conv2d_Conv2d_bwd_opt", kMixP = false, kMomentumArgInName = "momentum", kMomentumRate = 0.000000e+00 : f64, kName = "ptconvlstm__conv_layer__bias__ptconvlstm__conv_layer__conv1d__conv2d_Conv2d_bwd_opt", kSourceContext = "ptconvlstm__conv_layer__bias:0:0", kStrndSeed = 43690 : i64, kStrndSeedArgInName = "strnd_seed", kUniqueId = 145 : i64, kUserCreated = true} : (tensor<256x1xbf16>, tensor<256x1xbf16>, tensor<256x1xbf16>) -> (tensor<256x1xbf16>, tensor<256x1xbf16>)
        "tlir.Store"(%2, %24#0) {kChipID = 0 : i64, kIsCheckPoint = false, kOpRWPattern0 = "kWriteOperand", kSliceAxes = [], kSourceContext = "ptconvlstm__conv_layer__bias:0:0", kStoreSlice = false, kUniqueId = 146 : i64, kUserCreated = true} : (tensor<256x1xbf16>, tensor<256x1xbf16>) -> ()
        "tlir.Store"(%9, %24#1) {kChipID = 0 : i64, kIsCheckPoint = false, kOpRWPattern0 = "kWriteOperand", kSliceAxes = [], kSourceContext = "ptconvlstm__conv_layer__bias:0:0", kStoreSlice = false, kUniqueId = 147 : i64, kUserCreated = true} : (tensor<256x1xbf16>, tensor<256x1xbf16>) -> ()
        %25 = "tlir.Load"(%3) {kChipID = 0 : i64, kSourceContext = "software/compiler/mac/src/pybind/py_air.cpp:1503:0", kUniqueId = 148 : i64, kUserCreated = true} : (tensor<408x256xbf16>) -> tensor<408x256xbf16>
        %26 = "tlir.Load"(%17) {kChipID = 0 : i64, kSourceContext = "ptconvlstm__conv_layer__conv1d__conv2d_Conv2d:0:0", kStageId = -2 : i64, kUniqueId = 149 : i64, kUserCreated = true} : (tensor<408x256xbf16>) -> tensor<408x256xbf16>
        %27 = "tlir.Load"(%10) {kChipID = 0 : i64, kSourceContext = "software/compiler/mac/src/pybind/py_air.cpp:1503:0", kUniqueId = 150 : i64, kUserCreated = true} : (tensor<408x256xbf16>) -> tensor<408x256xbf16>
        %28:2 = "tlir.SGD"(%25, %27, %26) {kChipID = 0 : i64, kDecayArgInName = "weight_decay", kDecayRate = 3.0000001424923539E-4 : f64, kLrArgInName = "lr", kLrRate = 0.001500000013038516 : f64, kMacID = "ptconvlstm__conv_layer__weight__ptconvlstm__conv_layer__conv1d__conv2d_Conv2d_bwd_opt", kMixP = false, kMomentumArgInName = "momentum", kMomentumRate = 0.000000e+00 : f64, kName = "ptconvlstm__conv_layer__weight__ptconvlstm__conv_layer__conv1d__conv2d_Conv2d_bwd_opt", kSourceContext = "ptconvlstm__conv_layer__weight:0:0", kStrndSeed = 43690 : i64, kStrndSeedArgInName = "strnd_seed", kUniqueId = 151 : i64, kUserCreated = true} : (tensor<408x256xbf16>, tensor<408x256xbf16>, tensor<408x256xbf16>) -> (tensor<408x256xbf16>, tensor<408x256xbf16>)
        "tlir.Store"(%3, %28#0) {kChipID = 0 : i64, kIsCheckPoint = false, kOpRWPattern0 = "kWriteOperand", kSliceAxes = [], kSourceContext = "ptconvlstm__conv_layer__weight:0:0", kStoreSlice = false, kUniqueId = 152 : i64, kUserCreated = true} : (tensor<408x256xbf16>, tensor<408x256xbf16>) -> ()
        "tlir.Store"(%10, %28#1) {kChipID = 0 : i64, kIsCheckPoint = false, kOpRWPattern0 = "kWriteOperand", kSliceAxes = [], kSourceContext = "ptconvlstm__conv_layer__weight:0:0", kStoreSlice = false, kUniqueId = 153 : i64, kUserCreated = true} : (tensor<408x256xbf16>, tensor<408x256xbf16>) -> ()
        %29 = "tlir.Load"(%4) {kChipID = 0 : i64, kSourceContext = "software/compiler/mac/src/pybind/py_air.cpp:1503:0", kUniqueId = 154 : i64, kUserCreated = true} : (tensor<4080x1xbf16>) -> tensor<4080x1xbf16>
        %30 = "tlir.Load"(%20) {kChipID = 0 : i64, kSourceContext = "/usr/local/lib/python3.7/site-packages/torch/overrides.py:1202:0", kStageId = -2 : i64, kUniqueId = 155 : i64, kUserCreated = true} : (tensor<4080x1xbf16>) -> tensor<4080x1xbf16>
        %31 = "tlir.Load"(%11) {kChipID = 0 : i64, kSourceContext = "software/compiler/mac/src/pybind/py_air.cpp:1503:0", kUniqueId = 156 : i64, kUserCreated = true} : (tensor<4080x1xbf16>) -> tensor<4080x1xbf16>
        %32:2 = "tlir.SGD"(%29, %31, %30) {kChipID = 0 : i64, kDecayArgInName = "weight_decay", kDecayRate = 3.0000001424923539E-4 : f64, kLrArgInName = "lr", kLrRate = 0.001500000013038516 : f64, kMacID = "ptconvlstm__dense_layer__bias__ptconvlstm__dense_layer__linear_bwd_weight_opt", kMixP = false, kMomentumArgInName = "momentum", kMomentumRate = 0.000000e+00 : f64, kName = "ptconvlstm__dense_layer__bias__ptconvlstm__dense_layer__linear_bwd_weight_opt", kSourceContext = "ptconvlstm__dense_layer__bias:0:0", kStrndSeed = 43690 : i64, kStrndSeedArgInName = "strnd_seed", kUniqueId = 157 : i64, kUserCreated = true} : (tensor<4080x1xbf16>, tensor<4080x1xbf16>, tensor<4080x1xbf16>) -> (tensor<4080x1xbf16>, tensor<4080x1xbf16>)
        "tlir.Store"(%4, %32#0) {kChipID = 0 : i64, kIsCheckPoint = false, kOpRWPattern0 = "kWriteOperand", kSliceAxes = [], kSourceContext = "ptconvlstm__dense_layer__bias:0:0", kStoreSlice = false, kUniqueId = 158 : i64, kUserCreated = true} : (tensor<4080x1xbf16>, tensor<4080x1xbf16>) -> ()
        "tlir.Store"(%11, %32#1) {kChipID = 0 : i64, kIsCheckPoint = false, kOpRWPattern0 = "kWriteOperand", kSliceAxes = [], kSourceContext = "ptconvlstm__dense_layer__bias:0:0", kStoreSlice = false, kUniqueId = 159 : i64, kUserCreated = true} : (tensor<4080x1xbf16>, tensor<4080x1xbf16>) -> ()
        %33 = "tlir.Load"(%5) {kChipID = 0 : i64, kSourceContext = "software/compiler/mac/src/pybind/py_air.cpp:1503:0", kUniqueId = 160 : i64, kUserCreated = true} : (tensor<4080x256xbf16>) -> tensor<4080x256xbf16>
        %34 = "tlir.Load"(%19) {kChipID = 0 : i64, kSourceContext = "/usr/local/lib/python3.7/site-packages/torch/overrides.py:1202:0", kStageId = -2 : i64, kUniqueId = 161 : i64, kUserCreated = true} : (tensor<4080x256xbf16>) -> tensor<4080x256xbf16>
        %35 = "tlir.Load"(%12) {kChipID = 0 : i64, kSourceContext = "software/compiler/mac/src/pybind/py_air.cpp:1503:0", kUniqueId = 162 : i64, kUserCreated = true} : (tensor<4080x256xbf16>) -> tensor<4080x256xbf16>
        %36:2 = "tlir.SGD"(%33, %35, %34) {kChipID = 0 : i64, kDecayArgInName = "weight_decay", kDecayRate = 3.0000001424923539E-4 : f64, kLrArgInName = "lr", kLrRate = 0.001500000013038516 : f64, kMacID = "ptconvlstm__dense_layer__weight__ptconvlstm__dense_layer__linear_bwd_weight_opt", kMixP = false, kMomentumArgInName = "momentum", kMomentumRate = 0.000000e+00 : f64, kName = "ptconvlstm__dense_layer__weight__ptconvlstm__dense_layer__linear_bwd_weight_opt", kSourceContext = "ptconvlstm__dense_layer__weight:0:0", kStrndSeed = 43690 : i64, kStrndSeedArgInName = "strnd_seed", kUniqueId = 163 : i64, kUserCreated = true} : (tensor<4080x256xbf16>, tensor<4080x256xbf16>, tensor<4080x256xbf16>) -> (tensor<4080x256xbf16>, tensor<4080x256xbf16>)
        "tlir.Store"(%5, %36#0) {kChipID = 0 : i64, kIsCheckPoint = false, kOpRWPattern0 = "kWriteOperand", kSliceAxes = [], kSourceContext = "ptconvlstm__dense_layer__weight:0:0", kStoreSlice = false, kUniqueId = 164 : i64, kUserCreated = true} : (tensor<4080x256xbf16>, tensor<4080x256xbf16>) -> ()
        "tlir.Store"(%12, %36#1) {kChipID = 0 : i64, kIsCheckPoint = false, kOpRWPattern0 = "kWriteOperand", kSliceAxes = [], kSourceContext = "ptconvlstm__dense_layer__weight:0:0", kStoreSlice = false, kUniqueId = 165 : i64, kUserCreated = true} : (tensor<4080x256xbf16>, tensor<4080x256xbf16>) -> ()
        "tlir.terminator"() {kSourceContext = "software/arc/src/lib/pass/transform/AIRToTLIRLoweringSections.cpp:89:0", kUniqueId = 283 : i64} : () -> ()
      }) {kPartitionId = 0 : i64, kSourceContext = "software/arc/src/lib/pass/transform/AIRToTLIRLoweringSections.cpp:89:0", kUniqueId = 282 : i64, type = none} : () -> ()
      "tlir.terminator"() {kSourceContext = "software/arc/src/lib/pass/transform/AIRToTLIRLoweringSections.cpp:89:0", kUniqueId = 166 : i64} : () -> ()
    }) {kGlobalId = 2 : i64, kPartitionId = 2 : i64, kSectionLatency = 1.2092486576875672E-4 : f64, kSectionName = "$OPT", kSectionUniqueName = "ptconvlstm__dense_layer__weight__ptconvlstm__dense_layer__linear_bwd_weight_opt_as_initial", kSourceContext = "software/arc/src/lib/pass/transform/AIRToTLIRLoweringSections.cpp:89:0", kUniqueId = 141 : i64, type = none} : () -> ()
    module_terminator {kSourceContext = "Unknown File:"}
  }
  module @schedule  {
    module_terminator {kSourceContext = "Unknown File:"}
  }
  module @rnn_function  {
    module_terminator {kSourceContext = "Unknown File:"}
  }
  module_terminator {kSourceContext = "Unknown File:"}
}

