module @program attributes {arc.AIRMappingDecisionIsSpatial = false, arc.kAIRAddnOpt = true, arc.kAIRBufferBeforeConcatAddn = false, arc.kAIRBufferNonRedundancy = false, arc.kAIRDDRBoundSections = [], arc.kAIRDPTilingOptimization = false, arc.kAIRDisableConcatStoreOpt = false, arc.kAIRDisableOptimizeRereadBuffer = false, arc.kAIRMappingDecisionGlobalNumBatches = 1 : i64, arc.kAIRMappingDecisionSectionDRAMTransferSize = [17272, 17272, 62720], arc.kAIRMappingDecisionSectionDRAMTransferTime = [1.6085803508758545E-4, 1.6085803508758545E-4, 5.8412551879882813E-4], arc.kAIRMappingDecisionSectionLatencies = [3.5682500310940668E-5, 3.5993667552247643E-5, 3.5584125726018101E-5], arc.kAIRMappingDecisionSectionNames = ["$FWD", "$BCKWD", "$OPT"], arc.kAIRMappingDecisionSectionPCUs = [3.000000e+00, 7.000000e+00, 1.000000e+00], arc.kAIRMappingDecisionSectionPMUs = [[3, 4, 4, 2, 2, 2, 1], [3, 4, 8, 1, 1, 2, 0], [0, 4, 0, 6, 0, 0, 0]], arc.kAIRMappingDecisionSectionResourceScales = [1.1000000238418579, 1.2000000476837158, 0.89999997615814208], arc.kAIRMappingDecisionSectionTypes = ["Forward", "Backward", "Optimizer"], arc.kAIRMappingDecisionSectionUniqueNames = ["logreg__lin_layer__linear_as_initial", "logreg__criterion__crossentropyloss_bwd_loss_as_initial", "logreg__lin_layer__weight__logreg__lin_layer__linear_bwd_weight_opt_as_initial"], arc.kAIRMetaPipeWithOneIterationRemoval = false, arc.kAIRTransposeMatMulTransformation = false, arc.kAddStreamingBuffers = false, arc.kAppName = "logreg_torch_samba", arc.kArchMajor = 1 : i64, arc.kArchMinor = 0 : i64, arc.kConcisePrinting = false, arc.kDataParallelFactor = 1 : i64, arc.kDataParallelInHostMemory = false, arc.kDataParallelReduceOnlyMode = false, arc.kDebugMode = false, arc.kDisableFuseToTwoHeadBuffers = false, arc.kEliminateBufferTimeout = 100 : i64, arc.kEnableAutoGrouping = true, arc.kEnableBufferBarriers = true, arc.kEnableFuseToLinearTraining = false, arc.kEnablePcuHeartBeat = false, arc.kEnableWrDoneInstrument = false, arc.kExperimentalBufferDepth = false, arc.kExperimentalOptimization = true, arc.kExperimentalRAILCrossEntropy = false, arc.kExperimentalRAILCrossEntropyGrad = false, arc.kGenerateReference = false, arc.kGenerateTensorboard = false, arc.kHasGraphData = false, arc.kLayoutTimeout = 1000 : i64, arc.kLegalizeDataflow = true, arc.kLegalizeSamples = false, arc.kLowered = true, arc.kMacAutogen = true, arc.kMaximumGroupLatencyFactor = 5.000000e-02 : f32, arc.kMoveViews = false, arc.kOutputFolder = "/qfs/people/jain432/pacer_saudade/code/sample_scripts/models", arc.kOverrideMaxFanout = 0 : i64, arc.kPefMetadataacc_test = "False", arc.kPefMetadataarc_debug_mode = "False", arc.kPefMetadatabatch_size = "1", arc.kPefMetadatacompiled_stats_json = "None", arc.kPefMetadatacompiler_configs_file = "", arc.kPefMetadatadata_folder = "mnist_data", arc.kPefMetadatadata_parallel = "False", arc.kPefMetadatadata_parallel_mode = "normal", arc.kPefMetadatadebug = "False", arc.kPefMetadatadev_mode = "False", arc.kPefMetadatadisable_mac_tiling = "False", arc.kPefMetadatadisable_retry_lower_visible_resources = "False", arc.kPefMetadatadistlearn_config = "", arc.kPefMetadatadump_accuracy_debug_info = "False", arc.kPefMetadataenable_conv2d_conversion = "False", arc.kPefMetadataenable_conv_tiling = "False", arc.kPefMetadataenable_hd_retry_lower_visible_resources = "False", arc.kPefMetadataforce_node_proximity = "False", arc.kPefMetadatafp32_params = "False", arc.kPefMetadatafuse_fwd_bwd = "False", arc.kPefMetadatagen_tensorboard = "False", arc.kPefMetadatagrad_accumulation_steps = "1", arc.kPefMetadatahost_fifo = "False", arc.kPefMetadatahypersection_arc = "False", arc.kPefMetadatainclude_read_stall_cycles = "False", arc.kPefMetadatainference = "False", arc.kPefMetadatajson = "None", arc.kPefMetadatalatency_budget_bwd = "None", arc.kPefMetadatalatency_budget_fwd = "None", arc.kPefMetadatalisten_for_input = "False", arc.kPefMetadatalocal_rank = "-1", arc.kPefMetadatalog_dir = "None", arc.kPefMetadatalog_level = "warning", arc.kPefMetadatalr = "0.0015", arc.kPefMetadatamac_human_decision = "None", arc.kPefMetadatamac_only = "False", arc.kPefMetadatamac_v1 = "False", arc.kPefMetadatamapping = "section", arc.kPefMetadatamax_expected_mac_latency = "-1.0", arc.kPefMetadatamax_mac_loop_attempt = "35", arc.kPefMetadatametapipe_disable = "False", arc.kPefMetadatamicrobatch_size = "None", arc.kPefMetadatamin_duration = "0.0", arc.kPefMetadatamlir_file_name = "None", arc.kPefMetadatamock_inference = "False", arc.kPefMetadatamodel = "LogReg(\0A  (lin_layer): Linear(in_features=784, out_features=10, bias=False)\0A  (criterion): CrossEntropyLoss()\0A)", arc.kPefMetadatamodel_parallel = "False", arc.kPefMetadatamomentum = "0.0", arc.kPefMetadatan_chips = "1", arc.kPefMetadatandtest = "False", arc.kPefMetadatandtest_mp = "False", arc.kPefMetadatanum_classes = "10", arc.kPefMetadatanum_epochs = "1", arc.kPefMetadatanum_features = "784", arc.kPefMetadatanum_iterations = "100", arc.kPefMetadatanum_sections = "None", arc.kPefMetadatanum_spatial_batches = "1", arc.kPefMetadatanum_tiles = "4", arc.kPefMetadatapef = "None", arc.kPefMetadataplot = "None", arc.kPefMetadatarecompute_ratio = "-1.0", arc.kPefMetadatareduce_on_rdu = "False", arc.kPefMetadataresources_scaling_factors = "['-1.0', '-1.0', '-1.0', '-1.0']", arc.kPefMetadatarun_analysis_pass = "False", arc.kPefMetadatarun_graph_only = "False", arc.kPefMetadatasamba_plot = "False", arc.kPefMetadatasamba_version = "1.11.2", arc.kPefMetadatasection_cut_beam_search = "['2', '2']", arc.kPefMetadatasection_cut_sort_order = "3", arc.kPefMetadatasingle_opt_sec = "False", arc.kPefMetadataskip_instrumentation_on_read0 = "False", arc.kPefMetadataskip_instrumentation_on_read1 = "False", arc.kPefMetadatastage_instrumentation = "none", "arc.kPefMetadatastop_mac_c++" = "False", arc.kPefMetadatatensor_parallel = "none", arc.kPefMetadatatile_orientation = "auto", arc.kPefMetadatavalidate_mac_resource_prediction = "False", arc.kPefMetadataverbose = "0", arc.kPefMetadatavisualize = "False", arc.kPefMetadataweight_decay = "0.0003", arc.kPefMetadataweight_norm = "False", arc.kPefMetadataworld_size = "1", arc.kPefMetadatayaml_config = "None", arc.kPefName = "logreg", arc.kPlasmaAStarConnect = true, arc.kPlasmaIncludeReadStallCycles = false, arc.kPlasmaSkipInstrumentationOnRead0 = false, arc.kPlasmaSkipInstrumentationOnRead1 = false, arc.kPlasmaStageInstrumentation = "none", arc.kPrintSrcs = [], arc.kResourceAwareBuffers = false, arc.kSkipBufferBandwidthWeight = 1 : i64, arc.kSkipBufferMaxDepth = 4096 : i64, arc.kSkipBufferMaxFanin = 8 : i64, arc.kSkipBufferPmuWeight = 1 : i64, arc.kSplitSkipBuffer = true, arc.kTileSize = 5 : i64, arc.kUniqueIdCounter = 93 : i64, arc.kVerbose = false, mac.kMacConvTiling = false, mac.kMacDisableAutoSpatialSplit = true, mac.kMacDisableRetryLowerScalingFactor = false, mac.kMacEnableHDRetryLowerVisibleResources = false, mac.kMacEnableHyperSection = 0 : i64, mac.kMacExpectedMaxLatency = -1.000000e+00 : f64, mac.kMacForceNodeProximity = false, mac.kMacFuseFwdBwd = false, mac.kMacInference = false, mac.kMacIsIterativeMapping = false, mac.kMacModelParallel = false, mac.kMacNumChips = 1 : i64, mac.kMacNumTiles = 4 : i64, mac.kMacOnlyCompileMac = false, mac.kMacPlot = false, mac.kMacResourceSetupTraceScaleBwd = 1.200000e+00 : f64, mac.kMacResourceSetupTraceScaleFwd = 1.100000e+00 : f64, mac.kMacResourceSetupTraceScaleGradnorm = 9.000000e-01 : f64, mac.kMacResourceSetupTraceScaleOpt = 9.000000e-01 : f64, mac.kMacSectionCutBeamSearch = [2, 2], mac.kMacSectionCutSortOrder = 3 : i64, mac.kMacSingleOptSec = false, mac.kMacUseHostFIFO = false}  {
  module @templates  {
    module_terminator {kSourceContext = "Unknown File:"}
  }
  module @sections  {
    %0 = "tlir.Region"() {DataAlignment0 = 1 : i64, DataAlignment0S = 2 : i64, VectorDimension0 = 1 : i64, VectorDimension0S = 2 : i64, VectorOrdering0 = 1 : i64, VectorOrdering0S = 2 : i64, distribution = 7 : i32, distribution_gain = 1.000000e+00 : f64, kFromDeviceTransform = "", kGroup = 2 : i64, kHasShape = true, kIsDynamicLoadTable = false, kIsEmbeddingTable = false, kIsHostFifoInput = false, kIsLoaded = true, kIsMask = false, kIsOneShotTransferred = true, kIsPlaceholder = false, kIsRngSeed = false, kIsScatterNdTable = false, kIsScatterTable = false, kIsSliceLoaded = false, kIsSliceStored = false, kIsStored = true, kIsUserFacing = true, kIsWeight = true, kMemoryType = 0 : i64, kName = "logreg__lin_layer__weight", kSourceContext = "software/compiler/mac/src/pybind/py_air.cpp:1503:0", kToDeviceTransform = "", kUniqueId = 15 : i64, kUserCreated = true, kZeroFillDram = false} : () -> tensor<10x784xbf16>
    %1 = "tlir.Region"() {DataAlignment0 = 1 : i64, DataAlignment0S = 2 : i64, VectorDimension0 = 1 : i64, VectorDimension0S = 2 : i64, VectorOrdering0 = 1 : i64, VectorOrdering0S = 2 : i64, distribution = 6 : i32, distribution_max = 1.000000e-01 : f64, distribution_min = -1.000000e-01 : f64, kFromDeviceTransform = ".transpose(-1,-2)", kGroup = 0 : i64, kHasShape = true, kIsDynamicLoadTable = false, kIsEmbeddingTable = false, kIsHostFifoInput = false, kIsInputOnly = true, kIsLoaded = true, kIsMask = false, kIsOneShotTransferred = true, kIsPlaceholder = false, kIsRngSeed = false, kIsScatterNdTable = false, kIsScatterTable = false, kIsSliceLoaded = false, kIsSliceStored = false, kIsStored = false, kIsUserFacing = true, kMemoryType = 0 : i64, kName = "image", kSourceContext = "UnknownFileName:0:0", kToDeviceTransform = ".transpose(-1,-2)", kUniqueId = 16 : i64, kUserCreated = true, kZeroFillDram = false} : () -> tensor<784x1xbf16>
    %2 = "tlir.Region"() {DataAlignment0 = 1 : i64, DataAlignment0S = 2 : i64, VectorDimension0 = 0 : i64, VectorDimension0S = 2 : i64, VectorOrdering0 = 1 : i64, VectorOrdering0S = 2 : i64, distribution = 6 : i32, distribution_max = 1.000000e+00 : f64, distribution_min = 1.000000e+00 : f64, kFromDeviceTransform = ".mean()", kGroup = 3 : i64, kHasShape = true, kIsDynamicLoadTable = false, kIsEmbeddingTable = false, kIsHostFifoInput = false, kIsInputOnly = true, kIsLoaded = true, kIsMask = false, kIsOneShotTransferred = true, kIsPlaceholder = false, kIsRngSeed = false, kIsScatterNdTable = false, kIsScatterTable = false, kIsSliceLoaded = false, kIsSliceStored = false, kIsStored = false, kIsUserFacing = true, kMemoryType = 0 : i64, kName = "logreg__criterion__crossentropyloss__outputs__0__grad", kSourceContext = "UnknownFileName:0:0", kToDeviceTransform = "", kUniqueId = 17 : i64, kUserCreated = true, kZeroFillDram = false} : () -> tensor<1xbf16>
    %3 = "tlir.Region"() {DataAlignment0 = 1 : i64, DataAlignment0S = 2 : i64, VectorDimension0 = 0 : i64, VectorDimension0S = 2 : i64, VectorOrdering0 = 1 : i64, VectorOrdering0S = 2 : i64, distribution = 6 : i32, distribution_max = 1.000000e-01 : f64, distribution_min = -1.000000e-01 : f64, kFromDeviceTransform = "", kGroup = 4 : i64, kHasShape = true, kIsDynamicLoadTable = false, kIsEmbeddingTable = false, kIsHostFifoInput = false, kIsInputOnly = true, kIsLoaded = true, kIsMask = false, kIsOneShotTransferred = true, kIsPlaceholder = false, kIsRngSeed = false, kIsScatterNdTable = false, kIsScatterTable = false, kIsSliceLoaded = false, kIsSliceStored = false, kIsStored = false, kIsUserFacing = true, kMemoryType = 0 : i64, kName = "label", kSourceContext = "UnknownFileName:0:0", kToDeviceTransform = ".short()", kUniqueId = 18 : i64, kUserCreated = true, kZeroFillDram = false} : () -> tensor<1xi16>
    %4 = "tlir.Region"() {DataAlignment0 = 1 : i64, DataAlignment0S = 2 : i64, VectorDimension0 = 1 : i64, VectorDimension0S = 2 : i64, VectorOrdering0 = 1 : i64, VectorOrdering0S = 2 : i64, distribution = 7 : i32, distribution_gain = 1.000000e+00 : f64, kFromDeviceTransform = "", kGroup = 5 : i64, kHasShape = true, kIsDynamicLoadTable = false, kIsEmbeddingTable = false, kIsHostFifoInput = false, kIsLoaded = true, kIsMask = false, kIsOneShotTransferred = true, kIsPlaceholder = false, kIsRngSeed = false, kIsScatterNdTable = false, kIsScatterTable = false, kIsSliceLoaded = false, kIsSliceStored = false, kIsStored = true, kIsUserFacing = true, kIsWeight = true, kMemoryType = 0 : i64, kName = "logreg__lin_layer__weight__sgd0__momentum", kSourceContext = "software/compiler/mac/src/pybind/py_air.cpp:1503:0", kToDeviceTransform = "", kUniqueId = 19 : i64, kUserCreated = true, kZeroFillDram = false} : () -> tensor<10x784xbf16>
    %5 = "tlir.Region"() {DataAlignment0 = 1 : i64, DataAlignment0S = 2 : i64, VectorDimension0 = 0 : i64, VectorDimension0S = 2 : i64, VectorOrdering0 = 1 : i64, VectorOrdering0S = 2 : i64, kChipID = 0 : i64, kFromDeviceTransform = "", kGroup = -6 : i64, kHasShape = true, kIsDataParallelAccumBuf = false, kIsDynamicLoadTable = false, kIsEmbeddingTable = false, kIsHostFifoOutput = false, kIsLoaded = true, kIsOneShotTransferred = true, kIsPlaceholder = false, kIsScatterNdTable = false, kIsScatterTable = false, kIsSliceLoaded = false, kIsSliceStored = false, kIsStored = true, kIsUserFacing = true, kMemoryType = 2 : i64, kName = "logreg__lin_layer__linear__outputs__0", kSourceContext = "software/compiler/mac/src/pybind/py_air.cpp:1677:0", kToDeviceTransform = "", kUniqueId = 20 : i64, kUserCreated = true, kZeroFillDram = false} : () -> tensor<1x10xbf16>
    %6 = "tlir.Region"() {DataAlignment0 = 1 : i64, DataAlignment0S = 2 : i64, VectorDimension0 = 0 : i64, VectorDimension0S = 2 : i64, VectorOrdering0 = 1 : i64, VectorOrdering0S = 2 : i64, kChipID = 0 : i64, kFromDeviceTransform = ".mean()", kGroup = 1 : i64, kHasShape = true, kIsDataParallelAccumBuf = false, kIsDynamicLoadTable = false, kIsEmbeddingTable = false, kIsHostFifoOutput = false, kIsLoaded = false, kIsOneShotTransferred = true, kIsPlaceholder = false, kIsScatterNdTable = false, kIsScatterTable = false, kIsSliceLoaded = false, kIsSliceStored = false, kIsStored = true, kIsUserFacing = true, kMemoryType = 2 : i64, kName = "logreg__criterion__crossentropyloss__outputs__0", kSourceContext = "software/compiler/mac/src/pybind/py_air.cpp:1677:0", kToDeviceTransform = "", kUniqueId = 21 : i64, kUserCreated = true, kZeroFillDram = false} : () -> tensor<1xbf16>
    %7 = "tlir.Region"() {DataAlignment0 = 1 : i64, DataAlignment0S = 2 : i64, VectorDimension0 = 1 : i64, VectorDimension0S = 2 : i64, VectorOrdering0 = 1 : i64, VectorOrdering0S = 2 : i64, kChipID = 0 : i64, kFromDeviceTransform = "", kGroup = 6 : i64, kHasShape = true, kIsDataParallelAccumBuf = false, kIsDynamicLoadTable = false, kIsEmbeddingTable = false, kIsHostFifoOutput = false, kIsLoaded = true, kIsOneShotTransferred = true, kIsPlaceholder = false, kIsScatterNdTable = false, kIsScatterTable = false, kIsSliceLoaded = false, kIsSliceStored = false, kIsStored = true, kIsUserFacing = true, kMemoryType = 0 : i64, kName = "logreg__lin_layer__weight__grad", kSourceContext = "software/compiler/mac/src/pybind/py_air.cpp:1677:0", kToDeviceTransform = "", kUniqueId = 22 : i64, kUserCreated = true, kZeroFillDram = false} : () -> tensor<10x784xbf16>
    "tlir.Section"() ( {
      "tlir.Chip"() ( {
        %8 = "tlir.Load"(%0) {DataAlignment0 = 1 : i64, DataAlignment0S = 2 : i64, DataAlignmentkAddedAlignment = -2 : i64, DataAlignmentkAddedAlignmentS = 2 : i64, VectorDimension0 = 1 : i64, VectorDimension0S = 2 : i64, VectorOrdering0 = 1 : i64, VectorOrdering0S = 2 : i64, kChipID = 0 : i64, kGroup = 2 : i64, kIsGrouped = false, kName = "logreg__lin_layer__weight_0_0_24", kRequiresWBuf = true, kSourceContext = "software/compiler/mac/src/pybind/py_air.cpp:1503:0", kStageId = 0 : i64, kTemplateName = "load_0_0_24", kUniqueId = 24 : i64, kUseVectorTranspose = false, kUserCreated = true} : (tensor<10x784xbf16>) -> tensor<10x784xbf16>
        %9 = "tlir.Load"(%1) {DataAlignment0 = 1 : i64, DataAlignment0S = 2 : i64, DataAlignmentkAddedAlignment = -2 : i64, DataAlignmentkAddedAlignmentS = 2 : i64, VectorDimension0 = 1 : i64, VectorDimension0S = 2 : i64, VectorOrdering0 = 1 : i64, VectorOrdering0S = 2 : i64, kChipID = 0 : i64, kGroup = -9 : i64, kIsGrouped = false, kName = "image_0_0_25", kRequiresWBuf = false, kSourceContext = "UnknownFileName:0:0", kStageId = 0 : i64, kTemplateName = "load_0_0_25", kUniqueId = 25 : i64, kUseVectorTranspose = false, kUserCreated = true} : (tensor<784x1xbf16>) -> tensor<784x1xbf16>
        %10:2 = "tlir.Buffer"(%9) {DataAlignment0 = 1 : i64, DataAlignment0S = 2 : i64, DataAlignment1 = 1 : i64, DataAlignment1S = 2 : i64, VectorDimension0 = 1 : i64, VectorDimension0S = 2 : i64, VectorDimension1 = 1 : i64, VectorDimension1S = 2 : i64, VectorOrdering0 = 1 : i64, VectorOrdering0S = 2 : i64, VectorOrdering1 = 1 : i64, VectorOrdering1S = 2 : i64, kDepth = 1 : i64, kHead0CtrlFlowEnable = false, kHead0Depth = 1 : i64, kHead1CtrlFlowEnable = false, kHead1Depth = 1 : i64, kHead1StageReversed = true, kName = "nbuf1a_0_0_71", kNbufHead = 1 : i64, kNumHead0RdEn = 0 : i64, kNumHead1RdEn = 0 : i64, kSourceContext = "UnknownFileName:0:0", kStageId = 0 : i64, kUniqueId = 71 : i64} : (tensor<784x1xbf16>) -> (tensor<784x1xbf16>, tensor<784x1xbf16>)
        %11 = "tlir.Linear"(%8, %10#1) {DataAlignment0 = 1 : i64, DataAlignment0S = 2 : i64, VectorDimension0 = 1 : i64, VectorDimension0S = 2 : i64, VectorOrdering0 = 1 : i64, VectorOrdering0S = 2 : i64, kBoxLayout = false, kBoxLayoutAnchor = [], kBoxPerPartition = true, kBoxPerWbufSplit = false, kExclusiveRoutes = false, kExclusiveVCA = false, kInputAIsWeight = true, kIsCriticalStage = false, kIsFromConv1x1 = false, kLatency = 8.620000e+02 : f64, kMacID = "logreg__lin_layer__linear", kName = "logreg__lin_layer__linear", kNumPartitions = 1 : i64, kNumRowComputeUnits = 1 : i64, kReadAHead = 0 : i32, kReadBHead = 1 : i32, kSourceContext = "/usr/local/lib/python3.7/site-packages/torch/overrides.py:1202:0", kStageId = 0 : i64, kStageLatency = 8.620000e+02 : f64, kStagingBias = false, kTemplateName = "gemm_0_0_57", kUniqueId = 57 : i64, kUseBigGemm = false, kUserCreated = true, kWbufBlockInterleavedWrite = false, kWbufSplit = false} : (tensor<10x784xbf16>, tensor<784x1xbf16>) -> tensor<10x1xbf16>
        %12:2 = "tlir.Buffer"(%11) {DataAlignment0 = 1 : i64, DataAlignment0S = 2 : i64, DataAlignment1 = 1 : i64, DataAlignment1S = 2 : i64, VectorDimension0 = 1 : i64, VectorDimension0S = 2 : i64, VectorDimension1 = 1 : i64, VectorDimension1S = 2 : i64, VectorOrdering0 = 1 : i64, VectorOrdering0S = 2 : i64, VectorOrdering1 = 1 : i64, VectorOrdering1S = 2 : i64, kBufferType = 1 : i64, kDepth = 1 : i64, kHead0CtrlFlowEnable = false, kHead0Depth = 1 : i64, kHead1CtrlFlowEnable = false, kHead1Depth = 1 : i64, kName = "gbuf1a_0_0_70", kNbufHead = 1 : i64, kNumHead0RdEn = 0 : i64, kNumHead1RdEn = 0 : i64, kSourceContext = "/usr/local/lib/python3.7/site-packages/torch/overrides.py:1202:0", kStageId = 0 : i64, kUniqueId = 70 : i64} : (tensor<10x1xbf16>) -> (tensor<10x1xbf16>, tensor<10x1xbf16>)
        %13 = "tlir.Transpose"(%12#1) {DataAlignment0 = 1 : i64, DataAlignment0S = 2 : i64, VectorDimension0 = 1 : i64, VectorDimension0S = 2 : i64, VectorOrdering0 = 1 : i64, VectorOrdering0S = 2 : i64, kName = "transpose_0_0_88", kSourceContext = "/usr/local/lib/python3.7/site-packages/torch/overrides.py:1202:0", kStageId = 0 : i64, kTemplateName = "transpose_0_0_88", kTransposeType = 2 : i64, kUniqueId = 88 : i64} : (tensor<10x1xbf16>) -> tensor<1x10xbf16>
        %14:2 = "tlir.Buffer"(%13) {DataAlignment0 = 1 : i64, DataAlignment0S = 2 : i64, DataAlignment1 = 1 : i64, DataAlignment1S = 2 : i64, VectorDimension0 = 0 : i64, VectorDimension0S = 2 : i64, VectorDimension1 = 0 : i64, VectorDimension1S = 2 : i64, VectorOrdering0 = 0 : i64, VectorOrdering0S = 2 : i64, VectorOrdering1 = 0 : i64, VectorOrdering1S = 2 : i64, kBufferType = 1 : i64, kDepth = 1 : i64, kHead0CtrlFlowEnable = false, kHead0Depth = 1 : i64, kHead1CtrlFlowEnable = false, kHead1Depth = 1 : i64, kName = "gbuf1a_0_0_72", kNbufHead = 1 : i64, kNumHead0RdEn = 0 : i64, kNumHead1RdEn = 0 : i64, kSourceContext = "/usr/local/lib/python3.7/site-packages/torch/overrides.py:1202:0", kStageId = 0 : i64, kTranspose = 1 : i64, kUniqueId = 72 : i64} : (tensor<1x10xbf16>) -> (tensor<1x10xbf16>, tensor<1x10xbf16>)
        %15 = "tlir.OutputBuffer"(%14#1) {DataAlignment0 = 1 : i64, DataAlignment0S = 2 : i64, VectorDimension0 = 0 : i64, VectorDimension0S = 2 : i64, VectorOrdering0 = 0 : i64, VectorOrdering0S = 2 : i64, kDepth = 1 : i64, kName = "output_buf_0_0_91", kSourceContext = "/usr/local/lib/python3.7/site-packages/torch/overrides.py:1202:0", kStageId = 0 : i64, kTemplateName = "output_buf_0_0_91", kUniqueId = 91 : i64} : (tensor<1x10xbf16>) -> tensor<1x10xbf16>
        "tlir.Store"(%5, %15) {kChipID = 0 : i64, kGroup = -10 : i64, kIsCheckPoint = false, kName = "logreg__lin_layer__linear_t_output0_tensor", kOpRWPattern0 = "kWriteOperand", kRemovesAlignment = false, kRequiresWBuf = false, kSliceAxes = [], kSourceContext = "/usr/local/lib/python3.7/site-packages/torch/overrides.py:1202:0", kStageId = 0 : i64, kStoreSlice = false, kTemplateName = "store_0_0_28", kUniqueId = 28 : i64, kUseVectorTranspose = true, kUserCreated = true} : (tensor<1x10xbf16>, tensor<1x10xbf16>) -> ()
        %16 = "tlir.Load"(%3) {DataAlignment0 = 1 : i64, DataAlignment0S = 2 : i64, DataAlignmentkAddedAlignment = -2 : i64, DataAlignmentkAddedAlignmentS = 2 : i64, VectorDimension0 = 0 : i64, VectorDimension0S = 2 : i64, VectorOrdering0 = 1 : i64, VectorOrdering0S = 2 : i64, kChipID = 0 : i64, kGroup = 4 : i64, kIsGrouped = false, kName = "label_0_0_29", kRequiresWBuf = false, kSourceContext = "UnknownFileName:0:0", kStageId = 0 : i64, kTemplateName = "load_0_0_29", kUniqueId = 29 : i64, kUseVectorTranspose = false, kUserCreated = true} : (tensor<1xi16>) -> tensor<1xi16>
        %17 = "tlir.PermuteView"(%13) {DataAlignment0 = 1 : i64, DataAlignment0S = 2 : i64, VectorDimension0 = 0 : i64, VectorDimension0S = 2 : i64, VectorOrdering0 = 0 : i64, VectorOrdering0S = 2 : i64, kIsCriticalStage = false, kLatency = -1.000000e+00 : f64, kMacID = "", kName = "permute_view_0_0_67", kPermutation = [1, 0], kSourceContext = "/usr/local/lib/python3.7/site-packages/torch/overrides.py:1202:0", kStageId = 0 : i64, kStageLatency = -1.000000e+00 : f64, kTemplateName = "permute_view_0_0_67", kUniqueId = 67 : i64, kUserCreated = true} : (tensor<1x10xbf16>) -> tensor<10x1xbf16>
        %18:2 = "tlir.Buffer"(%16) {DataAlignment0 = 1 : i64, DataAlignment0S = 2 : i64, DataAlignment1 = 1 : i64, DataAlignment1S = 2 : i64, VectorDimension0 = 0 : i64, VectorDimension0S = 2 : i64, VectorDimension1 = 0 : i64, VectorDimension1S = 2 : i64, VectorOrdering0 = 1 : i64, VectorOrdering0S = 2 : i64, VectorOrdering1 = 1 : i64, VectorOrdering1S = 2 : i64, kBufferType = 7 : i64, kDepth = 1 : i64, kHead0CtrlFlowEnable = false, kHead0Depth = 1 : i64, kHead1CtrlFlowEnable = false, kHead1Depth = 1 : i64, kName = "tbuf1a_0_0_73", kNbufHead = 1 : i64, kNumHead0RdEn = 0 : i64, kNumHead1RdEn = 0 : i64, kSourceContext = "UnknownFileName:0:0", kStageId = 0 : i64, kUniqueId = 73 : i64} : (tensor<1xi16>) -> (tensor<1xi16>, tensor<1xi16>)
        %19:2 = "tlir.Buffer"(%17) {DataAlignment0 = 1 : i64, DataAlignment0S = 2 : i64, DataAlignment1 = 1 : i64, DataAlignment1S = 2 : i64, VectorDimension0 = 0 : i64, VectorDimension0S = 2 : i64, VectorDimension1 = 0 : i64, VectorDimension1S = 2 : i64, VectorOrdering0 = 0 : i64, VectorOrdering0S = 2 : i64, VectorOrdering1 = 0 : i64, VectorOrdering1S = 2 : i64, kBufferType = 7 : i64, kDepth = 1 : i64, kHead0CtrlFlowEnable = false, kHead0Depth = 1 : i64, kHead1CtrlFlowEnable = false, kHead1Depth = 1 : i64, kName = "tbuf1a_0_0_74", kNbufHead = 1 : i64, kNumHead0RdEn = 0 : i64, kNumHead1RdEn = 0 : i64, kSourceContext = "/usr/local/lib/python3.7/site-packages/torch/overrides.py:1202:0", kStageId = 0 : i64, kUniqueId = 74 : i64} : (tensor<10x1xbf16>) -> (tensor<10x1xbf16>, tensor<10x1xbf16>)
        %20 = "tlir.CrossEntropy"(%19#1, %18#1) {DataAlignment0 = 1 : i64, DataAlignment0S = 2 : i64, VectorDimension0 = 0 : i64, VectorDimension0S = 2 : i64, VectorOrdering0 = 1 : i64, VectorOrdering0S = 2 : i64, kEnableBoxLayout = true, kIgnoreClass = -1 : i64, kIsCriticalStage = false, kIsRAILCrossEntropy = true, kLatency = 4.820000e+02 : f64, kMacID = "logreg__criterion__crossentropyloss", kName = "logreg__criterion__crossentropyloss", kNoTBufTmp = false, kParFactor = 1 : i64, kReductionMode = 1 : i64, kSourceContext = "/usr/local/lib/python3.7/site-packages/torch/overrides.py:1202:0", kStageId = 0 : i64, kStageLatency = 4.820000e+02 : f64, kTemplateName = "rail_cross_entropy_0_0_60", kUniqueId = 60 : i64, kUseExtraPCU = false, kUserCreated = true, kYFilterOutput = false, kYFilterTCompute = true} : (tensor<10x1xbf16>, tensor<1xi16>) -> tensor<1xbf16>
        %21:2 = "tlir.Buffer"(%20) {DataAlignment0 = 1 : i64, DataAlignment0S = 2 : i64, DataAlignment1 = 1 : i64, DataAlignment1S = 2 : i64, VectorDimension0 = 0 : i64, VectorDimension0S = 2 : i64, VectorDimension1 = 0 : i64, VectorDimension1S = 2 : i64, VectorOrdering0 = 1 : i64, VectorOrdering0S = 2 : i64, VectorOrdering1 = 1 : i64, VectorOrdering1S = 2 : i64, kBufferType = 7 : i64, kDepth = 1 : i64, kHead0CtrlFlowEnable = false, kHead0Depth = 1 : i64, kHead1CtrlFlowEnable = false, kHead1Depth = 1 : i64, kName = "tbuf1a_0_0_75", kNbufHead = 1 : i64, kNumHead0RdEn = 0 : i64, kNumHead1RdEn = 0 : i64, kSourceContext = "/usr/local/lib/python3.7/site-packages/torch/overrides.py:1202:0", kStageId = 0 : i64, kUniqueId = 75 : i64} : (tensor<1xbf16>) -> (tensor<1xbf16>, tensor<1xbf16>)
        "tlir.Store"(%6, %21#1) {kChipID = 0 : i64, kGroup = 7 : i64, kIsCheckPoint = false, kName = "logreg__criterion__crossentropyloss_tensor", kOpRWPattern0 = "kWriteOperand", kRemovesAlignment = false, kRequiresWBuf = false, kSliceAxes = [], kSourceContext = "/usr/local/lib/python3.7/site-packages/torch/overrides.py:1202:0", kStageId = 0 : i64, kStoreSlice = false, kTemplateName = "store_0_0_31", kUniqueId = 31 : i64, kUseVectorTranspose = false, kUserCreated = true} : (tensor<1xbf16>, tensor<1xbf16>) -> ()
        "tlir.terminator"() {kName = "terminator52", kSourceContext = "software/arc/src/lib/pass/transform/AIRToTLIRLoweringSections.cpp:89:0", kStageId = 0 : i64, kUniqueId = 52 : i64} : () -> ()
      }) {kName = "chip0_0", kPartitionId = 0 : i64, kSourceContext = "software/arc/src/lib/pass/transform/AIRToTLIRLoweringSections.cpp:89:0", kStageId = 0 : i64, kUniqueId = 51 : i64, type = none} : () -> ()
      "tlir.terminator"() {kName = "terminator32", kSourceContext = "software/arc/src/lib/pass/transform/AIRToTLIRLoweringSections.cpp:89:0", kStageId = 0 : i64, kUniqueId = 32 : i64} : () -> ()
    }) {kGlobalId = 0 : i64, kIsHostSection = false, kName = "section0", kPartitionId = 0 : i64, kSectionLatency = 3.5682500310940668E-5 : f64, kSectionName = "$FWD", kSectionUniqueName = "logreg__lin_layer__linear_as_initial", kSourceContext = "software/arc/src/lib/pass/transform/AIRToTLIRLoweringSections.cpp:89:0", kStageId = 0 : i64, kUniqueId = 23 : i64, type = none} : () -> ()
    "tlir.Section"() ( {
      "tlir.Chip"() ( {
        %8 = "tlir.Load"(%5) {DataAlignment0 = 1 : i64, DataAlignment0S = 2 : i64, DataAlignmentkAddedAlignment = -2 : i64, DataAlignmentkAddedAlignmentS = 2 : i64, VectorDimension0 = 0 : i64, VectorDimension0S = 2 : i64, VectorOrdering0 = 0 : i64, VectorOrdering0S = 2 : i64, kChipID = 0 : i64, kGroup = -11 : i64, kIsGrouped = false, kName = "logreg__lin_layer__linear__outputs__0_1_0_34", kRequiresWBuf = false, kSourceContext = "/usr/local/lib/python3.7/site-packages/torch/overrides.py:1202:0", kStageId = 0 : i64, kTemplateName = "load_1_0_34", kUniqueId = 34 : i64, kUseVectorTranspose = true, kUserCreated = true} : (tensor<1x10xbf16>) -> tensor<1x10xbf16>
        %9 = "tlir.Load"(%3) {DataAlignment0 = 1 : i64, DataAlignment0S = 2 : i64, DataAlignmentkAddedAlignment = -2 : i64, DataAlignmentkAddedAlignmentS = 2 : i64, VectorDimension0 = 0 : i64, VectorDimension0S = 2 : i64, VectorOrdering0 = 1 : i64, VectorOrdering0S = 2 : i64, kChipID = 0 : i64, kGroup = 4 : i64, kIsGrouped = false, kName = "label_1_0_35", kRequiresWBuf = false, kSourceContext = "UnknownFileName:0:0", kStageId = 0 : i64, kTemplateName = "load_1_0_35", kUniqueId = 35 : i64, kUseVectorTranspose = false, kUserCreated = true} : (tensor<1xi16>) -> tensor<1xi16>
        %10 = "tlir.Load"(%2) {DataAlignment0 = 1 : i64, DataAlignment0S = 2 : i64, DataAlignmentkAddedAlignment = -2 : i64, DataAlignmentkAddedAlignmentS = 2 : i64, VectorDimension0 = 0 : i64, VectorDimension0S = 2 : i64, VectorOrdering0 = 1 : i64, VectorOrdering0S = 2 : i64, kChipID = 0 : i64, kGroup = 3 : i64, kIsGrouped = false, kName = "logreg__criterion__crossentropyloss__outputs__0__grad_1_0_36", kRequiresWBuf = false, kSourceContext = "UnknownFileName:0:0", kStageId = 0 : i64, kTemplateName = "load_1_0_36", kUniqueId = 36 : i64, kUseVectorTranspose = false, kUserCreated = true} : (tensor<1xbf16>) -> tensor<1xbf16>
        %11 = "tlir.InputBuffer"(%8) {DataAlignment0 = 1 : i64, DataAlignment0S = 2 : i64, VectorDimension0 = 0 : i64, VectorDimension0S = 2 : i64, VectorOrdering0 = 0 : i64, VectorOrdering0S = 2 : i64, kDepth = 1 : i64, kName = "input_buf_1_0_92", kSourceContext = "/usr/local/lib/python3.7/site-packages/torch/overrides.py:1202:0", kStageId = 0 : i64, kTemplateName = "input_buf_1_0_92", kUniqueId = 92 : i64} : (tensor<1x10xbf16>) -> tensor<1x10xbf16>
        %12:2 = "tlir.Buffer"(%11) {DataAlignment0 = 1 : i64, DataAlignment0S = 2 : i64, DataAlignment1 = 1 : i64, DataAlignment1S = 2 : i64, VectorDimension0 = 1 : i64, VectorDimension0S = 2 : i64, VectorDimension1 = 1 : i64, VectorDimension1S = 2 : i64, VectorOrdering0 = 1 : i64, VectorOrdering0S = 2 : i64, VectorOrdering1 = 1 : i64, VectorOrdering1S = 2 : i64, kBufferType = 1 : i64, kDepth = 1 : i64, kHead0CtrlFlowEnable = false, kHead0Depth = 1 : i64, kHead1CtrlFlowEnable = false, kHead1Depth = 2 : i64, kName = "gbuf1a_1_0_76", kNbufHead = 1 : i64, kNumHead0RdEn = 0 : i64, kNumHead1RdEn = 0 : i64, kSourceContext = "/usr/local/lib/python3.7/site-packages/torch/overrides.py:1202:0", kStageId = 0 : i64, kTranspose = 1 : i64, kUniqueId = 76 : i64} : (tensor<1x10xbf16>) -> (tensor<1x10xbf16>, tensor<1x10xbf16>)
        %13 = "tlir.PermuteView"(%12#1) {DataAlignment0 = 1 : i64, DataAlignment0S = 2 : i64, VectorDimension0 = 0 : i64, VectorDimension0S = 2 : i64, VectorOrdering0 = 0 : i64, VectorOrdering0S = 2 : i64, kIsCriticalStage = false, kLatency = -1.000000e+00 : f64, kMacID = "", kName = "permute_view_1_0_68", kPermutation = [1, 0], kSourceContext = "/usr/local/lib/python3.7/site-packages/torch/overrides.py:1202:0", kStageId = 0 : i64, kStageLatency = -1.000000e+00 : f64, kTemplateName = "permute_view_1_0_68", kUniqueId = 68 : i64, kUserCreated = true} : (tensor<1x10xbf16>) -> tensor<10x1xbf16>
        %14:2 = "tlir.Buffer"(%9) {DataAlignment0 = 1 : i64, DataAlignment0S = 2 : i64, DataAlignment1 = 1 : i64, DataAlignment1S = 2 : i64, VectorDimension0 = 0 : i64, VectorDimension0S = 2 : i64, VectorDimension1 = 0 : i64, VectorDimension1S = 2 : i64, VectorOrdering0 = 1 : i64, VectorOrdering0S = 2 : i64, VectorOrdering1 = 1 : i64, VectorOrdering1S = 2 : i64, kBufferType = 7 : i64, kDepth = 1 : i64, kHead0CtrlFlowEnable = false, kHead0Depth = 1 : i64, kHead1CtrlFlowEnable = false, kHead1Depth = 1 : i64, kName = "tbuf1a_1_0_77", kNbufHead = 1 : i64, kNumHead0RdEn = 0 : i64, kNumHead1RdEn = 0 : i64, kSourceContext = "UnknownFileName:0:0", kStageId = 0 : i64, kUniqueId = 77 : i64} : (tensor<1xi16>) -> (tensor<1xi16>, tensor<1xi16>)
        %15:2 = "tlir.Buffer"(%10) {DataAlignment0 = 1 : i64, DataAlignment0S = 2 : i64, DataAlignment1 = 1 : i64, DataAlignment1S = 2 : i64, VectorDimension0 = 0 : i64, VectorDimension0S = 2 : i64, VectorDimension1 = 0 : i64, VectorDimension1S = 2 : i64, VectorOrdering0 = 1 : i64, VectorOrdering0S = 2 : i64, VectorOrdering1 = 1 : i64, VectorOrdering1S = 2 : i64, kBufferType = 7 : i64, kDepth = 1 : i64, kHead0CtrlFlowEnable = false, kHead0Depth = 1 : i64, kHead1CtrlFlowEnable = false, kHead1Depth = 1 : i64, kName = "tbuf1a_1_0_78", kNbufHead = 1 : i64, kNumHead0RdEn = 0 : i64, kNumHead1RdEn = 0 : i64, kSourceContext = "UnknownFileName:0:0", kStageId = 0 : i64, kUniqueId = 78 : i64} : (tensor<1xbf16>) -> (tensor<1xbf16>, tensor<1xbf16>)
        %16:2 = "tlir.Buffer"(%13) {DataAlignment0 = 1 : i64, DataAlignment0S = 2 : i64, DataAlignment1 = 1 : i64, DataAlignment1S = 2 : i64, VectorDimension0 = 0 : i64, VectorDimension0S = 2 : i64, VectorDimension1 = 0 : i64, VectorDimension1S = 2 : i64, VectorOrdering0 = 0 : i64, VectorOrdering0S = 2 : i64, VectorOrdering1 = 0 : i64, VectorOrdering1S = 2 : i64, kBufferType = 7 : i64, kDepth = 1 : i64, kHead0CtrlFlowEnable = false, kHead0Depth = 1 : i64, kHead1CtrlFlowEnable = false, kHead1Depth = 1 : i64, kName = "tbuf1a_1_0_79", kNbufHead = 1 : i64, kNumHead0RdEn = 0 : i64, kNumHead1RdEn = 0 : i64, kSourceContext = "/usr/local/lib/python3.7/site-packages/torch/overrides.py:1202:0", kStageId = 0 : i64, kUniqueId = 79 : i64} : (tensor<10x1xbf16>) -> (tensor<10x1xbf16>, tensor<10x1xbf16>)
        %17 = "tlir.CrossEntropyGrad"(%16#1, %14#1, %15#1) {DataAlignment0 = 1 : i64, DataAlignment0S = 2 : i64, VectorDimension0 = 0 : i64, VectorDimension0S = 2 : i64, VectorOrdering0 = 0 : i64, VectorOrdering0S = 2 : i64, kEnableBoxLayout = true, kHasLoss = true, kIgnoreClass = -1 : i64, kIsCriticalStage = false, kIsRAILCrossEntropyGrad = true, kLatency = 1.140000e+02 : f64, kMacID = "logreg__criterion__crossentropyloss_bwd_loss", kName = "logreg__criterion__crossentropyloss_bwd_loss", kNumParallelPCUs = 1 : i64, kSourceContext = "/usr/local/lib/python3.7/site-packages/torch/overrides.py:1202:0", kStageId = 0 : i64, kStageLatency = 1.140000e+02 : f64, kTemplateName = "rail_cross_entropy_grad_1_0_62", kUniqueId = 62 : i64, kUserCreated = true} : (tensor<10x1xbf16>, tensor<1xi16>, tensor<1xbf16>) -> tensor<10x1xbf16>
        %18:2 = "tlir.Buffer"(%17) {DataAlignment0 = 1 : i64, DataAlignment0S = 2 : i64, DataAlignment1 = 1 : i64, DataAlignment1S = 2 : i64, VectorDimension0 = 0 : i64, VectorDimension0S = 2 : i64, VectorDimension1 = 0 : i64, VectorDimension1S = 2 : i64, VectorOrdering0 = 0 : i64, VectorOrdering0S = 2 : i64, VectorOrdering1 = 0 : i64, VectorOrdering1S = 2 : i64, kBufferType = 7 : i64, kDepth = 1 : i64, kHead0CtrlFlowEnable = false, kHead0Depth = 1 : i64, kHead1CtrlFlowEnable = false, kHead1Depth = 1 : i64, kName = "tbuf1a_1_0_90", kNbufHead = 1 : i64, kNumHead0RdEn = 0 : i64, kNumHead1RdEn = 0 : i64, kSourceContext = "/usr/local/lib/python3.7/site-packages/torch/overrides.py:1202:0", kStageId = 0 : i64, kUniqueId = 90 : i64} : (tensor<10x1xbf16>) -> (tensor<10x1xbf16>, tensor<10x1xbf16>)
        %19:2 = "tlir.Buffer"(%18#1) {DataAlignment0 = 1 : i64, DataAlignment0S = 2 : i64, DataAlignment1 = 1 : i64, DataAlignment1S = 2 : i64, VectorDimension0 = 1 : i64, VectorDimension0S = 2 : i64, VectorDimension1 = 1 : i64, VectorDimension1S = 2 : i64, VectorOrdering0 = 1 : i64, VectorOrdering0S = 2 : i64, VectorOrdering1 = 1 : i64, VectorOrdering1S = 2 : i64, kBufferType = 1 : i64, kDepth = 1 : i64, kHead0CtrlFlowEnable = false, kHead0Depth = 1 : i64, kHead1CtrlFlowEnable = false, kHead1Depth = 1 : i64, kName = "gbuf1a_1_0_80", kNbufHead = 1 : i64, kNumHead0RdEn = 0 : i64, kNumHead1RdEn = 0 : i64, kSourceContext = "/usr/local/lib/python3.7/site-packages/torch/overrides.py:1202:0", kStageId = 0 : i64, kTranspose = 1 : i64, kUniqueId = 80 : i64} : (tensor<10x1xbf16>) -> (tensor<10x1xbf16>, tensor<10x1xbf16>)
        %20 = "tlir.PermuteView"(%19#1) {DataAlignment0 = 1 : i64, DataAlignment0S = 2 : i64, VectorDimension0 = 0 : i64, VectorDimension0S = 2 : i64, VectorOrdering0 = 0 : i64, VectorOrdering0S = 2 : i64, kIsCriticalStage = false, kLatency = -1.000000e+00 : f64, kMacID = "", kName = "permute_view_1_0_69", kPermutation = [1, 0], kSourceContext = "/usr/local/lib/python3.7/site-packages/torch/overrides.py:1202:0", kStageId = 0 : i64, kStageLatency = -1.000000e+00 : f64, kTemplateName = "permute_view_1_0_69", kUniqueId = 69 : i64, kUserCreated = true} : (tensor<10x1xbf16>) -> tensor<1x10xbf16>
        %21 = "tlir.PermuteView"(%20) {DataAlignment0 = 1 : i64, DataAlignment0S = 2 : i64, VectorDimension0 = 1 : i64, VectorDimension0S = 2 : i64, VectorOrdering0 = 1 : i64, VectorOrdering0S = 2 : i64, kIsCriticalStage = false, kLatency = 0.000000e+00 : f64, kMacID = "logreg__lin_layer__linear_t_output0_bwd", kName = "logreg__lin_layer__linear_t_output0_bwd", kPermutation = [1, 0], kSourceContext = "/usr/local/lib/python3.7/site-packages/torch/overrides.py:1202:0", kStageId = 0 : i64, kStageLatency = 0.000000e+00 : f64, kTemplateName = "permute_view_1_0_64", kUniqueId = 64 : i64, kUserCreated = true} : (tensor<1x10xbf16>) -> tensor<10x1xbf16>
        %22 = "tlir.Load"(%1) {DataAlignment0 = 1 : i64, DataAlignment0S = 2 : i64, DataAlignmentkAddedAlignment = -2 : i64, DataAlignmentkAddedAlignmentS = 2 : i64, VectorDimension0 = 1 : i64, VectorDimension0S = 2 : i64, VectorOrdering0 = 1 : i64, VectorOrdering0S = 2 : i64, kChipID = 0 : i64, kGroup = 8 : i64, kIsGrouped = false, kName = "image_1_0_39", kRequiresWBuf = false, kSourceContext = "UnknownFileName:0:0", kStageId = 0 : i64, kTemplateName = "load_1_0_39", kUniqueId = 39 : i64, kUseVectorTranspose = false, kUserCreated = true} : (tensor<784x1xbf16>) -> tensor<784x1xbf16>
        %23:2 = "tlir.Buffer"(%22) {DataAlignment0 = 1 : i64, DataAlignment0S = 2 : i64, DataAlignment1 = 1 : i64, DataAlignment1S = 2 : i64, VectorDimension0 = 1 : i64, VectorDimension0S = 2 : i64, VectorDimension1 = 1 : i64, VectorDimension1S = 2 : i64, VectorOrdering0 = 1 : i64, VectorOrdering0S = 2 : i64, VectorOrdering1 = 1 : i64, VectorOrdering1S = 2 : i64, kBufferType = 1 : i64, kDepth = 1 : i64, kHead0CtrlFlowEnable = false, kHead0Depth = 1 : i64, kHead1CtrlFlowEnable = false, kHead1Depth = 1 : i64, kName = "gbuf1a_1_0_81", kNbufHead = 1 : i64, kNumHead0RdEn = 0 : i64, kNumHead1RdEn = 0 : i64, kSourceContext = "UnknownFileName:0:0", kStageId = 0 : i64, kTranspose = 2 : i64, kUniqueId = 81 : i64} : (tensor<784x1xbf16>) -> (tensor<784x1xbf16>, tensor<1x784xbf16>)
        %24:2 = "tlir.Buffer"(%23#1) {DataAlignment0 = 1 : i64, DataAlignment0S = 2 : i64, DataAlignment1 = 1 : i64, DataAlignment1S = 2 : i64, VectorDimension0 = 1 : i64, VectorDimension0S = 2 : i64, VectorDimension1 = 1 : i64, VectorDimension1S = 2 : i64, VectorOrdering0 = 1 : i64, VectorOrdering0S = 2 : i64, VectorOrdering1 = 1 : i64, VectorOrdering1S = 2 : i64, kBufferType = 1 : i64, kDepth = 1 : i64, kHead0CtrlFlowEnable = false, kHead0Depth = 1 : i64, kHead1CtrlFlowEnable = false, kHead1Depth = 1 : i64, kName = "gbuf1a_1_0_82", kNbufHead = 1 : i64, kNumHead0RdEn = 0 : i64, kNumHead1RdEn = 0 : i64, kSourceContext = "/usr/local/lib/python3.7/site-packages/torch/overrides.py:1202:0", kStageId = 0 : i64, kUniqueId = 82 : i64} : (tensor<1x784xbf16>) -> (tensor<1x784xbf16>, tensor<1x784xbf16>)
        %25 = "tlir.Linear"(%21, %24#1) {DataAlignment0 = 1 : i64, DataAlignment0S = 2 : i64, VectorDimension0 = 1 : i64, VectorDimension0S = 2 : i64, VectorOrdering0 = 1 : i64, VectorOrdering0S = 2 : i64, kBoxLayout = true, kBoxPerPartition = false, kHasWeight = false, kInputAIsWeight = false, kIsCriticalStage = false, kMacID = "logreg__lin_layer__linear_bwd_weight", kName = "logreg__lin_layer__linear_bwd_weight_grad_a", kNumColComputeUnits = 4 : i64, kNumPartitions = 1 : i64, kNumRowComputeUnits = 1 : i64, kReadAHead = 0 : i32, kReadBHead = 1 : i32, kSourceContext = "/usr/local/lib/python3.7/site-packages/torch/overrides.py:1202:0", kStageId = 0 : i64, kStageLatency = 1.255000e+03 : f64, kTemplateName = "biggemm_1_0_66", kUniqueId = 66 : i64, kUseBigGemm = true, kUserCreated = true, kWbufBlockInterleavedWrite = false} : (tensor<10x1xbf16>, tensor<1x784xbf16>) -> tensor<10x784xbf16>
        %26:2 = "tlir.Buffer"(%25) {DataAlignment0 = 1 : i64, DataAlignment0S = 2 : i64, DataAlignment1 = 1 : i64, DataAlignment1S = 2 : i64, VectorDimension0 = 1 : i64, VectorDimension0S = 2 : i64, VectorDimension1 = 1 : i64, VectorDimension1S = 2 : i64, VectorOrdering0 = 1 : i64, VectorOrdering0S = 2 : i64, VectorOrdering1 = 1 : i64, VectorOrdering1S = 2 : i64, kBufferType = 1 : i64, kDepth = 1 : i64, kHead0CtrlFlowEnable = false, kHead0Depth = 1 : i64, kHead1CtrlFlowEnable = false, kHead1Depth = 1 : i64, kName = "gbuf1a_1_0_83", kNbufHead = 1 : i64, kNumHead0RdEn = 0 : i64, kNumHead1RdEn = 0 : i64, kSourceContext = "/usr/local/lib/python3.7/site-packages/torch/overrides.py:1202:0", kStageId = 0 : i64, kUniqueId = 83 : i64} : (tensor<10x784xbf16>) -> (tensor<10x784xbf16>, tensor<10x784xbf16>)
        "tlir.Store"(%7, %26#1) {kChipID = 0 : i64, kGroup = 9 : i64, kIsCheckPoint = false, kName = "logreg__lin_layer__linear_bwd_weight_tensor", kOpRWPattern0 = "kWriteOperand", kRemovesAlignment = false, kRequiresWBuf = false, kSliceAxes = [], kSourceContext = "/usr/local/lib/python3.7/site-packages/torch/overrides.py:1202:0", kStageId = 0 : i64, kStoreSlice = false, kTemplateName = "store_1_0_41", kUniqueId = 41 : i64, kUseVectorTranspose = false, kUserCreated = true} : (tensor<10x784xbf16>, tensor<10x784xbf16>) -> ()
        "tlir.terminator"() {kName = "terminator54", kSourceContext = "software/arc/src/lib/pass/transform/AIRToTLIRLoweringSections.cpp:89:0", kStageId = 0 : i64, kUniqueId = 54 : i64} : () -> ()
      }) {kName = "chip1_0", kPartitionId = 0 : i64, kSourceContext = "software/arc/src/lib/pass/transform/AIRToTLIRLoweringSections.cpp:89:0", kStageId = 0 : i64, kUniqueId = 53 : i64, type = none} : () -> ()
      "tlir.terminator"() {kName = "terminator42", kSourceContext = "software/arc/src/lib/pass/transform/AIRToTLIRLoweringSections.cpp:89:0", kStageId = 0 : i64, kUniqueId = 42 : i64} : () -> ()
    }) {kGlobalId = 1 : i64, kIsHostSection = false, kName = "section1", kPartitionId = 1 : i64, kSectionLatency = 3.5993667552247643E-5 : f64, kSectionName = "$BCKWD", kSectionUniqueName = "logreg__criterion__crossentropyloss_bwd_loss_as_initial", kSourceContext = "software/arc/src/lib/pass/transform/AIRToTLIRLoweringSections.cpp:89:0", kStageId = 0 : i64, kUniqueId = 33 : i64, type = none} : () -> ()
    "tlir.Section"() ( {
      "tlir.Chip"() ( {
        %8 = "tlir.Load"(%0) {DataAlignment0 = 1 : i64, DataAlignment0S = 2 : i64, DataAlignmentkAddedAlignment = -2 : i64, DataAlignmentkAddedAlignmentS = 2 : i64, VectorDimension0 = 1 : i64, VectorDimension0S = 2 : i64, VectorOrdering0 = 1 : i64, VectorOrdering0S = 2 : i64, kChipID = 0 : i64, kGroup = 2 : i64, kIsGrouped = false, kName = "logreg__lin_layer__weight_2_0_44", kRequiresWBuf = true, kSourceContext = "software/compiler/mac/src/pybind/py_air.cpp:1503:0", kStageId = 0 : i64, kTemplateName = "load_2_0_44", kUniqueId = 44 : i64, kUseVectorTranspose = false, kUserCreated = true} : (tensor<10x784xbf16>) -> tensor<10x784xbf16>
        %9 = "tlir.Load"(%7) {DataAlignment0 = 1 : i64, DataAlignment0S = 2 : i64, DataAlignmentkAddedAlignment = -2 : i64, DataAlignmentkAddedAlignmentS = 2 : i64, VectorDimension0 = 1 : i64, VectorDimension0S = 2 : i64, VectorOrdering0 = 1 : i64, VectorOrdering0S = 2 : i64, kChipID = 0 : i64, kGroup = 6 : i64, kIsGrouped = false, kName = "logreg__lin_layer__weight__grad_2_0_45", kRequiresWBuf = true, kSourceContext = "/usr/local/lib/python3.7/site-packages/torch/overrides.py:1202:0", kStageId = 0 : i64, kTemplateName = "load_2_0_45", kUniqueId = 45 : i64, kUseVectorTranspose = false, kUserCreated = true} : (tensor<10x784xbf16>) -> tensor<10x784xbf16>
        %10 = "tlir.Load"(%4) {DataAlignment0 = 1 : i64, DataAlignment0S = 2 : i64, DataAlignmentkAddedAlignment = -2 : i64, DataAlignmentkAddedAlignmentS = 2 : i64, VectorDimension0 = 1 : i64, VectorDimension0S = 2 : i64, VectorOrdering0 = 1 : i64, VectorOrdering0S = 2 : i64, kChipID = 0 : i64, kGroup = 5 : i64, kIsGrouped = false, kName = "logreg__lin_layer__weight__sgd0__momentum_2_0_46", kRequiresWBuf = true, kSourceContext = "software/compiler/mac/src/pybind/py_air.cpp:1503:0", kStageId = 0 : i64, kTemplateName = "load_2_0_46", kUniqueId = 46 : i64, kUseVectorTranspose = false, kUserCreated = true} : (tensor<10x784xbf16>) -> tensor<10x784xbf16>
        %11:2 = "tlir.SGD"(%8, %10, %9) {DataAlignment0 = 1 : i64, DataAlignment0S = 2 : i64, DataAlignment1 = 1 : i64, DataAlignment1S = 2 : i64, VectorDimension0 = 1 : i64, VectorDimension0S = 2 : i64, VectorDimension1 = 1 : i64, VectorDimension1S = 2 : i64, VectorOrdering0 = 1 : i64, VectorOrdering0S = 2 : i64, VectorOrdering1 = 1 : i64, VectorOrdering1S = 2 : i64, kChipID = 0 : i64, kDecayArgInName = "weight_decay", kDecayRate = 3.0000001424923539E-4 : f64, kLrArgInName = "lr", kLrRate = 0.001500000013038516 : f64, kMacID = "logreg__lin_layer__weight__logreg__lin_layer__linear_bwd_weight_opt", kMixP = false, kMomentumArgInName = "momentum", kMomentumRate = 0.000000e+00 : f64, kName = "logreg__lin_layer__weight__logreg__lin_layer__linear_bwd_weight_opt", kSourceContext = "logreg__lin_layer__weight:0:0", kStageId = 0 : i64, kStrndSeed = 43690 : i64, kStrndSeedArgInName = "strnd_seed", kTemplateName = "optimizer_sgd_2_0_47", kUniqueId = 47 : i64, kUserCreated = true} : (tensor<10x784xbf16>, tensor<10x784xbf16>, tensor<10x784xbf16>) -> (tensor<10x784xbf16>, tensor<10x784xbf16>)
        "tlir.Store"(%0, %11#0) {kChipID = 0 : i64, kGroup = 2 : i64, kIsCheckPoint = false, kName = "logreg__lin_layer__weight_2_0_48", kOpRWPattern0 = "kWriteOperand", kRemovesAlignment = false, kRequiresWBuf = true, kSliceAxes = [], kSourceContext = "logreg__lin_layer__weight:0:0", kStageId = 0 : i64, kStoreSlice = false, kTemplateName = "store_2_0_48", kUniqueId = 48 : i64, kUseVectorTranspose = false, kUserCreated = true} : (tensor<10x784xbf16>, tensor<10x784xbf16>) -> ()
        "tlir.Store"(%4, %11#1) {kChipID = 0 : i64, kGroup = 5 : i64, kIsCheckPoint = false, kName = "logreg__lin_layer__weight__sgd0__momentum_2_0_49", kOpRWPattern0 = "kWriteOperand", kRemovesAlignment = false, kRequiresWBuf = true, kSliceAxes = [], kSourceContext = "logreg__lin_layer__weight:0:0", kStageId = 0 : i64, kStoreSlice = false, kTemplateName = "store_2_0_49", kUniqueId = 49 : i64, kUseVectorTranspose = false, kUserCreated = true} : (tensor<10x784xbf16>, tensor<10x784xbf16>) -> ()
        "tlir.terminator"() {kName = "terminator56", kSourceContext = "software/arc/src/lib/pass/transform/AIRToTLIRLoweringSections.cpp:89:0", kStageId = 0 : i64, kUniqueId = 56 : i64} : () -> ()
      }) {kName = "chip2_0", kPartitionId = 0 : i64, kSourceContext = "software/arc/src/lib/pass/transform/AIRToTLIRLoweringSections.cpp:89:0", kStageId = 0 : i64, kUniqueId = 55 : i64, type = none} : () -> ()
      "tlir.terminator"() {kName = "terminator50", kSourceContext = "software/arc/src/lib/pass/transform/AIRToTLIRLoweringSections.cpp:89:0", kStageId = 0 : i64, kUniqueId = 50 : i64} : () -> ()
    }) {kGlobalId = 2 : i64, kIsHostSection = false, kName = "section2", kPartitionId = 2 : i64, kSectionLatency = 3.5584125726018101E-5 : f64, kSectionName = "$OPT", kSectionUniqueName = "logreg__lin_layer__weight__logreg__lin_layer__linear_bwd_weight_opt_as_initial", kSourceContext = "software/arc/src/lib/pass/transform/AIRToTLIRLoweringSections.cpp:89:0", kStageId = 0 : i64, kUniqueId = 43 : i64, type = none} : () -> ()
    module_terminator {kSourceContext = "Unknown File:"}
  }
  module @schedule  {
    module_terminator {kSourceContext = "Unknown File:"}
  }
  module @rnn_function  {
    module_terminator {kSourceContext = "Unknown File:"}
  }
  module_terminator {kSourceContext = "Unknown File:"}
}

