module @program attributes {arc.AIRMappingDecisionIsSpatial = false, arc.kAIRAddnOpt = true, arc.kAIRAdvancedLoadSplitOpt = true, arc.kAIRAnnotateHyperFunctionArguments = false, arc.kAIRBufferBeforeConcatAddn = false, arc.kAIRBufferNonRedundancy = "", arc.kAIRDDRBoundSections = [], arc.kAIRDPTilingOptimization = false, arc.kAIRDisableConcatStoreOpt = false, arc.kAIRDisableLoadTilerOptWithDimOrdering = false, arc.kAIRDisableOptimizeRereadBuffer = false, arc.kAIREnableRemoteRead = false, arc.kAIREnableSkipBufferExtensionOpt = false, arc.kAIREnableStoreTilerOptWithDimOrdering = false, arc.kAIRForceDRAMFirstThenP2P = false, arc.kAIRMappingDecisionGlobalNumBatches = 1 : i64, arc.kAIRMappingDecisionSectionDRAMTransferSize = [811680, 821680, 78400], arc.kAIRMappingDecisionSectionDRAMTransferTime = [0.007559359073638916, 0.0076524913311004638, 7.3015689849853516E-4], arc.kAIRMappingDecisionSectionLatencies = [5.0522565288702026E-5, 5.085606244392693E-5, 3.5730157833313569E-5], arc.kAIRMappingDecisionSectionNames = ["$FWD", "$BCKWD", "$OPT"], arc.kAIRMappingDecisionSectionPCUs = [5.000000e+00, 7.000000e+00, 1.000000e+00], arc.kAIRMappingDecisionSectionPMUs = [[2, 4, 6, 2, 2, 2, 1], [3, 4, 12, 1, 1, 3, 0], [0, 4, 0, 6, 0, 0, 0]], arc.kAIRMappingDecisionSectionResourceScales = [1.1000000238418579, 1.2000000476837158, 0.89999997615814208], arc.kAIRMappingDecisionSectionTypes = ["Forward", "Backward", "Optimizer"], arc.kAIRMappingDecisionSectionUniqueNames = ["logreg__lin_layer__linear_as_initial", "logreg__criterion__crossentropyloss_bwd_loss_as_initial", "logreg__lin_layer__weight__logreg__lin_layer__linear_bwd_weight_opt_as_initial"], arc.kAIRMetaPipeWithOneIterationRemoval = false, arc.kAIRTransposeMatMulTransformation = false, arc.kAddStreamingBuffers = false, arc.kAppName = "logreg_torch_samba", arc.kArchMajor = 1 : i64, arc.kArchMinor = 0 : i64, arc.kBoxLayoutSize = 2 : i64, arc.kBoxLayoutType = 0 : i64, arc.kConcisePrinting = false, arc.kDataParallelBf16StochasticRounding = false, arc.kDataParallelBf16StochasticRoundingHighStaticBatchSize = false, arc.kDataParallelBf16StochasticRoundingSeedName = "", arc.kDataParallelFactor = 2 : i64, arc.kDataParallelInHostMemory = false, arc.kDataParallelReduceOnlyMode = false, arc.kDebugMode = false, arc.kDisableFuseToTwoHeadBuffers = false, arc.kEliminateBufferTimeout = 100 : i64, arc.kEnableAutoGrouping = true, arc.kEnableBufferBarriers = true, arc.kEnableFuseToLinearTraining = false, arc.kEnablePcuHeartBeat = false, arc.kEnableWrDoneInstrument = false, arc.kExperimentalOptimization = true, arc.kExperimentalRAILCrossEntropy = true, arc.kExperimentalRAILCrossEntropyGrad = true, arc.kGenerateReference = false, arc.kGenerateTensorboard = false, arc.kHasGraphData = false, arc.kHeuristicRuntimeLayouts = true, arc.kHeuristicSliceLayouts = false, arc.kHeuristicTilerLayouts = true, arc.kIsBf16Conversion = true, arc.kIteration = 1 : i64, arc.kLayoutTimeout = 1000 : i64, arc.kLegalizeDataflow = true, arc.kLegalizeSamples = false, arc.kLowered = false, arc.kMacAutogen = true, arc.kMaximumGroupLatencyFactor = 5.000000e-02 : f32, arc.kMoveViews = false, arc.kOptimizationLevel = 3 : i64, arc.kOptimizeDramTransfers = 1 : i64, arc.kOriginalName = "logreg", arc.kOutputFolder = "/qfs/people/jain432/pacer_saudade/code/ProxyTSPRD/scripts/test/sambanova/logreg", arc.kOverrideMaxFanout = 0 : i64, arc.kPefMetadataacc_report_json = "None", arc.kPefMetadataacc_test = "False", arc.kPefMetadataamp_level = "4", arc.kPefMetadataarc_debug_mode = "False", arc.kPefMetadatabatch_size = "500", arc.kPefMetadatabench_report_json = "None", arc.kPefMetadatackpt_dir = "", arc.kPefMetadatacompiled_stats_json = "None", arc.kPefMetadatacompiler_mode = "", arc.kPefMetadatadata_dir = "mnist_data", arc.kPefMetadatadata_name = "mnist", arc.kPefMetadatadata_parallel = "True", arc.kPefMetadatadata_parallel_mode = "normal", arc.kPefMetadatadata_type = "image", arc.kPefMetadatadataloader = "torchloader", arc.kPefMetadatadebug = "False", arc.kPefMetadatadefault_device = "DDR", arc.kPefMetadatadense_adam_fast_grad_compute = "False", arc.kPefMetadatadev_mode = "False", arc.kPefMetadatadisable_bf16_conversion = "False", arc.kPefMetadatadisable_mac_tiling = "False", arc.kPefMetadatadisable_retry_lower_visible_resources = "False", arc.kPefMetadatadistlearn_config = "", arc.kPefMetadatadropout_tiling_legalizer_error = "False", arc.kPefMetadatadump_accuracy_debug_info = "False", arc.kPefMetadatadump_compiled_stats_json = "False", arc.kPefMetadatadump_traced_graph = "False", arc.kPefMetadataenable_buffer_trial_compile = "False", arc.kPefMetadataenable_conv2d_conversion = "False", arc.kPefMetadataenable_conv_tiling = "False", arc.kPefMetadataenable_hd_retry_lower_visible_resources = "False", arc.kPefMetadataenable_hypersection = "False", arc.kPefMetadataenable_node_trial_compile = "False", arc.kPefMetadataenable_node_trial_compile_logging = "False", arc.kPefMetadataenable_profiler = "False", arc.kPefMetadataenable_stochastic_rounding = "False", arc.kPefMetadataforce_node_proximity = "False", arc.kPefMetadatafp32_params = "False", arc.kPefMetadatafuse_fwd_bwd = "False", arc.kPefMetadatagen_tensorboard = "False", arc.kPefMetadatagrad_accumulation_steps = "1", arc.kPefMetadatahas_human_decision = "False", arc.kPefMetadatahost_fifo = "False", arc.kPefMetadatahypersection_arc = "False", arc.kPefMetadatainclude_read_stall_cycles = "False", arc.kPefMetadatainference = "False", arc.kPefMetadatainput_layout = "None", arc.kPefMetadatajson = "None", arc.kPefMetadatajson_counters = "", arc.kPefMetadatalabel_type = "classes", arc.kPefMetadatalatency_budget_bwd = "None", arc.kPefMetadatalatency_budget_fwd = "None", arc.kPefMetadatalisten_for_input = "False", arc.kPefMetadatalocal_rank = "0", arc.kPefMetadatalog_dir = "None", arc.kPefMetadatalogger_dir = "output", arc.kPefMetadatalogger_name = "default", arc.kPefMetadatalr = "0.0015", "arc.kPefMetadatamac_conv_tiling_c++" = "False", arc.kPefMetadatamac_only = "False", arc.kPefMetadatamac_print_mapping_ir = "False", arc.kPefMetadatamac_split_cat_as_stage_buf = "False", arc.kPefMetadatamac_templatedb_dir = "", arc.kPefMetadatamac_templatedb_dir_backup_to = "", arc.kPefMetadatamac_templatedb_dir_init_from = "", arc.kPefMetadatamac_v1 = "False", arc.kPefMetadatamapping = "section", arc.kPefMetadatamax_expected_mac_latency = "-1.0", arc.kPefMetadatamax_mac_loop_attempt = "-1", arc.kPefMetadatamax_tiling_depth = "None", arc.kPefMetadatametapipe_disable = "False", arc.kPefMetadatamicrobatch_size = "None", arc.kPefMetadatamin_duration = "0.0", arc.kPefMetadatamlir_file_name = "None", arc.kPefMetadatamock_inference = "False", arc.kPefMetadatamodel = "LogReg(\0A  (lin_layer): Linear(in_features=784, out_features=10, bias=False)\0A  (criterion): CrossEntropyLoss()\0A)", arc.kPefMetadatamodel_name = "logreg", arc.kPefMetadatamodel_parallel = "False", arc.kPefMetadatamodelbox = "False", arc.kPefMetadatamomentum = "0.0", arc.kPefMetadatampirun = "False", arc.kPefMetadatan_chips = "1", arc.kPefMetadatandtest = "False", arc.kPefMetadatandtest_mp = "False", arc.kPefMetadatanum_classes = "10", arc.kPefMetadatanum_epochs = "1", arc.kPefMetadatanum_features = "784", arc.kPefMetadatanum_iterations = "100", arc.kPefMetadatanum_sections = "None", arc.kPefMetadatanum_spatial_batches = "1", arc.kPefMetadatanum_steps = "-1", arc.kPefMetadatanum_tiles = "-1", arc.kPefMetadataoptim = "sgd", arc.kPefMetadataoptim_level = "o3", arc.kPefMetadataoptimize_concat_split = "False", arc.kPefMetadatapef = "None", arc.kPefMetadataplot = "None", arc.kPefMetadatapod_name = "starters", arc.kPefMetadatapp_lamb_optimizer = "False", arc.kPefMetadataprofiler_trace = "None", arc.kPefMetadatarecompute_ratio = "-1.0", arc.kPefMetadatareduce_on_rdu = "False", arc.kPefMetadataresources_scaling_factors = "['-1.0', '-1.0', '-1.0', '-1.0']", arc.kPefMetadatarun_analysis_pass = "False", arc.kPefMetadatarun_graph_only = "False", arc.kPefMetadatasafe_mode = "False", arc.kPefMetadatasamba_plot = "False", arc.kPefMetadatasamba_version = "1.14.3", arc.kPefMetadatasambahd = "False", arc.kPefMetadatasambatune_graph = "False", arc.kPefMetadatascript = "logreg.py", arc.kPefMetadatasection_cut_beam_search = "[]", arc.kPefMetadatasection_cut_sort_order = "3", arc.kPefMetadatasingle_opt_sec = "False", arc.kPefMetadataskip_instrumentation_on_read0 = "False", arc.kPefMetadataskip_instrumentation_on_read1 = "False", arc.kPefMetadatastage_instrumentation = "none", "arc.kPefMetadatastop_mac_c++" = "False", "arc.kPefMetadatastop_mac_named_dims_c++" = "False", arc.kPefMetadatastrict_auto_cast = "False", arc.kPefMetadatastrict_conversion = "False", arc.kPefMetadatatask_name = "classification", arc.kPefMetadatatensor_parallel = "none", arc.kPefMetadatatile_orientation = "auto", arc.kPefMetadatatraced_attributes_folder = "", arc.kPefMetadataunroll_first = "False", arc.kPefMetadatause_correct_tiling_cost_model = "False", arc.kPefMetadatause_integrated_bias = "False", arc.kPefMetadatavalidate_mac_resource_prediction = "False", arc.kPefMetadataverbose = "3", arc.kPefMetadatavisualize = "False", arc.kPefMetadataweight_caching = "False", arc.kPefMetadataweight_decay = "0.0003", arc.kPefMetadataweight_layout = "None", arc.kPefMetadataweight_norm = "False", arc.kPefMetadataworld_size = "2", arc.kPefMetadatayaml_config = "None", arc.kPefName = "logreg", arc.kPlasmaIncludeReadStallCycles = false, arc.kPlasmaSkipInstrumentationOnRead0 = false, arc.kPlasmaSkipInstrumentationOnRead1 = false, arc.kPlasmaStageInstrumentation = "none", arc.kPrintSrcs = [], arc.kResourceAwareBuffers = false, arc.kSambaTuneGraph = false, arc.kSkipBufferBandwidthWeight = 1 : i64, arc.kSkipBufferMaxDepth = 4096 : i64, arc.kSkipBufferMaxFanin = 8 : i64, arc.kSkipBufferPmuWeight = 1 : i64, arc.kSplitSkipBuffer = true, arc.kStrictNodeNameOrdering = true, arc.kTileSize = 5 : i64, arc.kUniqueIdCounter = 118 : i64, arc.kUseTBufferEverywhere = false, arc.kVerbose = true}  {
  module @preface  {
    %0 = "sn.host.HostIn"() {DataLayout0 = #tlir.layout<??,??,??>, default = 2 : i64, kDefault0 = 2 : i64, kDefault0S = 2 : i64, kMax0 = 2 : i64, kMax0S = 2 : i64, kMin0 = false, kMin0S = 2 : i64, max = 2 : i64, name = "dp_reduce_region_size_0"} : () -> ui32
    "sn.host.RduIn"(%0) {sym_name = "dp_reduce_region_size_0"} : (ui32) -> ()
  }
  module @templates  {
  }
  module @sections  {
    %0 = "tlir.Region"() {DataLayout0 = #tlir.layout<CV,RM,VA>, NumSamples0 = 1 : i64, NumSamples0S = 2 : i64, distribution = 7 : i32, distribution_gain = 1.000000e+00 : f64, kChipID = 0 : i64, kConfigured = true, kFromDeviceTransform = "", kGroup = 7 : i64, kHasShape = true, kIsDataParallelAccumBuf = false, kIsDynamicLoadTable = false, kIsEmbeddingTable = false, kIsHostFifoInput = false, kIsInputOnly = false, kIsLoaded = true, kIsMask = false, kIsOneShotTransferred = true, kIsPlaceholder = false, kIsRngSeed = false, kIsScatterNdTable = false, kIsScatterTable = false, kIsSliceLoaded = false, kIsSliceStored = false, kIsStored = true, kIsUserFacing = true, kIsWeight = true, kLayoutHeuristics = false, kMacID = "logreg__lin_layer__weight__logreg__lin_layer__linear_bwd_weight_opt_result0", kMemoryType = 0 : i64, kName = "logreg__lin_layer__weight", kToDeviceTransform = "", kUniqueId = 19 : i64, kUserCreated = true, kZeroFillDram = false} : () -> tensor<10x784xbf16>
    %1 = "tlir.Region"() {DataLayout0 = #tlir.layout<CV,RM,VA>, NumSamples0 = 1 : i64, NumSamples0S = 2 : i64, distribution = 6 : i32, distribution_max = 1.000000e-01 : f64, distribution_min = -1.000000e-01 : f64, kConfigured = true, kFromDeviceTransform = ".transpose(-1,-2)", kGroup = 1 : i64, kHasShape = true, kIsDynamicLoadTable = false, kIsEmbeddingTable = false, kIsHostFifoInput = false, kIsInputOnly = true, kIsLoaded = true, kIsMask = false, kIsOneShotTransferred = true, kIsPlaceholder = false, kIsRngSeed = false, kIsScatterNdTable = false, kIsScatterTable = false, kIsSliceLoaded = false, kIsSliceStored = false, kIsStored = false, kIsUserFacing = true, kLayoutHeuristics = false, kMacID = "image_result0", kMemoryType = 2 : i64, kName = "image", kToDeviceTransform = ".transpose(-1,-2)", kUniqueId = 20 : i64, kUserCreated = true, kZeroFillDram = false} : () -> tensor<784x500xbf16>
    %2 = "tlir.Region"() {DataLayout0 = #tlir.layout<RV,RM,VA>, NumSamples0 = 1 : i64, NumSamples0S = 2 : i64, distribution = 6 : i32, distribution_max = 1.000000e-01 : f64, distribution_min = -1.000000e-01 : f64, kConfigured = true, kFromDeviceTransform = "", kGroup = 8 : i64, kHasShape = true, kIsDynamicLoadTable = false, kIsEmbeddingTable = false, kIsHostFifoInput = false, kIsInputOnly = true, kIsLoaded = true, kIsMask = false, kIsOneShotTransferred = true, kIsPlaceholder = false, kIsRngSeed = false, kIsScatterNdTable = false, kIsScatterTable = false, kIsSliceLoaded = false, kIsSliceStored = false, kIsStored = false, kIsUserFacing = true, kLayoutHeuristics = false, kMacID = "label_result0", kMemoryType = 2 : i64, kName = "label", kToDeviceTransform = ".short()", kUniqueId = 21 : i64, kUserCreated = true, kZeroFillDram = false} : () -> tensor<500xi16>
    %3 = "tlir.Region"() {DataLayout0 = #tlir.layout<RV,RM,VA>, NumSamples0 = 1 : i64, NumSamples0S = 2 : i64, distribution = 6 : i32, distribution_max = 1.000000e+00 : f64, distribution_min = 1.000000e+00 : f64, kConfigured = true, kFromDeviceTransform = ".mean()", kGroup = 9 : i64, kHasShape = true, kIsDynamicLoadTable = false, kIsEmbeddingTable = false, kIsHostFifoInput = false, kIsInputOnly = true, kIsLoaded = true, kIsMask = false, kIsOneShotTransferred = true, kIsPlaceholder = false, kIsRngSeed = false, kIsScatterNdTable = false, kIsScatterTable = false, kIsSliceLoaded = false, kIsSliceStored = false, kIsStored = false, kIsUserFacing = true, kLayoutHeuristics = false, kMacID = "logreg__criterion__crossentropyloss__outputs__0__grad_result0", kMemoryType = 0 : i64, kName = "logreg__criterion__crossentropyloss__outputs__0__grad", kToDeviceTransform = "", kUniqueId = 22 : i64, kUserCreated = true, kZeroFillDram = false} : () -> tensor<500xbf16>
    %4 = "tlir.Region"() {DataLayout0 = #tlir.layout<RV,RM,VA>, NumSamples0 = 1 : i64, NumSamples0S = 2 : i64, distribution = 6 : i32, distribution_max = 1.000000e+00 : f64, distribution_min = 1.000000e+00 : f64, kConfigured = true, kFromDeviceTransform = "", kGroup = 2 : i64, kHasShape = true, kIsDynamicLoadTable = false, kIsEmbeddingTable = false, kIsHostFifoInput = false, kIsInputOnly = false, kIsLoaded = true, kIsMask = false, kIsOneShotTransferred = true, kIsPlaceholder = false, kIsRngSeed = false, kIsScatterNdTable = false, kIsScatterTable = false, kIsSliceLoaded = false, kIsSliceStored = false, kIsStored = false, kIsUserFacing = true, kLayoutHeuristics = false, kMacID = "logreg__lin_layer__linear__outputs__0__grad_result0", kMemoryType = 0 : i64, kName = "logreg__lin_layer__linear__outputs__0__grad", kToDeviceTransform = "", kUniqueId = 23 : i64, kUserCreated = true, kZeroFillDram = false} : () -> tensor<500x10xbf16>
    %5 = "tlir.Region"() {DataLayout0 = #tlir.layout<CV,RM,VA>, NumSamples0 = 1 : i64, NumSamples0S = 2 : i64, distribution = 7 : i32, distribution_gain = 1.000000e+00 : f64, kChipID = 0 : i64, kConfigured = true, kFromDeviceTransform = "", kGroup = 10 : i64, kHasShape = true, kIsDataParallelAccumBuf = false, kIsDynamicLoadTable = false, kIsEmbeddingTable = false, kIsHostFifoInput = false, kIsInputOnly = false, kIsLoaded = true, kIsMask = false, kIsOneShotTransferred = true, kIsPlaceholder = false, kIsRngSeed = false, kIsScatterNdTable = false, kIsScatterTable = false, kIsSliceLoaded = false, kIsSliceStored = false, kIsStored = true, kIsUserFacing = true, kIsWeight = true, kLayoutHeuristics = false, kMacID = "logreg__lin_layer__weight__logreg__lin_layer__linear_bwd_weight_opt_result1", kMemoryType = 0 : i64, kName = "logreg__lin_layer__weight__sgd0__momentum", kToDeviceTransform = "", kUniqueId = 24 : i64, kUserCreated = true, kZeroFillDram = false} : () -> tensor<10x784xbf16>
    %6 = "tlir.Region"() {DataLayout0 = #tlir.layout<RV,RM,VA>, NumSamples0 = 1 : i64, NumSamples0S = 2 : i64, kChipID = 0 : i64, kConfigured = true, kFromDeviceTransform = "", kGroup = 3 : i64, kHasShape = true, kIsDataParallelAccumBuf = false, kIsDynamicLoadTable = false, kIsEmbeddingTable = false, kIsLoaded = true, kIsOneShotTransferred = true, kIsPlaceholder = false, kIsScatterNdTable = false, kIsScatterTable = false, kIsSliceLoaded = false, kIsSliceStored = false, kIsStored = true, kIsUserFacing = true, kLayoutHeuristics = false, kMacID = "logreg__lin_layer__linear_t_output0_result0", kMemoryType = 2 : i64, kName = "logreg__lin_layer__linear__outputs__0", kToDeviceTransform = "", kUniqueId = 25 : i64, kUserCreated = true} : () -> tensor<500x10xbf16>
    %7 = "tlir.Region"() {DataLayout0 = #tlir.layout<RV,RM,VA>, NumSamples0 = 1 : i64, NumSamples0S = 2 : i64, kChipID = 0 : i64, kConfigured = true, kFromDeviceTransform = ".mean()", kGroup = 4 : i64, kHasShape = true, kIsDataParallelAccumBuf = false, kIsDynamicLoadTable = false, kIsEmbeddingTable = false, kIsLoaded = false, kIsOneShotTransferred = true, kIsPlaceholder = false, kIsScatterNdTable = false, kIsScatterTable = false, kIsSliceLoaded = false, kIsSliceStored = false, kIsStored = true, kIsUserFacing = true, kLayoutHeuristics = false, kMacID = "logreg__criterion__crossentropyloss_result0", kMemoryType = 2 : i64, kName = "logreg__criterion__crossentropyloss__outputs__0", kToDeviceTransform = "", kUniqueId = 26 : i64, kUserCreated = true} : () -> tensor<500xbf16>
    %8 = "tlir.Region"() {DataLayout0 = #tlir.layout<CV,RM,VA>, NumSamples0 = 1 : i64, NumSamples0S = 2 : i64, kChipID = 0 : i64, kConfigured = true, kFromDeviceTransform = "", kGroup = 11 : i64, kHasShape = true, kIsDataParallelAccumBuf = true, kIsDynamicLoadTable = false, kIsEmbeddingTable = false, kIsLoaded = true, kIsOneShotTransferred = true, kIsPlaceholder = false, kIsScatterNdTable = false, kIsScatterTable = false, kIsSliceLoaded = false, kIsSliceStored = false, kIsStored = true, kIsUserFacing = true, kLayoutHeuristics = false, kMacID = "logreg__lin_layer__linear_bwd_weight_result0", kMemoryType = 0 : i64, kName = "logreg__lin_layer__weight__grad", kToDeviceTransform = "", kUniqueId = 27 : i64, kUserCreated = true} : () -> tensor<10x784xbf16>
    "tlir.Section"() ( {
      "tlir.Chip"() ( {
        %12 = "tlir.Load"(%0) {DataLayout0 = #tlir.layout<CV,RM,VA>, NumSamples0 = 1 : i64, NumSamples0S = 2 : i64, kAddedAlignment = -1 : i64, kChipID = 0 : i64, kConfigured = true, kGroup = 7 : i64, kGroupedDramLayoutName = "group_7", kIsGrouped = false, kIterations = 1 : i64, kLayoutHeuristics = false, kMacID = "default_29", kName = "logreg__lin_layer__weight_0_0_29", kRequiresWBuf = true, kStageId = 0 : i64, kTemplateName = "load_0_0_29", kUniqueId = 29 : i64, kUseVectorTranspose = false, kUserCreated = true} : (tensor<10x784xbf16>) -> tensor<10x784xbf16>
        %13 = "tlir.Load"(%1) {DataLayout0 = #tlir.layout<CV,RM,VA>, NumSamples0 = 1 : i64, NumSamples0S = 2 : i64, kAddedAlignment = -1 : i64, kChipID = 0 : i64, kConfigured = true, kGroup = 1 : i64, kGroupedDramLayoutName = "image_0_0_30", kIsGrouped = false, kIterations = 1 : i64, kLayoutHeuristics = false, kMacID = "default_30", kName = "image_0_0_30", kRequiresWBuf = false, kStageId = 0 : i64, kTemplateName = "load_0_0_30", kUniqueId = 30 : i64, kUseVectorTranspose = false, kUserCreated = true} : (tensor<784x500xbf16>) -> tensor<784x500xbf16>
        %14:2 = "tlir.Buffer"(%13) {DataLayout0 = #tlir.layout<CV,RM,VA>, DataLayout1 = #tlir.layout<CV,RM,VA>, NumSamples1 = 1 : i64, NumSamples1S = 2 : i64, kBufHead = 1 : i64, kBufferType = 1 : i64, kConfigured = true, kDepth = 1 : i64, kHead0CtrlFlowEnable = false, kHead1CtrlFlowEnable = false, kIsStageBuffer = false, kMacID = "default_93", kName = "gbuf1a_0_0_93", kNumHead0RdEn = 0 : i64, kNumHead1RdEn = 0 : i64, kNumPMUs = 3 : i64, kStageId = 0 : i64, kUniqueId = 93 : i64, kUserCreated = false} : (tensor<784x500xbf16>) -> (tensor<784x500xbf16>, tensor<784x500xbf16>)
        %15 = "tlir.Linear"(%12, %14#1) {DataLayout0 = #tlir.layout<CV,RM,VA>, NumSamples0 = 1 : i64, NumSamples0S = 2 : i64, kBoxLayout = true, kBoxLayoutAnchor = [], kBoxPerPartition = true, kBoxPerWbufSplit = false, kConfigured = true, kDieID = -1 : i64, kDisableWrFrontingPMU = false, kExclusiveRoutes = false, kExclusiveVCA = false, kInputAIsWeight = true, kIsCriticalStage = false, kIsFromConv1x1 = false, kLatency = 1.837200e+04 : f64, kMacID = "logreg__lin_layer__linear", kName = "logreg__lin_layer__linear", kNumColComputeUnits = 4 : i64, kNumPartitions = 1 : i64, kNumRowComputeUnits = 1 : i64, kReadAHead = 0 : i32, kReadBHead = 1 : i32, kStageId = 0 : i64, kStageLatency = 1.837200e+04 : f64, kStagingBias = false, kTemplateName = "biggemm_0_0_64", kUniqueId = 64 : i64, kUseBigGemm = true, kUserCreated = true, kWbufBlockInterleavedWrite = false, kWbufSplit = false} : (tensor<10x784xbf16>, tensor<784x500xbf16>) -> tensor<10x500xbf16>
        %16:2 = "tlir.Buffer"(%15) {DataLayout0 = #tlir.layout<CV,RM,VA>, DataLayout1 = #tlir.layout<CV,RM,VA>, NumSamples1 = 1 : i64, NumSamples1S = 2 : i64, kBufHead = 1 : i64, kBufferType = 1 : i64, kConfigured = true, kDepth = 1 : i64, kHead0CtrlFlowEnable = false, kHead1CtrlFlowEnable = false, kIsStageBuffer = false, kMacID = "default_92", kName = "gbuf1a_0_0_92", kNumHead0RdEn = 0 : i64, kNumHead1RdEn = 0 : i64, kNumPMUs = 1 : i64, kStageId = 0 : i64, kUniqueId = 92 : i64, kUserCreated = false} : (tensor<10x500xbf16>) -> (tensor<10x500xbf16>, tensor<10x500xbf16>)
        %17 = "tlir.Transpose"(%16#1) {DataLayout0 = #tlir.layout<CV,RM,VA>, NumSamples0 = 1 : i64, NumSamples0S = 2 : i64, kConfigured = true, kMacID = "default_112", kName = "transpose_0_0_112", kNoExperimentalHD = false, kStageId = 0 : i64, kTemplateName = "transpose_0_0_112", kTransposeType = 2 : i64, kUniqueId = 112 : i64, kUserCreated = false} : (tensor<10x500xbf16>) -> tensor<500x10xbf16>
        %18 = "tlir.Transpose"(%17) {DataLayout0 = #tlir.layout<RV,CM,VA>, NumSamples0 = 1 : i64, NumSamples0S = 2 : i64, kConfigured = true, kMacID = "default_109", kName = "transpose_0_0_109", kNoExperimentalHD = false, kStageId = 0 : i64, kTemplateName = "transpose_0_0_109", kTransposeType = 1 : i64, kUniqueId = 109 : i64, kUserCreated = false} : (tensor<500x10xbf16>) -> tensor<500x10xbf16>
        %19:2 = "tlir.Buffer"(%18) {DataLayout0 = #tlir.layout<RV,CM,VA>, DataLayout1 = #tlir.layout<RV,CM,VA>, NumSamples1 = 1 : i64, NumSamples1S = 2 : i64, kBufHead = 1 : i64, kBufferType = 1 : i64, kConfigured = true, kDepth = 1 : i64, kHead0CtrlFlowEnable = false, kHead1CtrlFlowEnable = false, kIsStageBuffer = false, kMacID = "default_94", kName = "gbuf1a_0_0_94", kNumHead0RdEn = 0 : i64, kNumHead1RdEn = 0 : i64, kNumPMUs = 1 : i64, kStageId = 0 : i64, kUniqueId = 94 : i64, kUserCreated = false} : (tensor<500x10xbf16>) -> (tensor<500x10xbf16>, tensor<500x10xbf16>)
        "tlir.Store"(%6, %19#1) {kChipID = 0 : i64, kConfigured = true, kGroup = 12 : i64, kIsCheckPoint = false, kIterations = 1 : i64, kLayoutHeuristics = false, kMacID = "default_33", kName = "logreg__lin_layer__linear_t_output0_tensor", kOpRWPattern0 = "kWriteOperand", kRemovesAlignment = false, kRequiresWBuf = false, kSliceAxes = [], kStageId = 0 : i64, kStoreSlice = false, kTemplateName = "store_0_0_33", kUniqueId = 33 : i64, kUseVectorTranspose = true, kUserCreated = true} : (tensor<500x10xbf16>, tensor<500x10xbf16>) -> ()
        %20 = "tlir.Load"(%2) {DataLayout0 = #tlir.layout<RV,RM,VA>, NumSamples0 = 1 : i64, NumSamples0S = 2 : i64, kAddedAlignment = -1 : i64, kChipID = 0 : i64, kConfigured = true, kGroup = 8 : i64, kGroupedDramLayoutName = "label_0_0_34", kIsGrouped = false, kIterations = 1 : i64, kLayoutHeuristics = false, kMacID = "default_34", kName = "label_0_0_34", kRequiresWBuf = false, kStageId = 0 : i64, kTemplateName = "load_0_0_34", kUniqueId = 34 : i64, kUseVectorTranspose = false, kUserCreated = true} : (tensor<500xi16>) -> tensor<500xi16>
        %21 = "tlir.PermuteView"(%17) {DataLayout0 = #tlir.layout<RV,CM,VA>, NumSamples0 = 1 : i64, NumSamples0S = 2 : i64, kConfigured = true, kDieID = -1 : i64, kIsCriticalStage = false, kLatency = -1.000000e+00 : f64, kMacID = "default_66", kName = "permute_view_0_0_75", kPermutation = [1, 0], kStageId = 0 : i64, kStageLatency = -1.000000e+00 : f64, kTemplateName = "permute_view_0_0_75", kUniqueId = 75 : i64, kUserCreated = true} : (tensor<500x10xbf16>) -> tensor<10x500xbf16>
        %22:2 = "tlir.Buffer"(%20) {DataLayout0 = #tlir.layout<RV,RM,VA>, DataLayout1 = #tlir.layout<RV,RM,VA>, NumSamples1 = 1 : i64, NumSamples1S = 2 : i64, kBufHead = 1 : i64, kBufferType = 7 : i64, kConfigured = true, kDepth = 1 : i64, kHead0CtrlFlowEnable = false, kHead1CtrlFlowEnable = false, kIsStageBuffer = false, kMacID = "default_95", kName = "tbuf1a_0_0_95", kNumHead0RdEn = 0 : i64, kNumHead1RdEn = 0 : i64, kNumPMUs = 1 : i64, kStageId = 0 : i64, kUniqueId = 95 : i64, kUserCreated = false} : (tensor<500xi16>) -> (tensor<500xi16>, tensor<500xi16>)
        %23:2 = "tlir.Buffer"(%21) {DataLayout0 = #tlir.layout<RV,CM,VA>, DataLayout1 = #tlir.layout<RV,CM,VA>, NumSamples1 = 1 : i64, NumSamples1S = 2 : i64, kBufferType = 7 : i64, kConfigured = true, kDepth = 1 : i64, kHead0CtrlFlowEnable = false, kHead1CtrlFlowEnable = false, kIsStageBuffer = false, kMacID = "default_96", kName = "tbuf1a_0_0_96", kNumHead0RdEn = 0 : i64, kNumHead1RdEn = 0 : i64, kNumPMUs = 1 : i64, kStageId = 0 : i64, kUniqueId = 96 : i64, kUseBothHeads = true, kUserCreated = false} : (tensor<10x500xbf16>) -> (tensor<10x500xbf16>, tensor<10x500xbf16>)
        %24 = "tlir.CrossEntropy"(%23#1, %22#1) {DataLayout0 = #tlir.layout<RV,RM,VA>, NumSamples0 = 1 : i64, NumSamples0S = 2 : i64, kConfigured = true, kDieID = -1 : i64, kEnableBoxLayout = true, kIgnoreClass = -1 : i64, kIsCriticalStage = false, kIsRAILCrossEntropy = true, kLatency = 1.233000e+03 : f64, kMacID = "logreg__criterion__crossentropyloss", kName = "logreg__criterion__crossentropyloss", kNoTBufTmp = false, kParFactor = 1 : i64, kReductionMode = 1 : i64, kStageId = 0 : i64, kStageLatency = 1.233000e+03 : f64, kTemplateName = "rail_cross_entropy_0_0_67", kUniqueId = 67 : i64, kUseExtraPCU = false, kUserCreated = true, kYFilterOutput = false, kYFilterTCompute = true} : (tensor<10x500xbf16>, tensor<500xi16>) -> tensor<500xbf16>
        %25:2 = "tlir.Buffer"(%24) {DataLayout0 = #tlir.layout<RV,RM,VA>, DataLayout1 = #tlir.layout<RV,RM,VA>, NumSamples1 = 1 : i64, NumSamples1S = 2 : i64, kBufHead = 1 : i64, kBufferType = 7 : i64, kConfigured = true, kDepth = 1 : i64, kHead0CtrlFlowEnable = false, kHead1CtrlFlowEnable = false, kIsStageBuffer = false, kMacID = "default_97", kName = "tbuf1a_0_0_97", kNumHead0RdEn = 0 : i64, kNumHead1RdEn = 0 : i64, kNumPMUs = 1 : i64, kStageId = 0 : i64, kUniqueId = 97 : i64, kUserCreated = false} : (tensor<500xbf16>) -> (tensor<500xbf16>, tensor<500xbf16>)
        "tlir.Store"(%7, %25#1) {kChipID = 0 : i64, kConfigured = true, kGroup = 13 : i64, kIsCheckPoint = false, kIterations = 1 : i64, kLayoutHeuristics = false, kMacID = "default_36", kName = "logreg__criterion__crossentropyloss_tensor", kOpRWPattern0 = "kWriteOperand", kRemovesAlignment = false, kRequiresWBuf = false, kSliceAxes = [], kStageId = 0 : i64, kStoreSlice = false, kTemplateName = "store_0_0_36", kUniqueId = 36 : i64, kUseVectorTranspose = false, kUserCreated = true} : (tensor<500xbf16>, tensor<500xbf16>) -> ()
        "tlir.terminator"() {kConfigured = true, kMacID = "default_59", kName = "terminator59", kStageId = 0 : i64, kUniqueId = 59 : i64, kUserCreated = true} : () -> ()
      }) {kConfigured = true, kMacID = "default_58", kName = "chip0_0", kPartitionId = 0 : i64, kStageId = 0 : i64, kUniqueId = 58 : i64, kUserCreated = true, type = none} : () -> ()
      "tlir.terminator"() {kConfigured = true, kMacID = "default_37", kName = "terminator37", kStageId = 0 : i64, kUniqueId = 37 : i64, kUserCreated = true} : () -> ()
    }) {kConfigured = true, kGlobalId = 0 : i64, kIsHostSection = false, kMacID = "default_28", kName = "section0", kPartitionId = 0 : i64, kSectionLatency = 5.0522565288702026E-5 : f64, kSectionName = "$FWD", kSectionUniqueName = "logreg__lin_layer__linear_as_initial", kStageId = 0 : i64, kUniqueId = 28 : i64, kUserCreated = true, type = none} : () -> ()
    "tlir.Section"() ( {
      "tlir.Chip"() ( {
        %12 = "tlir.Load"(%6) {DataLayout0 = #tlir.layout<RV,CM,VA>, NumSamples0 = 1 : i64, NumSamples0S = 2 : i64, kAddedAlignment = -1 : i64, kChipID = 0 : i64, kConfigured = true, kGroup = 14 : i64, kGroupedDramLayoutName = "logreg__lin_layer__linear__outputs__0_1_0_39", kIsGrouped = false, kIterations = 1 : i64, kLayoutHeuristics = false, kMacID = "default_39", kName = "logreg__lin_layer__linear__outputs__0_1_0_39", kRequiresWBuf = false, kStageId = 0 : i64, kTemplateName = "load_1_0_39", kUniqueId = 39 : i64, kUseVectorTranspose = true, kUserCreated = true} : (tensor<500x10xbf16>) -> tensor<500x10xbf16>
        %13 = "tlir.Load"(%2) {DataLayout0 = #tlir.layout<RV,RM,VA>, NumSamples0 = 1 : i64, NumSamples0S = 2 : i64, kAddedAlignment = -1 : i64, kChipID = 0 : i64, kConfigured = true, kGroup = 8 : i64, kGroupedDramLayoutName = "label_1_0_40", kIsGrouped = false, kIterations = 1 : i64, kLayoutHeuristics = false, kMacID = "default_40", kName = "label_1_0_40", kRequiresWBuf = false, kStageId = 0 : i64, kTemplateName = "load_1_0_40", kUniqueId = 40 : i64, kUseVectorTranspose = false, kUserCreated = true} : (tensor<500xi16>) -> tensor<500xi16>
        %14 = "tlir.Load"(%3) {DataLayout0 = #tlir.layout<RV,RM,VA>, NumSamples0 = 1 : i64, NumSamples0S = 2 : i64, kAddedAlignment = -1 : i64, kChipID = 0 : i64, kConfigured = true, kGroup = 9 : i64, kGroupedDramLayoutName = "logreg__criterion__crossentropyloss__outputs__0__grad_1_0_41", kIsGrouped = false, kIterations = 1 : i64, kLayoutHeuristics = false, kMacID = "default_41", kName = "logreg__criterion__crossentropyloss__outputs__0__grad_1_0_41", kRequiresWBuf = false, kStageId = 0 : i64, kTemplateName = "load_1_0_41", kUniqueId = 41 : i64, kUseVectorTranspose = false, kUserCreated = true} : (tensor<500xbf16>) -> tensor<500xbf16>
        %15:2 = "tlir.Buffer"(%12) {DataLayout0 = #tlir.layout<CV,RM,VA>, DataLayout1 = #tlir.layout<CV,RM,VA>, NumSamples1 = 1 : i64, NumSamples1S = 2 : i64, kBufHead = 1 : i64, kBufferType = 1 : i64, kConfigured = true, kDepth = 1 : i64, kHead0CtrlFlowEnable = false, kHead1CtrlFlowEnable = false, kIsStageBuffer = false, kMacID = "default_98", kName = "gbuf1a_1_0_98", kNumHead0RdEn = 0 : i64, kNumHead1RdEn = 0 : i64, kNumPMUs = 1 : i64, kStageId = 0 : i64, kTranspose = 1 : i64, kUniqueId = 98 : i64, kUserCreated = false} : (tensor<500x10xbf16>) -> (tensor<500x10xbf16>, tensor<500x10xbf16>)
        %16 = "tlir.PermuteView"(%15#1) {DataLayout0 = #tlir.layout<RV,CM,VA>, NumSamples0 = 1 : i64, NumSamples0S = 2 : i64, kConfigured = true, kDieID = -1 : i64, kIsCriticalStage = false, kLatency = -1.000000e+00 : f64, kMacID = "default_68", kName = "permute_view_1_0_76", kPermutation = [1, 0], kStageId = 0 : i64, kStageLatency = -1.000000e+00 : f64, kTemplateName = "permute_view_1_0_76", kUniqueId = 76 : i64, kUserCreated = true} : (tensor<500x10xbf16>) -> tensor<10x500xbf16>
        %17:2 = "tlir.Buffer"(%13) {DataLayout0 = #tlir.layout<RV,RM,VA>, DataLayout1 = #tlir.layout<RV,RM,VA>, NumSamples1 = 1 : i64, NumSamples1S = 2 : i64, kBufHead = 1 : i64, kBufferType = 7 : i64, kConfigured = true, kDepth = 1 : i64, kHead0CtrlFlowEnable = false, kHead1CtrlFlowEnable = false, kIsStageBuffer = false, kMacID = "default_99", kName = "tbuf1a_1_0_99", kNumHead0RdEn = 0 : i64, kNumHead1RdEn = 0 : i64, kNumPMUs = 1 : i64, kStageId = 0 : i64, kUniqueId = 99 : i64, kUserCreated = false} : (tensor<500xi16>) -> (tensor<500xi16>, tensor<500xi16>)
        %18:2 = "tlir.Buffer"(%14) {DataLayout0 = #tlir.layout<RV,RM,VA>, DataLayout1 = #tlir.layout<RV,RM,VA>, NumSamples1 = 1 : i64, NumSamples1S = 2 : i64, kBufHead = 1 : i64, kBufferType = 7 : i64, kConfigured = true, kDepth = 1 : i64, kHead0CtrlFlowEnable = false, kHead1CtrlFlowEnable = false, kIsStageBuffer = false, kMacID = "default_100", kName = "tbuf1a_1_0_100", kNumHead0RdEn = 0 : i64, kNumHead1RdEn = 0 : i64, kNumPMUs = 1 : i64, kStageId = 0 : i64, kUniqueId = 100 : i64, kUserCreated = false} : (tensor<500xbf16>) -> (tensor<500xbf16>, tensor<500xbf16>)
        %19:2 = "tlir.Buffer"(%16) {DataLayout0 = #tlir.layout<RV,CM,VA>, DataLayout1 = #tlir.layout<RV,CM,VA>, NumSamples1 = 1 : i64, NumSamples1S = 2 : i64, kBufHead = 1 : i64, kBufferType = 7 : i64, kConfigured = true, kDepth = 1 : i64, kHead0CtrlFlowEnable = false, kHead1CtrlFlowEnable = false, kIsStageBuffer = false, kMacID = "default_101", kName = "tbuf1a_1_0_101", kNumHead0RdEn = 0 : i64, kNumHead1RdEn = 0 : i64, kNumPMUs = 1 : i64, kStageId = 0 : i64, kUniqueId = 101 : i64, kUserCreated = false} : (tensor<10x500xbf16>) -> (tensor<10x500xbf16>, tensor<10x500xbf16>)
        %20 = "tlir.CrossEntropyGrad"(%19#1, %17#1, %18#1) {DataLayout0 = #tlir.layout<RV,CM,VA>, NumSamples0 = 1 : i64, NumSamples0S = 2 : i64, kConfigured = true, kDieID = -1 : i64, kEnableBoxLayout = true, kHasLoss = true, kIgnoreClass = -1 : i64, kIsCriticalStage = false, kIsRAILCrossEntropyGrad = true, kLatency = 1.050000e+03 : f64, kMacID = "logreg__criterion__crossentropyloss_bwd_loss", kName = "logreg__criterion__crossentropyloss_bwd_loss", kNumParallelPCUs = 1 : i64, kStageId = 0 : i64, kStageLatency = 1.050000e+03 : f64, kTemplateName = "rail_cross_entropy_grad_1_0_69", kUniqueId = 69 : i64, kUserCreated = true} : (tensor<10x500xbf16>, tensor<500xi16>, tensor<500xbf16>) -> tensor<10x500xbf16>
        %21:2 = "tlir.Buffer"(%20) {DataLayout0 = #tlir.layout<RV,CM,VA>, DataLayout1 = #tlir.layout<RV,CM,VA>, NumSamples1 = 1 : i64, NumSamples1S = 2 : i64, kBufHead = 1 : i64, kBufferType = 7 : i64, kConfigured = true, kDepth = 1 : i64, kHead0CtrlFlowEnable = false, kHead1CtrlFlowEnable = false, kIsStageBuffer = false, kMacID = "default_114", kName = "tbuf1a_1_0_114", kNumHead0RdEn = 0 : i64, kNumHead1RdEn = 0 : i64, kNumPMUs = 1 : i64, kStageId = 0 : i64, kUniqueId = 114 : i64, kUserCreated = false} : (tensor<10x500xbf16>) -> (tensor<10x500xbf16>, tensor<10x500xbf16>)
        %22:2 = "tlir.Buffer"(%21#1) {DataLayout0 = #tlir.layout<CV,RM,VA>, DataLayout1 = #tlir.layout<CV,RM,VA>, NumSamples1 = 1 : i64, NumSamples1S = 2 : i64, kBufHead = 1 : i64, kBufferType = 1 : i64, kConfigured = true, kDepth = 1 : i64, kHead0CtrlFlowEnable = false, kHead1CtrlFlowEnable = false, kIsStageBuffer = false, kMacID = "default_102", kName = "gbuf1a_1_0_102", kNumHead0RdEn = 0 : i64, kNumHead1RdEn = 0 : i64, kNumPMUs = 1 : i64, kStageId = 0 : i64, kTranspose = 1 : i64, kUniqueId = 102 : i64, kUserCreated = false} : (tensor<10x500xbf16>) -> (tensor<10x500xbf16>, tensor<10x500xbf16>)
        %23 = "tlir.PermuteView"(%22#1) {DataLayout0 = #tlir.layout<RV,CM,VA>, NumSamples0 = 1 : i64, NumSamples0S = 2 : i64, kConfigured = true, kDieID = -1 : i64, kIsCriticalStage = false, kLatency = -1.000000e+00 : f64, kMacID = "default_70", kName = "permute_view_1_0_77", kPermutation = [1, 0], kStageId = 0 : i64, kStageLatency = -1.000000e+00 : f64, kTemplateName = "permute_view_1_0_77", kUniqueId = 77 : i64, kUserCreated = true} : (tensor<10x500xbf16>) -> tensor<500x10xbf16>
        %24 = "tlir.Load"(%4) {DataLayout0 = #tlir.layout<RV,CM,VA>, NumSamples0 = 1 : i64, NumSamples0S = 2 : i64, kAddedAlignment = -1 : i64, kChipID = 0 : i64, kConfigured = true, kGroup = 15 : i64, kGroupedDramLayoutName = "logreg__lin_layer__linear__outputs__0__grad_1_0_43", kIsGrouped = false, kIterations = 1 : i64, kLayoutHeuristics = false, kMacID = "default_43", kName = "logreg__lin_layer__linear__outputs__0__grad_1_0_43", kRequiresWBuf = false, kStageId = 0 : i64, kTemplateName = "load_1_0_43", kUniqueId = 43 : i64, kUseVectorTranspose = true, kUserCreated = true} : (tensor<500x10xbf16>) -> tensor<500x10xbf16>
        %25:2 = "tlir.Buffer"(%24) {DataLayout0 = #tlir.layout<RV,CM,VA>, DataLayout1 = #tlir.layout<RV,CM,VA>, NumSamples1 = 1 : i64, NumSamples1S = 2 : i64, kBufHead = 1 : i64, kBufferType = 1 : i64, kConfigured = true, kDepth = 1 : i64, kHead0CtrlFlowEnable = false, kHead1CtrlFlowEnable = false, kIsStageBuffer = false, kMacID = "default_103", kName = "gbuf1a_1_0_103", kNumHead0RdEn = 0 : i64, kNumHead1RdEn = 0 : i64, kNumPMUs = 1 : i64, kStageId = 0 : i64, kUniqueId = 103 : i64, kUserCreated = false} : (tensor<500x10xbf16>) -> (tensor<500x10xbf16>, tensor<500x10xbf16>)
        %26 = "tlir.AddN"(%23, %25#1) {DataLayout0 = #tlir.layout<RV,CM,VA>, NumSamples0 = 1 : i64, NumSamples0S = 2 : i64, kConfigured = true, kDieID = -1 : i64, kIsCriticalStage = false, kLatency = 1.300000e+02 : f64, kMacID = "logreg__lin_layer__linear_t_output0_bwd_addn0", kName = "logreg__lin_layer__linear_t_output0_bwd_addn0", kStageId = 0 : i64, kStageLatency = 1.300000e+02 : f64, kTemplateName = "addn_1_0_71", kUniqueId = 71 : i64, kUserCreated = true} : (tensor<500x10xbf16>, tensor<500x10xbf16>) -> tensor<500x10xbf16>
        %27 = "tlir.PermuteView"(%26) {DataLayout0 = #tlir.layout<CV,RM,VA>, NumSamples0 = 1 : i64, NumSamples0S = 2 : i64, kConfigured = true, kDieID = -1 : i64, kIsCriticalStage = false, kLatency = 0.000000e+00 : f64, kMacID = "logreg__lin_layer__linear_t_output0_bwd", kName = "logreg__lin_layer__linear_t_output0_bwd", kPermutation = [1, 0], kStageId = 0 : i64, kStageLatency = 0.000000e+00 : f64, kTemplateName = "permute_view_1_0_72", kUniqueId = 72 : i64, kUserCreated = true} : (tensor<500x10xbf16>) -> tensor<10x500xbf16>
        %28 = "tlir.Load"(%1) {DataLayout0 = #tlir.layout<CV,RM,VA>, NumSamples0 = 1 : i64, NumSamples0S = 2 : i64, kAddedAlignment = -1 : i64, kChipID = 0 : i64, kConfigured = true, kGroup = 16 : i64, kGroupedDramLayoutName = "image_1_0_46", kIsGrouped = false, kIterations = 1 : i64, kLayoutHeuristics = false, kMacID = "default_46", kName = "image_1_0_46", kRequiresWBuf = false, kStageId = 0 : i64, kTemplateName = "load_1_0_46", kUniqueId = 46 : i64, kUseVectorTranspose = false, kUserCreated = true} : (tensor<784x500xbf16>) -> tensor<784x500xbf16>
        %29:2 = "tlir.Buffer"(%28) {DataLayout0 = #tlir.layout<CV,RM,VA>, DataLayout1 = #tlir.layout<CV,RM,VA>, NumSamples1 = 1 : i64, NumSamples1S = 2 : i64, kBufHead = 1 : i64, kBufferType = 1 : i64, kConfigured = true, kDepth = 1 : i64, kHead0CtrlFlowEnable = false, kHead1CtrlFlowEnable = false, kIsStageBuffer = false, kMacID = "default_104", kName = "gbuf1a_1_0_104", kNumHead0RdEn = 0 : i64, kNumHead1RdEn = 0 : i64, kNumPMUs = 3 : i64, kStageId = 0 : i64, kTranspose = 2 : i64, kUniqueId = 104 : i64, kUserCreated = false} : (tensor<784x500xbf16>) -> (tensor<784x500xbf16>, tensor<500x784xbf16>)
        %30:2 = "tlir.Buffer"(%29#1) {DataLayout0 = #tlir.layout<CV,RM,VA>, DataLayout1 = #tlir.layout<CV,RM,VA>, NumSamples1 = 1 : i64, NumSamples1S = 2 : i64, kBufHead = 1 : i64, kBufferType = 1 : i64, kConfigured = true, kDepth = 1 : i64, kHead0CtrlFlowEnable = false, kHead1CtrlFlowEnable = false, kIsStageBuffer = false, kMacID = "default_105", kName = "gbuf1a_1_0_105", kNumHead0RdEn = 0 : i64, kNumHead1RdEn = 0 : i64, kNumPMUs = 3 : i64, kStageId = 0 : i64, kUniqueId = 105 : i64, kUserCreated = false} : (tensor<500x784xbf16>) -> (tensor<500x784xbf16>, tensor<500x784xbf16>)
        %31 = "tlir.Linear"(%27, %30#1) {DataLayout0 = #tlir.layout<CV,RM,VA>, NumSamples0 = 1 : i64, NumSamples0S = 2 : i64, kBoxLayout = true, kBoxPerPartition = false, kConfigured = true, kHasWeight = false, kInputAIsWeight = false, kIsCriticalStage = false, kMacID = "logreg__lin_layer__linear_bwd_weight", kName = "logreg__lin_layer__linear_bwd_weight_grad_a", kNumColComputeUnits = 4 : i64, kNumPartitions = 1 : i64, kNumRowComputeUnits = 1 : i64, kReadAHead = 0 : i32, kReadBHead = 1 : i32, kStageId = 0 : i64, kStageLatency = 1.884600e+04 : f64, kTemplateName = "biggemm_1_0_74", kUniqueId = 74 : i64, kUseBigGemm = true, kUserCreated = true, kWbufBlockInterleavedWrite = false} : (tensor<10x500xbf16>, tensor<500x784xbf16>) -> tensor<10x784xbf16>
        %32:2 = "tlir.Buffer"(%31) {DataLayout0 = #tlir.layout<CV,RM,VA>, DataLayout1 = #tlir.layout<CV,RM,VA>, NumSamples1 = 1 : i64, NumSamples1S = 2 : i64, kBufHead = 1 : i64, kBufferType = 1 : i64, kConfigured = true, kDepth = 1 : i64, kHead0CtrlFlowEnable = false, kHead1CtrlFlowEnable = false, kIsStageBuffer = false, kMacID = "default_106", kName = "gbuf1a_1_0_106", kNumHead0RdEn = 0 : i64, kNumHead1RdEn = 0 : i64, kNumPMUs = 1 : i64, kStageId = 0 : i64, kUniqueId = 106 : i64, kUserCreated = false} : (tensor<10x784xbf16>) -> (tensor<10x784xbf16>, tensor<10x784xbf16>)
        "tlir.Store"(%8, %32#1) {kChipID = 0 : i64, kConfigured = true, kGroup = 17 : i64, kIsCheckPoint = false, kIterations = 1 : i64, kLayoutHeuristics = false, kMacID = "default_48", kName = "logreg__lin_layer__linear_bwd_weight_tensor", kOpRWPattern0 = "kWriteOperand", kRemovesAlignment = false, kRequiresWBuf = false, kSliceAxes = [], kStageId = 0 : i64, kStoreSlice = false, kTemplateName = "store_1_0_48", kUniqueId = 48 : i64, kUseVectorTranspose = false, kUserCreated = true} : (tensor<10x784xbf16>, tensor<10x784xbf16>) -> ()
        "tlir.terminator"() {kConfigured = true, kMacID = "default_61", kName = "terminator61", kStageId = 0 : i64, kUniqueId = 61 : i64, kUserCreated = true} : () -> ()
      }) {kConfigured = true, kMacID = "default_60", kName = "chip1_0", kPartitionId = 0 : i64, kStageId = 0 : i64, kUniqueId = 60 : i64, kUserCreated = true, type = none} : () -> ()
      "tlir.terminator"() {kConfigured = true, kMacID = "default_49", kName = "terminator49", kStageId = 0 : i64, kUniqueId = 49 : i64, kUserCreated = true} : () -> ()
    }) {kConfigured = true, kGlobalId = 1 : i64, kIsHostSection = false, kMacID = "default_38", kName = "section1", kPartitionId = 1 : i64, kSectionLatency = 5.085606244392693E-5 : f64, kSectionName = "$BCKWD", kSectionUniqueName = "logreg__criterion__crossentropyloss_bwd_loss_as_initial", kStageId = 0 : i64, kUniqueId = 38 : i64, kUserCreated = true, type = none} : () -> ()
    "tlir.Section"() ( {
      "tlir.Chip"() ( {
        %12 = "tlir.Load"(%0) {DataLayout0 = #tlir.layout<CV,RM,VA>, NumSamples0 = 1 : i64, NumSamples0S = 2 : i64, kAddedAlignment = -1 : i64, kChipID = 0 : i64, kConfigured = true, kGroup = 7 : i64, kGroupedDramLayoutName = "group_7", kIsGrouped = false, kIterations = 1 : i64, kLayoutHeuristics = false, kMacID = "default_51", kName = "logreg__lin_layer__weight_2_0_51", kRequiresWBuf = true, kStageId = 0 : i64, kTemplateName = "load_2_0_51", kUniqueId = 51 : i64, kUseVectorTranspose = false, kUserCreated = true} : (tensor<10x784xbf16>) -> tensor<10x784xbf16>
        %13 = "tlir.Load"(%8) {DataLayout0 = #tlir.layout<CV,RM,VA>, NumSamples0 = 1 : i64, NumSamples0S = 2 : i64, kAddedAlignment = -1 : i64, kChipID = 0 : i64, kConfigured = true, kGroup = 11 : i64, kGroupedDramLayoutName = "group_11", kIsGrouped = false, kIterations = 1 : i64, kLayoutHeuristics = false, kMacID = "default_52", kName = "logreg__lin_layer__weight__grad_2_0_52", kRequiresWBuf = true, kStageId = 0 : i64, kTemplateName = "load_2_0_52", kUniqueId = 52 : i64, kUseVectorTranspose = false, kUserCreated = true} : (tensor<10x784xbf16>) -> tensor<10x784xbf16>
        %14 = "tlir.Load"(%5) {DataLayout0 = #tlir.layout<CV,RM,VA>, NumSamples0 = 1 : i64, NumSamples0S = 2 : i64, kAddedAlignment = -1 : i64, kChipID = 0 : i64, kConfigured = true, kGroup = 10 : i64, kGroupedDramLayoutName = "group_10", kIsGrouped = false, kIterations = 1 : i64, kLayoutHeuristics = false, kMacID = "default_53", kName = "logreg__lin_layer__weight__sgd0__momentum_2_0_53", kRequiresWBuf = true, kStageId = 0 : i64, kTemplateName = "load_2_0_53", kUniqueId = 53 : i64, kUseVectorTranspose = false, kUserCreated = true} : (tensor<10x784xbf16>) -> tensor<10x784xbf16>
        %15:2 = "tlir.SGD"(%12, %14, %13) {DataLayout0 = #tlir.layout<CV,RM,VA>, DataLayout1 = #tlir.layout<CV,RM,VA>, NumSamples0 = 1 : i64, NumSamples0S = 2 : i64, NumSamples1 = 1 : i64, NumSamples1S = 2 : i64, kChipID = 0 : i64, kConfigured = true, kDecayArgInName = "weight_decay", kDecayRate = 3.0000001424923539E-4 : f64, kLrArgInName = "lr", kLrRate = 0.001500000013038516 : f64, kMacID = "logreg__lin_layer__weight__logreg__lin_layer__linear_bwd_weight_opt", kMixP = true, kMomentumArgInName = "momentum", kMomentumRate = 0.000000e+00 : f64, kName = "logreg__lin_layer__weight__logreg__lin_layer__linear_bwd_weight_opt", kStageId = 0 : i64, kStrndSeed = 43690 : i64, kStrndSeedArgInName = "strnd_seed", kTemplateName = "optimizer_sgd_2_0_54", kUniqueId = 54 : i64, kUserCreated = true} : (tensor<10x784xbf16>, tensor<10x784xbf16>, tensor<10x784xbf16>) -> (tensor<10x784xbf16>, tensor<10x784xbf16>)
        "tlir.Store"(%0, %15#0) {kChipID = 0 : i64, kConfigured = true, kGroup = 7 : i64, kIsCheckPoint = false, kIterations = 1 : i64, kLayoutHeuristics = false, kMacID = "default_55", kName = "logreg__lin_layer__weight__logreg__lin_layer__linear_bwd_weight_opt_tensor", kOpRWPattern0 = "kWriteOperand", kRemovesAlignment = false, kRequiresWBuf = true, kSliceAxes = [], kStageId = 0 : i64, kStoreSlice = false, kTemplateName = "store_2_0_55", kUniqueId = 55 : i64, kUseVectorTranspose = false, kUserCreated = true} : (tensor<10x784xbf16>, tensor<10x784xbf16>) -> ()
        "tlir.Store"(%5, %15#1) {kChipID = 0 : i64, kConfigured = true, kGroup = 10 : i64, kIsCheckPoint = false, kIterations = 1 : i64, kLayoutHeuristics = false, kMacID = "default_56", kName = "logreg__lin_layer__weight__logreg__lin_layer__linear_bwd_weight_opt_tensor1", kOpRWPattern0 = "kWriteOperand", kRemovesAlignment = false, kRequiresWBuf = true, kSliceAxes = [], kStageId = 0 : i64, kStoreSlice = false, kTemplateName = "store_2_0_56", kUniqueId = 56 : i64, kUseVectorTranspose = false, kUserCreated = true} : (tensor<10x784xbf16>, tensor<10x784xbf16>) -> ()
        "tlir.terminator"() {kConfigured = true, kMacID = "default_63", kName = "terminator63", kStageId = 0 : i64, kUniqueId = 63 : i64, kUserCreated = true} : () -> ()
      }) {kConfigured = true, kMacID = "default_62", kName = "chip2_0", kPartitionId = 0 : i64, kStageId = 0 : i64, kUniqueId = 62 : i64, kUserCreated = true, type = none} : () -> ()
      "tlir.terminator"() {kConfigured = true, kMacID = "default_57", kName = "terminator57", kStageId = 0 : i64, kUniqueId = 57 : i64, kUserCreated = true} : () -> ()
    }) {kConfigured = true, kGlobalId = 2 : i64, kIsHostSection = false, kMacID = "default_50", kName = "section2", kPartitionId = 2 : i64, kSectionLatency = 3.5730157833313569E-5 : f64, kSectionName = "$OPT", kSectionUniqueName = "logreg__lin_layer__weight__logreg__lin_layer__linear_bwd_weight_opt_as_initial", kStageId = 0 : i64, kUniqueId = 50 : i64, kUserCreated = true, type = none} : () -> ()
    %9 = "tlir.Region"() {DataLayout0 = #tlir.layout<RV,RM,UA>, NumSamples0 = 1 : i64, NumSamples0S = 2 : i64, kConfigured = true, kGroup = 0 : i64, kHasShape = true, kIsDynamicLoadTable = false, kIsEmbeddingTable = false, kIsLoaded = true, kIsOneShotTransferred = false, kIsPlaceholder = false, kIsScatterNdTable = false, kIsScatterTable = false, kIsSliceLoaded = false, kIsSliceStored = false, kIsStored = true, kLayoutHeuristics = false, kMacID = "default_78", kName = "dummy_dp_accum_region_0", kUniqueId = 78 : i64, kUserCreated = true} : () -> tensor<16384xbf16>
    %10 = "tlir.Region"(%9) {DataLayout0 = #tlir.layout<RV:UL,RM:UL,VA:UL>, NumSamples0 = 1 : i64, NumSamples0S = 2 : i64, kConfigured = true, kGroup = 5 : i64, kGroupName = "accum_dummy_0", kHasShape = true, kIsDynamicLoadTable = false, kIsEmbeddingTable = false, kIsGroup = true, kIsLoaded = true, kIsOneShotTransferred = false, kIsScatterNdTable = false, kIsScatterTable = false, kIsSliceLoaded = true, kIsSliceStored = true, kIsStored = true, kMacID = "default_79", kMemoryType = 0 : i32, kName = "accum_dummy_0", kUniqueId = 79 : i64, kUserCreated = true} : (tensor<16384xbf16>) -> tensor<16384xbf16>
    "tlir.Section"() ( {
      "tlir.Chip"() ( {
        %12 = "tlir.Region"() {DataLayout0 = #tlir.layout<RV,RM,VA>, NumSamples0 = 1 : i64, NumSamples0S = 2 : i64, kConfigured = true, kGroup = 6 : i64, kHasShape = true, kIsDataParallelReduceBuf = true, kIsDynamicLoadTable = false, kIsEmbeddingTable = false, kIsLoaded = true, kIsOneShotTransferred = false, kIsPlaceholder = false, kIsScatterNdTable = false, kIsScatterTable = false, kIsSliceLoaded = true, kIsSliceStored = false, kIsStored = false, kMacID = "default_82", kName = "accum_dummy_0_reduce_buf", kRequiresDataParallelSync = 2 : i64, kUniqueId = 82 : i64, kUserCreated = true} : () -> tensor<25152xbf16>
        "tlir.iter_loop.MetaPipeline"() ( {
          %13 = "tlir.Load"(%10) {DataLayout0 = #tlir.layout<RV,RM,VA>, NumSamples0 = 2 : i64, NumSamples0S = 2 : i64, kAddedAlignment = -1 : i64, kArginBaseAddress = "dp_accum_base_address_0", kArginOffset = "dp_offset_0", kConfigured = true, kGroup = 18 : i64, kGroupedDramLayoutName = "accum_dummy_0_3_0_84", kIsGrouped = false, kIterations = "dp_reduce_region_size_0", kKeepDim = true, kLoadSlice = true, kLoadTile = false, kMacID = "default_84", kMultiLoadDepth = 2 : i64, kName = "accum_dummy_0_3_0_84", kRegionViewedShape = [16384], kRequiresWBuf = false, kSliceAxes = [0], kSliceSize = 8192 : i64, kSliceSubtensor = false, kStageId = 0 : i64, kStageMultiplier = 1 : i64, kTemplateName = "load_3_0_84", kUniqueId = 84 : i64, kUseVectorTranspose = false, kUserCreated = true, kUsesRegionView = true} : (tensor<16384xbf16>) -> tensor<8192xbf16>
          %14:2 = "tlir.Buffer"(%13) {DataLayout0 = #tlir.layout<RV,RM,VA>, DataLayout1 = #tlir.layout<RV,RM,VA>, NumSamples1 = 2 : i64, NumSamples1S = 2 : i64, kBufferType = 1 : i64, kConfigured = true, kDepth = 2 : i64, kHead0CtrlFlowEnable = false, kHead1CtrlFlowEnable = true, kHead1MultipleSample = true, kIsStageBuffer = true, kMacID = "default_115", kName = "gbuf2a_3_0_115", kNumHead0RdEn = 0 : i64, kNumHead1RdEn = 2 : i64, kNumPMUs = 1 : i64, kStageId = 0 : i64, kStageMultiplier = 1 : i64, kUniqueId = 115 : i64, kUserCreated = false} : (tensor<8192xbf16>) -> (tensor<8192xbf16>, tensor<8192xbf16>)
          %15 = "tlir.Load"(%12) {DataLayout0 = #tlir.layout<RV,RM,VA>, NumSamples0 = 2 : i64, NumSamples0S = 2 : i64, kAddedAlignment = -1 : i64, kArginBaseAddress = "dp_base_address_0", kArginOffset = "dp_reduce_offset_0", kConfigured = true, kGroup = 19 : i64, kGroupedDramLayoutName = "accum_dummy_0_reduce_buf_3_0_85", kIsGrouped = false, kIterations = "dp_reduce_region_size_0", kKeepDim = true, kLoadSlice = true, kLoadTile = false, kMacID = "default_85", kMultiLoadDepth = 2 : i64, kName = "accum_dummy_0_reduce_buf_3_0_85", kRegionViewedShape = [16384], kRequiresWBuf = false, kSliceAxes = [0], kSliceSize = 8192 : i64, kSliceSubtensor = false, kStageId = 0 : i64, kStageMultiplier = 1 : i64, kTemplateName = "load_3_0_85", kUniqueId = 85 : i64, kUseVectorTranspose = false, kUserCreated = true, kUsesRegionView = true} : (tensor<25152xbf16>) -> tensor<8192xbf16>
          %16:2 = "tlir.Buffer"(%15) {DataLayout0 = #tlir.layout<RV,RM,VA>, DataLayout1 = #tlir.layout<RV,RM,VA>, NumSamples1 = 2 : i64, NumSamples1S = 2 : i64, kBufferType = 1 : i64, kConfigured = true, kDepth = 2 : i64, kHead0CtrlFlowEnable = false, kHead1CtrlFlowEnable = true, kHead1MultipleSample = true, kIsStageBuffer = true, kMacID = "default_116", kName = "gbuf2a_3_0_116", kNumHead0RdEn = 0 : i64, kNumHead1RdEn = 2 : i64, kNumPMUs = 1 : i64, kStageId = 0 : i64, kStageMultiplier = 1 : i64, kUniqueId = 116 : i64, kUserCreated = false} : (tensor<8192xbf16>) -> (tensor<8192xbf16>, tensor<8192xbf16>)
          %17 = "tlir.AddV2"(%14#1, %16#1) {DataLayout0 = #tlir.layout<RV,RM,VA>, NumSamples0 = 2 : i64, NumSamples0S = 2 : i64, kBinaryOp = true, kConfigured = true, kMacID = "default_86", kName = "add_3_0_86", kStageId = 0 : i64, kStageMultiplier = 1 : i64, kTemplateName = "add_3_0_86", kUniqueId = 86 : i64, kUserCreated = true} : (tensor<8192xbf16>, tensor<8192xbf16>) -> tensor<8192xbf16>
          %18 = "tlir.Scale"(%17) {DataLayout0 = #tlir.layout<RV,RM,VA>, NumSamples0 = 2 : i64, NumSamples0S = 2 : i64, kConditionalScaling = false, kConfigured = true, kMacID = "default_87", kName = "scale_3_0_87", kScaleFactorArgInName = "dp_scale_factor_0", kScaleFactorFloat = 1.000000e+00 : bf16, kStageId = 0 : i64, kStageMultiplier = 1 : i64, kTemplateName = "scale_3_0_87", kUniqueId = 87 : i64, kUserCreated = true, kUsingInputB = false} : (tensor<8192xbf16>) -> tensor<8192xbf16>
          %19:2 = "tlir.Buffer"(%18) {DataLayout0 = #tlir.layout<RV,RM,VA>, DataLayout1 = #tlir.layout<RV,RM,VA>, NumSamples1 = 2 : i64, NumSamples1S = 2 : i64, kBufHead = 1 : i64, kBufferType = 1 : i64, kConfigured = true, kDepth = 2 : i64, kHead0CtrlFlowEnable = false, kHead1CtrlFlowEnable = false, kIsStageBuffer = true, kMacID = "default_107", kName = "gbuf2a_3_0_107", kNumHead0RdEn = 0 : i64, kNumHead1RdEn = 0 : i64, kNumPMUs = 1 : i64, kStageId = 0 : i64, kStageMultiplier = 1 : i64, kUniqueId = 107 : i64, kUserCreated = false} : (tensor<8192xbf16>) -> (tensor<8192xbf16>, tensor<8192xbf16>)
          "tlir.Store"(%10, %19#1) {kArginBaseAddress = "dp_accum_base_address_0", kArginOffset = "dp_offset_0", kConfigured = true, kGroup = 20 : i64, kIsCheckPoint = false, kIterations = "dp_reduce_region_size_0", kMacID = "default_88", kName = "accum_dummy_0_3_0_88", kOpRWPattern0 = "kWriteOperand", kRegionViewedShape = [16384], kRemovesAlignment = false, kRequiresWBuf = false, kSliceAxes = [0], kSliceSize = 8192 : i64, kSliceSubtensor = false, kStageId = 0 : i64, kStageMultiplier = 1 : i64, kStoreSlice = true, kStoreTile = false, kTemplateName = "store_3_0_88", kUniqueId = 88 : i64, kUseVectorTranspose = false, kUserCreated = true, kUsesRegionView = true} : (tensor<16384xbf16>, tensor<8192xbf16>) -> ()
          "tlir.terminator"() {kConfigured = true, kMacID = "default_89", kName = "terminator89", kStageId = 0 : i64, kStageMultiplier = 1 : i64, kUniqueId = 89 : i64, kUserCreated = true} : () -> ()
        }) {kConfigured = true, kMacID = "default_83", kName = "metapipeline83", kNumIterations = "dp_reduce_region_size_0", kStageId = 0 : i64, kUniqueId = 83 : i64, kUserCreated = true, type = none} : () -> ()
        "tlir.terminator"() {kConfigured = true, kMacID = "default_90", kName = "terminator90", kStageId = 0 : i64, kUniqueId = 90 : i64, kUserCreated = true} : () -> ()
      }) {kConfigured = true, kMacID = "default_81", kName = "chip3_0", kPartitionId = 0 : i64, kStageId = 0 : i64, kUniqueId = 81 : i64, kUserCreated = true, type = none} : () -> ()
      "tlir.terminator"() {kConfigured = true, kMacID = "default_91", kName = "terminator91", kStageId = 0 : i64, kUniqueId = 91 : i64, kUserCreated = true} : () -> ()
    }) {kConfigured = true, kGlobalId = 3 : i64, kIsHostSection = false, kMacID = "default_80", kName = "section3", kPartitionId = 3 : i64, kSectionName = "$REDUCE", kStageId = 0 : i64, kUniqueId = 80 : i64, kUserCreated = true, type = none} : () -> ()
    %11 = "tlir.Region"(%8) {DataLayout0 = #tlir.layout<RV,RM,VA>, kConfigured = true, kGroup = -12 : i64, kGroupName = "$OPT_dp_accum_group_543114451f3d1265bbcd7e0a69d4d88d7aba7c71", kHasShape = true, kIsDataParallelAccumBuf = true, kIsGroup = true, kMacID = "default_117", kMemoryType = 0 : i32, kName = "_OPT_dp_accum_group_543114451f3d1265bbcd7e0a69d4d88d7aba7c71", kUniqueId = 117 : i64, kUserCreated = false} : (tensor<10x784xbf16>) -> tensor<25088xbf16>
  }
  module @schedule  {
  }
  module @rnn_function  {
  }
}
